swastik_web/Learning&Experiments/PytorchTutorials/pytorch lightning/dashboard/mnist_clsfy/version_1.1/checkpoints/epoch=2-step=1125-v3.ckpt (torch, 484079 bytes, 12 tensors)

fc1.weight f4 [50, 784]
-0.00026738644 0.019158702 -0.02939447 -0.026283538 -0.013755513 0.009577051 -0.00070761517 0.028317485
-0.0031694286 0.009450451 -0.010793325 -0.007020192 -0.06001996 -0.048613243 0.013986551 0.02561401
0.014119115 0.021429386 -0.024212182 -0.015552245 0.012972042 0.029656712 -0.007350007 0.026725423
-0.0057565495 0.003779076 0.032338437 -0.033131085 -0.022483498 -0.009041617 -0.013921427 0.030857172
-0.03965079 -0.60707283 -0.5050848 -0.36606565 -0.3955837 -0.5981105 -0.67998505 -0.15066549
-0.681631 -0.13171741 0.18401402 -1.1997637 -0.8491036 -0.7578351 -0.19249722 -0.3845141
-0.44645062 -0.49011946 -0.6056753 -0.56231576 0.0141743645 0.0048247464 0.023945943 -0.021028657
0.0066551454 -0.027689483 -0.11156535 -0.19662158 -0.35677797 -0.6997224 -0.34236622 -1.0424176
-0.86099666 0.7181474 -0.2905713 -1.3729787 -1.0190315 -0.7781257 -1.0773455 -1.8554354
-1.5107728 -0.48579392 -1.0331041 -0.29978952 0.021964591 0.9406857 0.8846181 -0.8033606
-0.6923984 -0.3518362 0.027155709 -0.035626 0.006684717 -0.0060164295 -0.08657458 -0.58836347
-0.36273792 0.64193213 -0.20676969 -0.44963685 -0.5365294 -0.20729634 -0.26478937 0.32755277
0.2518611 0.05041715 -0.15490378 -0.5496054 -0.64298207 -0.9658838 -1.354129 -0.8139233
-0.41808933 -0.3970174 -0.10933726 -0.38715217 -0.87470824 0.29755077 -0.05444939 0.021192059
-0.021733541 -0.0048517333 -0.10607694 -0.22862054 -0.3800787 -0.719955 -0.519039 0.40076286
-0.26449534 0.3829988 0.13290402 -0.21755444 0.20319481 0.56386656 -0.008817477 -0.27472505
-0.5056282 0.024007529 0.06627717 -0.07962827 0.35455737 -0.69076204 -0.6164776 0.21818754
0.62227464 2.4053378 -0.96275634 -0.01602665 0.03383022 0.02268057 0.6271179 -0.087110505
0.016986663 -0.6061884 -0.20380381 -0.48277053 0.4578399 0.6864049 0.26401353 0.042004045
-0.1662557 0.12208507 -0.2840467 -0.12575154 -0.28855872 -0.30592793 -0.074598245 -0.12844996
-0.30334866 -0.52774197 -0.7902039 0.24693595 0.50308967 0.40960786 -0.26319274 -0.058889426
-0.032144945 -0.057098344 0.472223 0.44435206 -0.00019427188 0.35572898 0.07847417 0.031640615
0.5326315 0.13081607 -0.02661593 0.010927154 -0.2512792 -0.41251907 -0.05024919 -0.36028588
-0.22760299 -0.15182298 -0.123146124 0.2160166 0.028641824 -0.58535844 -0.10477663 0.900918
0.1571124 -0.28524265 -0.19328834 -0.05759 -0.017386397 -0.59364736 1.1236316 1.0561908
0.23132125 0.16629599 0.6936292 -0.038854893 -0.20424312 -0.037428945 0.009682047 -0.13376942
0.005700166 0.14638221 -0.34599948 -0.19576037 -0.32611722 -0.08130657 -0.1498923 -0.0074596377
-0.146483 0.5460588 0.7386646 -0.03421306 0.17381713 -0.0278122 0.49338502 -0.07198811
0.19144924 0.56263363 1.4702672 0.9759617 0.24442405 0.17564106 0.3334295 -0.13311145
-0.0045024864 0.52675015 0.16997217 -0.23641448 -0.69921887 -0.7262427 -0.48828316 -0.08596314
0.2171165 0.06688088 -0.050235122 -0.38838574 -0.46342865 0.06799785 -0.6286197 0.1072095
0.030355426 0.09363688 0.06429409 -0.19524682 0.6346813 0.45752898 0.81129307 0.45737594
00000000: 0030 8cb9 b6f2 9c3c accc f0bc 9350 d7bc
00000010: ce5e 61bc 10e9 1c3c 407f 39ba 12fa e73c
00000020: 30b6 4fbb 10d6 1a3c 7cd6 30bc a409 e6bb
00000030: 7dd7 75bd ae1e 47bd d927 653c 79d4 d13c
00000040: dc53 673c ae8c af3c a058 c6bc d8ce 7ebc
00000050: b088 543c a2f2 f23c 54d8 f0bb 46ef da3c
00000060: 70a1 bcbb 60aa 773b 4f75 043d 76b4 07bd
00000070: 502f b8bc 4a23 14bc b216 64bc 2ec8 fc3c
00000080: de68 22bd 2069 1bbf 3d4d 01bf f56c bbbe
00000090: f289 cabe c51d 19bf 8013 2ebf 0e48 1abe
000000a0: 5f7f 2ebf eee0 06be 2c6e 3c3e db91 99bf
000000b0: db5e 59bf 7b01 42bf fe1d 45be 08df c4be
000000c0: 2d95 e4be f0f0 fabe 890d 1bbf edf3 0fbf
000000d0: 983b 683c e818 9e3b 482a c43c 4a44 acbc
000000e0: 6813 da3b 0ed5 e2bc 607c e4bd 2b57 49be
000000f0: 9aab b6be 0221 33bf a04a afbe f16d 85bf
00000100: 476a 5cbf 82d8 373f c3c5 94be c4bd afbf
00000110: a06f 82bf 3f33 47bf 75e6 89bf e87e edbf
00000120: 0161 c1bf fbb9 f8be c13c 84bf 037e 99be
00000130: 16ef b33c c7d0 703f 5576 623f 0aa9 4dbf
00000140: 0641 31bf e023 b4be a675 de3c 92ec 11bd
00000150: 780b db3b 7825 c5bb 034e b1bd fd9e 16bf
00000160: c9b8 b9be aa55 243f 6fbb 53be cd36 e6be
00000170: fe59 09bf 7e45 54be 7992 87be ffb4 a73e
00000180: f0f3 803e 3782 4e3d 199f 1ebe f1b2 0cbf
00000190: 799a 24bf 2944 77bf 1954 adbf 475d 50bf
000001a0: ce0f d6be dd45 cbbe 37ec dfbd cf38 c6be
000001b0: e1ec 5fbf 9358 983e 5306 5fbd f89a ad3c
000001c0: 8a0a b2bc 4afb 9ebb de3e d9bd 811b 6abe
000001d0: ad99 c2be f94e 38bf bddf 04bf ca30 cd3e
000001e0: ef6b 87be 6b18 c43e fe17 083e 97c6 5ebe
000001f0: 4d12 503e 8f59 103f 2e77 10bc c3a8 8cbe
00000200: da70 01bf 70ab c43c 53bc 873d 2514 a3bd
00000210: 8b88 b53e c8d5 30bf 7ad1 1dbf 8e6c 5f3e
00000220: 644d 1f3f 0ef1 1940 3377 76bf 524a 83bc
00000230: 8f91 0a3d 9acc b93c cc8a 203f fe66 b2bd
00000240: 9d27 8b3c 2a2f 1bbf f2b1 50be b32d f7be
00000250: fe69 ea3e 3bb8 2f3f c82c 873e 6f0c 2c3d
00000260: ef3e 2abe bd07 fa3d 926e 91be 03c5 00be
00000270: f8bd 93be 96a2 9cbe f7c6 98bd 6388 03be
00000280: 8450 9bbe 191a 07bf ce4a 4abf c7dc 7c3e
00000290: 7cca 003f 1fb8 d13e 33c1 86be 0a36 71bd
000002a0: 6baa 03bd f4df 69bd 37c7 f13e 1d82 e33e
000002b0: 76b5 4bb9 1c22 b63e 11b7 a03d 9799 013d
000002c0: 8a5a 083f a6f4 053e a709 dabc ce07 333c
000002d0: aba7 80be b335 d3be 18d2 4dbd 6477 b8be
000002e0: c210 69be 7c77 1bbe 0934 fcbd 7533 5d3e
000002f0: 42a2 ea3c 0dda 15bf 2195 d6bd 90a2 663f
00000300: 13e2 203e 530b 92be 61ed 45be 7ee3 6bbd
00000310: eb6d 8ebc 46f9 17bf 29d3 8f3f 4331 873f
00000320: 7adf 6c3e 7f49 2a3e af91 313f 4f26 1fbd
00000330: 1c25 51be 184f 19bd 73a1 1e3c dafa 08be
00000340: 75c8 ba3b 38e5 153e d826 b1be 6875 48be
00000350: d6f8 a6be 0f84 a6bd 5e7d 19be fa6f f4bb
00000360: a4ff 15be 82ca 0b3f 2019 3d3f fe22 0cbd
00000370: 1efd 313e 69d6 e3bc f69c fc3e 816e 93bd
00000380: 450b 443e c208 103f b731 bc3f a0d8 793f
00000390: 4c4a 7a3e 40db 333e 45b7 aa3e 5e4e 08be
000003a0: 9889 93bb 19d9 063f 2f0d 2e3e a316 72be
000003b0: 0200 33bf 0beb 39bf 4000 fabe 710d b0bd
000003c0: ca53 5e3e d8f8 883d 58c3 4dbd 7fda c6be
000003d0: 8546 edbe 7542 8b3d 38ed 20bf a890 db3d
000003e0: f1ab f83c b1c4 bf3d 9fac 833d c8ee 47be
000003f0: 797a 223f 3d41 ea3e e7b0 4f3f 2e2d ea3e

fc1.bias f4 [50]
-0.124501444 -0.22227675 -0.32490852 0.04971719 0.06593975 0.0068708076 -0.47832972 0.21914913
0.1547808 -0.27108693 -0.9107026 -0.40094718 -0.40181795 -0.076009676 -0.32700953 -0.45389566
-1.005334 -0.40799108 0.17604378 -0.45879158 0.6552289 -0.29993993 -0.42346647 -0.41601956
-0.47222257 -0.30122086 0.90710825 0.8497519 0.64787245 -0.48288432 -0.47966853 0.43501276
0.2795053 -0.084457904 -0.41480437 1.3427856 -0.15674506 0.2142616 0.12731008 0.36970425
-0.11539134 -0.2831426 -0.24351227 -0.3872239 -0.4415727 0.079735115 0.25491253 -0.6736534
0.39359102 -0.09659206
00000000: 9dfa febd 849c 63be 695a a6be 41a4 4b3d
00000010: 6b0b 873d 8324 e13b a2e7 f4be a168 603e
00000020: dc7e 1e3e e8cb 8abe ce23 69bf f348 cdbe
00000030: 15bb cdbe f6aa 9bbd cb6d a7be 0365 e8be
00000040: c9ae 80bf 35e4 d0be d244 343e bbe6 eabe
00000050: 15bd 273f ba91 99be 99d0 d8be 8400 d5be
00000060: 28c7 f1be 9f39 9abe 3f38 683f 5789 593f
00000070: f8da 253f 9d3c f7be 1d97 f5be feb9 de3e
00000080: 521b 8f3e 44f8 acbd 3d61 d4be 66e0 ab3f
00000090: c781 20be 6567 5b3e 935d 023e e049 bd3e
000000a0: 4b52 ecbd 11f8 90be 485b 79be 3642 c6be
000000b0: d115 e2be 2a4c a33d e583 823e 8d74 2cbf
000000c0: c384 c93e 0fd2 c5bd

fc2.weight f4 [10, 50]
0.012032422 -0.40357065 -1.5769343 -0.6874555 -0.2925635 -1.3655692 0.35802573 -0.11663241
-0.27281892 0.16167186 0.17920332 -0.30569074 -0.21761344 -0.272783 0.59455127 0.031068144
0.44593233 -0.96720743 0.18919925 -0.650017 -0.2784772 0.3991531 -1.2787368 -0.4071549
-0.9077135 -0.16228068 0.17446908 0.49911886 -0.35348433 -0.6283418 -0.19103077 0.2063028
-0.41685706 0.08902191 -0.29783478 -0.76381433 0.1163874 -0.44443956 -0.26554435 -0.015741901
0.04101914 0.031120898 -0.73977464 0.22719568 0.21711211 -0.98105484 -0.5376952 0.025331326
0.30812696 -0.6076016 -0.827253 0.6002873 -0.7569999 -0.07989723 -0.37812507 0.29909173
-1.8114368 0.2741678 -0.34653968 0.16598253 0.20780651 0.09373753 -1.5574503 0.21947302
-0.24489681 -0.24845192 -0.45603347 0.39362898 0.33772114 0.10787083 0.12953828 -0.033855375
-0.6421548 0.1283215 0.16115099 -0.10069275 -0.9577692 0.74856794 -0.00026345905 0.45572004
0.026696106 -1.6824211 0.7837484 -0.10092875 0.28201282 -0.68554264 -0.21201333 -0.12383536
-0.91019964 0.12112923 -0.67369145 0.26520145 0.06024743 -0.44207254 -1.1020731 -0.036361665
0.34612533 -0.24193035 -0.35784948 -0.39771572 0.016674614 -0.08762836 -0.9870431 0.5680922
-0.3687008 0.2750913 0.1768835 0.2695042 -0.5452296 -0.18337962 0.14440951 0.43161225
-0.30175495 0.39557844 0.037256073 -0.18162927 0.05459811 -0.32541737 -0.30899575 0.43431035
-1.24431 0.2103779 -0.4237851 0.12672874 0.07854544 -0.23615345 0.33699965 0.40667462
-0.13329077 0.06119938 0.061862327 -0.62987167 -0.40641296 0.16351995 0.09529465 -0.3414088
0.25919372 -0.5454598 -0.4466801 -0.6921824 -0.12599352 -0.53085816 0.5658194 -0.17804332
-0.35076052 -0.13218276 0.35196915 0.011588961 0.07497877 -0.35398364 -0.91398215 0.20403858
0.35646617 -0.17599927 -0.27271888 -0.20258497 -0.5793152 0.07788597 0.10460952 -0.62938684
-0.012620184 0.45668554 -0.47442377 -0.20047729 -0.27475423 0.15747204 0.17825241 0.3071303
-0.503557 0.23163968 -0.8488048 -0.106379025 0.44268396 0.11172711 0.16258547 0.24872169
-0.3353434 0.036364537 -0.72690433 -0.17204234 0.2183019 0.1709046 -0.14738433 -0.04252185
0.33564034 0.019544408 0.3715435 -0.4844654 -0.41316792 0.08365926 -0.95891476 -0.40885666
0.22578803 -0.110312216 -0.23518665 0.52337325 0.001808831 0.15897515 -0.21342556 -0.26043165
0.21104054 0.17356326 0.42628413 -0.44459417 0.48108137 0.37013227 0.10691423 0.16616262
-0.47690517 0.4840066 -0.111718096 -1.1071637 0.16957052 0.1562011 -0.96779174 -0.51854455
-0.060095403 -0.10758476 0.23679774 -0.4236056 0.10424384 -0.43582353 -0.12016068 0.028663442
-0.56713754 -0.058313977 0.35004574 -0.86830264 0.6737178 -0.17950824 0.29746965 -0.47360775
0.48717913 -0.52050936 -1.2368618 0.13728599 -0.6297489 0.20739037 -0.5927544 -0.71335393
0.39876023 0.2879161 -0.6243043 -0.58866364 -0.3318122 -0.5458072 -1.0592399 -0.07916481
-0.004046453 -0.69031805 -0.69845074 -0.03338134 0.29485705 -0.4182542 -0.8780583 -0.4888868
00000000: a323 453c d0a0 cebe fcd8 c9bf 15fd 2fbf
00000010: e2ca 95be f9ca aebf 264f b73e f9dc eebd
00000020: ecae 8bbe 4f8d 253e 1381 373e 7f83 9cbe
00000030: 0fd6 5ebe 37aa 8bbe 8334 183f 9f82 fe3c
00000040: 3e51 e43e e89a 77bf 73bd 413e 8467 26bf
00000050: 9094 8ebe cc5d cc3e a6ad a3bf 9b76 d0be
00000060: e95f 68bf e82c 26be 06a8 323e 828c ff3e
00000070: e6fb b4be 02db 20bf 929d 43be 0b41 533e
00000080: 4a6e d5be 1f51 b63d cd7d 98be 5689 43bf
00000090: 845c ee3d 958d e3be 6ef5 87be 29f5 80bc
000000a0: b003 283d 41f1 fe3c df61 3dbf fca5 683e
000000b0: a352 5e3e 6926 7bbf 65a6 09bf a483 cf3c
000000c0: d1c2 9d3e c78b 1bbf dac6 53bf 6eac 193f
000000d0: bfca 41bf 29a1 a3bd 9c99 c1be 8d22 993e
000000e0: 29dd e7bf b95f 8c3e a66d b1be 53f7 293e
000000f0: 3bcb 543e 76f9 bf3d 885a c7bf 89bd 603e
00000100: 3bc6 7abe 2e6a 7ebe 387d e9be bd89 c93e
00000110: c9e9 ac3e 62eb dc3d afa5 043e efab 0abd
00000120: 4264 24bf b666 033e c404 253e 0038 cebd
00000130: 5d30 75bf 26a2 3f3f e020 8ab9 2354 e93e
00000140: cbb1 da3c 9359 d7bf bca3 483f bcb3 cebd
00000150: fc63 903e b97f 2fbf 061a 59be 659d fdbd
00000160: d802 69bf 9a12 f83d 0b77 2cbf 7cc8 873e
00000170: 02c6 763d 5557 e2be bb10 8dbf f8ef 14bd
00000180: 5737 b13e 97bc 77be 0c38 b7be 65a1 cbbe
00000190: 3399 883c 7f76 b3bd dbae 7cbf 7e6e 113f
000001a0: 5ac6 bcbe c4d8 8c3e f320 353e 74fc 893e
000001b0: 2b94 0bbf dec7 3bbe 16e0 133e 48fc dc3e
000001c0: a07f 9abe 4289 ca3e d399 183d 06fd 39be
000001d0: 45a2 5f3d 1b9d a6be b134 9ebe ed5d de3e
000001e0: 8d45 9fbf 4e6d 573e 5cfa d8be 2ec5 013e
000001f0: 6fdc a03d 36d2 71be 388b ac3e a837 d03e
00000200: 607d 08be 33ac 7a3d 5a63 7d3d 453f 21bf
00000210: 5c15 d0be c671 273e d729 c33d 22cd aebe
00000220: 0ab5 843e 41a3 0bbf 41b3 e4be de32 31bf
00000230: 7204 01be 52e6 07bf 8ad9 103f fd50 36be
00000240: e296 b3be eb5a 07be 4d35 b43e a0df 3d3c
00000250: 788e 993d 583d b5be bcfa 69bf 7def 503e
00000260: bc82 b63e 2739 34be cfa1 8bbe 6f72 4fbe
00000270: 004e 14bf ae82 9f3d 843d d63d 7f1f 21bf
00000280: e3c4 4ebc b0d2 e93e ace7 f2be eb49 4dbe
00000290: 96ac 8cbe 5a40 213e cd87 363e 2f40 9d3e
000002a0: 1de9 00bf f432 6d3e 454b 59bf 3fdd d9bd
000002b0: 79a7 e23e 2fd1 e43d ce7c 263e e6b0 7e3e
000002c0: 21b2 abbe fbf2 143d 6716 3abf de2b 30be
000002d0: 898a 5f3e 9e01 2f3e ebeb 16be 642b 2ebd
000002e0: 0dd9 ab3e 981b a03c f33a be3e d90b f8be
000002f0: bf8a d3be 8c55 ab3d 707b 75bf a955 d1be
00000300: fa34 673e 5feb e1bd c5d4 70be cafb 053f
00000310: 4c16 ed3a 62ca 223e 3b8c 5abe 4c57 85be
00000320: 031b 583e 91ba 313e ea41 da3e d9a1 e3be
00000330: 4c50 f63e fa81 bd3e d9f5 da3d 8926 2a3e
00000340: ea2c f4be b7cf f73e 75cc e4bd 8ab7 8dbf
00000350: e5a3 2d3e 2ef3 1f3e 33c1 77bf 56bf 04bf
00000360: 9926 76bd 6655 dcbd 1b7b 723e d5e2 d8be
00000370: cb7d d53d 4324 dfbe cd16 f6bd 98cf ea3c
00000380: ed2f 11bf a3da 6ebd 3239 b33e 1549 5ebf
00000390: c578 2c3f 02d1 37be f14d 983e b77c f2be
000003a0: 8b6f f93e 1a40 05bf 7d51 9ebf b394 0c3e
000003b0: 3937 21bf 245e 543e c1be 17bf 5d9e 36bf
000003c0: 4d2a cc3e bd69 933e 68d2 1fbf a9b2 16bf
000003d0: 4ae3 a9be 05ba 0bbf 2c95 87bf 2921 a2bd
000003e0: 1c98 84bb afb8 30bf abcd 32bf dfba 08bd
000003f0: 81f7 963e 6a25 d6be 6ec8 60bf 5f4f fabe

fc2.bias f4 [10]
-0.23294628 -0.5465067 -0.24747476 -0.3953565 0.69384587 -0.26127535 -0.41317073 -0.90376717
1.3754339 0.5833464
00000000: 7889 6ebe dde7 0bbf 066a 7dbe 2b6c cabe
00000010: e29f 313f e2c5 85be 1d8b d3be 495d 67bf
00000020: 380e b03f 3156 153f

exp_avg f4 [50, 784]
0.0 0.0 0.0 0.0 0.0 0.0 0.0 0.0
0.0 0.0 0.0 0.0 0.0 0.0 0.0 0.0
0.0 0.0 0.0 0.0 0.0 0.0 0.0 0.0
0.0 0.0 0.0 0.0 0.0 0.0 0.0 0.0
0.0 0.0 1.4754976e-30 5.4222474e-30 1.0340642e-30 5.4353274e-24 1.1369535e-16 -1.4000566e-10
-2.767196e-10 -1.0814631e-10 1.37581535e-11 2.2708597e-12 1.5438252e-20 5.918545e-22 0.0 0.0
0.0 0.0 0.0 0.0 0.0 0.0 0.0 0.0
0.0 0.0 0.0 -5.2638635e-16 -1.8149019e-16 2.379277e-19 2.6191547e-17 -2.702369e-10
-1.2165076e-07 -2.3853595e-06 -1.2606448e-06 -1.3190755e-06 -1.4705739e-06 -2.0311165e-07 1.5309314e-06 2.5099501e-07
-1.0197828e-09 -2.9034648e-09 -1.6128028e-09 -2.6880925e-11 -6.8319556e-10 -1.1955916e-08 -1.2775749e-08 0.0
0.0 0.0 0.0 0.0 0.0 0.0 0.0 3.4352543e-14
-5.0822353e-16 -2.1057693e-16 -1.5469471e-15 -2.4062734e-07 -9.9233075e-06 -2.3015111e-06 1.7643672e-05 2.5314292e-05
7.975961e-06 7.10123e-06 1.2354427e-05 1.067134e-05 7.958582e-06 1.4467824e-05 4.3475393e-06 2.8109655e-06
2.3808723e-06 3.2802367e-07 6.6402194e-08 8.812271e-08 4.8763592e-08 2.093909e-14 0.0 0.0
0.0 0.0 0.0 3.9188962e-14 1.2378926e-07 1.7536807e-06 1.288858e-06 -1.5473617e-07
-5.1926313e-06 1.6581529e-05 2.9901239e-05 7.700745e-05 4.878772e-05 3.473299e-05 1.5260715e-05 -2.775121e-06
3.0904698e-07 -1.000854e-05 -7.736513e-06 8.542553e-06 -2.3173607e-07 -2.9560329e-06 4.1581307e-06 8.2628674e-08
4.6676625e-08 -1.3369897e-11 0.0 0.0 0.0 0.0 -1.0110443e-19 3.796502e-09
1.6228854e-07 3.2429664e-06 3.2504806e-06 2.1132207e-06 1.7081411e-05 3.836381e-05 5.925111e-05 6.509609e-05
7.3351956e-05 -2.749377e-06 -1.1343123e-05 3.4221644e-05 2.9251607e-05 1.4160711e-05 -3.236606e-05 -2.8098999e-05
1.4581214e-05 -4.2469933e-06 -9.824614e-06 -1.065163e-06 -4.879784e-07 -5.27399e-11 -2.8203067e-17 -1.5611623e-37
0.0 0.0 -1.4018825e-11 7.666493e-08 9.529551e-08 2.5909303e-06 3.3053807e-06 5.1212583e-06
1.0966451e-05 -6.8684894e-06 1.8641958e-05 7.008086e-06 1.3683717e-05 -2.0636653e-05 2.1512393e-05 6.0942555e-05
6.760162e-05 6.231353e-05 -5.3158583e-06 -9.980835e-05 -8.985945e-05 -6.3478046e-06 -2.6922939e-05 -4.144852e-06
-5.172214e-07 1.0301763e-08 1.9931023e-16 -1.1890591e-24 -1.142308e-27 3.8810407e-07 -4.2984276e-11 6.5807846e-08
1.43901725e-05 1.5353817e-05 -1.5909567e-06 1.0774219e-05 -2.1890278e-06 -8.727553e-06 5.3288302e-05 3.7851645e-05
-7.806445e-06 -5.322192e-05 -6.6994644e-06 5.7191923e-05 6.502663e-05 5.2838343e-05 3.1196472e-05 -0.000100471974
-8.439862e-05 -7.568859e-05 -4.653311e-05 -8.3911455e-06 -2.4699276e-07 5.4821294e-09 -2.2336789e-14 -2.5084783e-24
-4.642145e-27 1.3218714e-17 3.4070222e-08 5.990083e-08 1.35431455e-05 1.36447325e-05 -1.5906344e-05 1.7216003e-05
-1.725664e-05 8.187407e-06 5.8882135e-05 3.7476733e-05 3.8839957e-05 -2.5992837e-05 -0.00011062032 -0.000113024005
-6.113997e-05 -6.5544605e-06 1.1216557e-05 -7.063e-05 -6.487954e-05 -0.00011938247 -5.4066055e-05 -1.8751249e-05
-7.96554e-08 -2.3664487e-10 -1.3911911e-12 -4.116116e-19 9.5270933e-23 -2.6610088e-19 -2.3102518e-07 -4.1260126e-08
00000000: 0000 0000 0000 0000 0000 0000 0000 0000
00000010: 0000 0000 0000 0000 0000 0000 0000 0000
00000020: 0000 0000 0000 0000 0000 0000 0000 0000
00000030: 0000 0000 0000 0000 0000 0000 0000 0000
00000040: 0000 0000 0000 0000 0000 0000 0000 0000
00000050: 0000 0000 0000 0000 0000 0000 0000 0000
00000060: 0000 0000 0000 0000 0000 0000 0000 0000
00000070: 0000 0000 0000 0000 0000 0000 0000 0000
00000080: 0000 0000 0000 0000 c669 ef0d d6f3 db0e
00000090: 59c9 a70d e044 d218 f214 0325 17f0 19af
000000a0: d220 98af f6d0 edae 3709 722d 2ccc 1f2c
000000b0: 67cf 911e 86e0 321c 0000 0000 0000 0000
000000c0: 0000 0000 0000 0000 0000 0000 0000 0000
000000d0: 0000 0000 0000 0000 0000 0000 0000 0000
000000e0: 0000 0000 0000 0000 0000 0000 75b8 17a6
000000f0: 733e 51a5 9e72 8c20 0b93 f123 7690 94af
00000100: 1b9f 02b4 2a14 20b6 6d33 a9b5 170b b1b5
00000110: 8960 c5b5 e816 5ab4 677a cd35 7ec0 8634
00000120: 6b28 8cb0 4b86 47b1 74a9 ddb0 7672 ecad
00000130: 9dcb 3bb0 ad66 4db2 577c 5bb2 0000 0000
00000140: 0000 0000 0000 0000 0000 0000 0000 0000
00000150: 0000 0000 0000 0000 0000 0000 c9b5 1a29
00000160: 477c 12a6 57c7 72a5 46f0 dea6 922f 81b4
00000170: 487c 26b7 a973 1ab6 7f01 9437 075a d437
00000180: 7ed0 0537 1a47 ee36 dc45 4f37 0e09 3337
00000190: d985 0537 d5ba 7237 14e1 9136 05a4 3c36
000001a0: 13c7 1f36 3b1b b034 fe98 8e33 f93d bd33
000001b0: 2370 5133 419a bc28 0000 0000 0000 0000
000001c0: 0000 0000 0000 0000 0000 0000 cc7d 3029
000001d0: efea 0434 0360 eb35 d3fc ac35 8e25 26b4
000001e0: 5d3c aeb6 9018 8b37 6cd4 fa37 0f7f a138
000001f0: 6aa1 4c38 44ae 1138 2304 8037 373c 3ab6
00000200: 18eb a534 5aea 27b7 12cc 01b7 fc51 0f37
00000210: 20d3 78b4 4260 46b6 1286 8b36 9871 b133
00000220: 7e79 4833 aa34 6bad 0000 0000 0000 0000
00000230: 0000 0000 0000 0000 e1b9 ee9f 6272 8231
00000240: 8941 2e34 bda1 5936 d522 5a36 dbd0 0d36
00000250: 0d4a 8f37 d4e8 2038 6584 7838 3284 8838
00000260: 88d4 9938 f081 38b6 584e 3eb7 3689 0f38
00000270: 5961 f537 ca93 6d37 cbc0 07b8 24b6 ebb7
00000280: d6a1 7437 6581 8eb6 65d4 24b7 b9f6 8eb5
00000290: 9ffd 02b5 d9f3 67ae 4e10 02a4 917e 5482
000002a0: 0000 0000 0000 0000 2d9f 76ad fea2 a433
000002b0: 43a5 cc33 d8df 2d36 02d2 5d36 46d7 ab36
000002c0: 8cfc 3737 e077 e6b6 4d61 9c37 0027 eb36
000002d0: 1e93 6537 e01c adb7 8375 b437 929c 7f38
000002e0: 58c5 8d38 52ae 8238 e05e b2b6 3350 d1b8
000002f0: ed72 bcb8 3aff d4b6 92d8 e1b7 0214 8bb6
00000300: 2fd7 0ab5 a2fb 3032 ffc9 6525 7cff b797
00000310: 8401 b592 9e5c d034 fe0b 3dae 3f52 8d33
00000320: 526d 7137 12cc 8037 db88 d5b5 ebc2 3437
00000330: 36e7 12b6 8e6c 12b7 e181 5f38 e5c2 1e38
00000340: 6df8 02b7 9a3a 5fb8 f6cb e0b6 5ce1 6f38
00000350: e85e 8838 bd9e 5d38 f5d8 0238 7bb4 d2b8
00000360: 2aff b0b8 01bb 9eb8 8c2c 43b8 b2c7 0cb7
00000370: 6d9a 84b4 525d bc31 2131 c9a8 8815 4298
00000380: f1e4 b793 9dd7 7323 9b54 1233 d4a2 8033
00000390: 5e37 6337 aeeb 6437 9d6e 85b7 166b 9037
000003a0: 5ac2 90b7 a55c 0937 36f8 7638 5630 1d38
000003b0: 16e8 2238 310b dab7 d5fc e7b8 4d07 edb8
000003c0: 4538 80b8 63ee dbb6 bf2e 3c37 311f 94b8
000003d0: f00f 88b8 fa5c fab8 fcc4 62b8 004c 9db7
000003e0: 050f abb3 ce18 82af f1ca c3ab fdf8 f2a0
000003f0: da59 e61a 0714 9da0 b80f 78b4 fd35 31b3

exp_avg_sq f4 [50, 784]
0.0 0.0 0.0 0.0 0.0 0.0 0.0 0.0
0.0 0.0 0.0 0.0 0.0 0.0 0.0 0.0
0.0 0.0 0.0 0.0 0.0 0.0 0.0 0.0
0.0 0.0 0.0 0.0 0.0 0.0 0.0 0.0
0.0 5.078968e-35 1.9564002e-32 3.083886e-32 1.4994258e-27 8.0199394e-24 4.703364e-20 4.6985364e-17
1.9765874e-16 1.689023e-11 6.531729e-10 1.3657447e-16 1.0968266e-22 2.558628e-23 4.9731663e-23 2.1336094e-23
2.5281666e-25 4.109848e-23 8.652017e-24 0.0 0.0 0.0 0.0 0.0
0.0 0.0 0.0 1.8755685e-12 2.2301675e-13 7.696202e-21 1.703433e-21 1.4512385e-11
2.130113e-10 1.7070493e-09 6.4057776e-10 1.2847504e-09 8.856902e-09 1.5447908e-08 2.5786924e-09 7.613857e-11
2.6148284e-10 1.2654516e-11 1.430599e-12 4.17173e-16 1.9792346e-17 2.7213523e-15 3.1068673e-15 0.0
0.0 0.0 0.0 0.0 0.0 0.0 0.0 1.5736157e-11
1.7487149e-12 3.9788854e-13 1.1864502e-10 2.1323399e-10 1.0351268e-08 4.1846842e-08 6.226568e-08 8.153147e-08
7.1603495e-08 1.07980945e-07 8.175305e-08 5.148513e-08 3.0852306e-08 3.2740036e-08 4.3777728e-08 3.132326e-08
1.9237387e-08 2.4006959e-09 6.433762e-09 6.5107364e-09 2.3184703e-09 7.468578e-14 0.0 0.0
0.0 0.0 0.0 2.7797705e-15 5.0622795e-10 1.7045455e-08 2.018349e-08 4.6834977e-08
1.1155979e-07 2.6349923e-07 3.5320136e-07 5.4728304e-07 6.042295e-07 6.6932466e-07 6.263144e-07 5.2744457e-07
4.3137285e-07 2.8880925e-07 1.8210812e-07 1.3086552e-07 6.8777695e-08 3.352158e-08 1.7909732e-08 1.2082725e-08
1.0887249e-08 8.1021466e-12 2.513187e-33 0.0 0.0 0.0 4.9406683e-18 7.1900134e-14
1.4015286e-08 6.428336e-08 8.422109e-08 1.9701291e-07 4.4814692e-07 6.094422e-07 8.049282e-07 1.1646545e-06
1.4825339e-06 1.6305347e-06 1.5923115e-06 1.5712267e-06 1.2338996e-06 9.216921e-07 7.0359016e-07 3.9504647e-07
2.2588675e-07 1.17160944e-07 5.3057327e-08 7.342074e-09 2.2782674e-09 1.05984284e-10 2.2077426e-14 0.0
0.0 0.0 1.3151954e-11 2.4681799e-09 4.4134854e-08 8.646493e-08 1.719744e-07 4.125215e-07
6.913418e-07 9.4320296e-07 1.3824024e-06 1.8364303e-06 2.0665404e-06 2.270203e-06 2.3397358e-06 2.2856054e-06
1.8680835e-06 1.4931061e-06 1.2712536e-06 9.926006e-07 8.030481e-07 4.1981068e-07 1.1166904e-07 4.5815028e-08
5.6550236e-09 9.932352e-11 1.06758854e-13 5.88756e-18 0.0 8.0799564e-14 4.219797e-10 3.2643637e-08
2.1750941e-07 3.179122e-07 3.511389e-07 5.8805284e-07 9.952183e-07 1.4448016e-06 1.8896751e-06 2.2112092e-06
2.4616074e-06 2.4354026e-06 2.2067873e-06 2.3043401e-06 2.2577444e-06 2.0778623e-06 1.8603173e-06 1.4896628e-06
1.2264551e-06 7.1683075e-07 2.8450532e-07 1.1797222e-07 2.629007e-08 2.6651736e-09 2.0741434e-13 5.655481e-17
2.5112729e-12 1.4106968e-12 6.17926e-09 3.9430343e-08 2.5180958e-07 4.7499702e-07 5.1359376e-07 8.731967e-07
1.3894071e-06 1.8503914e-06 2.1112714e-06 2.2384636e-06 2.1451513e-06 1.9068857e-06 1.7684932e-06 1.9503007e-06
2.1520943e-06 2.2064496e-06 2.1581086e-06 1.9106074e-06 1.515916e-06 8.489098e-07 4.146019e-07 1.6895002e-07
4.176481e-08 6.3115793e-09 3.6181633e-12 8.082271e-15 6.1898705e-21 1.4800626e-16 1.4560005e-09 3.2964227e-08
00000000: 0000 0000 0000 0000 0000 0000 0000 0000
00000010: 0000 0000 0000 0000 0000 0000 0000 0000
00000020: 0000 0000 0000 0000 0000 0000 0000 0000
00000030: 0000 0000 0000 0000 0000 0000 0000 0000
00000040: 0000 0000 0000 0000 0000 0000 0000 0000
00000050: 0000 0000 0000 0000 0000 0000 0000 0000
00000060: 0000 0000 0000 0000 0000 0000 0000 0000
00000070: 0000 0000 0000 0000 0000 0000 0000 0000
00000080: 0000 0000 aa05 8706 0a2a cb0a e01f 200b
00000090: f097 ed12 d120 1b19 2f1c 5e1f 87ae 5824
000000a0: 90e2 6325 6b91 942d f58a 3330 ab75 1d25
000000b0: 2499 041b 9074 f719 d17c 701a 9c59 ce19
000000c0: 667c 9c16 74bd 461a b75a 2719 0000 0000
000000d0: 0000 0000 0000 0000 0000 0000 0000 0000
000000e0: 0000 0000 0000 0000 0000 0000 3dfb 032c
000000f0: 3418 7b2a 8d60 111e 30b5 001d f94d 7f2d
00000100: 5a35 6a2f 759d ea30 a714 3030 2393 b030
00000110: 1129 1832 4fb2 8432 d634 3131 346e a72e
00000120: 70c0 8f2f e09e 5e2d c356 c92b de7b f025
00000130: 5b8d b623 1718 4427 96df 5f27 0000 0000
00000140: 0000 0000 0000 0000 0000 0000 0000 0000
00000150: 0000 0000 0000 0000 0000 0000 ad6a 8a2d
00000160: 181c f62b c8fd df2a 9b73 022f 0874 6a2f
00000170: 5cd5 3132 17bb 3333 ebb6 8533 6616 af33
00000180: 70c4 9933 27e3 e733 3790 af33 8020 5d33
00000190: 7882 0433 0d9e 0c33 1f06 3c33 4a88 0633
000001a0: 763f a532 7df9 2431 f80f dd31 0bb5 df31
000001b0: f652 1f31 6c2d a829 0000 0000 0000 0000
000001c0: 0000 0000 0000 0000 0000 0000 b74d 4827
000001d0: a026 0b30 5a6b 9232 f75f ad32 9a27 4933
000001e0: a592 ef33 0f77 8d34 a09f bd34 01e9 1235
000001f0: 5632 2235 a4ab 3335 ff1f 2835 b795 0d35
00000200: 6f97 e734 a40d 9b34 8089 4334 0a84 0c34
00000210: f0b2 9333 5ef9 0f33 ebd7 9932 6394 4f32
00000220: a10a 3b32 d388 0e2d 94c9 5009 0000 0000
00000230: 0000 0000 0000 0000 4b47 b622 9be7 a129
00000240: e1c7 7032 270c 8a33 09dd b433 7f8a 5334
00000250: d898 f034 8d98 2335 3f12 5835 3951 9c35
00000260: 7afb c635 bfd8 da35 68b7 d535 f0e2 d235
00000270: 789c a535 336a 7735 59de 3c35 c616 d434
00000280: 478b 7234 e999 fb33 26e1 6333 9145 fc31
00000290: b48f 1c31 d90f e92e 14db c628 0000 0000
000002a0: 0000 0000 0000 0000 235f 672d ae9c 2931
000002b0: c98e 3d33 99ae b933 f7a7 3834 8678 dd34
000002c0: a694 3935 6a30 7d35 fc8a b935 447b f635
000002d0: e5ae 0a36 ca59 1836 5b04 1d36 6762 1936
000002e0: dcba fa35 bc66 c835 f19f aa35 7f39 8535
000002f0: 0c91 5735 5762 e134 b4ce ef33 28c6 4433
00000300: 1d4e c231 2c6a da2e 4a66 f029 6f36 d922
00000310: 0000 0000 c7f1 b529 5dfc e72f 0f34 0c33
00000320: 888c 6934 85ad aa34 2a84 bc34 afda 1d35
00000330: 7193 8535 01eb c135 bea0 fd35 4964 1436
00000340: 1832 2536 e66f 2336 5118 1436 43a4 1a36
00000350: c183 1736 6771 0b36 04b0 f935 6df0 c735
00000360: ad9c a435 3c6c 4035 1dbe 9834 ea57 fd33
00000370: 7ad4 e132 3b26 3731 1d87 692a 1168 8224
00000380: 12b7 302c b589 c62b 5951 d431 1f5a 2933
00000390: 7230 8734 1803 ff34 e5dd 0935 9f65 6a35
000003a0: aa7b ba35 f75a f835 5eaf 0d36 8338 1636
000003b0: 6bf5 0f36 18f0 ff35 f75c ed35 e9e1 0236
000003c0: b36c 1036 8412 1436 06d4 1036 fc37 0036
000003d0: 7a76 cb35 a3e0 6335 7496 de34 a168 3534
000003e0: e560 3333 3ddd d831 099b 7e2c e598 1128
000003f0: c1d8 e91d bda3 2a25 771c c830 8d94 0d33

exp_avg f4 [50]
1.3963294e-05 -9.9701225e-05 0.00021748898 -0.0002692457 -0.000788693 -0.0004971614 -0.00013603899 -0.0005385429
0.00086378306 3.7684968e-05 0.00041869283 0.0011243088 0.00022332091 -0.00025445508 -0.0005966652 0.00037031167
-0.0014040415 7.2615716e-05 -0.00038628478 -1.4722755e-05 -0.0008735184 0.00012763921 0.0012583258 0.0002616149
0.00044348591 -5.780201e-05 0.00062765495 -0.00026387052 0.00017319179 0.00023149644 0.00022930742 0.00050564593
-0.00046061023 0.0006256607 0.00012587436 0.0009508714 0.0003641478 -0.00038071364 0.0010094302 0.00010266097
-4.892259e-06 -0.00035157314 5.0612754e-05 0.0006306018 -0.0005543109 -0.00023504725 0.00034570153 0.0001741719
-0.00017893227 -0.00045541092
00000000: e443 6a37 b016 d1b8 c10d 6439 8c29 8db9
00000010: 4bc0 4eba f053 02ba b0a5 0eb9 012d 0dba
00000020: 806f 623a ed0f 1e38 0084 db39 8b5d 933a
00000030: 402b 6a39 6268 85b9 8669 1cba 6426 c239
00000040: d107 b8ba 4449 9838 4486 cab9 c001 77b7
00000050: d4fc 64ba e4d6 0539 68ee a43a 5c29 8939
00000060: ac83 e839 7070 72b8 3689 243a 1a58 8ab9
00000070: d19a 3539 dabd 7239 3e72 7039 538d 043a
00000080: 0f7e f1b9 6103 243a 24fd 0339 e643 793a
00000090: 17eb be39 859a c7b9 db4e 843a b04b d738
000000a0: 2f28 a4b6 5953 b8b9 0849 5438 f84e 253a
000000b0: 2d4f 11ba 0477 76b9 463f b539 eaa1 3639
000000c0: c49f 3bb9 38c4 eeb9

exp_avg_sq f4 [50]
5.404721e-06 6.44774e-06 1.4673552e-05 7.878331e-06 5.5816513e-06 4.4458934e-06 1.1404929e-06 8.604512e-06
7.0538595e-06 6.5637673e-06 4.5729753e-06 5.9059535e-06 7.555988e-06 3.3260687e-06 4.890577e-06 5.7691655e-06
5.9002573e-06 3.2336795e-06 3.89512e-06 8.1312155e-06 6.505082e-06 5.395417e-06 1.25752085e-05 6.291351e-06
8.115544e-06 5.9981494e-06 1.0371209e-05 9.172895e-06 4.16246e-06 7.0715544e-07 2.3461441e-06 6.407253e-06
8.328571e-06 5.59979e-06 8.68841e-06 9.377322e-06 5.3659346e-06 5.1199922e-06 5.262077e-06 3.5259648e-06
6.9228525e-07 6.1900314e-06 7.127739e-06 6.0345483e-06 2.5291222e-06 4.380983e-06 3.3062768e-06 4.5320853e-06
4.562564e-06 1.1619742e-05
00000000: 335a b536 aa59 d836 6d2e 7637 2d2d 0437
00000010: 054a bb36 ef2d 9536 0a13 9935 195c 1037
00000020: 31b0 ec36 553e dc36 8f71 9936 c12b c636
00000030: 7189 fd36 6d35 5f36 bd19 a436 c194 c136
00000040: d3fa c536 3102 5936 d3b2 8236 4e6b 0837
00000050: 3b46 da36 470a b536 1cfa 5237 4b1a d336
00000060: ff27 0837 b643 c936 0100 2e37 49e5 1937
00000070: 42ab 8b36 5ad3 3d35 7372 1d36 e2fd d636
00000080: f1ba 0b37 d4e5 bb36 70c4 1137 4b53 1d37
00000090: 070d b436 66cc ab36 e690 b036 9d9f 6c36
000000a0: 7bd5 3935 f7b3 cf36 d02a ef36 607c ca36
000000b0: fdb9 2936 5b00 9336 67e1 5d36 5112 9836
000000c0: 2018 9936 69f2 4237

exp_avg f4 [10, 50]
-0.0051136613 -0.00013061782 -0.000103187245 1.010682e-05 7.765463e-05 6.693451e-07 -0.0012661335 -0.00015300207
-0.0042591803 -0.004411303 -0.00039553983 -0.0019223951 0.0007405738 -9.230066e-06 -0.0021133504 0.0006561218
-0.001347332 -1.5685124e-05 0.0002276684 -1.5263903e-06 0.00025675786 -0.009703304 -2.4478479e-05 0.00010814863
1.5986374e-05 -0.0026366701 -0.008466857 -0.0002639644 6.918568e-05 -0.0002406349 7.8767414e-05 0.0008825756
9.130443e-06 -0.00088495354 -1.28474985e-05 -0.002485082 -0.0077350433 -0.00013395218 -0.0014495234 5.711545e-05
-1.6643597e-08 -3.8278624e-05 2.1591646e-05 -0.0038429438 -5.7199988e-05 8.19641e-08 4.8735965e-06 -0.003348367
-0.00973898 0.00017238347 -0.00010540162 0.0014811549 2.1968639e-05 -0.0032994486 0.0002935134 -0.00048344125
2.0638845e-08 -0.0037828628 -0.008655622 2.1804673e-05 -0.00614364 -0.0072634 -0.00022067499 -0.00987098
0.0005481696 0.0029229866 -3.2320443e-06 -2.8818598e-05 0.00038934953 -0.00033188186 -0.005582501 -0.0033436175
-0.0018403421 -0.0007520373 -0.0014974489 0.002342198 -0.0015399908 0.0067676147 -0.0006458569 -7.216844e-05
0.00037717624 3.0931772e-06 -0.00039000015 0.002007538 5.0946004e-05 -4.7621546e-05 -0.0040889536 0.00031682162
4.266669e-06 -0.004592743 7.729545e-06 -0.0039275074 0.0028935843 0.00017566455 1.8590965e-05 -7.0679166e-06
-0.0003198175 8.750229e-05 -0.0001812987 -0.0026020464 0.0049644113 0.00021571573 -0.000112674 0.0051230052
0.00013917295 -0.00018298166 0.00077949156 0.001177236 0.0014417933 0.0001192962 0.0021645678 0.022773102
-0.00060814066 0.0023132074 0.0020137138 -0.00058990554 0.0060381806 0.00010878918 0.001321851 -0.00032504334
0.0003445061 0.008079729 0.0032431292 0.013093292 -0.0023440232 0.0011271279 0.008149283 -0.0038622746
-0.00017741566 0.00024968086 0.0030356445 3.0128218e-05 0.00057691423 0.0027544864 -0.00022341801 0.000603047
0.0069145374 -0.00015797086 0.00013119345 -0.00035987253 3.7775208e-05 -0.00068712386 -0.0059487903 -0.005178548
0.0023418984 5.1534953e-05 0.0007715754 0.0059882016 0.0004332279 0.0035369627 0.001694794 0.00043402874
0.0065910877 0.004036273 -0.00058073946 -0.0022704066 0.0006163513 0.001909798 0.010220349 -0.00019655256
0.0023154528 -0.006868452 -0.00029835664 0.00038128626 -0.0020205097 0.003768713 -0.009993241 -0.0007552516
0.0003297678 0.0028548932 0.001549295 0.00912949 -0.005188913 -0.0063552847 0.010706738 0.00556377
-0.0044960272 0.0032216553 8.197912e-06 -0.00013008004 -0.0036816038 -0.006263188 0.000113847906 0.00516906
-0.0020724547 -0.00037543196 -0.004189118 0.003320361 -0.003912057 0.0040880768 1.6890986e-06 0.0005773878
0.0015117308 -0.0024960279 0.0030325078 -0.0013363552 -0.00015196514 0.0027514733 0.0014257663 0.007932615
-0.003942049 0.00012619009 -0.0012966582 -0.0006667603 -0.00081324525 -0.0061806007 1.5288928e-05 0.0036207081
0.001585428 0.0011296531 -0.00033631027 0.00091183966 -0.00500645 0.0016902195 -1.5769941e-05 -0.00034211777
-0.002201883 -0.00055137346 0.0010566807 0.0024271319 0.0047620167 -0.0030779254 -0.00016842467 0.00029331172
-0.0028216196 -0.0008523453 0.005118727 6.011203e-07 0.0010433077 7.0176793e-07 -0.00046659072 -0.0009848713
-5.2678348e-05 -0.0025274674 -4.2334648e-07 -0.000666051 -0.00040290577 -0.00370224 -0.0002910667 -6.4677304e-05
1.276056e-07 0.0013933025 -2.612288e-06 0.0017136808 0.000106491716 0.0001902671 -0.00019974331 -0.00967516
0.0011360449 0.00064535474 -0.0006767912 0.0007145631 -0.00062806596 0.00079851295 0.0007177353 0.0036320032
00000000: 8090 a7bb 74f6 08b9 3b66 d8b8 7690 2937
00000010: 83da a238 0cad 3335 64f4 a5ba 2e6f 20b9
00000020: 9890 8bbb b18c 90bb 7560 cfb9 e0f8 fbba
00000030: 1123 423a d5da 1ab7 2380 0abb 97ff 2b3a
00000040: f698 b0ba 8c93 83b7 45ba 6e39 5fde ccb5
00000050: 759d 8639 9bfa 1ebc 2257 cdb7 dbcd e238
00000060: 7a1a 8637 fccb 2cbb 92b8 0abc b464 8ab9
00000070: c717 9138 f052 7cb9 ef2f a538 a55c 673a
00000080: f42e 1937 3afc 67ba 968b 57b7 c2dc 22bb
00000090: 3f76 fdbb 8475 0cb9 effd bdba 3f8f 6f38
000000a0: a8f7 8eb2 5c8d 20b8 b51f b537 e6d9 7bbb
000000b0: 05ea 6fb8 3e04 b033 e087 a336 4770 5bbb
000000c0: 3e90 1fbc d6c1 3439 100b ddb8 5023 c23a
000000d0: 4b49 b837 903b 58bb b4e2 9939 6376 fdb9
000000e0: 4d49 b132 e8e9 77bb 4fd0 0dbc 2ee9 b637
000000f0: 9650 c9bb d101 eebb fe64 67b9 e4b9 21bc
00000100: 0ab3 0f3a 948f 3f3b 19e6 58b6 78bf f1b7
00000110: 9c21 cc39 6e00 aeb9 6aed b6bb 9820 5bbb
00000120: a237 f1ba 5e24 45ba 0c46 c4ba 907f 193b
00000130: 84d9 c9ba dec2 dd3b b94e 29ba 2359 97b8
00000140: bdbf c539 6194 4f36 ef78 ccb9 e690 033b
00000150: dbae 5538 3fbd 47b8 a1fc 85bb 141b a639
00000160: 682a 8f36 b87e 96bb 25ae 0137 52b2 80bb
00000170: 4aa2 3d3b 9832 3839 cbf3 9b37 f128 edb6
00000180: 2ead a7b9 6f81 b738 001b 3eb9 1887 2abb
00000190: 80ac a23b c031 6239 654b ecb8 e2de a73b
000001a0: f4ee 1139 c4de 3fb9 cb56 4c3a 7c4d 9a3a
000001b0: 8efa bc3a a92e fa38 6cdb 0d3b a88e ba3c
000001c0: a16b 1fba 2e99 173b 83f8 033b e4a3 1aba
000001d0: eedb c53b bf25 e438 f641 ad3a 946a aab9
000001e0: d39e b439 d760 043c ae8a 543b 3f85 563c
000001f0: 2f9e 19bb 23bc 933a 9284 053c 371e 7dbb
00000200: a708 3ab9 99e7 8239 aaf1 463b dbbb fc37
00000210: 0f3c 173a 9d84 343b 5145 6ab9 cd15 1e3a
00000220: 5893 e23b fba4 25b9 f990 0939 46ad bcb9
00000230: d270 1e38 1a20 34ba 12ee c2bb cfb0 a9bb
00000240: 897a 193b 3c27 5838 8c43 4a3a ad38 c43b
00000250: dd22 e339 63cc 673b da23 de3a 5a8e e339
00000260: 0dfa d73b b642 843b c43c 18ba 1acb 14bb
00000270: a392 213a 3052 fa3a 4073 273c ad19 4eb9
00000280: dabe 173b c010 e1bb c06c 9cb9 60e7 c739
00000290: 876a 04bb 83fc 763b b1ba 23bc 14fc 45ba
000002a0: afe4 ac39 2919 3b3b b711 cb3a db93 153c
000002b0: c207 aabb fe3f d0bb 506b 2f3c 4950 b63b
000002c0: 6953 93bb 6822 533b c489 0937 1866 08b9
000002d0: 1047 71bb 6e3b cdbb a1c1 ee38 3861 a93b
000002e0: 05d2 07bb a0d5 c4b9 de44 89bb 6a9a 593b
000002f0: b630 80bb 46f5 853b fcb4 e235 d75b 173a
00000300: 4525 c63a 6694 23bb 0abd 463b a428 afba
00000310: d558 1fb9 1052 343b c7e0 ba3a ccf7 013c
00000320: 4e2c 81bb e551 0439 a1f4 a9ba 87c9 2eba
00000330: f72f 55ba a386 cabb b940 8037 6749 6d3b
00000340: 23ce cf3a de10 943a cd52 b0b9 8608 6f3a
00000350: 260d a4bb 5b8a dd3a b149 84b7 455e b3b9
00000360: 774d 10bb 0c8a 10ba 5280 8a3a 8410 1f3b
00000370: b10a 9c3b 05b7 49bb 279b 30b9 a2c7 9939
00000380: ecea 38bb ed6f 5fba ffba a73b ac5c 2135
00000390: 99bf 883a 2061 3c35 bfa0 f4b9 cc16 81ba
000003a0: f2f2 5cb8 dea3 25bb 4c48 e3b4 ed99 2eba
000003b0: 193d d3b9 48a1 72bb 509a 98b9 5da3 87b8
000003c0: f603 0934 799f b63a c44e 2fb6 969d e03a
000003d0: 4e54 df38 7082 4739 3072 51b9 9084 1ebc
000003e0: 57e7 943a 062d 293a b06a 31ba 8551 3b3a
000003f0: cba4 24ba 4c53 513a 6726 3c3a e706 6e3b

exp_avg_sq f4 [10, 50]
0.00046228085 1.0451809e-05 2.459491e-06 1.6176658e-05 7.522011e-06 1.9515987e-06 0.00021124163 4.785004e-05
2.488575e-05 0.0001185891 9.5447285e-05 1.9584972e-05 0.00016865105 1.0708918e-05 0.00043224756 0.00010897451
0.00090212654 1.171541e-06 0.00012143183 2.6563255e-06 3.832481e-05 0.00030177805 2.240727e-05 0.00015786047
1.2494878e-05 0.00012096832 0.00029614093 0.000105765605 8.93019e-06 2.0081197e-06 2.0106425e-05 0.00016516788
1.898365e-05 0.00026035155 6.375328e-05 6.507136e-05 0.0001951643 3.085196e-05 8.001188e-05 3.4914898e-05
2.599823e-07 5.751401e-06 1.4732798e-05 0.00032549672 7.191291e-05 3.1213602e-08 3.3762397e-05 5.669994e-05
5.5961504e-05 1.6978624e-05 4.603626e-06 0.00021197379 3.5379202e-05 0.00014819314 3.2809166e-06 6.6370274e-05
1.4564065e-10 0.00067387684 0.00023044966 4.2740285e-05 0.00046308275 7.532927e-05 3.1767806e-06 0.00017507841
4.1291052e-05 5.4384214e-05 2.9711315e-05 1.8138784e-05 6.6044675e-05 0.00013867422 0.0005600427 0.00020830092
4.2699892e-05 0.00021774255 0.00035047697 0.00014983487 1.6705302e-05 0.00021522562 1.6509781e-06 9.436333e-06
4.4181594e-05 9.864773e-07 0.00010543035 0.00012308886 5.840643e-05 1.5699014e-05 5.762973e-05 0.0001373169
6.7956836e-07 8.553251e-05 1.1535442e-06 0.00023902449 0.00014952008 8.079702e-06 1.0077001e-06 2.6474404e-06
3.9937524e-05 1.6273802e-05 4.3428052e-05 1.9842664e-05 0.0003390727 8.207301e-05 2.3025143e-05 0.0005414743
3.053178e-05 9.216098e-05 0.0001179903 0.00041593408 0.00019505134 3.1618703e-05 0.00032672109 0.0005975032
0.00021632687 0.0001263701 0.00016217638 0.00015809442 0.00053220475 8.186989e-06 9.6616895e-05 0.0002551526
1.3328649e-05 0.0011913254 9.932778e-05 0.0006561395 0.00042514715 0.00042120786 0.00091740733 0.0004824146
1.3160324e-05 1.4117348e-05 0.00021093598 2.3675257e-05 6.257757e-05 0.00038960087 0.00019336073 0.00016648785
0.00034151375 5.063591e-05 1.4885678e-05 1.2976652e-05 6.352704e-06 4.6680634e-05 0.0008572816 8.178918e-05
1.6514434e-05 3.5051115e-05 0.000107543885 0.0003730707 0.00021260996 4.779312e-05 0.00015327586 0.0001560812
0.00089783594 0.0002510218 2.2179223e-05 6.0083792e-05 2.450621e-05 0.00042728666 0.00048846815 6.0397782e-05
0.00039378536 0.0005460819 0.00017297523 3.408553e-05 0.00016743212 0.0007575832 0.00051800965 0.00018567535
9.718968e-05 0.00020950864 5.0453527e-05 0.00070889475 0.0015830331 0.00094772957 0.00043511207 0.0018037595
0.000100700076 0.00043354454 4.6583477e-06 6.075406e-06 0.0003299324 0.00030290402 2.551238e-05 0.00089076307
0.0012157944 0.000276044 0.0003756665 0.00014569794 2.5816898e-05 8.172295e-05 3.2105497e-06 0.00010159278
0.0006192488 0.00030733418 0.00011274984 0.00025718706 3.57178e-05 0.0003187497 8.1479935e-05 8.481354e-05
0.0005024745 0.00015811737 0.00035698884 7.6674674e-05 0.0002869892 0.000828422 2.6621057e-05 0.00039208087
0.00018162993 0.00016914665 6.901609e-05 8.771912e-06 0.0008992954 7.918759e-05 2.2840406e-05 0.00013502115
0.0002112409 2.3185252e-05 0.00026224568 3.867987e-05 0.00037786862 6.702548e-05 2.3185987e-05 0.0003326271
4.837538e-05 0.00054197793 0.0009528995 6.096908e-08 9.605017e-05 2.0278523e-05 7.93372e-05 7.887681e-06
0.00018579795 6.2166095e-05 1.4654843e-06 0.0008091032 2.4811747e-05 0.0003665463 3.5653193e-05 2.324286e-05
1.3101766e-05 0.00019265075 6.2302506e-06 6.874577e-05 2.4532179e-05 1.4984854e-05 1.2508805e-05 0.00037802727
0.00024687988 5.359057e-05 7.406653e-05 0.00014820267 0.0005505616 6.347429e-05 9.819143e-06 6.2297324e-05
00000000: 495e f239 2e5a 2f37 bc0d 2536 1cb3 8737
00000010: 9565 fc36 36f8 0236 be80 5d39 97b2 4838
00000020: bec1 d037 0ab3 f838 df2a c838 684a a437
00000030: ecd7 3039 74aa 3337 499f e239 3f89 e438
00000040: b07c 6c3a d83d 9d35 38a9 fe38 5343 3236
00000050: f4be 2038 f737 9e39 3ff7 bb37 5987 2539
00000060: 18a1 5137 5fb0 fd38 5d43 9b39 7ace dd38
00000070: e0d2 1537 3cc3 0636 38aa a837 ea30 2d39
00000080: 143f 9f37 cb7f 8839 48b3 8538 ec76 8838
00000090: 05a5 4c39 0a67 0138 0dcc a738 9671 1238
000000a0: b293 8b34 29fc c036 e32c 7737 6ea7 aa39
000000b0: f3cf 9638 b80f 0633 199c 0d38 19d1 6d38
000000c0: 35b8 6a38 516d 8e37 d978 9a36 4845 5e39
000000d0: 2164 1438 4b64 1b39 b82d 5c36 4530 8b38
000000e0: 3322 202f 1ca7 303a dca4 7139 0844 3338
000000f0: eac9 f239 18fa 9d38 ad30 5536 4195 3739
00000100: ee2f 2d38 9b1a 6438 903c f937 be28 9837
00000110: 7781 8a38 1469 1139 d4cf 123a 5a6b 5a39
00000120: a918 3338 d251 6439 39c0 b739 fe1c 1d39
00000130: 5d22 8c37 30ae 6139 2d97 dd35 be50 1e37
00000140: a04f 3938 1a67 8435 7d1a dd38 6a11 0139
00000150: 6df9 7438 60b1 8337 74b7 7138 bafc 0f39
00000160: 956b 3635 eb5f b338 7ad3 9a35 a6a2 7a39
00000170: 7ec8 1c39 0e8e 0737 5040 8735 aeaa 3136
00000180: 9782 2738 b983 8837 8426 3638 cc73 a637
00000190: 91c5 b139 9d1e ac38 1e26 c137 baf1 0d3a
000001a0: 400f 0038 8d46 c138 8f71 f738 ba11 da39
000001b0: b286 4c39 539e 0438 c34b ab39 c3a1 1c3a
000001c0: cdd5 6239 3782 0439 e40d 2a39 26c6 2539
000001d0: a883 0b3a da5a 0937 cd9e ca38 01c6 8539
000001e0: 1d9e 5f37 3f26 9c3a 324e d038 c700 2c3a
000001f0: 49e6 de39 90d5 dc39 2a7e 703a 97ec fc39
00000200: 29cb 5c37 8cd9 6c37 b22e 5d39 3a9a c637
00000210: 143c 8338 5843 cc39 e0c0 4a39 3e93 2e39
00000220: 330d b339 e561 5438 80bd 7937 4cb6 5937
00000230: 5029 d536 f3ca 4338 32bb 603a 3b86 ab38
00000240: 7a88 8a37 d903 1338 2f89 e138 b498 c339
00000250: 0df0 5e39 7975 4838 adb8 2039 baa9 2339
00000260: c05c 6b3a 939b 8339 850d ba37 7b02 7c38
00000270: af92 cd37 7205 e039 8b0c 003a a053 7d38
00000280: fa74 ce39 f026 0f3a af60 3539 0ff7 0e38
00000290: b890 2f39 8c98 463a 0acb 073a d9b1 4239
000002a0: 50d2 cb38 8caf 5b39 109e 5338 1fd5 393a
000002b0: c77d cf3a 0e71 783a c11f e439 206c ec3a
000002c0: f12e d338 5d4d e339 e74e 9c36 57db cb36
000002d0: c7fa ac39 17cf 9e39 6b03 d637 1982 693a
000002e0: 4a5b 9f3a 00ba 9039 1bf5 c439 7ec6 1839
000002f0: 5e91 d837 ad62 ab38 d374 5736 350e d538
00000300: 1555 223a b221 a139 1c74 ec38 10d7 8639
00000310: b2cf 1538 dc1d a739 35e0 aa38 ecdd b138
00000320: 7eb8 033a 4fcc 2539 3b2a bb39 67cc a038
00000330: 0a77 9639 762a 593a 4950 df37 3490 cd39
00000340: ea73 3e39 f55c 3139 bbbc 9038 132b 1337
00000350: b1be 6b3a 8311 a638 6699 bf37 7794 0d39
00000360: 8c80 5d39 f37d c237 057e 8939 323c 2238
00000370: ab1c c639 0890 8c38 877f c237 7464 ae39
00000380: abe6 4a38 8613 0e3a 01cc 793a 1bee 8233
00000390: 8b6e c938 cc1b aa37 d661 a638 5555 0437
000003a0: c2d2 4239 2b5f 8238 a8b1 c435 ff19 543a
000003b0: d222 d037 032d c039 538a 1538 a9f9 c237
000003c0: a8cf 5b37 4b02 4a39 720d d136 9b2b 9038
000003d0: 74ca cd37 7567 7b37 e9dc 5137 f631 c639
000003e0: a86f 8139 70c6 6038 2a54 9b38 da66 1b39
000003f0: 9053 103a 801d 8538 e6bc 2437 9fa5 8238

exp_avg f4 [10]
-0.0017822278 -0.00077641936 0.001769101 0.0008046828 -4.612709e-05 0.0006469224 -0.0007302188 0.000991393
-0.0003575863 -0.00051955
00000000: a499 e9ba 9f88 4bba 2ee1 e73a 59f1 523a
00000010: 9678 41b8 3a96 293a 276c 3fba a1f1 813a
00000020: 6c7a bbb9 6932 08ba

exp_avg_sq f4 [10]
1.3856983e-05 1.18635035e-05 2.3070184e-05 3.1454325e-05 2.3420444e-05 2.481717e-05 1.4350249e-05 2.1821126e-05
3.6168916e-05 3.5066798e-05
00000000: 4a7b 6837 5c09 4737 d886 c137 d3ed 0338
00000010: 0577 c437 772e d037 dac1 7037 830c b737
00000020: 14b4 1738 b014 1338
