swastik_web/Learning&Experiments/PytorchTutorials/pytorch lightning/dashboard/mnist_clsfy/version_1.1/checkpoints/epoch=2-step=1125-v1.ckpt (torch, 484079 bytes, 12 tensors)

fc1.weight f4 [50, 784]
0	0xb98c3000	-0.00026738644
1	0x3c9cf2b6	0.019158702
2	0xbcf0ccac	-0.02939447
3	0xbcd75093	-0.026283538
4	0xbc615ece	-0.013755513
5	0x3c1ce910	0.009577051
6	0xba397f40	-0.00070761517
7	0x3ce7fa12	0.028317485
8	0xbb4fb630	-0.0031694286
9	0x3c1ad610	0.009450451
10	0xbc30d67c	-0.010793325
11	0xbbe609a4	-0.007020192
12	0xbd75d77d	-0.06001996
13	0xbd471eae	-0.048613243
14	0x3c6527d9	0.013986551
15	0x3cd1d479	0.02561401
16	0x3c6753dc	0.014119115
17	0x3caf8cae	0.021429386
18	0xbcc658a0	-0.024212182
19	0xbc7eced8	-0.015552245
20	0x3c5488b0	0.012972042
21	0x3cf2f2a2	0.029656712
22	0xbbf0d854	-0.007350007
23	0x3cdaef46	0.026725423
24	0xbbbca170	-0.0057565495
25	0x3b77aa60	0.003779076
26	0x3d04754f	0.032338437
27	0xbd07b476	-0.033131085
28	0xbcb82f50	-0.022483498
29	0xbc14234a	-0.009041617
30	0xbc6416b2	-0.013921427
31	0x3cfcc82e	0.030857172
32	0xbd2268de	-0.03965079
33	0xbf1b690b	-0.6070716
34	0xbef74dba	-0.48301488
35	0xbeabb1a0	-0.33533955
36	0xbec65870	-0.38739347
37	0xbf008648	-0.50204897
38	0xbf091c05	-0.5355838
39	0xbe5e5ea4	-0.2171579
40	0xbebc62cc	-0.36794126
41	0xbe5cec43	-0.21574502
42	0x3e94248c	0.28934133
43	0xbf088c5c	-0.5333917
44	0xbf0914dc	-0.53547454
45	0xbf0c68fc	-0.54847693
46	0xbe41474b	-0.18874852
47	0xbec4b875	-0.3842198
48	0xbee4995c	-0.44648254
49	0xbefb2639	-0.490526
50	0xbf1b19c6	-0.605862
51	0xbf0ff3ed	-0.56231576
52	0x3c683b98	0.0141743645
53	0x3b9e18e8	0.0048247464
54	0x3cc42a48	0.023945943
55	0xbcac444a	-0.021028657
56	0x3bda1368	0.0066551454
57	0xbce2d50e	-0.027689483
58	0xbde47c60	-0.11156535
59	0xbf1512f1	-0.5823203
60	0xbf0b5309	-0.54423577
61	0xbf0243de	-0.5088481
62	0xbe8891b7	-0.26673672
63	0xbedeec79	-0.4353979
64	0xbf01bea5	-0.50681525
65	0xbd0fd541	-0.035115484
66	0xbf1dfd7b	-0.61714906
67	0xbf4a9b13	-0.79142874
68	0xbed76d06	-0.42075366
69	0xbe17e327	-0.14832745
70	0xbf0a8bd7	-0.5411963
71	0xbf8d5a08	-1.10431
72	0xbf8a0198	-1.0781736
73	0xbeb8d33f	-0.36098668
74	0xbf15d5c0	-0.5852928
75	0xbeb58049	-0.35449436
76	0xbeaab0c3	-0.33337983
77	0xbcd5ba96	-0.026089948
78	0xbd968613	-0.073497914
79	0xbf0c79ca	-0.54873335
80	0xbedf19ef	-0.43574473
81	0xbeb423e0	-0.3518362
82	0x3cde75a6	0.027155709
83	0xbd11ec92	-0.035626
84	0x3bdb0b78	0.006684717
85	0xbbc52578	-0.0060164295
86	0xbdb14e03	-0.08657458
87	0xbf42f90b	-0.7616126
88	0xbee78f2c	-0.4522642
89	0x3f2237f2	0.63366616
90	0x3ecb5b28	0.39717984
91	0x3caa271b	0.0207706
92	0xbe8afdea	-0.27146846
93	0xbe9f7ec7	-0.3115141
94	0xbee83e73	-0.45360145
95	0xbedaa53f	-0.42704198
96	0xbdfe3c5e	-0.12413858
97	0xbd248ace	-0.040171437
98	0xbd8f81b0	-0.07007158
99	0xbf23087f	-0.6368484
100	0xbf4b5505	-0.79426605
101	0xbf204341	-0.6260262
102	0xbf327cff	-0.6972198
103	0xbf3c1b1c	-0.73478866
104	0xbf141288	-0.57840776
105	0xbddc8c55	-0.10768954
106	0xbeaf6d6a	-0.34263164
107	0xbf19acca	-0.6002928
108	0xbf0825e4	-0.53182817
109	0xbda8d64d	-0.08244
110	0xbd5f0653	-0.05444939
111	0x3cad9af8	0.021192059
112	0xbcb20a8a	-0.021733541
113	0xbb9efb4a	-0.0048517333
114	0xbdd93ede	-0.10607694
115	0xbe70149f	-0.23445366
116	0x3daec96e	0.085345134
117	0xbe06b89f	-0.13156365
118	0x3d89fe3c	0.067379445
119	0x3e7bac42	0.2457743
120	0xbd9379be	-0.07200955
121	0x3dcf0110	0.101076245
122	0x3cbd9acd	0.023145104
123	0xbe2562ea	-0.16151014
124	0x3d8d1d32	0.06890334
125	0x3ec9cc50	0.3941369
126	0xbe308dad	-0.17241545
127	0xbea7b64d	-0.32756272
128	0xbeb15e1a	-0.34642106
129	0xbd6553b4	-0.05598803
130	0xbe98aa51	-0.2981744
131	0xbedcdb80	-0.43136215
132	0xbe66d5d7	-0.22542511
133	0xbece86c2	-0.40337187
134	0xbdc15436	-0.0943989
135	0x3e58beb1	0.21166493
136	0x3f323330	0.69609356
137	0x3f9b9231	1.2153989
138	0xbf202195	-0.6255124
139	0xbc834a52	-0.01602665
140	0x3d0a918f	0.03383022
141	0x3cb9cc9a	0.02268057
142	0x3ed6b7ac	0.41937006
143	0x3e090f5b	0.13384764
144	0x3e1d5057	0.15362678
145	0xbd006bf2	-0.031352945
146	0x3e501180	0.20319176
147	0x3e70c2fa	0.23511878
148	0x3f333b16	0.70012033
149	0x3f49598d	0.7865227
150	0x3eb3df3f	0.3513126
151	0x3deb05ed	0.1147574
152	0x3e7c7389	0.24653448
153	0x3ee0e594	0.43925154
154	0xbd9e55d8	-0.07731217
155	0xbe101ae8	-0.14072764
156	0xbd6809c4	-0.05664994
157	0xbe144a84	-0.1448155
158	0xbe5a84ec	-0.21339768
159	0xbea93ab0	-0.33052588
160	0xbebeab31	-0.37239984
161	0xbea9f06c	-0.3319124
162	0xbe1adb72	-0.15122774
163	0x3e50e7e9	0.20400967
164	0x3f0b65f9	0.5445247
165	0x3f324f5a	0.6965233
166	0xbe603051	-0.21893431
167	0xbd686a66	-0.056742094
168	0xbd03aa6b	-0.032144945
169	0xbd69dff4	-0.057098344
170	0xbdabbb6f	-0.083853595
171	0x3e953b04	0.29146588
172	0x3d864fad	0.06558166
173	0x3ec72176	0.38892716
174	0x3e94730e	0.2899403
175	0x3e9a76ff	0.30168912
176	0x3f23feaf	0.6406049
177	0x3e8d9202	0.27650458
178	0x3e0e7d9f	0.13915108
179	0x3d8f3c9b	0.069939815
180	0x3e1fa305	0.15589531
181	0x3dd8a6dd	0.10578702
182	0x3e0d1a7a	0.13779631
183	0xbdde71e2	-0.10861565
184	0xbdf69985	-0.12041
185	0xbcf483fe	-0.029848095
186	0xbdabd47a	-0.08390136
187	0x3e034760	0.12820196
188	0x3ea0f7e3	0.31439123
189	0xbda7da5f	-0.08195948
190	0x3d837950	0.06419623
191	0x3f039904	0.5140536
192	0x3da01fab	0.0781854
193	0xbd5c9ab0	-0.05385846
194	0xbcfb7b71	-0.03069851
195	0xbe2ee70e	-0.17080328
196	0xbc8e63cc	-0.017381571
197	0xbd0803e9	-0.033206854
198	0x3e1a0b72	0.15043429
199	0x3ea0a8e0	0.3137884
200	0x3ebbb4b8	0.36661315
201	0x3ec4e642	0.38456923
202	0x3f0ccf4e	0.5500382
203	0x3e628ccd	0.22124024
204	0xbda9a903	-0.082841896
205	0xbdf38335	-0.1189026
206	0xbd4b78d0	-0.049675763
207	0x3bf5500e	0.00748635
208	0x3dd60a39	0.104511686
209	0x3dc5d73d	0.09660194
210	0xbe33f9e6	-0.17575797
211	0xbe67c75d	-0.22634645
212	0xbe3dd4b7	-0.18538176
213	0xbd16ee6c	-0.03684847
214	0x3c901682	0.017588858
215	0x3d9e7a07	0.077381186
216	0x3d96a539	0.073557325
217	0x3e955a89	0.29170635
218	0x3e6365ea	0.22206846
219	0xbe509e0c	-0.2037279
220	0x3e166078	0.14685237
221	0x3eb98eb9	0.362417
222	0x3f16bf43	0.5888559
223	0xbe21ad6c	-0.15788811
224	0xbd91d214	-0.07120147
225	0x3e8b6aa2	0.27229792
226	0x3f219343	0.6311533
227	0x3ea41759	0.32049063
228	0x3e8d40e3	0.27588567
229	0x3e87d601	0.2653046
230	0x3ec6204c	0.38696516
231	0x3e07d158	0.13263452
232	0x3df17354	0.11789575
233	0x3e8cf0e9	0.2752755
234	0x3dd56912	0.10420431
235	0xbdb7b4e1	-0.08970047
236	0xbe1d4526	-0.1535841
237	0xbe5c7ec4	-0.21532732
238	0xbe9c1c93	-0.3049055
239	0xbe95527b	-0.2916449
240	0xbe5a8f03	-0.21343617
241	0xbdb5ac05	-0.08870701
242	0x3dc5e126	0.09662084
243	0x3d90b32a	0.07065423
244	0xbcafdd4d	-0.02146783
245	0xbd0d058a	-0.03442911
246	0xbea2dd74	-0.3180958
247	0xbea846e3	-0.32866582
248	0xbcb719d0	-0.022351176
249	0x3da81702	0.082075134
250	0x3de227b2	0.110427275
251	0xbd77b75a	-0.060477592
252	0x3e72b135	0.23700412
253	0x3ead0934	0.33796084
254	0xbd299d48	-0.04140976
255	0x3e22dbcd	0.1590416

fc1.bias f4 [50]
0	0x3e7f8f4c	0.24957007
1	0x3da7c882	0.08192541
2	0xbec55844	-0.38543904
3	0x3d9de897	0.077103786
4	0xbe0a5bfd	-0.13511653
5	0x3e20e24a	0.15711322
6	0xbdfcadda	-0.12337847
7	0x3e556021	0.20837452
8	0x3e35af37	0.1774262
9	0xbdf4252d	-0.11921153
10	0xbec1ebd4	-0.37875235
11	0xbdf034a5	-0.11728791
12	0xbe005d8a	-0.12535682
13	0x3d6824e7	0.056675818
14	0xbdd11b44	-0.10210279
15	0xbea1257b	-0.31473908
16	0xbf21267a	-0.62949336
17	0xbd018126	-0.031617306
18	0x3ec46736	0.38359994
19	0x3d2a5888	0.041588336
20	0x3ef8f856	0.48626965
21	0xbe1f8899	-0.15579452
22	0xbe995dec	-0.2995447
23	0xbe3927b8	-0.18081558
24	0xbe6e050d	-0.23244114
25	0x3b193884	0.0023379633
26	0x3ed95b67	0.42452547
27	0x3f1c23dd	0.60992223
28	0x3e677d4e	0.22606394
29	0xbe48d73c	-0.19613355
30	0xbe9c304d	-0.305056
31	0x3e21ef07	0.15813838
32	0x3e9eaf5f	0.30993173
33	0xbd7b1c76	-0.06130644
34	0xbe535844	-0.2063914
35	0x3f750910	0.95716953
36	0x3c8a2680	0.016864061
37	0x3eaff567	0.34366915
38	0xbc0cd1fc	-0.008594986
39	0x3f097e1f	0.5370807
40	0x3ce3fa82	0.027829412
41	0x3b575e86	0.0032862737
42	0xbe250222	-0.16114095
43	0xbe19dd69	-0.15025868
44	0xbe06df59	-0.13171138
45	0xbd94dccf	-0.072686784
46	0x3d5a76ac	0.05333583
47	0xbdf5d39f	-0.12003254
48	0x3eafa981	0.3430901
49	0x3cae1507	0.021250261

fc2.weight f4 [10, 50]
0	0x3d136263	0.0359825
1	0xbf026128	-0.509295
2	0xbf6a41c6	-0.9150661
3	0xbf0d4eee	-0.5519856
4	0xbe0e3e46	-0.13890943
5	0xbf1a7851	-0.6033984
6	0x3ea2fa64	0.31831658
7	0xbe0fdb40	-0.14048481
8	0xbe86aeab	-0.26305136
9	0x3e7cbdb9	0.24681748
10	0x3dcb7de9	0.09936125
11	0xbea40f02	-0.320427
12	0x3d9b0a67	0.075703435
13	0xbdbf6c95	-0.09346882
14	0x3f0a2b17	0.53972
15	0x3e33ba2b	0.17551486
16	0x3e85b3c0	0.261137
17	0xbe7c5409	-0.24641432
18	0x3e234e49	0.15947832
19	0xbd58862f	-0.052862342
20	0xbe38b09b	-0.1803612
21	0x3e9378f1	0.28803208
22	0xbf8482c3	-1.0352405
23	0xbe9a7af1	-0.30171922
24	0xbee4e447	-0.44705412
25	0xbe1b7957	-0.15183006
26	0x3d332d44	0.04374434
27	0x3f01f0cd	0.5075806
28	0xbee9899a	-0.45612794
29	0xbeadcd72	-0.33945805
30	0xbe28d762	-0.16488412
31	0x3e8df89d	0.2772874
32	0xbe2cb5c4	-0.16866213
33	0x3e5b4895	0.21414407
34	0xbd91d363	-0.07120397
35	0xbede17a6	-0.43377417
36	0x3ea4d6d2	0.32195145
37	0xbf180c29	-0.59393555
38	0x3d0c36b4	0.034231856
39	0x3d897331	0.06711424
40	0x3db9adc5	0.09066347
41	0x3e7d9c5c	0.24766678
42	0xbeb65faf	-0.35619876
43	0x3e7d1052	0.24713257
44	0x3e88f0b3	0.2674614
45	0xbe98a3b2	-0.2981239
46	0xbf254103	-0.64552325
47	0xbed569b0	-0.41682196
48	0x3ee27bb3	0.44235
49	0xbf1468e2	-0.5797254
50	0xbf659aec	-0.8968952
51	0x3f1bc820	0.6085224
52	0xbf29e4de	-0.6636485
53	0xbc570ddb	-0.013125862
54	0x3dc5b025	0.096527375
55	0x3ec1d1fd	0.3785552
56	0xbee0a44d	-0.43875352
57	0x3e80f7a7	0.25188944
58	0xbe04602e	-0.12927315
59	0x3e650c30	0.2236793
60	0x3e5d581b	0.21615641
61	0x3e201951	0.15634657
62	0xbf8eeb1b	-1.1165498
63	0x3e0e1ace	0.13877413
64	0xbe82b75a	-0.2553051
65	0xbd591257	-0.052996006
66	0xbe79f895	-0.24411233
67	0x3edc195e	0.42988104
68	0x3f03ca64	0.514807
69	0x3e62609b	0.22107165
70	0x3e227064	0.15863186
71	0xbd25bf77	-0.0404658
72	0xbe334af4	-0.17509061
73	0xbc3ac766	-0.011400079
74	0x3e2230f4	0.15838987
75	0xbe0dfcd7	-0.13865982
76	0xbf15cc1d	-0.5851458
77	0x3f207410	0.626771
78	0xbef834e5	-0.48477855
79	0x3c6c12a6	0.014408743
80	0x3e1df390	0.15424943
81	0xbf384b60	-0.71990013
82	0x3f21a3be	0.63140476
83	0xbe224c79	-0.15849485
84	0xbc17e733	-0.009271431
85	0xbf0efe7e	-0.55857074
86	0xbea9b34f	-0.33144614
87	0x3cac9a12	0.02106956
88	0xbf1d82ed	-0.615279
89	0x3e407a09	0.18796553
90	0xbeb5e803	-0.35528573
91	0x3e2ee155	0.17078145
92	0x3e3ac403	0.18238835
93	0xbe2d87d7	-0.1694635
94	0xbf12ef17	-0.5739607
95	0xbead3a6f	-0.33833644
96	0x3eae6d44	0.34067738
97	0xbe9fd62e	-0.31218094
98	0xbea2e6a0	-0.31816578
99	0xbe7fd6a3	-0.24984221
100	0x3e0116d5	0.12606366
101	0xbd5fd81d	-0.05464946
102	0xbf5d4be6	-0.86443937
103	0x3ee6be26	0.45066947
104	0xbe75bdce	-0.23998186
105	0xbcaaa076	-0.020828467
106	0x3db9436e	0.09046064
107	0x3e66a401	0.225235
108	0xbeda18f4	-0.42597163
109	0xbe30c13c	-0.17261213
110	0x3dab451b	0.0836279
111	0x3ea53e1f	0.32273957
112	0xbe55be83	-0.20873456
113	0x3e9051a8	0.281873
114	0xbd217715	-0.039420206
115	0xbc0f9328	-0.008763112
116	0xbab4decb	-0.0013799308
117	0xbeaf085f	-0.34186074
118	0xbe6f7fe9	-0.23388638
119	0x3ec5b2d5	0.38613
120	0xbf61d4d4	-0.88215375
121	0x3e9aad74	0.3021046
122	0xbef2ad0b	-0.47397646
123	0x3da646e7	0.08118992
124	0x3dd70a76	0.10500042
125	0xbe38ff76	-0.180662
126	0x3ee0442f	0.4380202
127	0x3ec497a5	0.38396946
128	0xbdffa740	-0.12483072
129	0x3ddd0a46	0.10792975
130	0x3dc72298	0.09723395
131	0xbe3feece	-0.1874344
132	0xbd95fbf4	-0.07323447
133	0x3cc9af7f	0.024619816
134	0xbcb0589a	-0.021526624
135	0xbdc01d37	-0.09380572
136	0x3dfd5c99	0.12371177
137	0xbe9b9bac	-0.30392206
138	0xbe58e8a3	-0.21182494
139	0xbf56fd45	-0.8398021
140	0xbdac1d17	-0.08403986
141	0xbe4537ab	-0.19259517
142	0x3eefcbb4	0.468351
143	0xbd43be2a	-0.047788776
144	0xbe3602f0	-0.17774558
145	0x3d5e4c65	0.054272074
146	0x3e6329a7	0.22183858
147	0x3d998e8a	0.0749789
148	0x3de1eedd	0.11031888
149	0x3be9006c	0.007110646
150	0xbf2e9f36	-0.68211687
151	0x3e715b05	0.23569877
152	0x3ec57565	0.38566127
153	0xbe4cc536	-0.19997105
154	0xbd6d432f	-0.0579254
155	0xbe26e32b	-0.16297595
156	0xbe1a9543	-0.15096001
157	0x3d3a284a	0.04544858
158	0x3db06051	0.08612121
159	0xbe9fb9f8	-0.3119657
160	0x3bf2c7ce	0.0074090725
161	0x3ec0a29e	0.37624067
162	0xbec74b2a	-0.38924533
163	0x3bb81327	0.0056175175
164	0xbe61966a	-0.22030035
165	0x3dfbb834	0.12290993
166	0x3e2c146a	0.16804662
167	0x3e8fe091	0.28101018
168	0xbef215df	-0.4728231
169	0x3e17b3ca	0.14814678
170	0xbf46b720	-0.77623177
171	0xbd18b47f	-0.03728151
172	0x3eaefbaf	0.34176394
173	0x3c1b66d7	0.009484968
174	0x3e0f32ad	0.13984175
175	0x3dea4f16	0.11440866
176	0xbe000d67	-0.12505113
177	0xbce2be12	-0.027678523
178	0xbea37767	-0.31927034
179	0xbd07165b	-0.032980304
180	0x3e5b1080	0.21393013
181	0x3e8120e0	0.25220394
182	0x3c758281	0.014984728
183	0xbd606085	-0.05477955
184	0x3eb872a9	0.3602498
185	0x3de00176	0.10937779
186	0x3e7e0623	0.24807028
187	0xbf1392c3	-0.57645816
188	0xbe6209c0	-0.22074032
189	0x3dd31cdb	0.10308238
190	0xbe85db56	-0.26143903
191	0x3d10e7dd	0.035377372
192	0x3e47d305	0.19514091
193	0x3da0c65b	0.07850333
194	0xbe2fcb64	-0.17167431
195	0x3f01c7ce	0.506955
196	0x3d4a9ce4	0.04946603
197	0x3e4e4b05	0.20145805
198	0xbd71e2b3	-0.059054088
199	0xbe922880	-0.28546524
200	0x3e9ea791	0.30987218
201	0x3e35e38d	0.17762585
202	0x3e981ef6	0.2971112
203	0xbe2e033c	-0.16993421
204	0x3ec43079	0.38318232
205	0x3e8f5c1d	0.27999964
206	0x3e0254dc	0.12727684
207	0x3e3565bb	0.17714588
208	0xbf037790	-0.5135431
209	0x3ea97949	0.33100346
210	0xbdbf4396	-0.09339063
211	0xbf16b54e	-0.588704
212	0x3e8a137f	0.26968
213	0x3daa552d	0.08317027
214	0xbf5ca247	-0.86185116
215	0xbf172275	-0.5903695
216	0xbda43858	-0.08018559
217	0x3d9f1abe	0.077687725
218	0x3eb16892	0.34650093
219	0xbe7f3262	-0.24921563
220	0x3e3c1939	0.18368997
221	0xbf0e6586	-0.5562366
222	0xbca11e32	-0.019667719
223	0x3cd9fbc4	0.026609309
224	0xbf2bf131	-0.67164904
225	0x3d265ed4	0.04061778
226	0x3ec4f425	0.38467517
227	0xbf093838	-0.5360141
228	0x3edaa92a	0.42707187
229	0xbd35b58b	-0.044362586
230	0x3e3ea7f6	0.1861876
231	0xbef4f256	-0.47841138
232	0x3f02c044	0.51074624
233	0xbf157313	-0.58378714
234	0xbf23c710	-0.6397562
235	0x3cab1ac8	0.020886794
236	0xbe911c5e	-0.28341955
237	0x3ea74534	0.32669985
238	0xbf1b778e	-0.607293
239	0xbef149d9	-0.47126654
240	0x3e680768	0.22659075
241	0x3e7f5446	0.24934492
242	0xbf4cfe3b	-0.80075425
243	0xbf21e189	-0.63234764
244	0xba0c8219	-0.0005359962
245	0xbe3403a8	-0.1757952
246	0xbee6f68d	-0.45109978
247	0x3d83cec0	0.06435919
248	0xbd9f0e88	-0.077664435
249	0xbf1e9b63	-0.6195585
250	0xbf1f9b28	-0.62346125
251	0x3c13acf6	0.009013405
252	0x3ec8a4f1	0.3918834
253	0xbe2871c7	-0.16449653
254	0xbe97e152	-0.29664093
255	0xbead820e	-0.33888286

fc2.bias f4 [10]
0	0xbe511122	-0.20416692
1	0xbcdbce48	-0.026831761
2	0x3db1d37c	0.086829156
3	0xbe536ab0	-0.20646167
4	0x3e98208b	0.29712328
5	0x3e18b3d7	0.14912353
6	0xbd8288aa	-0.06373723
7	0xbe27dc62	-0.16392663
8	0x3e86f66e	0.26359886
9	0x3dba376b	0.090926014

exp_avg f4 [50, 784]
0	0x00000000	0.0
1	0x00000000	0.0
2	0x00000000	0.0
3	0x00000000	0.0
4	0x00000000	0.0
5	0x00000000	0.0
6	0x00000000	0.0
7	0x00000000	0.0
8	0x00000000	0.0
9	0x00000000	0.0
10	0x00000000	0.0
11	0x00000000	0.0
12	0x00000000	0.0
13	0x00000000	0.0
14	0x00000000	0.0
15	0x00000000	0.0
16	0x00000000	0.0
17	0x00000000	0.0
18	0x00000000	0.0
19	0x00000000	0.0
20	0x00000000	0.0
21	0x00000000	0.0
22	0x00000000	0.0
23	0x00000000	0.0
24	0x00000000	0.0
25	0x00000000	0.0
26	0x00000000	0.0
27	0x00000000	0.0
28	0x00000000	0.0
29	0x00000000	0.0
30	0x00000000	0.0
31	0x00000000	0.0
32	0x00000000	0.0
33	0x261008d2	4.997199e-16
34	0x2e4aa3b4	4.607488e-11
35	0x2e90ddb4	6.587744e-11
36	0x2726468c	2.3075371e-15
37	0x2539abf5	1.6104453e-16
38	0x2a7e66ae	2.2595356e-13
39	0xaf862334	-2.439947e-10
40	0x3181d586	3.778669e-09
41	0x32d33864	2.4589276e-08
42	0x32e2f79c	2.6422462e-08
43	0x2f19493e	1.394129e-10
44	0x2f536cf0	1.922904e-10
45	0x2e60596c	5.1011126e-11
46	0x2637f4fe	6.3822906e-16
47	0x240f07d3	3.101481e-17
48	0x23928c74	1.5888836e-17
49	0x11dfc74c	3.5306023e-28
50	0x120c0fde	4.419577e-28
51	0x1036e666	3.6070664e-29
52	0x00000000	0.0
53	0x00000000	0.0
54	0x00000000	0.0
55	0x00000000	0.0
56	0x00000000	0.0
57	0x00000000	0.0
58	0x00000000	0.0
59	0x32ae4997	2.028973e-08
60	0x31f06589	6.9964625e-09
61	0x270287fe	1.8114846e-15
62	0x2e6600a8	5.2296528e-11
63	0x2f85f7c3	2.4368604e-10
64	0x2f6b7917	2.1416145e-10
65	0x31d5b51e	6.2197065e-09
66	0x33ba9225	8.6878835e-08
67	0x34de3c11	4.1394426e-07
68	0x35e3bea4	1.6968302e-06
69	0x3626dc30	2.4864094e-06
70	0x36da88a8	6.512815e-06
71	0x37dc4799	2.6259384e-05
72	0x37be0bf4	2.2655331e-05
73	0x3769b3b2	1.3929721e-05
74	0x378b3a2e	1.6597183e-05
75	0x3624b3a7	2.4542476e-06
76	0x309cf454	1.1419936e-09
77	0xb118bf68	-2.2227713e-09
78	0xb1232d6d	-2.3745443e-09
79	0x29c1bb66	8.60343e-14
80	0x29c58e2f	8.7732224e-14
81	0x0e5eed40	2.7477844e-30
82	0x00000000	0.0
83	0x00000000	0.0
84	0x00000000	0.0
85	0x00000000	0.0
86	0x00000000	0.0
87	0x337dc960	5.9089302e-08
88	0x31e0cf3d	6.5428183e-09
89	0xb46e771e	-2.2208812e-07
90	0xb40ff3a6	-1.3406552e-07
91	0xb6ff6a13	-7.611941e-06
92	0xb71f0e7b	-9.48051e-06
93	0xb831f086	-4.2424093e-05
94	0xb88c7e1b	-6.699209e-05
95	0xb8ceb299	-9.856112e-05
96	0xb8fca69e	-0.00012047331
97	0xb8dd8b6c	-0.000105640705
98	0xb8dd3cba	-0.000105494124
99	0xb8fcf7ce	-0.000120624536
100	0xb8bbe778	-8.959969e-05
101	0xb77535f9	-1.46157045e-05
102	0xb737ec79	-1.0962708e-05
103	0xb4d1be08	-3.906755e-07
104	0xb6257536	-2.4655142e-06
105	0xb7223fcb	-9.670805e-06
106	0xb7673c6c	-1.3782741e-05
107	0xb6bc7453	-5.6163785e-06
108	0xb31a4e51	-3.5927147e-08
109	0xb22cff9e	-1.0069838e-08
110	0x00000000	0.0
111	0x00000000	0.0
112	0x00000000	0.0
113	0x00000000	0.0
114	0x0a014e40	6.225841e-33
115	0x2fbfa23d	3.4857975e-10
116	0xb0d1b714	-1.5258785e-09
117	0xb5d9efb1	-1.6237519e-06
118	0xb7f776fe	-2.9500105e-05
119	0xb8becff2	-9.098639e-05
120	0xb855c626	-5.0967697e-05
121	0xb7cf8574	-2.4738467e-05
122	0x386e9d25	5.6889974e-05
123	0x39163dae	0.00014328092
124	0x397efccf	0.00024317506
125	0x39894142	0.00026179297
126	0x399bc32c	0.00029709318
127	0x398fa769	0.00027399816
128	0x397962a7	0.00023783241
129	0x38ea30c0	0.0001116707
130	0x3784900f	1.5802709e-05
131	0xb861a5b8	-5.3798518e-05
132	0xb7c5d9ad	-2.3585593e-05
133	0xb7672bc2	-1.3778861e-05
134	0xb780d71d	-1.5358959e-05
135	0xb7256018	-9.85714e-06
136	0x32369f9b	1.0630084e-08
137	0xb24741fe	-1.1598329e-08
138	0x28cf7abc	2.3034844e-14
139	0x00000000	0.0
140	0x00000000	0.0
141	0x00000000	0.0
142	0x9809c152	-1.7804437e-24
143	0x36856a40	3.976078e-06
144	0x368a1fee	4.1164376e-06
145	0xb62a1cee	-2.5348813e-06
146	0x36bfeff5	5.7201783e-06
147	0xb7b21ecb	-2.1233593e-05
148	0xb89fbcf2	-7.6169046e-05
149	0x380d6ce5	3.3718436e-05
150	0x38d1d08d	0.00010004742
151	0xb85a421c	-5.203682e-05
152	0xb6f5b0f4	-7.322169e-06
153	0xb912d88a	-0.00014004312
154	0xb8e5c7e8	-0.00010956806
155	0xb90ce8c3	-0.00013438151
156	0x38affdc8	8.391921e-05
157	0x38fb5a64	0.00011985449
158	0x395ecc39	0.00021247649
159	0x38d36c23	0.00010081406
160	0xb78337c8	-1.5642392e-05
161	0xb7ba33cb	-2.2197046e-05
162	0xb70435e5	-7.880361e-06
163	0x3680250c	3.81901e-06
164	0x3731662a	1.0573809e-05
165	0x35995b89	1.1426029e-06
166	0x2df48eca	2.7803e-11
167	0x00000000	0.0
168	0x00000000	0.0
169	0x00000000	0.0
170	0x3385da5c	6.2330145e-08
171	0x379b1f47	1.8492005e-05
172	0x378783bd	1.61546e-05
173	0xb6f5ab6e	-7.321526e-06
174	0x37e79803	2.7608132e-05
175	0xb758c37b	-1.2920117e-05
176	0xb7bba8a7	-2.2370672e-05
177	0x39c21ada	0.0003702257
178	0x39482679	0.00019087819
179	0xb9bfd4e7	-0.00036588983
180	0xb9f689c3	-0.00047023417
181	0xba087475	-0.0005205342
182	0xb9decd7f	-0.00042496246
183	0xb9db4df6	-0.0004182902
184	0xb98f163e	-0.00027291657
185	0xb800c9e7	-3.0705614e-05
186	0x3992c6a5	0.00027995292
187	0x3a34f562	0.000690302
188	0x3a325385	0.00068026065
189	0x39f1772b	0.0004605589
190	0x39afe433	0.00033548623
191	0x3898daac	7.2886556e-05
192	0x38c75417	9.5047224e-05
193	0x389f0741	7.583062e-05
194	0x2f894e8a	2.497596e-10
195	0x2bddb480	1.5753093e-12
196	0x959b88ba	-6.281972e-26
197	0xad5747f9	-1.2237316e-11
198	0x31b5a5d0	5.286644e-09
199	0x36b5659c	5.4060492e-06
200	0xb7e686c9	-2.74809e-05
201	0xb888eec4	-6.529459e-05
202	0xb7f6e686	-2.9432831e-05
203	0x38ec539a	0.00011268929
204	0x398e0c39	0.00027093457
205	0x3a878005	0.0010337835
206	0x39d4c328	0.00040581194
207	0xba090fa4	-0.0005228466
208	0xba529522	-0.0008033087
209	0xba15a35b	-0.0005708241
210	0xb9850e53	-0.0002537841
211	0x37b5537c	2.1615757e-05
212	0x385bf961	5.244592e-05
213	0xb7cfff5e	-2.4795238e-05
214	0x39192b4a	0.00014607343
215	0x38d6f86b	0.00010250587
216	0x392c455f	0.00016429041
217	0x3895335f	7.114442e-05
218	0x39ac87b2	0.00032907497
219	0x39184847	0.00014522775
220	0x38e190a9	0.00010755781
221	0x385940ed	5.17973e-05
222	0x352dedb6	6.4793437e-07
223	0x2c383e4b	2.6182552e-12
224	0x969e0421	-2.5528882e-25
225	0xb4e9451c	-4.3449916e-07
226	0xb1f5df3a	-7.1558164e-09
227	0xb5e80b89	-1.7288704e-06
228	0xb7922972	-1.7423856e-05
229	0x38797053	5.9470836e-05
230	0x391f0fd8	0.00015169324
231	0x395f8957	0.000213181
232	0x39bdfcac	0.00036237144
233	0x3a801b8f	0.0009773838
234	0xb9046c88	-0.00012628932
235	0xba5aa8ea	-0.000834121
236	0xba4896ac	-0.00076518464
237	0xb85b0111	-5.2214662e-05
238	0x3969c3e2	0.00022293584
239	0xb9a00e7e	-0.00030528376
240	0xb97d0ea6	-0.00024133417
241	0xb9fb5d4a	-0.00047943956
242	0xb9e2ee52	-0.00043283642
243	0xb82de588	-4.1460182e-05
244	0xb92b135c	-0.00016315043
245	0xb906ab06	-0.00012842947
246	0xb8858918	-6.36747e-05
247	0x38adf823	8.295502e-05
248	0x3888d00c	6.523737e-05
249	0x38328287	4.256007e-05
250	0x358daf47	1.0556331e-06
251	0x9a856e39	-5.5185585e-23
252	0xa40452a6	-2.8692943e-17
253	0xb34bbaef	-4.7434636e-08
254	0xb3026836	-3.0362763e-08
255	0x358da47c	1.055319e-06

exp_avg_sq f4 [50, 784]
0	0x00000000	0.0
1	0x00000000	0.0
2	0x00000000	0.0
3	0x00000000	0.0
4	0x00000000	0.0
5	0x00000000	0.0
6	0x00000000	0.0
7	0x00000000	0.0
8	0x00000000	0.0
9	0x00000000	0.0
10	0x00000000	0.0
11	0x00000000	0.0
12	0x00000000	0.0
13	0x00000000	0.0
14	0x00000000	0.0
15	0x00000000	0.0
16	0x00000000	0.0
17	0x00000000	0.0
18	0x00000000	0.0
19	0x00000000	0.0
20	0x00000000	0.0
21	0x00000000	0.0
22	0x00000000	0.0
23	0x00000000	0.0
24	0x00000000	0.0
25	0x00000000	0.0
26	0x00000000	0.0
27	0x00000000	0.0
28	0x00000000	0.0
29	0x00000000	0.0
30	0x00000000	0.0
31	0x00000000	0.0
32	0x00000000	0.0
33	0x27327a9c	2.476893e-15
34	0x2df09310	2.735015e-11
35	0x2f7fdc29	2.3270331e-10
36	0x2c42de00	2.7692293e-12
37	0x2978b2e7	5.5222235e-14
38	0x2aa0d7c4	2.8571427e-13
39	0x308bde7c	1.0176815e-09
40	0x31889b24	3.9757584e-09
41	0x306c0955	8.586956e-10
42	0x310c276e	2.0395095e-09
43	0x2f68fea0	2.1190738e-10
44	0x2fc2a9d8	3.5409076e-10
45	0x2dd61960	2.4340252e-11
46	0x298728e5	6.0022984e-14
47	0x2b48dd69	7.136154e-13
48	0x2aac4c30	3.0606203e-13
49	0x290fdf9c	3.194633e-14
50	0x29bab532	8.291492e-14
51	0x299ce9c8	6.968346e-14
52	0x00000000	0.0
53	0x00000000	0.0
54	0x00000000	0.0
55	0x00000000	0.0
56	0x00000000	0.0
57	0x00000000	0.0
58	0x249ca0d4	6.792667e-17
59	0x2c898c3e	3.909344e-12
60	0x2b02d790	4.648443e-13
61	0x294b44e2	4.51348e-14
62	0x2fed6a21	4.3185458e-10
63	0x305a99ea	7.9526663e-10
64	0x30348b2c	6.5681394e-10
65	0x320a65cb	8.055802e-09
66	0x30b78a9f	1.3354401e-09
67	0x302253f7	5.905458e-10
68	0x32283292	9.790385e-09
69	0x32c121e5	2.248357e-08
70	0x321ee3c3	9.248597e-09
71	0x320a54d4	8.051945e-09
72	0x321d2956	9.1480015e-09
73	0x31c03015	5.5934017e-09
74	0x30b6f5b4	1.3312076e-09
75	0x306a2fac	8.519645e-10
76	0x30a59365	1.2047222e-09
77	0x3062ff26	8.258091e-10
78	0x307f75ad	9.2935687e-10
79	0x2d938fb0	1.6775775e-11
80	0x2ea4e222	7.498026e-11
81	0x2e324fb8	4.054332e-11
82	0x00000000	0.0
83	0x00000000	0.0
84	0x00000000	0.0
85	0x00000000	0.0
86	0x25be0f20	3.2969995e-16
87	0x2e113f08	3.3025166e-11
88	0x2e6125fe	5.119282e-11
89	0x2f1a1c6a	1.4016313e-10
90	0x30ebd5fc	1.7159318e-09
91	0x322c939f	1.0045283e-08
92	0x32a35665	1.9014985e-08
93	0x331e4852	3.6853017e-08
94	0x338ae0ef	6.467041e-08
95	0x338e82cd	6.636183e-08
96	0x33b225e4	8.295663e-08
97	0x33d6adb6	9.9967494e-08
98	0x33b38048	8.358671e-08
99	0x33ae4609	8.115246e-08
100	0x33a6df4a	7.7705934e-08
101	0x337d3e43	5.896278e-08
102	0x332bd72c	4.0009738e-08
103	0x33175de8	3.5242834e-08
104	0x321e8502	9.227053e-09
105	0x324b7d25	1.184461e-08
106	0x31e7f5eb	6.7509425e-09
107	0x31e86455	6.763495e-09
108	0x3117af4d	2.207304e-09
109	0x2e774e89	5.623105e-11
110	0x00000000	0.0
111	0x00000000	0.0
112	0x00000000	0.0
113	0x00000000	0.0
114	0x23bf23e2	2.0723458e-17
115	0x2b64c747	8.1278425e-13
116	0x305a574a	7.9431983e-10
117	0x324757ba	1.1603271e-08
118	0x32857a20	1.5538774e-08
119	0x332638de	3.8701607e-08
120	0x33aedf1e	8.143091e-08
121	0x34463657	1.8459956e-07
122	0x347fe306	2.3831316e-07
123	0x34d5a45e	3.9793935e-07
124	0x34fd516d	4.7184167e-07
125	0x350c1753	5.2188005e-07
126	0x34fb5706	4.681571e-07
127	0x35073685	5.0370755e-07
128	0x34f3b60b	4.539473e-07
129	0x34c32481	3.634814e-07
130	0x349ac5de	2.8828703e-07
131	0x345fd54b	2.0846089e-07
132	0x33ff74d1	1.18956116e-07
133	0x33c3a30d	9.110054e-08
134	0x338bd83b	6.512024e-08
135	0x333e8004	4.4354252e-08
136	0x32c62b8e	2.307004e-08
137	0x319022d9	4.1949133e-09
138	0x276f9b2a	3.3252027e-15
139	0x00000000	0.0
140	0x00000000	0.0
141	0x00000000	0.0
142	0x2796655f	4.174327e-15
143	0x3007bd8f	4.9382093e-10
144	0x325ea9fc	1.2960751e-08
145	0x3366db9d	5.3750785e-08
146	0x3386dfc9	6.2805675e-08
147	0x33d35338	9.8405906e-08
148	0x34a217b3	3.0192095e-07
149	0x3502ec60	4.8772745e-07
150	0x352ec454	6.5105746e-07
151	0x357bb41e	9.376689e-07
152	0x35a63c19	1.2385455e-06
153	0x35cd6690	1.530354e-06
154	0x35d3cb5e	1.5779913e-06
155	0x35cf938a	1.5465641e-06
156	0x35c4f0f8	1.4673269e-06
157	0x35a5fba2	1.2366693e-06
158	0x35866205	1.0012305e-06
159	0x352be8d4	6.4041274e-07
160	0x34cca114	3.811516e-07
161	0x34641592	2.1242002e-07
162	0x340e6b36	1.3263784e-07
163	0x33d8e56e	1.0100017e-07
164	0x336ea4b5	5.5563493e-08
165	0x3229db67	9.886981e-09
166	0x2d1a2eaa	8.764248e-12
167	0x00000000	0.0
168	0x00000000	0.0
169	0x00000000	0.0
170	0x302d59e0	6.3064753e-10
171	0x32081576	7.9211215e-09
172	0x331c9dcc	3.6465096e-08
173	0x33e752b3	1.07718186e-07
174	0x345c7b84	2.0534031e-07
175	0x34c6b00d	3.7008468e-07
176	0x353876eb	6.871839e-07
177	0x3585ecf8	9.978239e-07
178	0x35bf2131	1.4240269e-06
179	0x3608ca4f	2.0383338e-06
180	0x36202945	2.386588e-06
181	0x36354103	2.7008944e-06
182	0x3636b1fa	2.722371e-06
183	0x362a8898	2.5411482e-06
184	0x361f8d4b	2.377509e-06
185	0x360ce84d	2.0996843e-06
186	0x35f03a6f	1.78984e-06
187	0x35c4a388	1.4650732e-06
188	0x358f7efe	1.069129e-06
189	0x351a804e	5.755618e-07
190	0x3493e630	2.7548367e-07
191	0x3449f399	1.8808204e-07
192	0x33d15e13	9.749433e-08
193	0x32f74bba	2.8789021e-08
194	0x2dc58a0a	2.2457609e-11
195	0x25b74096	3.1789205e-16
196	0x1b1f775e	1.3190741e-22
197	0x304fc871	7.5591006e-10
198	0x2fdf7310	4.064522e-10
199	0x329f6c85	1.8559385e-08
200	0x33a83bca	7.833985e-08
201	0x3441be5f	1.8043782e-07
202	0x34ce6e90	3.8450935e-07
203	0x3534c1e6	6.7337385e-07
204	0x359b0bef	1.1551873e-06
205	0x35f315c3	1.8111244e-06
206	0x361f72bd	2.3759633e-06
207	0x36467adf	2.957582e-06
208	0x36557282	3.1806126e-06
209	0x36554dcf	3.1784764e-06
210	0x364284c3	2.898553e-06
211	0x36414750	2.880075e-06
212	0x363fa5a9	2.8557645e-06
213	0x363e64f5	2.837097e-06
214	0x362e898d	2.6008086e-06
215	0x361af8cc	2.3092607e-06
216	0x35e699aa	1.7181058e-06
217	0x358f9a22	1.0699189e-06
218	0x3515f079	5.585676e-07
219	0x349bb4ed	2.900264e-07
220	0x3411fa44	1.3595223e-07
221	0x33051717	3.0987476e-08
222	0x3066a952	8.391413e-10
223	0x26ca0f68	1.4020742e-15
224	0x1d2498a0	2.1784125e-21
225	0x2e75b85d	5.5870298e-11
226	0x31df3aa0	6.496819e-09
227	0x334c6212	4.7586646e-08
228	0x3457ae18	2.008677e-07
229	0x34dd7018	4.1246017e-07
230	0x353cae37	7.0288974e-07
231	0x3590181a	1.073585e-06
232	0x35cfabda	1.5472717e-06
233	0x361631f5	2.238082e-06
234	0x363af4d6	2.7858673e-06
235	0x364a3752	3.0132546e-06
236	0x3642a571	2.9004552e-06
237	0x36310bc3	2.6381902e-06
238	0x362aee18	2.5470563e-06
239	0x36357eed	2.7044982e-06
240	0x36493ed4	2.9987905e-06
241	0x36528dd5	3.1374996e-06
242	0x3648c612	2.9917614e-06
243	0x362c52fa	2.5678296e-06
244	0x3608b258	2.036939e-06
245	0x35c185d9	1.4418575e-06
246	0x353981c5	6.910671e-07
247	0x34a3a756	3.048287e-07
248	0x34027516	1.2149789e-07
249	0x333e23f1	4.427051e-08
250	0x3186dcc9	3.9250136e-09
251	0x1687c12f	2.1932342e-25
252	0x29a5eacf	7.368205e-14
253	0x2e9a89f0	7.027612e-11
254	0x325e84df	1.2952312e-08
255	0x33a489a9	7.661885e-08

exp_avg f4 [50]
0	0x39590909	0.00020698099
1	0x3993dc12	0.0002820199
2	0x398716b7	0.0002576613
3	0x388c888a	6.7011526e-05
4	0x39284fce	0.00016051458
5	0xb9281bae	-0.0001603204
6	0xb928f56e	-0.00016113158
7	0x3a0c4179	0.00053503324
8	0x3a238d97	0.0006239055
9	0xb8eccd3f	-0.00011291587
10	0x3a237d1e	0.00062366005
11	0xba79c968	-0.0009528608
12	0x3a05db93	0.00051062665
13	0xb9ec6b74	-0.00045093487
14	0xb96143f7	-0.00021482991
15	0xb9fa523c	-0.00047744985
16	0x39931963	0.0002805694
17	0xb9bd40ff	-0.00036097315
18	0xba5354dd	-0.0008061657
19	0xba7400d0	-0.00093079824
20	0x3b2df244	0.0026542107
21	0x39812281	0.00024630505
22	0xba293dbd	-0.0006456038
23	0xba53cd49	-0.0008079601
24	0x38344617	4.298062e-05
25	0x38db230a	0.0001044926
26	0xb97b28c8	-0.00023952418
27	0xba28feeb	-0.0006446677
28	0xb9e95400	-0.00044503808
29	0x39f1dc30	0.00046131155
30	0x3916e64d	0.00014390908
31	0xb9baccf9	-0.000356294
32	0xbabb3694	-0.0014283233
33	0xb96c680a	-0.00022545471
34	0xb60f4b00	-2.1352316e-06
35	0x397280b0	0.00023126858
36	0xb90ccc9a	-0.0001342766
37	0xb9fb8fca	-0.00047981582
38	0x3ada95b2	0.0016676693
39	0x3ac394d7	0.0014921677
40	0xb980f3fe	-0.0002459585
41	0xb9917c0f	-0.00027748986
42	0x3a7b0053	0.00095749384
43	0xb951380e	-0.00019952675
44	0xb9e727b2	-0.0004408933
45	0xb98fe9af	-0.00027449193
46	0xba028594	-0.0004979011
47	0x3aaa2a82	0.0012982639
48	0x39deaa10	0.00042469846
49	0xb9a2d06c	-0.00031054334

exp_avg_sq f4 [50]
0	0x36f10d02	7.183874e-06
1	0x37a553bb	1.9708523e-05
2	0x37f3cd8d	2.9063574e-05
3	0x3780bf49	1.5347863e-05
4	0x366630df	3.4301117e-06
5	0x36fd4138	7.54758e-06
6	0x35b90808	1.3785912e-06
7	0x379c201e	1.8611605e-05
8	0x372ee7e7	1.0425202e-05
9	0x36c1fd55	5.78134e-06
10	0x36bcbc33	5.624746e-06
11	0x37178e6b	9.033461e-06
12	0x37615fad	1.3433321e-05
13	0x36e99030	6.9607268e-06
14	0x370b0ee9	8.288517e-06
15	0x3717d6b0	9.050287e-06
16	0x376d04ef	1.41274495e-05
17	0x361f3536	2.372382e-06
18	0x375c75a2	1.314041e-05
19	0x3777f372	1.4779029e-05
20	0x377ca851	1.505956e-05
21	0x378bd8b5	1.6671003e-05
22	0x37596bf7	1.2959345e-05
23	0x37671b99	1.37750985e-05
24	0x373bbf48	1.1190605e-05
25	0x376572f9	1.3676233e-05
26	0x37825822	1.5538248e-05
27	0x378f1490	1.7056504e-05
28	0x36de847b	6.6315383e-06
29	0x372dc9a9	1.0358556e-05
30	0x37038d66	7.84113e-06
31	0x3727dd0a	1.000544e-05
32	0x37879fc6	1.6167654e-05
33	0x377171da	1.43912275e-05
34	0x37944652	1.767572e-05
35	0x374de7b4	1.22729e-05
36	0x3766133a	1.3713545e-05
37	0x371049c1	8.600241e-06
38	0x36c1c0a3	5.774274e-06
39	0x37455cd6	1.176373e-05
40	0x36c9e4b9	6.0168936e-06
41	0x37533adf	1.2590287e-05
42	0x37687a0d	1.3856695e-05
43	0x37573ba2	1.2828883e-05
44	0x374e40fb	1.2293686e-05
45	0x360e7fb0	2.1233973e-06
46	0x36b3a6d5	5.3540375e-06
47	0x370401d1	7.868236e-06
48	0x37704520	1.4321209e-05
49	0x3785fa35	1.5971347e-05

exp_avg f4 [10, 50]
0	0xbab4e379	-0.0013800702
1	0xba31ca78	-0.00067821844
2	0xba2965a6	-0.0006461985
3	0xba2836a0	-0.0006416831
4	0xba289d76	-0.0006432155
5	0xb80d00f2	-3.36179e-05
6	0xb9a11833	-0.00030726343
7	0x39d3e377	0.0004041453
8	0x39fbbd2b	0.00048015392
9	0x3ad226a2	0.0016033242
10	0x39b08141	0.00033665638
11	0xb9d1ed85	-0.00040040552
12	0xbaa412a4	-0.0012517762
13	0x3aaf6ee8	0.0013384493
14	0x38ebcda8	0.0001124398
15	0x3995d5b7	0.00028578725
16	0xbae82fff	-0.0017714499
17	0x3923908c	0.00015598739
18	0x3a8fc2af	0.0010968054
19	0x3a7e84a9	0.0009709099
20	0x3a215b28	0.0006155246
21	0x3b1abe28	0.0023611877
22	0x3a54bdc7	0.0008115437
23	0x3b3a7e34	0.002845657
24	0xb668eefc	-3.4709801e-06
25	0xbb2002d7	-0.0024415755
26	0xbb539ba8	-0.0032288823
27	0x3a66a257	0.0008797994
28	0x3844e764	4.694554e-05
29	0xba55ec38	-0.00081605045
30	0x39fcd99a	0.0004822731
31	0x3a4b41dd	0.000775365
32	0x3888a79a	6.5162036e-05
33	0x3b6d4c2a	0.0036208727
34	0xb807e5d4	-3.2400552e-05
35	0x3ab6ede8	0.00139564
36	0x3a68547b	0.0008862686
37	0x390f1eb7	0.00013648985
38	0xb809df06	-3.2871052e-05
39	0x39f85e54	0.00047372526
40	0x3ad1b66e	0.0015999803
41	0x39e33bdc	0.00043341413
42	0x38b246d2	8.500893e-05
43	0xbb94658a	-0.004528706
44	0xb9e4fda1	-0.00043676517
45	0x3800486f	3.0585037e-05
46	0x3a0d475d	0.0005389357
47	0xbaca8871	-0.001545204
48	0xbad65ce4	-0.0016354588
49	0x399eea83	0.00030310833
50	0x381b61e4	3.7046048e-05
51	0x3a3bce2a	0.0007164205
52	0xb98847e7	-0.00025993513
53	0x3a234d50	0.0006229477
54	0xbae4d9d4	-0.0017459937
55	0xbb3d83bf	-0.0028917638
56	0x3535fb1e	6.779318e-07
57	0x3b8ecde6	0.004358041
58	0xba6d1b48	-0.0009044898
59	0xb9a4e11a	-0.0003144823
60	0xbb06008a	-0.0020447099
61	0xbbcd915f	-0.006273433
62	0xbaa26f32	-0.0012392758
63	0xba234f04	-0.0006229731
64	0x39e13eff	0.0004296228
65	0x3a817929	0.0009878027
66	0xbb30b175	-0.0026961241
67	0x39ad9a98	0.00033112313
68	0x37e675b8	2.7472954e-05
69	0xb9a22151	-0.0003092387
70	0x3b182fa4	0.0023221755
71	0xbc10c353	-0.008835631
72	0xbb229dfe	-0.002481341
73	0xba1d2f34	-0.00059961085
74	0x3b1d7f4a	0.002403217
75	0x37a20462	1.9313946e-05
76	0x3a1f75b7	0.00060829095
77	0xbb6af7a7	-0.0035853179
78	0xb7a227de	-1.933047e-05
79	0xbb68b63a	-0.0035509006
80	0xbbbb92de	-0.005724295
81	0x38958098	7.128826e-05
82	0xbb47d9e5	-0.0030494865
83	0x3b015ea5	0.001974025
84	0x3a4f7661	0.0007914063
85	0xb9f80d2d	-0.00047312063
86	0xbb08fea6	-0.0020903735
87	0x3a0276e3	0.0004976822
88	0xb9ee878f	-0.00045495896
89	0xb9992da2	-0.00029216433
90	0xbacb1514	-0.0015493953
91	0xbb8f14a3	-0.0043664738
92	0xbb724a6a	-0.0036970624
93	0x3a995151	0.0011697208
94	0x38aa6d04	8.1265374e-05
95	0x37aced3e	2.0614472e-05
96	0xbacb6816	-0.0015518691
97	0xb9c4547b	-0.00037446976
98	0x3a0022e0	0.0004888009
99	0xbb251453	-0.0025189116
100	0xbb60d08b	-0.0034303989
101	0x3a31321e	0.0006759482
102	0x39dc5ffe	0.0004203319
103	0xbaa76c26	-0.001277332
104	0xbb5ff897	-0.003417527
105	0x3b262d70	0.0025356673
106	0xbaa6fd6b	-0.0012740319
107	0x3bc8573f	0.006113916
108	0xba058884	-0.000509389
109	0xbb1d591e	-0.0024009417
110	0x3b0e289c	0.0021691686
111	0x3b01d562	0.0019811024
112	0x3ab67a1a	0.0013921887
113	0xbb89034a	-0.0041813003
114	0xb9b1393d	-0.00033802717
115	0xbb20ec68	-0.0024554972
116	0x3c0270d2	0.007961469
117	0x39177591	0.00014444279
118	0xbb230bc9	-0.002487885
119	0x3aa4f9ea	0.0012586687
120	0xbb998993	-0.0046855896
121	0xbb08ef7e	-0.0020894702
122	0x3b96a0ac	0.0045967903
123	0xbae6ea62	-0.0017617459
124	0x3a5d2dda	0.00084373134
125	0xbb9d5ac2	-0.004802079
126	0xbb7c1ee9	-0.0038470572
127	0xbb711f6e	-0.0036792415
128	0x38d21750	0.000100179226
129	0x3b8f1708	0.004366759
130	0x3b836d51	0.0040108343
131	0x3a2345fa	0.0006228384
132	0x3ac10a22	0.0014727751
133	0xbb02d4be	-0.001996323
134	0x3a83ff4a	0.0010070589
135	0x39ee6e91	0.00045477276
136	0xbb176f97	-0.0023107284
137	0x397cffe4	0.0002412792
138	0xb88cdf66	-6.7173314e-05
139	0xbaec6f80	-0.0018038601
140	0xb91c4366	-0.00014902427
141	0xba984c31	-0.0011619386
142	0x3c03d9ea	0.00804756
143	0xba03c79d	-0.0005026998
144	0xb9352968	-0.0001727693
145	0xbaaf9a45	-0.0013397416
146	0x3b0ce2cf	0.0021497493
147	0xbbbd772c	-0.0057820287
148	0x3a65157a	0.0008738857
149	0x3b03b685	0.0020097804
150	0x3b6d7559	0.0036233275
151	0x3b100dba	0.0021980838
152	0xbb6fdd0f	-0.0036600267
153	0x3b0ad6b2	0.0021185097
154	0x3b50fae8	0.0031887833
155	0x39e7979c	0.0004417271
156	0x3ad9e346	0.0016623519
157	0x39ad84f4	0.0003309619
158	0xbc306087	-0.010765201
159	0x3935f46a	0.00017352556
160	0xbb3f5544	-0.002919511
161	0xbb5c12ca	-0.0033580535
162	0x3b830cc2	0.0039993236
163	0x397a7178	0.00023884128
164	0x3ab05c56	0.0013455253
165	0x3c2bddb4	0.01048987
166	0x3a51d032	0.0008003741
167	0xb92da612	-0.00016560432
168	0x3aea9b38	0.0017899042
169	0xbba2ab94	-0.0049643014
170	0xbbda8b9d	-0.006669475
171	0xbab6166c	-0.001389218
172	0x3c5f8de2	0.013644667
173	0x3b3ed614	0.00291193
174	0xbb82bc43	-0.0039897277
175	0xb8b4c520	-8.619786e-05
176	0x3a74f1dd	0.0009343902
177	0x3b90c3f3	0.00441789
178	0x3a6d0847	0.0009042066
179	0xba740254	-0.0009308208
180	0xbba62862	-0.005070732
181	0x3c175521	0.009236605
182	0xb9c0c4df	-0.00036767774
183	0xba965cc5	-0.0011471739
184	0x3c73f342	0.01488954
185	0x3a72d87a	0.0009263825
186	0x3b8ea416	0.0043530567
187	0x3a578e6f	0.00082228234
188	0x37c1d2c7	2.3105544e-05
189	0x38ace960	8.2450686e-05
190	0x3b39ff64	0.0028380984
191	0xba82686a	-0.0009949331
192	0xbbdf7e76	-0.0068204952
193	0x3b7afe5c	0.0038298583
194	0x3ba1290e	0.004918224
195	0xba7e147d	-0.0009692384
196	0xbae131a3	-0.0017180931
197	0xb94afec4	-0.00019359129
198	0xba19f56d	-0.0005873058
199	0x3a8d1a5b	0.0010765301
200	0x3b98ec48	0.004666839
201	0x3ab6009e	0.0013885682
202	0xb9423270	-0.00018520071
203	0xb7258636	-9.866015e-06
204	0xbb235802	-0.0024924283
205	0xb90c7e42	-0.00013398475
206	0xb94bf47f	-0.0001945067
207	0x399cb845	0.0002989193
208	0xbac92b76	-0.0015348035
209	0x3a1e15fb	0.0006030497
210	0x3b2becba	0.002623363
211	0x386ed110	5.6938326e-05
212	0xb991862b	-0.00027756518
213	0xb9b44a5d	-0.0003438768
214	0x388556b5	6.358085e-05
215	0x3b363184	0.002780051
216	0x3b57a5b7	0.003290517
217	0xbac0c4f4	-0.0014707134
218	0xbb2e4636	-0.0026592142
219	0x39d287ce	0.00040155504
220	0x3b1ebcd1	0.002422143
221	0x38d6e0f6	0.000102462174
222	0xbad03dbb	-0.0015887538
223	0x39f94beb	0.00047549544
224	0x39297ab4	0.00016162806
225	0x3bc55718	0.0060223453
226	0xbb194e0e	-0.0023392471
227	0x392807cd	0.00016024635
228	0x3bc17c0c	0.00590468
229	0x3a899781	0.0010497422
230	0x3ac97e29	0.0015372682
231	0x38a2a03f	7.75461e-05
232	0xba998f3e	-0.0011715663
233	0x3986290c	0.00025589054
234	0x3a506e89	0.00079510413
235	0xbbddad57	-0.0067650485
236	0x3a97e30b	0.001158805
237	0xbb0df7aa	-0.0021662512
238	0x3a0748cd	0.00051606895
239	0xba1a9ece	-0.00058982975
240	0xbacb57d3	-0.0015513845
241	0xbb229584	-0.0024808357
242	0x397dfe83	0.00024222773
243	0xbb175aa2	-0.0023094793
244	0xbaa86be5	-0.0012849538
245	0x38562bdb	5.106242e-05
246	0xb74c0529	-1.2160549e-05
247	0x3bb2f3e4	0.005461203
248	0xbb224857	-0.0024762356
249	0x3a7a96fc	0.00095592416
250	0xbb401639	-0.002931012
251	0x393447b5	0.0001719285
252	0xbb328559	-0.0027240126
253	0x3aa76bba	0.0012773194
254	0x39ebe30d	0.0004499186
255	0x3af59f3c	0.0018739472

exp_avg_sq f4 [10, 50]
0	0x39400390	0.00018311874
1	0x37e0557c	2.6742688e-05
2	0x36e4ea9e	6.8222425e-06
3	0x3758cda2	1.2922481e-05
4	0x37ba32df	2.2196617e-05
5	0x369b6734	4.6313744e-06
6	0x392ad6d5	0.00016292495
7	0x37c660e6	2.3648561e-05
8	0x37a88a6f	2.0091624e-05
9	0x38dcef12	0.00010534948
10	0x381acd28	3.6907528e-05
11	0x37974007	1.8030418e-05
12	0x38cfba5f	9.9052435e-05
13	0x38c91985	9.58918e-05
14	0x392adea4	0.00016295403
15	0x38dccc6f	0.00010528496
16	0x3aacf0fc	0.0013194378
17	0x3591a6a3	1.085184e-06
18	0x39b98c41	0.00035390447
19	0x3794e15c	1.7747916e-05
20	0x381c3c04	3.7249192e-05
21	0x39933b47	0.0002808219
22	0x37b98a71	2.2118185e-05
23	0x393af590	0.00017829821
24	0x37cae712	2.4187877e-05
25	0x3976b583	0.00023528007
26	0x398c9180	0.00026811287
27	0x38fecc98	0.000121497724
28	0x3795060a	1.7764996e-05
29	0x38aa066f	8.10743e-05
30	0x38a4a424	7.850703e-05
31	0x3929e4cd	0.00016202331
32	0x378c78ae	1.6745496e-05
33	0x39a30b86	0.00031098368
34	0x38ada1a5	8.2793915e-05
35	0x385c706a	5.255678e-05
36	0x39070a88	0.00012878526
37	0x370f361f	8.536065e-06
38	0x38b7096e	8.7278764e-05
39	0x388f9548	6.846577e-05
40	0x398c66ce	0.00026779476
41	0x371f3138	9.488598e-06
42	0x3811b070	3.4735014e-05
43	0x39f07242	0.00045861496
44	0x39c51d9a	0.00037596823
45	0x3600fa93	1.921934e-06
46	0x37b62c13	2.1716614e-05
47	0x37b87a9e	2.1991607e-05
48	0x387dda69	6.052331e-05
49	0x37aed37d	2.0840898e-05
50	0x3446eb6e	1.8525836e-07
51	0x392bd350	0.00016386551
52	0x38416a40	4.611374e-05
53	0x38ced6b9	9.862841e-05
54	0x369104bb	4.3218874e-06
55	0x3890ae1e	6.898887e-05
56	0x34e26d85	4.2175466e-07
57	0x3a57b6fc	0.0008228866
58	0x39408448	0.00018359825
59	0x3732e163	1.0662104e-05
60	0x39c9bca2	0.0003847825
61	0x38633efc	5.4179676e-05
62	0x372aeca2	1.0187885e-05
63	0x39ac9226	0.00032915286
64	0x376bff88	1.4066587e-05
65	0x38d7debd	0.00010293487
66	0x39952518	0.00028447132
67	0x377d3be9	1.5093924e-05
68	0x38034435	3.1296357e-05
69	0x394d1d7f	0.00019561312
70	0x39fa93dc	0.0004779388
71	0x390890d2	0.0001302392
72	0x38e585a1	0.00010944461
73	0x39bd2706	0.00036077964
74	0x39c8474c	0.00038200093
75	0x393f2aae	0.00018231079
76	0x3809ac91	3.282406e-05
77	0x39357d84	0.00017308263
78	0x362fdcc4	2.6205535e-06
79	0x39368170	0.00017405092
80	0x38b79ab1	8.7549335e-05
81	0x363a112c	2.7726155e-06
82	0x3853b8f3	5.0478568e-05
83	0x3923df58	0.00015628093
84	0x389ef63b	7.579891e-05
85	0x37869c75	1.60469e-05
86	0x382ad59f	4.073011e-05
87	0x38658ad5	5.4727152e-05
88	0x35a37562	1.2178609e-06
89	0x398ae75f	0.00026493796
90	0x380ec438	3.403818e-05
91	0x39899776	0.00026243523
92	0x39a5c48f	0.000316177
93	0x3888a764	6.516164e-05
94	0x378737a4	1.6119164e-05
95	0x37d1c453	2.5006162e-05
96	0x38a8909f	8.037802e-05
97	0x37f19a5b	2.8801316e-05
98	0x385e1896	5.2951822e-05
99	0x382f91b3	4.1858944e-05
100	0x39781d0c	0.00023661944
101	0x38bc02ee	8.965084e-05
102	0x38005436	3.0596006e-05
103	0x399adcbb	0.00029537626
104	0x38ad3163	8.258482e-05
105	0x38e26be5	0.00010796617
106	0x3882294f	6.2065774e-05
107	0x3a0317fc	0.00050008274
108	0x38d574bd	0.00010178376
109	0x38850b3f	6.344029e-05
110	0x39954f37	0.00028478514
111	0x39c6b63c	0.00037901278
112	0x38cdac0d	9.807209e-05
113	0x3a052cdf	0.00050802337
114	0x38a1e9f6	7.720657e-05
115	0x398a2f16	0.00026356493
116	0x3af3679e	0.0018570309
117	0x375b5421	1.3073005e-05
118	0x38edae63	0.00011333523
119	0x39d03611	0.00039713134
120	0x380e1171	3.387168e-05
121	0x3a515d69	0.00079866365
122	0x391ea2eb	0.00015128746
123	0x39ff3d36	0.00048682996
124	0x3a0277c6	0.0004976954
125	0x3a3e2ba3	0.0007254427
126	0x3a58177f	0.0008243247
127	0x3a05ee8a	0.00051090925
128	0x37dff4ae	2.669761e-05
129	0x3a071f8d	0.0005154543
130	0x3a0df83f	0.00054157147
131	0x385ecce2	5.3119737e-05
132	0x389d3eff	7.498077e-05
133	0x3a0e5fcf	0.0005431147
134	0x39ba05a5	0.0003548089
135	0x393bfddc	0.0001792828
136	0x3952f462	0.000201182
137	0x37d2f1ff	2.5146639e-05
138	0x379ac0bc	1.844798e-05
139	0x385da226	5.284152e-05
140	0x3991bfd1	0.0002779947
141	0x3910357e	0.00013752838
142	0x3a80eb98	0.0009835837
143	0x39adc01e	0.0003314027
144	0x3923aa95	0.00015608438
145	0x3939dc70	0.00017725094
146	0x391c25b4	0.00014891365
147	0x39cb1c8d	0.0003874045
148	0x39018c5f	0.00012354691
149	0x38fe3135	0.00012120829
150	0x38d453ba	0.00010124543
151	0x39a818ca	0.00032061926
152	0x3a1dc81f	0.0006018895
153	0x39057f37	0.0001273126
154	0x38311f85	4.2229443e-05
155	0x38cfe2e3	9.91279e-05
156	0x3820e693	3.836171e-05
157	0x3a434966	0.0007449597
158	0x39a04104	0.00030566019
159	0x382d7e01	4.1363764e-05
160	0x3965df92	0.00021922428
161	0x39cda51e	0.0003922367
162	0x38f5b30b	0.0001171586
163	0x3985bd1f	0.00025508643
164	0x387256f6	5.7778285e-05
165	0x3a67b45d	0.0008838827
166	0x3add555b	0.00168864
167	0x391379ed	0.00014064433
168	0x393723d0	0.00017465581
169	0x398f34bf	0.00027314384
170	0x38ce35ec	9.832889e-05
171	0x3a0174ad	0.00049383455
172	0x3a93d450	0.0011278484
173	0x3a590b99	0.0008279621
174	0x3a052464	0.000507897
175	0x3b05947c	0.0020382693
176	0x390c999b	0.00013408663
177	0x3993be4a	0.000281798
178	0x3813a9ff	3.5205852e-05
179	0x39b136ff	0.00033801046
180	0x3a34467c	0.0006876958
181	0x39cb8a48	0.00038822205
182	0x38335e94	4.276501e-05
183	0x3a631a00	0.0008663237
184	0x3ac22db2	0.0014814644
185	0x3981c7e8	0.0002475374
186	0x39f1fe55	0.00046156594
187	0x3844da51	4.6933365e-05
188	0x3812d357	3.5005938e-05
189	0x391565d2	0.00014247678
190	0x39810028	0.00024604914
191	0x3996cfa1	0.00028764925
192	0x3a2f48b2	0.00066865527
193	0x3a5afade	0.0008353422
194	0x39a3b47f	0.00031224263
195	0x39e73cf4	0.00044105167
196	0x3858337f	5.1546373e-05
197	0x3981c1b8	0.0002474913
198	0x38f9b77a	0.000119074204
199	0x38d3db7d	0.00010102147
200	0x3a192f9a	0.000584358
201	0x38983146	7.257103e-05
202	0x39c2edc5	0.00037179716
203	0x386617bc	5.4858378e-05
204	0x396dbfff	0.00022673605
205	0x3a241b5c	0.00062601804
206	0x37b93e38	2.2082691e-05
207	0x39ca1f62	0.00038551824
208	0x38b68ccc	8.704662e-05
209	0x3917f79f	0.00014492728
210	0x38be5dc1	9.077369e-05
211	0x381e432c	3.7732694e-05
212	0x39de2325	0.00042369324
213	0x3927d375	0.00016005135
214	0x37667bcc	1.3737892e-05
215	0x38f011a9	0.00011447381
216	0x3a18dc1b	0.0005831138
217	0x37c5f4a6	2.3598153e-05
218	0x39f116e2	0.0004598415
219	0x37fc983d	3.0111632e-05
220	0x399ba86d	0.0002968939
221	0x38473d57	4.7502424e-05
222	0x382983c2	4.041545e-05
223	0x39eb6632	0.00044898834
224	0x37e3d336	2.7158861e-05
225	0x3a8d5b4b	0.0010784654
226	0x3a36c50e	0.00069721125
227	0x3636d5f4	2.724465e-06
228	0x3990375d	0.0002750707
229	0x39aca73f	0.00032931005
230	0x396ec77b	0.00022771761
231	0x378406cc	1.5738791e-05
232	0x391488fc	0.0001416541
233	0x3851d810	5.0030707e-05
234	0x3736f13e	1.0904214e-05
235	0x3a80519d	0.0009789948
236	0x37f7e8f0	2.9553164e-05
237	0x399f59c5	0.00030393727
238	0x38298993	4.0420866e-05
239	0x38a1202b	7.68307e-05
240	0x39932aa9	0.0002806981
241	0x39cdd742	0.00039261027
242	0x3670428e	3.5801527e-06
243	0x38fb06eb	0.00011969901
244	0x39c42ae4	0.0003741599
245	0x3790fefe	1.7284878e-05
246	0x374c5ef5	1.2181456e-05
247	0x397c4bcb	0.00024060828
248	0x39c99223	0.00038446588
249	0x38384a88	4.393843e-05
250	0x386984c6	5.5675184e-05
251	0x3999e123	0.00029350174
252	0x39d0312a	0.00039709482
253	0x38730da0	5.7948404e-05
254	0x3779f36e	1.4898234e-05
255	0x386420c7	5.4389962e-05

exp_avg f4 [10]
0	0x39808927	0.0002451625
1	0xb9fa75c7	-0.00047771467
2	0x3a0462cd	0.0005050123
3	0x3a6296f1	0.0008643708
4	0xb9a3ffe9	-0.0003128045
5	0x397541b9	0.00023389504
6	0x3a62e184	0.000865482
7	0xba1966f4	-0.0005851828
8	0xbb2f3988	-0.0026737172
9	0x3aaf0a69	0.0013354543

exp_avg_sq f4 [10]
0	0x37cbc434	2.429085e-05
1	0x37e52ca5	2.7319717e-05
2	0x3860c37f	5.358783e-05
3	0x388d79dc	6.746102e-05
4	0x3847fc3c	4.768021e-05
5	0x386797d8	5.5216107e-05
6	0x37ed0249	2.8253666e-05
7	0x386f31f1	5.7028552e-05
8	0x38ac1d0b	8.207009e-05
9	0x38ae2a71	8.304872e-05
