swastik_web/Learning&Experiments/PytorchTutorials/pytorch lightning/dashboard/mnist_clsfy/version_1.1/checkpoints/epoch=2-step=1125.ckpt (torch, 484079 bytes, 12 tensors)

fc1.weight f4 [50, 784]
-0.00026738644 0.019158702 -0.02939447 -0.026283538 -0.013755513 0.009577051 -0.00070761517 0.028317485
-0.0031694286 0.009450451 -0.010793325 -0.007020192 -0.06001996 -0.048613243 0.013986551 0.02561401
0.014119115 0.021429386 -0.024212182 -0.015552245 0.012972042 0.029656712 -0.007350007 0.026725423
-0.0057565495 0.003779076 0.032338437 -0.033131085 -0.022483498 -0.009041617 -0.013921427 0.030857172
-0.03965079 -0.047066994 -0.09807785 -0.117815845 -0.09746953 -0.04889216 -0.08113274 -0.11046462
-0.1392757 -0.1416311 -0.03806682 -0.14163531 -0.06277221 -0.08582159 -0.074949294 -0.09137228
-0.122111656 -0.08198739 -0.040542793 -0.01895256 0.0141743645 0.0048247464 0.023945943 -0.021028657
0.0066551454 -0.027689483 -0.05496313 -0.08043503 -0.045295924 -0.0047599887 -0.08079323 -0.10305242
-0.11639627 -0.10994442 -0.15306783 -0.19562796 -0.18241134 -0.1022935 -0.12625025 -0.10178022
-0.08321769 -0.04511791 -0.084343836 -0.16489899 -0.18527517 -0.20055787 -0.11125628 -0.11386002
-0.058113635 0.0025655008 0.027155709 -0.035626 0.006684717 -0.0060164295 -0.027161175 -0.1091064
-0.040036805 -0.048407894 -0.06576292 -0.10212411 -0.12942132 -0.09956877 -0.13916098 -0.16755067
-0.15131202 -0.17302537 -0.1873931 -0.19218002 -0.109139256 -0.09552119 -0.15689433 -0.14731722
-0.14833476 -0.11065901 -0.13401891 -0.11978111 -0.09764641 -0.06945302 -0.05444939 0.021192059
-0.021733541 -0.0048517333 0.01409642 -0.07574773 0.015811745 -0.032588877 -0.020903096 -0.045379616
-0.07779874 -0.059745833 -0.11577847 -0.09667514 -0.1501006 -0.12857427 -0.15806647 -0.19815695
-0.2222008 -0.18900315 -0.12662078 -0.1256177 -0.10312391 -0.08579045 -0.041002624 -0.05767403
-0.005631279 -0.0357532 -0.055685412 -0.01602665 0.03383022 0.02268057 0.0009794765 0.013221024
-0.0030214894 0.02086584 0.0667409 0.005921633 0.026741017 0.009214525 -0.048411794 -0.025361633
-0.0021857175 0.022760304 0.01368024 -0.05184128 -0.016807787 -0.05436879 -0.035200257 -0.07855054
-0.0947107 -0.07559319 -0.0750799 -0.03691946 -0.08142875 -0.15212245 -0.109735355 -0.056742094
-0.032144945 -0.057098344 0.051812626 0.05386122 0.10701282 0.08689407 0.006742247 0.054797966
0.05686999 0.030937742 0.050497197 -0.02011588 0.007643341 0.00763527 0.0466151 0.036597714
0.06339748 0.067494065 0.014484053 -0.013552478 -0.064954855 0.004193813 0.023923103 -0.0035968404
-0.15913662 -0.14558822 -0.07551135 -0.084949285 -0.01819409 -0.042582344 0.110783234 0.11787494
0.089921884 0.050993364 -0.0071791206 -0.024348376 -0.0153935775 0.056680366 0.017930288 0.058285728
0.041565422 0.061476383 0.04073598 0.060745772 0.08422781 0.06677364 0.050970677 0.038296282
-0.01157483 0.019120483 0.057381507 -0.0578454 -0.07675322 -0.05718021 0.0087783085 -0.068377316
-0.07448357 0.05979905 0.12126355 0.07331974 0.05143594 0.014344023 -0.0036649872 0.02693665
0.010910808 0.060020957 0.0489608 -0.0069364957 0.026693517 0.002925631 0.03963007 0.073442094
0.07588934 0.06868637 0.03308559 0.027245084 0.040093873 0.005520778 0.053950794 -0.01882744
-0.05982491 -0.10700017 -0.08410516 -0.060497534 0.05365012 0.01246586 -0.0055527315 0.014349077
00000000: 0030 8cb9 b6f2 9c3c accc f0bc 9350 d7bc
00000010: ce5e 61bc 10e9 1c3c 407f 39ba 12fa e73c
00000020: 30b6 4fbb 10d6 1a3c 7cd6 30bc a409 e6bb
00000030: 7dd7 75bd ae1e 47bd d927 653c 79d4 d13c
00000040: dc53 673c ae8c af3c a058 c6bc d8ce 7ebc
00000050: b088 543c a2f2 f23c 54d8 f0bb 46ef da3c
00000060: 70a1 bcbb 60aa 773b 4f75 043d 76b4 07bd
00000070: 502f b8bc 4a23 14bc b216 64bc 2ec8 fc3c
00000080: de68 22bd 52c9 40bd 0add c8bd 6f49 f1bd
00000090: 1b9e c7bd 2543 48bd ec28 a6bd 463b e2bd
000000a0: 4a9e 0ebe be07 11be f4eb 1bbd d908 11be
000000b0: b78e 80bd 3bc3 afbd 047f 99bd 6421 bbbd
000000c0: ad15 fabd 01e9 a7bd 3310 26bd 6642 9bbc
000000d0: 983b 683c e818 9e3b 482a c43c 4a44 acbc
000000e0: 6813 da3b 0ed5 e2bc 0521 61bd 1fbb a4bd
000000f0: 3888 39bd aef9 9bbb ec76 a5bd 260d d3bd
00000100: 2b61 eebd 8a2a e1bd d0bd 1cbe b252 48be
00000110: 0aca 3abe 417f d1bd bf47 01be 2672 d0bd
00000120: 096e aabd 8fcd 38bd 76bc acbd 48db 28be
00000130: c6b8 3dbe 0b5f 4dbe 55da e3bd 712f e9bd
00000140: 9008 6ebd f621 283b a675 de3c 92ec 11bd
00000150: 780b db3b 7825 c5bb 1d81 debc 2d73 dfbd
00000160: a2fd 23bd 5b47 46bd b6ae 86bd 7226 d1bd
00000170: 0687 04be b6ea cbbd 3780 0ebe 6792 2bbe
00000180: 8af1 1abe 902d 31be fae3 3fbe d7ca 44be
00000190: 6784 dfbd 9da0 c3bd e8a8 20be 53da 16be
000001a0: 11e5 17be 31a1 e2bd 413c 09be cc4f f5bd
000001b0: d7fa c7bd 633d 8ebd 5306 5fbd f89a ad3c
000001c0: 8a0a b2bc 4afb 9ebb acf4 663c a021 9bbd
000001d0: a287 813c ea7b 05bd f83c abbc fadf 39bd
000001e0: f254 9fbd 0cb8 74bd 431d edbd 9efd c5bd
000001f0: f9b3 19be f9a8 03be 2ddc 21be a8e9 4abe
00000200: 9b88 63be 0b8a 41be e1a8 01be eda1 00be
00000210: a132 d3bd e7b2 afbd 5ef2 27bd 9b3b 6cbd
00000220: 9886 b8bb f371 12bd 6316 64bd 524a 83bc
00000230: 8f91 0a3d 9acc b93c c761 803a fe9c 583c
00000240: 2e04 46bb d7ee aa3c 74af 883d 420a c23b
00000250: fa0f db3c 85f8 163c 724b 46bd 33c3 cfbc
00000260: 413e 0fbb d173 ba3c 1623 603c 8657 54bd
00000270: 7cb0 89bc cfb1 5ebd 252e 10bd 1bdf a0bd
00000280: aff7 c1bd 9ad0 9abd 7ec3 99bd dc38 17bd
00000290: 1ec4 a6bd fdc5 1bbe eebc e0bd 666a 68bd
000002a0: 6baa 03bd f4df 69bd 7a39 543d 959d 5c3d
000002b0: 8a29 db3d 85f5 b13d 11ee dc3b d573 603d
000002c0: 82f0 683d 2671 fd3c 26d6 4e3d 0fca a4bc
000002d0: fe74 fa3b 4931 fa3b 7aef 3e3d 7ce7 153d
000002e0: 8ad6 813d 543a 8a3d 854e 6d3c 360b 5ebc
000002f0: 0d07 85bd 416c 893b 62fa c33c f8b8 6bbb
00000300: b6f4 22be 1415 15be b2a5 9abd e4f9 adbd
00000310: c60b 95bc d36a 2ebd 52e2 e23d 6b68 f13d
00000320: f728 b83d 6bde 503d d43e ebbb 3f76 c7bc
00000330: 5835 7cbc ac29 683d 8ae2 923c 04bd 6e3d
00000340: 8140 2a3d a9ce 7b3d c5da 263d 8fd0 783d
00000350: a17f ac3d 9ec0 883d a1c6 503d 90dc 1c3d
00000360: 5ba4 3dbc 8fa2 9c3c df08 6b3d 4cef 6cbd
00000370: cb30 9dbd cc35 6abd e5d2 0f3c 6809 8cbd
00000380: d88a 98bd d9ef 743d 0659 f83d a928 963d
00000390: 7eae 523d 3103 6b3c 4830 70bb 40aa dc3c
000003a0: 3fc3 323c 89d8 753d 1f8b 483d 8b4b e3bb
000003b0: 5dac da3c f1bb 3f3b 2453 223d cf68 963d
000003c0: df6b 9b3d 71ab 8c3d c184 073d 1531 df3c
000003d0: 7939 243d a4e7 b43b 82fb 5c3d 013c 9abc
000003e0: f70a 75bd e822 dbbd 533f acbd 43cc 77bd
000003f0: 3ac0 5b3d 9b3d 4c3c b0f3 b5bb 6418 6b3c

fc1.bias f4 [50]
0.09680906 0.09899141 -0.18138792 0.16363768 -4.0719926e-05 0.06426802 0.118983984 0.08806998
0.08676399 0.08471014 -0.031394396 0.08482774 0.016435308 0.0360964 -0.060655184 0.015366935
-0.22887193 0.018318927 0.15062629 0.05499708 0.06434159 -0.10013548 -0.087718606 0.008231162
0.06733828 0.05507608 0.1451603 0.22624964 0.12064832 -0.08288277 -0.09274609 0.08347592
0.21738122 -0.0044580847 -0.0014078564 0.16054039 0.07456857 0.13284005 -0.039334305 0.2046712
0.07509139 0.11413481 0.04428799 -0.015825905 -0.035395846 0.057571314 -0.019594677 -0.00044649382
0.10391999 -0.024723804
00000000: d443 c63d 02bc ca3d c1bd 39be a390 273e
00000010: b0ca 2ab8 f49e 833d e0ad f33d 095e b43d
00000020: 52b1 b13d 837c ad3d 6997 00bd 2bba ad3d
00000030: 57a3 863c d2d9 133d 9271 78bd 99c5 7b3c
00000040: 675d 6abe 9311 963c c73d 1a3e 9e44 613d
00000050: 86c5 833d d513 cdbd d0a5 b3bd ffdb 063c
00000060: a7e8 893d 7597 613d e7a4 143e fcad 673e
00000070: 7716 f73d 71be a9bd a9f1 bdbd 6cf5 aa3d
00000080: 2f99 5e3e 2015 92bb d287 b8ba b364 243e
00000090: 68b7 983d 3907 083e 021d 21bd 5495 513e
000000a0: 84c9 993d 83bf e93d 5367 353d 54a5 81bc
000000b0: 3cfb 10bd e6cf 6b3d 0485 a0bc 6317 eab9
000000c0: 01d4 d43d 9389 cabc

fc2.weight f4 [10, 50]
-0.043585714 -0.3619298 -0.11819317 -0.20586163 -0.0044759503 -0.3408383 0.22225921 -0.20052601
0.10232422 0.13817747 -0.049275663 -0.067851275 -0.03623724 -0.058694504 0.27710122 -0.061242677
0.16119899 0.03770725 0.15383014 0.09336075 -0.16968296 0.24047701 -0.498883 -0.27763692
-0.15247382 -0.10408497 0.059290133 0.2338091 -0.26993164 -0.28454462 -0.065562464 0.21388513
-0.009599085 0.11430363 0.0074500153 -0.22708708 0.18697816 -0.26570016 0.14906237 0.04708045
0.19406827 -0.10371208 -0.20623781 0.20278323 0.19273317 -0.2083665 0.08651107 -0.18921955
0.052116957 -0.1659097 -0.29097518 0.27989125 -0.28670913 0.096472844 -0.3174607 0.21130165
-0.29295936 0.21469201 0.18841003 -0.0964846 0.118948236 -0.18544176 -0.06874988 0.2030642
-0.09986922 0.16849528 -0.19609153 0.14448978 0.20310041 0.20058203 0.16063826 -0.08573682
0.13089171 -0.00048003884 0.19077672 -0.253183 -0.19316892 0.22549824 -0.28619203 0.029561002
-0.245877 -0.119388945 0.16749379 -0.29939294 -0.08695447 -0.32789603 -0.22313322 0.03451015
-0.09684303 0.19080895 -0.35710296 0.18890525 0.19562924 -0.16173898 -0.32852292 0.018785847
0.19343355 -0.2298354 -0.22600591 -0.24551499 0.0654133 -0.17572042 -0.4498946 -0.0115397675
-0.048183184 -0.057072572 -0.014193163 0.09115231 -0.28584635 -0.04158113 0.0590295 0.18441339
-0.24340679 0.19128622 -0.07899196 -0.15566257 0.14469385 -0.16631332 -0.25507042 0.2730094
-0.5031763 0.27867487 -0.25385913 -0.059012227 0.077868946 -0.22113171 0.28086028 0.29783309
-0.1551476 0.14647196 0.1454949 -0.18698096 0.16646905 0.16152409 0.103029385 -0.05894504
0.004236689 -0.099226944 -0.3043737 -0.6132364 0.009103349 -0.026918396 0.25469118 -0.17910631
-0.13635194 0.15272932 -0.01529899 0.23586783 -0.06403127 0.14868917 -0.21885544 0.24252722
0.25891063 -0.38178185 -0.09194988 -0.104572535 0.09012988 0.07769796 -0.1188774 -0.07188004
0.06688512 0.284539 -0.35011417 -0.053727046 -0.19603959 0.15219109 0.16272661 0.086859904
-0.281529 -0.030383958 -0.33318913 -0.18208633 0.14813028 -0.02331597 0.24498634 0.11990953
-0.18615606 -0.061712205 -0.10689221 -0.026533196 0.16095048 0.16951065 0.13683927 -0.16034769
0.22875817 -0.14853925 0.26299673 -0.31504557 -0.18216784 -0.24164505 -0.0748033 0.19458348
0.18095782 0.10267449 -0.23760791 0.18918693 -0.05758497 -0.08524041 0.05222358 -0.17135756
0.1355018 0.065018855 0.13233945 0.1080822 0.09505681 0.2403154 0.040277235 -0.027401809
-0.24153484 0.27738133 0.078726746 0.001013628 0.28393677 0.0107734995 -0.4047674 -0.3248587
-0.08789013 0.1368908 0.10514658 -0.20323598 0.019359058 -0.24656406 0.093592554 0.09306607
-0.2868793 0.0851363 0.16376193 -0.31761888 0.26101774 -0.2058958 0.23179951 -0.3828493
0.27697197 -0.25575894 -0.30957937 0.012780913 -0.20831549 0.30468974 -0.09879573 -0.30023858
0.14627656 0.20522498 -0.2490551 -0.31797072 -0.0013948957 -0.010956173 -0.24033709 -0.16392283
-0.020301508 -0.1949387 -0.21013428 0.21999204 0.15888608 0.15429242 -0.22665665 -0.190175
00000000: ef86 32bd dd4e b9be 430f f2bd 64cd 52be
00000010: feaa 92bb 5c82 aebe eb97 633e b156 4dbe
00000020: 5c8f d13d 657e 0d3e 47d5 49bd 9cf5 8abd
00000030: 806d 14bd a669 70bd 36e0 8d3e 9ad9 7abd
00000040: 5911 253e eb72 1a3d a685 1d3e ec33 bf3d
00000050: 5fc1 2dbe 9b3f 763e 986d ffbe 6d26 8ebe
00000060: 1922 1cbe 802a d5bd 36da 723d a76b 6f3e
00000070: 7b34 8abe d5af 91be 9d45 86bd b404 5b3e
00000080: 7b45 1dbc 0618 ea3d 421f f43b 8489 68be
00000090: 3477 3f3e da09 88be cea3 183e 6ed7 403d
000000a0: d5b9 463e 0067 d4bd 0130 53be 68a6 4f3e
000000b0: d85b 453e 075e 55be b72c b13d c5c2 41be
000000c0: 9778 553d 3be4 29be b3fa 94be e84d 8f3e
000000d0: 8acb 92be 8e93 c53d 358a a2be 765f 583e
000000e0: c5fe 95be 39d8 5b3e 8fee 403e b899 c5bd
000000f0: 229b f33d 72e4 3dbe bdcc 8cbd 10f0 4f3e
00000100: 3c88 ccbd 078a 2c3e 38cc 48be 21f5 133e
00000110: 8ef9 4f3e 6065 4d3e 5b7e 243e c996 afbd
00000120: 7a08 063e b9ad fbb9 f95a 433e 34a1 81be
00000130: 13ce 45be 03e9 663e c387 92be ea29 f23c
00000140: 2ec7 7bbe 3182 f4bd 7e83 2b3e 084a 99be
00000150: 2f15 b2bd fde1 a7be 097d 64be 845a 0d3d
00000160: a355 c6bd 6c63 433e 33d6 b6be 6170 413e
00000170: 0853 483e e79e 25be 2834 a8be c7e4 993c
00000180: 7213 463e f959 6bbe 186e 67be 4868 7bbe
00000190: 69f7 853d 0ef0 33be 9658 e6be 4b11 3dbc
000001a0: bb5b 45bd eec4 69bd 718a 68bc 10ae ba3d
000001b0: 745a 92be fa50 2abd ebc8 713d ddd6 3c3e
000001c0: a13f 79be 89e0 433e 89c6 a1bd 0266 1fbe
000001d0: a02a 143e 0a4e 2abe 9798 82be e3c7 8b3e
000001e0: 29d0 00bf 79ae 8e3e d3f9 81be ceb6 71bd
000001f0: c179 9f3d 5a70 62be ebcc 8f3e 947d 983e
00000200: 03df 1ebe bffc 153e 9dfc 143e f077 3fbe
00000210: dd76 2a3e 9266 253e 1201 d33d 5b70 71bd
00000220: ecd3 8a3b 7f37 cbbd dfd6 9bbe 10fd 1cbf
00000230: 3726 153c f883 dcbc e266 823e a567 37be
00000240: d89f 0bbe 1365 1c3e 9da8 7abc 5687 713e
00000250: d422 83bd f941 183e a41b 60be 0e59 783e
00000260: ef8f 843e e978 c3be 3850 bcbd 202a d6bd
00000270: 0496 b83d 1c20 9f3d ff75 f3bd d835 93bd
00000280: 11fb 883d 19af 913e 2a42 b3be e410 5cbd
00000290: 9abe 48be fbd7 1b3e cea1 263e 9be3 b13d
000002a0: 9224 90be c7e7 f8bc c497 aabe d774 3abe
000002b0: 77af 173e 2201 bfbc b3dd 7a3e 2193 f53d
000002c0: b29f 3ebe f0c5 7cbd 4eea dabd 255c d9bc
000002d0: 34d0 243e 3394 2d3e 981f 0c3e 2f32 24be
000002e0: 953f 6a3e ac1a 18be 82a7 863e a74d a1be
000002f0: 358a 3abe cd71 77be 7932 99bd e440 473e
00000300: 024d 393e 0147 d23d 7d4f 73be 38ba 413e
00000310: 38de 6bbd 8692 aebd 65e8 553d 5b78 2fbe
00000320: fcc0 0a3e 9b28 853d fe83 073e 335a dd3d
00000330: 25ad c23d 3d15 763e bef9 243d c279 e0bc
00000340: e954 77be ed04 8e3e 7d3b a13d b6db 843a
00000350: 2960 913e 5583 303c ac3d cfbe e153 a6be
00000360: beff b3bd 1a2d 0c3e 1757 d73d 181d 50be
00000370: e396 9e3c 4a7b 7cbe 74ad bf3d 6c99 be3d
00000380: d8e1 92be f15b ae3d 35b1 273e f19e a2be
00000390: 1ea4 853e 59d6 52be da5c 6d3e d304 c4be
000003a0: 45cf 8d3e d6f2 82be 3081 9ebe 0967 513c
000003b0: a850 55be 4b00 9c3e 6a55 cabd dfb8 99be
000003c0: 86c9 153e 7f26 523e 4d08 7fbe 0fcd a2be
000003d0: efd4 b6ba 8581 33bc ed1a 76be 63db 27be
000003e0: 594f a6bc 039e 47be 712d 57be 9845 613e
000003f0: 08b3 223e d5fe 1d3e ae18 68be 3cbd 42be

fc2.bias f4 [10]
-0.107692555 0.09471244 0.17597948 0.016340453 0.08389151 0.17777637 0.03459558 0.009214993
-0.1490857 0.03482133
00000000: ea8d dcbd 99f8 c13d f733 343e 6adc 853c
00000010: 50cf ab3d 020b 363e 18b4 0d3d 7bfa 163c
00000020: eca9 18be d0a0 0e3d

exp_avg f4 [50, 784]
0.0 0.0 0.0 0.0 0.0 0.0 0.0 0.0
0.0 0.0 0.0 0.0 -6.2017947e-21 -1.3695566e-19 -1.3729358e-19 -5.72057e-21
0.0 0.0 0.0 0.0 0.0 0.0 0.0 0.0
0.0 0.0 0.0 0.0 0.0 0.0 0.0 0.0
1.5192119e-20 4.4651613e-20 2.1427882e-06 3.0674355e-06 4.9650607e-06 1.9706492e-06 8.809542e-06 3.2347118e-06
1.0307334e-05 5.6699078e-06 1.3634182e-06 7.8333323e-07 6.3540375e-07 2.5379027e-06 3.1630332e-06 3.6273596e-07
1.6734188e-07 1.3234167e-07 1.5397889e-07 1.2939564e-08 0.0 0.0 0.0 0.0
0.0 0.0 5.64672e-14 2.9416793e-07 2.3214447e-10 2.2630597e-11 8.9606164e-07 4.7480576e-06
5.5616874e-06 -2.882404e-06 3.3806966e-06 4.335886e-06 2.7857164e-05 3.073229e-05 3.9077342e-05 7.025833e-05
4.8028018e-05 2.3947558e-05 1.8448673e-05 1.0030016e-05 1.1867165e-05 1.1231113e-05 3.6752147e-06 3.6809427e-06
1.2326669e-06 2.044052e-10 0.0 0.0 0.0 0.0 1.2440428e-13 2.2854585e-06
1.9897352e-06 -7.1865993e-09 1.324104e-06 5.196063e-06 -1.066448e-06 -1.0544231e-05 -5.9841597e-05 -0.00019085423
-5.2387597e-05 0.00012415569 0.00024929034 5.9022554e-05 -0.00017320132 -0.00027453757 -0.00012358437 1.5197987e-05
1.1535746e-05 -2.0386311e-05 1.0203067e-05 4.2412807e-06 8.706118e-07 2.2449492e-12 1.0419328e-19 0.0
0.0 3.9743718e-14 2.1732122e-16 7.907386e-12 -3.8609974e-06 -8.2011604e-05 -0.00010506549 -0.00010431162
-0.00010220291 -0.000194474 -0.000265822 -0.0004163606 -0.00026264094 -8.069286e-05 0.00030573196 0.0003577659
-0.00011656294 -0.00026294723 -2.5926929e-05 0.0002369438 0.00013211572 1.9548747e-06 -2.625594e-05 -3.7789187e-06
1.676833e-07 1.08133285e-07 8.7150884e-11 7.396821e-16 0.0 0.0 -6.30066e-07 -7.8172116e-07
-3.262361e-05 -0.00016635584 -0.00017052998 -0.00018770862 -0.0003101565 -0.00038141437 -0.00026346778 -0.0003058479
1.2662378e-05 0.00060449296 0.0007648142 0.00058341026 6.2414896e-05 0.00021477339 0.000234779 0.0004423833
0.00059213367 0.00013854992 -1.3865147e-05 -3.9307626e-05 -2.1805986e-06 4.600439e-06 -6.042335e-08 5.0176703e-12
0.0 2.3689618e-12 -2.9405983e-06 -2.0072386e-05 -2.2612292e-05 -8.104067e-05 -3.676541e-05 -3.261009e-05
-0.00021975064 -0.00023667199 -0.00013590508 3.2194657e-07 0.0004039232 0.0007025056 0.0007163839 6.656215e-05
0.00015695166 0.00042265517 0.00033933338 0.0008714936 0.0007676341 0.0002531394 7.0470596e-05 -1.1360398e-05
7.3502342e-06 -1.143881e-06 -4.3757473e-06 1.4920805e-06 0.0 4.5629968e-06 -7.5691905e-06 -2.2755008e-05
6.7514674e-07 1.7015448e-06 -5.1789983e-05 -0.00015777376 -2.4716865e-05 -2.2825552e-06 0.00018563605 0.00041845284
0.0008912324 0.0008833059 0.00059279456 0.00023057117 0.00073830725 0.0008362679 0.00071002997 0.000956862
0.0005844701 9.5153046e-05 1.2749946e-05 -3.0891533e-05 -4.8769023e-05 -1.2360862e-05 -2.0387659e-05 2.0734366e-10
2.4262743e-19 -2.7050717e-06 5.3394892e-06 2.5601474e-05 1.3727528e-05 -9.860272e-05 -0.000266296 -0.00022555469
0.00021245849 0.00046638257 0.0008256135 0.0011628243 0.0011740975 0.0008782223 0.00039343687 0.00052227295
0.0005599194 0.00043154787 0.00055218703 0.00077047845 0.0002884491 -0.000105580264 3.7691956e-05 -0.00012445352
-0.0001540047 -2.5622878e-05 -6.0264238e-06 -6.5556716e-10 -5.403035e-08 -5.842765e-08 3.210791e-05 5.3005097e-05
00000000: 0000 0000 0000 0000 0000 0000 0000 0000
00000010: 0000 0000 0000 0000 0000 0000 0000 0000
00000020: 0000 0000 0000 0000 0000 0000 0000 0000
00000030: 144c ea9d 4fb0 21a0 7016 22a0 f51d d89d
00000040: 0000 0000 0000 0000 0000 0000 0000 0000
00000050: 0000 0000 0000 0000 0000 0000 0000 0000
00000060: 0000 0000 0000 0000 0000 0000 0000 0000
00000070: 0000 0000 0000 0000 0000 0000 0000 0000
00000080: 4a7c 8f1e 7ddc 521f d2cc 0f36 24da 4d36
00000090: 8c99 a636 7f3f 0436 b2cc 1337 ed13 5936
000000a0: aaed 2c37 2340 be36 b1fe b635 4046 5235
000000b0: 9d90 2a35 d650 2a36 7f44 5436 0dbe c234
000000c0: 96ae 3334 cd19 0e34 6555 2534 ce4c 5e32
000000d0: 0000 0000 0000 0000 0000 0000 0000 0000
000000e0: 0000 0000 0000 0000 404e 7e29 22ee 9d34
000000f0: dc3e 7f2f 930f c72d e388 7035 8151 9f36
00000100: 889e ba36 536f 41b6 eddf 6236 fa7c 9136
00000110: ceae e937 8ce6 0038 fae6 2338 a757 9338
00000120: b171 4938 fde2 c837 39c2 9a37 9746 2837
00000130: 1619 4737 436d 3c37 b5a3 7636 1d06 7736
00000140: 1d72 a535 f3be 602f 0000 0000 0000 0000
00000150: 0000 0000 0000 0000 1811 0c2a e15f 1936
00000160: 6487 0536 ffed f6b1 deb7 b135 d759 ae36
00000170: e022 8fb5 21e7 30b7 6dfe 7ab8 0b20 48b9
00000180: c1ba 5bb8 ca2f 0239 2fb3 8239 fc8e 7738
00000190: 609d 35b9 cfef 8fb9 6d96 01b9 dbfa 7e37
000001a0: a789 4137 4503 abb7 d72d 2b37 5350 8e36
000001b0: fdb3 6935 69f9 1d2c f904 f61f 0000 0000
000001c0: 0000 0000 63fd 3229 e78d 7a25 b31b 0b2d
000001d0: b78d 81b6 a5fd abb8 9b56 dcb8 e0c1 dab8
000001e0: c555 d6b8 b8eb 4bb9 065e 8bb9 f94a dab9
000001f0: 12b3 89b9 a639 a9b8 a64a a039 8792 bb39
00000200: 4073 f4b8 2edc 89b9 a87d d9b7 1e74 7839
00000210: 8b88 0a39 7e30 0336 3440 dcb7 5499 7db6
00000220: 6f0c 3434 e736 e833 96a5 bf2e e832 5526
00000230: 0000 0000 0000 0000 ce21 29b5 78d7 51b5
00000240: 56d5 08b8 ce6f 2eb9 4bd0 32b9 a6d3 44b9
00000250: 809c a2b9 92f8 c7b9 0c22 8ab9 365a a0b9
00000260: 8070 5437 d676 1e3a d07d 483a 00f0 183a
00000270: bee4 8238 cb34 6139 022f 7639 aeef e739
00000280: 6b39 1b3a b647 1139 5a9e 68b7 3ede 24b8
00000290: 6656 12b6 785d 9a36 17c2 81b3 288b b02c
000002a0: 0000 0000 6cb3 262c 1857 45b6 1f61 a8b7
000002b0: 87af bdb7 61f4 a9b8 8f34 1ab8 d1c6 08b8
000002c0: dd6c 66b9 272b 78b9 be81 0eb9 00d8 ac34
000002d0: a7c5 d339 5a28 383a b6cb 3b3a 4897 8b38
000002e0: 6493 2439 d197 dd39 8ee8 b139 f274 643a
000002f0: 0d3b 493a ccb7 8439 9dc9 9338 8a98 3eb7
00000300: 08a2 f636 7487 99b5 62d3 92b6 7f43 c835
00000310: 0000 0000 d81b 9936 dafa fdb6 02e2 beb7
00000320: bb3b 3535 a260 e435 1239 59b8 1270 25b9
00000330: 1057 cfb7 002e 19b6 4ca7 4239 ca63 db39
00000340: 98a1 693a a88d 673a c565 1b3a 7ac5 7139
00000350: f68a 413a fd38 5b3a 4e21 3a3a ecd5 7a3a
00000360: 2037 193a e78c c738 9ae8 5537 8891 01b8
00000370: 578d 4cb8 7f61 4fb7 2a06 abb7 0dfa 632f
00000380: d238 8f20 c788 35b6 dd29 b336 bfc2 d637
00000390: 494f 6637 efc8 ceb8 a59d 8bb9 e082 6cb9
000003a0: 64c7 5e39 cf84 f439 fc6d 583a e969 983a
000003b0: 2de4 993a 8038 663a 3446 ce39 25e9 083a
000003c0: 8ec7 123a 6041 e239 a5c0 103a eff9 493a
000003d0: fc3a 9739 f96a ddb8 6e17 1e38 bd7f 02b9
000003e0: 527c 21b9 b6f0 d6b7 9636 cab6 7033 34b0
000003f0: 000f 68b3 e1f1 7ab3 9bab 0638 ca51 5e38

exp_avg_sq f4 [50, 784]
0.0 0.0 0.0 0.0 0.0 0.0 0.0 0.0
0.0 0.0 0.0 0.0 4.9433357e-11 2.373484e-10 3.3890715e-13 5.88381e-16
0.0 0.0 0.0 0.0 0.0 0.0 0.0 0.0
0.0 0.0 0.0 0.0 0.0 0.0 0.0 0.0
1.4282497e-14 1.4640761e-13 4.51225e-10 9.911285e-10 1.5242464e-09 5.9944877e-10 3.82191e-09 2.9450373e-09
3.2555634e-09 1.5564366e-09 5.4028733e-09 1.1379706e-09 4.8191557e-09 1.3798311e-09 8.1152773e-10 8.5544893e-10
4.497186e-10 4.823861e-10 7.87701e-10 3.195801e-10 0.0 0.0 0.0 0.0
0.0 0.0 1.9959369e-16 9.990535e-12 7.7148e-12 5.0211202e-12 2.0989945e-10 2.789748e-09
2.9264127e-09 5.8098992e-09 1.3426246e-08 1.7680925e-08 2.9748795e-08 5.0350057e-08 4.572064e-08 3.8795022e-08
3.706749e-08 2.6823699e-08 1.3717238e-08 3.1843521e-09 2.1550197e-09 3.1916987e-09 2.7884721e-09 5.129462e-10
4.2199348e-11 1.14136235e-11 0.0 0.0 0.0 0.0 1.3796331e-15 1.2236262e-10
5.833798e-11 7.3568907e-10 5.556831e-09 1.1279708e-08 2.810916e-08 5.2672405e-08 6.7392065e-08 9.005018e-08
1.3088537e-07 2.0262996e-07 2.1678834e-07 2.501935e-07 1.8281567e-07 1.3133553e-07 1.0063861e-07 7.562094e-08
5.5247387e-08 3.0510027e-08 1.17292425e-08 3.6239345e-09 1.5297882e-09 3.64251e-11 5.7163146e-12 0.0
0.0 1.6749487e-15 1.6944111e-14 4.763569e-11 7.450233e-10 9.383413e-09 1.9982927e-08 5.1003e-08
1.0592701e-07 1.8305359e-07 2.4260257e-07 3.202813e-07 4.2447314e-07 6.2401773e-07 7.488571e-07 7.75619e-07
6.127766e-07 4.980287e-07 3.5115966e-07 2.7951506e-07 1.9072249e-07 1.1689624e-07 6.3924546e-08 4.2242164e-08
2.3367617e-08 7.96391e-09 6.317841e-10 1.13441236e-11 0.0 0.0 6.7424785e-12 8.114772e-10
1.1048543e-08 5.312462e-08 7.687107e-08 1.6185182e-07 2.9380416e-07 4.2995612e-07 6.2277405e-07 8.994596e-07
1.2967698e-06 1.7681311e-06 2.0020802e-06 1.9890194e-06 1.7288575e-06 1.4110636e-06 1.0845288e-06 7.398653e-07
4.6135477e-07 2.8359256e-07 1.7536419e-07 1.1009539e-07 4.2410406e-08 8.772309e-09 3.4129535e-10 2.1909379e-11
0.0 5.6208423e-13 1.4989694e-09 8.927682e-09 3.1522415e-08 9.151018e-08 1.9742147e-07 3.6663667e-07
5.89682e-07 9.370054e-07 1.3769611e-06 1.8422256e-06 2.3868479e-06 2.9292896e-06 3.2884093e-06 3.3240894e-06
3.2380651e-06 2.8178667e-06 2.115104e-06 1.5882634e-06 1.086293e-06 6.0161614e-07 3.7022224e-07 1.9978056e-07
6.668993e-08 2.6261635e-08 5.5713683e-09 1.9598906e-10 0.0 2.8122552e-10 1.917622e-09 1.1157169e-08
5.0690186e-08 1.3927391e-07 3.4262632e-07 6.233589e-07 1.0932753e-06 1.5862386e-06 2.2044142e-06 2.7074298e-06
3.267858e-06 3.7310258e-06 3.951099e-06 3.900127e-06 3.87621e-06 3.572322e-06 3.0135693e-06 2.2745123e-06
1.5633995e-06 1.0191975e-06 6.1449157e-07 3.1707083e-07 1.2421074e-07 5.0642686e-08 1.1079573e-08 4.5933916e-11
7.886034e-11 3.778359e-11 2.3013575e-09 1.2604299e-08 7.2909955e-08 2.1870805e-07 5.0967003e-07 9.3778715e-07
1.442023e-06 1.9687088e-06 2.6759276e-06 3.235624e-06 3.568845e-06 3.61859e-06 3.4435413e-06 3.5737357e-06
3.82103e-06 3.7222642e-06 3.360725e-06 2.5282554e-06 1.9227684e-06 1.3289545e-06 7.530306e-07 3.8651277e-07
1.7173336e-07 6.9342704e-08 1.3030444e-08 3.0955333e-10 3.6359818e-13 2.0641534e-11 3.880755e-09 1.9188276e-08
00000000: 0000 0000 0000 0000 0000 0000 0000 0000
00000010: 0000 0000 0000 0000 0000 0000 0000 0000
00000020: 0000 0000 0000 0000 0000 0000 0000 0000
00000030: 0369 592e d17b 822f abc9 be2a db96 2926
00000040: 0000 0000 0000 0000 0000 0000 0000 0000
00000050: 0000 0000 0000 0000 0000 0000 0000 0000
00000060: 0000 0000 0000 0000 0000 0000 0000 0000
00000070: 0000 0000 0000 0000 0000 0000 0000 0000
00000080: 32a5 8028 1fd7 242a 4610 f82f 3c38 8830
00000090: a77d d130 75c6 2430 e051 8331 a561 4a31
000000a0: 7ab8 5f31 3fea d530 2da4 b931 c866 9c30
000000b0: be95 a531 7ea4 bd30 3012 5f30 de24 6b30
000000c0: 443c f72f e798 0430 8885 5830 e7b0 af2f
000000d0: 0000 0000 0000 0000 0000 0000 0000 0000
000000e0: 0000 0000 0000 0000 a91d 6625 5fc1 2f2d
000000f0: 5fb8 072d 3baa b02c 71c9 662f c4b5 3f31
00000100: ff19 4931 6aa0 c731 41a9 6632 c4e0 9732
00000110: 4b8a ff32 7940 5833 605e 4433 949f 2633
00000120: 2334 1f33 f069 e632 0da9 6b32 b7d3 5a31
00000130: 8217 1431 f554 5b31 529f 3f31 61ff 0c30
00000140: 3e98 392e 64ca 482d 0000 0000 0000 0000
00000150: 0000 0000 0000 0000 7ad3 c626 048a 062f
00000160: 5d49 802e 8439 4a30 67ee be31 aec8 4132
00000170: b274 f132 ec39 6233 2eb9 9033 9c61 c133
00000180: 7f89 0c34 8092 5934 53c6 6834 5552 8634
00000190: fd4b 4434 3c05 0d34 a91e d833 0d65 a233
000001a0: 2549 6d33 210a 0333 c181 4932 ee08 7931
000001b0: a340 d230 0433 202e fc1f c92c 0000 0000
000001c0: 0000 0000 b362 f126 769e 9828 0581 512e
000001d0: 5bca 4c30 b034 2132 eca6 ab32 640e 5b33
000001e0: fd79 e333 638d 4434 0b3f 8234 20f3 ab34
000001f0: 25e3 e334 2c82 2735 1105 4935 2234 5035
00000200: b07d 2435 46b0 0535 0487 bc34 4210 9634
00000210: 66c9 4c34 6308 fb33 e446 8933 c06d 3533
00000220: efb9 c832 a6d1 0832 dba9 2d30 6491 472d
00000230: 0000 0000 0000 0000 d93a ed2c a20e 5f30
00000240: 02d0 3d32 232b 6433 5114 a533 7dc9 2d34
00000250: 23bc 9d34 b8d4 e634 b52c 2735 6572 7135
00000260: ac0c ae35 8650 ed35 7a5b 0636 187b 0536
00000270: 170b e835 c763 bd35 2090 9135 289b 4635
00000280: 1eb0 f734 aa40 9834 be4b 3c34 956d ec33
00000290: bc26 3633 06b5 1632 0da1 bb2f 89b7 c02d
000002a0: 0000 0000 7036 1e2b 4c04 ce30 5c60 1932
000002b0: 4363 0733 4184 c433 cdfa 5334 29d6 c434
000002c0: a34a 1e35 8586 7b35 06d0 b835 6442 f735
000002d0: bc2d 2036 d094 4436 71ae 5c36 6c13 5f36
000002e0: 894d 5936 951a 3d36 36f1 0d36 512c d535
000002f0: becc 9135 bf7e 2135 f5c2 c634 4383 5634
00000300: 2d37 8f33 f295 e132 466e bf31 047e 572f
00000310: 0000 0000 f99a 9a2f 2ac7 0331 c0ad 3f32
00000320: 73b6 5933 528b 1534 34f2 b734 e654 2735
00000330: a7bc 9235 bee6 d435 8cef 1336 4ab1 3536
00000340: 5f4d 5b36 8962 7a36 af93 8436 d6dd 8236
00000350: 6410 8236 06bc 6f36 ba3c 4a36 d3a3 1836
00000360: ffd5 d135 5ccb 8835 8af3 2435 e239 aa34
00000370: ca5e 0534 3982 5933 7a58 3e32 fe04 4a2e
00000380: 6d6a ad2e 8a2c 262e e925 1e31 4b8a 5832
00000390: ac92 9c33 03d6 6a34 42d0 0835 3ebc 7b35
000003a0: 888b c135 291e 0436 1694 3336 9923 5936
000003b0: 4a80 6f36 e7d6 7236 9717 6736 50d4 6f36
000003c0: 6636 8036 03cc 7936 d188 6136 19ab 2936
000003d0: e908 0136 875e b235 de23 4a35 e981 cf34
000003e0: b565 3834 8ee9 9433 80dc 5f32 c22d aa2f
000003f0: 05b0 cc2a 9a90 b52d 7b57 8531 77d3 a432

exp_avg f4 [50]
0.00054452376 0.0009877736 -0.0016500592 0.00094575796 0.00021384866 0.0008928388 -0.00023885863 0.00057495217
-0.0006983356 -0.00060044724 -0.00038021486 0.00089225237 -0.0010488796 -0.00013412198 -0.0010395952 -5.8709993e-05
-0.0007953587 -0.00058624893 0.00038509985 0.0010381148 -2.0970852e-05 -0.0006611275 0.00015288909 -0.00040476047
0.00025476498 -0.0004949951 0.000117901014 0.0012524377 0.0005226177 0.00035771573 -0.0010837372 -0.0004593172
-0.0008465964 -0.0005307947 0.00035649387 0.00041743118 -0.00048844586 9.4197225e-05 -0.0006512626 -0.00083966996
-0.00065185234 0.00025144726 0.000527511 -0.00038359515 -8.20699e-05 -0.00011873004 -0.0009680068 0.001442174
0.00049201195 0.0010497053
00000000: 5fbe 0e3a 2f78 813a cd46 d8ba beec 773a
00000010: 903c 6039 660d 6a3a 2076 7ab9 63b8 163a
00000020: 8210 37ba 5567 1dba 9357 c7b9 0be6 693a
00000030: 8f7a 89ba 18a3 0cb9 0743 88ba 603f 76b8
00000040: 9e7f 50ba 80ae 19ba 3ae7 c939 5a11 883a
00000050: 90ea afb7 844f 2dba da50 2039 0836 d4b9
00000060: fa91 8539 8fc2 01ba a041 f738 d628 a43a
00000070: 4800 093a cb8b bb39 300c 8eba 83d0 f0b9
00000080: 1fee 5dba 0825 0bba cce7 ba39 aada da39
00000090: 0c0b 00ba c08b c538 7eb9 2aba 4c1d 5cba
000000a0: 12e1 2aba aed4 8339 aa48 0a3a 451d c9b9
000000b0: f11c acb8 b4fe f8b8 d6c1 7dba 5407 bd3a
000000c0: 5dfa 003a 4496 893a

exp_avg_sq f4 [50]
8.69699e-06 2.3388786e-05 2.584364e-05 2.0454592e-05 1.2765974e-05 1.5034302e-05 1.0460307e-05 1.4257562e-05
1.3119451e-05 1.1363388e-05 1.6447168e-05 2.5630228e-05 2.37029e-05 1.3025364e-05 2.0119842e-05 1.3658828e-05
2.1471484e-05 1.1619996e-05 1.7064955e-05 1.7647902e-05 1.763981e-05 2.4366045e-05 5.3956337e-06 1.3941905e-05
1.46677685e-05 1.4723988e-05 1.2607314e-05 1.8705125e-05 1.4473005e-05 2.109038e-05 1.6325896e-05 1.8280938e-05
2.9473247e-05 2.0605838e-05 1.621131e-05 1.2072346e-05 1.9954907e-05 1.5808479e-05 1.6597056e-05 1.868794e-05
9.389338e-06 2.738787e-05 1.4540861e-05 1.6113045e-05 2.119185e-05 1.0540673e-05 1.8794568e-05 1.2916459e-05
1.8210641e-05 2.0924976e-05
00000000: 4ae9 1137 0933 c437 cbca d837 e795 ab37
00000010: 712d 5637 d63b 7c37 ad7e 2f37 c333 6f37
00000020: 9d1b 5c37 61a5 3e37 06f8 8937 7f00 d737
00000030: 97d5 c637 8387 5a37 08c7 a837 3828 6537
00000040: a91d b437 81f3 4237 b626 8f37 950a 9437
00000050: 34f9 9337 af65 cc37 240c b536 07e8 6937
00000060: 9615 7637 0c07 7737 0084 5337 f3e8 9c37
00000070: 15d1 7237 3feb b037 98f3 8837 045a 9937
00000080: 513d f737 b3da ac37 86fd 8737 558a 4a37
00000090: d664 a737 739c 8437 e839 8b37 0cc4 9c37
000000a0: e686 1d37 01bf e537 86f4 7337 802a 8737
000000b0: 27c5 b137 d9d7 3037 07a9 9d37 c5b3 5837
000000c0: 0ec3 9837 0b88 af37

exp_avg f4 [10, 50]
-0.0063834 -0.0012060015 -0.0004127581 -0.00073564134 -0.00857996 -0.0029025509 -0.006484396 -0.0020735192
-0.0010864905 -0.0044591245 -0.002946911 -0.002997713 -0.0035399254 -0.0053746076 -0.0023812521 -0.0034675016
-0.0062237154 -0.0028968165 -0.007063803 3.3556367e-05 -0.0007196256 -0.00474878 0.000925377 -0.005351336
-0.0013101884 -0.0073530525 -0.0046615284 -0.0009703239 0.0005262949 -0.005466448 -0.002595943 -0.004451714
-0.0009632076 -0.0064064628 0.00023283891 -0.0032277168 -0.000781439 -0.00095125224 -0.0055482164 0.0008163134
-0.0085365875 -0.002204131 0.0012093234 -0.008314253 -0.007900645 -0.0027352 -0.0012634845 -0.0025151572
-0.005586758 -0.0036966954 -0.00094067166 0.00229035 0.0021751658 0.0016529043 0.0003052533 0.00011981884
0.0001066305 0.0025464774 -0.000449458 -0.00023371726 0.00043674232 -0.00067994144 0.0013612662 0.0052434513
0.00046018965 0.002843486 0.00046847423 0.0007595181 -0.00081965723 0.00042437098 0.0022474392 -0.0008881629
0.002139679 0.0058032726 0.005749138 0.0013691563 0.0014217475 3.2932083e-05 0.0003186086 0.005437084
-0.001186887 0.0009145761 -0.0028996007 0.0037651074 0.002029936 0.00031410984 -0.00018563097 0.0005528708
0.0024960334 -3.395439e-05 -0.0008770617 -0.00031752745 0.0028477153 0.0008149144 0.0010756578 0.0019508719
-6.829544e-05 0.0007146155 0.0005878035 0.002033694 0.0020007272 -0.002998028 0.006178072 0.00040900847
0.00667897 0.0054516187 -0.0015726388 0.007649031 0.003940877 0.00020881719 0.007959934 0.004141991
0.0013216607 0.008536164 0.00046511868 0.012193434 0.006445815 0.004583829 -0.000679514 0.009369961
0.004548718 0.008549682 -0.00047218244 0.00872716 0.008717801 0.011786997 -0.0048668073 -0.0007570138
0.00089860946 0.012127822 0.008095504 -0.00010875371 -0.0042889267 0.008032383 -0.0021172476 0.0014067428
-0.0074731135 -0.00064271525 0.0013789971 0.0028954844 0.0054442836 0.005493903 0.010714814 0.009582179
0.006443102 0.014991358 0.0060333097 0.0052101584 -0.0001425913 0.008156057 -0.0032894486 -4.912621e-05
-0.0063122693 -0.0005061373 -0.0020695266 -0.0020797313 0.002385498 -0.009871531 -0.0032585359 0.0025372803
-0.004205795 -0.0014428624 0.0009830017 -0.0022810178 -0.0037955185 -0.012989418 0.0010719285 -0.0056227557
0.0016491663 -0.003099171 0.0008542581 -0.003198882 -0.0025894651 -0.0046387324 -0.0062601995 -0.013173542
0.0025179158 -0.0038599775 -0.0010605315 -0.003448881 -0.0048555895 -0.006621986 0.0023410192 -0.004457154
-0.0039069084 -0.006675565 0.001812715 0.0016649656 -0.0010184599 -0.0028649678 -0.0053245244 -0.003502728
-0.0069810306 -0.012500551 -0.0027155187 -0.014334163 -0.00975044 -0.0027058658 -0.0021500941 -0.005314734
0.00063793315 0.002764722 -0.0005972404 0.0025278484 0.002682814 0.0025474164 0.0017459851 0.0011667495
0.0012342429 0.0010357667 0.0042150887 -0.00044441503 0.0013829707 0.003489281 0.0018944666 0.00093101314
-0.0003939066 0.0011535673 6.431481e-05 0.00083762116 0.0012708269 0.0016264732 -3.0643903e-05 0.0025450778
0.0017299216 -0.00044890493 0.00019179028 0.0011198403 -0.00035729678 0.003035843 -0.0005532061 0.0022673882
0.00023186556 -0.0001417899 0.00083346636 -0.0011650589 0.0020290217 -6.78557e-05 0.0013842277 0.006686166
0.0015886799 0.001322761 0.0015819349 0.0014560482 0.0010559822 0.0011404175 0.0026627965 0.00234714
0.0017345778 0.00246192 0.0033782101 -0.0036044428 -0.0020950115 0.0007066387 0.0012266412 0.00023025647
00000000: d72b d1bb b212 9eba 7467 d8b9 0ed8 40ba
00000010: f692 0cbc b938 3ebb 0e7b d4bb e1e3 07bb
00000020: 9268 8eba d91d 92bb f620 41bb 4775 44bb
00000030: 18fe 67bb 7a1d b0bb c80e 1cbb 063f 63bb
00000040: 4ff0 cbbb 84d8 3dbb 7977 e7bb e0be 0c38
00000050: 42a5 3cba a79b 9bbb 0095 723a 435a afbb
00000060: a1ba abba e0f1 f0bb bcbf 98bb 565d 7eba
00000070: 0ef7 093a e41f b3bb b220 2abb afdf 91bb
00000080: c57f 7cba 4eed d1bb 3826 7439 1a88 53bb
00000090: 7cd9 4cba 755d 79ba d0cd b5bb ddfd 553a
000000a0: 0bdd 0bbc 2f73 10bb 2982 9e3a 8138 08bc
000000b0: b571 01bc 0b41 33bb 819b a5ba 56d5 24bb
000000c0: 1f11 b7bb 4244 72bb 6897 76ba b219 163b
000000d0: 3a8d 0e3b 44a6 d83a 680a a039 4047 fb38
000000e0: d09e df38 cde2 263b 3ba5 ebb9 0012 75b9
000000f0: 90fa e439 193e 32ba 846c b23a 42d1 ab3b
00000100: 9c45 f139 c759 3a3b 8c9d f539 661a 473a
00000110: 44de 56ba 1c7e de39 c649 133b 9ad3 68ba
00000120: db39 0c3b 6129 be3b 4463 bc3b 4375 b33a
00000130: ee59 ba3a 8e20 0a38 ec0a a739 9129 b23b
00000140: 5291 9bba 2ac0 6f3a 3a07 3ebb 05c0 763b
00000150: ad08 053b 1caf a439 efa5 42b9 88ee 103a
00000160: 7e94 233b 406a 0eb8 9dea 65ba d079 a6b9
00000170: bca0 3a3b fb9f 553a 16fd 8c3a 66b4 ff3a
00000180: d639 8fb8 0955 3b3a d316 1a3a b947 053b
00000190: a21e 033b 907a 44bb 6d71 ca3b 3070 d639
000001a0: 43db da3b 7ea3 b23b 0021 ceba b9a4 fa3b
000001b0: 7922 813b f0f5 5a39 626a 023c 8ab9 873b
000001c0: 933b ad3a 44db 0b3c 2cdb f339 f8c6 473c
000001d0: 6a37 d33b f233 963b 6a21 32ba 7784 193c
000001e0: 6a0d 953b f713 0c3c 418f f7b9 5dfc 0e3c
000001f0: 1cd5 0e3c 401e 413c bd79 9fbb 5672 46ba
00000200: a990 6b3a c6b3 463c 01a3 043c b412 e4b8
00000210: 208a 8cbb 429a 033c 85c1 0abb 7562 b83a
00000220: 05e1 f4bb e47b 28ba 77bf b43a 2bc2 3d3b
00000230: f665 b23b 3306 b43b 308d 2f3c 92fe 1c3c
00000240: a820 d33b 509e 753c 12b3 c53b fab9 aa3b
00000250: 9084 15b9 fca0 053c ca93 57bb de0c 4eb8
00000260: 27d7 cebb 4dae 04ba e5a0 07bb 1a4c 08bb
00000270: 0456 1c3b 34bc 21bc 298d 55bb 8048 263b
00000280: c4d0 89bb 6e1e bdba 10d8 803a 217d 15bb
00000290: 3cbe 78bb 91d1 54bc f47f 8c3a 183f b8bb
000002a0: d728 d83a 761b 4bbb 4af0 5f3a 56a4 51bb
000002b0: 04b4 29bb 8200 98bb 5c22 cdbb d7d5 57bc
000002c0: 9e03 253b adf7 7cbb 8801 8bba 9f06 62bb
000002d0: a31b 9fbb 3ffd d8bb c96b 193b 510d 92bb
000002e0: 8605 80bb b3be dabb 9f98 ed3a fa3a da3a
000002f0: d87d 85ba 2fc2 3bbb 5979 aebb 068e 65bb
00000300: 21c1 e4bb 1ccf 4cbc d8f6 31bb d6d9 6abc
00000310: 4fc0 1fbc e554 31bb 98e8 0cbb 3827 aebb
00000320: f83a 273a 5730 353b 2090 1cba 42aa 253b
00000330: 26d2 2f3b 8ef2 263b 8ad9 e43a 9eed 983a
00000340: 52c6 a13a 90c2 873a ba1e 8a3b 6000 e9b9
00000350: cc44 b53a 6cac 643b c04f f83a 3c0f 743a
00000360: 4085 ceb9 4c33 973a c0e0 8638 ce93 5b3a
00000370: e091 a63a 622f d53a a487 00b8 52cb 263b
00000380: 89be e23a 005b ebb9 501b 4939 9bc7 923a
00000390: 9053 bbb9 fef4 463b 0805 11ba 7698 143b
000003a0: f020 7339 70ad 14b9 fb7c 5a3a e4b4 98ba
000003b0: 56f9 043b c04d 8eb8 f96e b53a a017 db3b
000003c0: 403b d03a 7e60 ad3a ed58 cf3a dfd8 be3a
000003d0: e268 8a3a 107a 953a 5082 2e3b 7ad2 193b
000003e0: c65a e33a 2a58 213b f664 5d3b 8438 6cbb
000003f0: 764c 09bb b83d 393a 40c7 a03a 0071 7139

exp_avg_sq f4 [10, 50]
0.00021796286 4.470998e-05 4.6417983e-05 3.201281e-05 0.0003073091 0.00011726494 0.0005988509 3.2142078e-05
6.79e-05 0.00022225975 0.00029192748 0.00012696133 9.4014584e-05 0.00045864566 0.00019010637 0.00023441565
0.00055549573 0.00015972042 0.00029556284 0.00018731545 4.8209586e-05 0.00034108676 1.941019e-05 0.00019308864
0.000199219 0.00025264808 0.00020703739 0.00025635847 5.7644877e-05 0.0002948624 0.00027464368 0.00033667893
8.015466e-05 0.00046893134 0.00014987637 7.223488e-05 0.00023157547 4.5182132e-05 0.00022248497 0.00013187212
0.0007934244 5.0823157e-05 7.6862794e-05 0.0004700006 0.00040270668 0.00023510511 0.00012568373 4.1134474e-05
0.0001113453 0.00010993612 2.9268715e-05 0.00010270813 5.134984e-05 0.00011439448 6.747931e-05 0.00023081491
6.762238e-05 0.00031472684 7.9808895e-05 5.1141717e-05 0.0004029837 8.489687e-05 3.397288e-05 0.0005024881
3.16591e-05 0.00033802033 0.00015371191 0.000121185054 3.3005457e-05 0.00031483537 0.00036300224 9.63998e-05
4.7933594e-05 0.0002571822 0.0005412985 0.00015459767 2.7996732e-05 0.00012574704 3.7127294e-05 0.0004497116
0.00018221853 4.8855236e-05 5.798151e-05 0.00015215566 8.950272e-05 3.043689e-05 4.136383e-05 4.083826e-05
2.1609574e-05 0.0004547831 0.00011638419 0.00017304579 0.00035176764 0.000110823625 4.8388873e-05 0.00046176682
0.00017682718 3.62322e-05 2.1918937e-05 7.740614e-05 0.0003512678 0.00010313189 7.505474e-05 9.9863464e-05
0.0004195842 0.0003315471 0.00059651677 0.00035321896 5.12158e-05 0.00028673347 0.0008155126 0.0005082364
0.00012549937 0.0011579895 0.00012588644 0.00059141795 0.0011191847 0.0001902929 0.0001838335 0.00074712513
7.080452e-05 0.0006929444 5.824989e-05 0.0004879276 0.00097032415 0.00046858072 0.0004175517 0.0004582057
0.00010625728 0.0010375517 0.00082300446 0.00021693605 0.00024930664 0.00085322704 0.00038733653 0.00012283139
0.00023657881 8.737678e-05 0.000119999495 0.00013479353 0.0007643034 0.00026897682 0.00066472695 0.00048017676
0.00030126775 0.0010963888 0.00028895724 0.00023799989 0.00013585248 0.00031962246 0.00025654907 0.0003577888
0.00045084083 8.760958e-05 0.0003023791 0.00034890923 0.00071106973 0.00048344102 0.00013829315 0.00017555984
0.00071936223 0.0005988191 9.1101436e-05 0.0010273136 0.00016487198 0.0012948572 0.0010569779 0.00058986706
0.0002934054 0.00050541107 0.00019165913 0.00044508115 0.00021260366 0.0006602194 0.0013139877 0.0012464314
0.000111966365 0.00042259562 0.00017811806 0.0009575253 0.001168708 0.000664054 0.00017651124 0.0007692635
0.0009801228 0.00020404998 0.000556643 7.8000514e-05 0.00015430387 0.0002253437 0.00094235956 0.00039997097
0.0006417267 0.0009550278 0.00037081918 0.0019120171 0.00035017237 0.000121413694 0.00011985655 0.0002999735
0.00068996137 6.574964e-05 0.00023610535 0.00011817763 0.00063445535 0.00076027197 0.0003164888 0.00018863358
6.28622e-05 0.0004220248 0.00050799793 0.00026934198 0.00033676438 0.0005809377 5.640749e-05 0.00023963899
0.00037347403 0.00030397222 0.00031331024 7.885471e-05 0.0002961237 0.00014278431 2.067118e-05 0.00048037834
0.00012409728 0.0007979309 0.00030566705 4.9181097e-05 0.0004304945 0.00048163938 0.0005111755 7.9183636e-05
0.00013292163 0.00020116172 3.4615416e-05 0.00054638233 3.5600213e-05 0.00040876362 0.00012366431 0.00016446464
0.00063499686 0.00034742206 4.5784338e-05 0.0002256127 0.0003270474 0.0005515364 7.510007e-05 0.00010587254
0.0002947938 0.00017363043 0.00022530263 0.00038615614 0.00040842468 0.000113848604 0.00026907877 0.00032670185
00000000: f68c 6439 fa86 3b38 eeb0 4238 7e45 0638
00000010: 541e a139 23ec f538 34fc 1c3a 4bd0 0638
00000020: 8965 8e38 660e 6939 d80d 9939 ec20 0539
00000030: b229 c538 6176 f039 4a57 4739 79cd 7539
00000040: b09e 113a a07a 2739 c6f5 9a39 1c6a 4439
00000050: a634 4a38 e4d3 b239 11d3 a237 d677 4a39
00000060: 71e5 5039 da75 8439 2d18 5939 da67 8639
00000070: b7c7 7138 c397 9a39 0dfe 8f39 4884 b039
00000080: b518 a838 e6da f539 2228 1d39 ce7c 9738
00000090: 11d3 7239 f281 3d38 db4a 6939 2747 0a39
000000a0: cffd 4f3a f32a 5538 6631 a138 6a6a f639
000000b0: 6022 d339 8c86 7639 f8c9 0339 ce87 2c38
000000c0: 0e82 e938 818d e638 1686 f537 0265 d738
000000d0: 7960 5738 12e7 ef38 ae83 8d38 e806 7239
000000e0: 7dd0 8d38 ec01 a539 135f a738 0081 5638
000000f0: 8e47 d339 a90a b238 1a7e 0e38 68b9 033a
00000100: b3c9 0438 5238 b139 ba2d 2139 bb24 fe38
00000110: 576f 0a38 7d10 a539 5651 be39 402a ca38
00000120: 4e0c 4938 69d6 8639 ede5 0d3a 7f1b 2239
00000130: 86da ea37 f7da 0339 21b9 1b38 45c7 eb39
00000140: ea11 3f39 e9e9 4c38 2c31 7338 f98b 1f39
00000150: 68b3 bb38 b952 ff37 137e 2d38 bf49 2b38
00000160: 3546 b537 f46f ee39 4913 f438 a073 3539
00000170: 746d b839 fb69 e838 28f5 4a38 4b19 f239
00000180: af6a 3939 07f8 1738 8fde b737 1b55 a238
00000190: 5e2a b839 8348 d838 b566 9d38 ca6d d138
000001a0: a3fb db39 80d3 ad39 905f 1c3a 3f30 b939
000001b0: 8cd0 5638 b754 9639 20c8 553a 2b3b 053a
000001c0: 7b98 0339 aec7 973a 6200 0439 6309 1b3a
000001d0: 9bb1 923a 5d89 4739 6ec3 4039 b8da 433a
000001e0: e37c 9438 b6a6 353a 5851 7438 89d0 ff39
000001f0: 5a5d 7e3a d7ab f539 d7ea da39 543b f039
00000200: 71d6 de38 75fe 873a e5be 573a 5479 6339
00000210: 5fb5 8239 19ab 5f3a 6e13 cb39 4dcc 0039
00000220: 2412 7839 0d3e b738 3da8 fb38 5d57 0d39
00000230: 885b 483a 7505 8d39 1241 2e3a 3cc0 fb39
00000240: 79f3 9d39 b4b4 8f3a 2f7f 9739 9c8f 7939
00000250: 9f73 0e39 0093 a739 6f81 8639 9a95 bb39
00000260: d55e ec39 09bb b738 a388 9e39 ceed b639
00000270: 1567 3a3a 5b76 fd39 c902 1139 7c16 3839
00000280: 9593 3c3a 12fa 1c3a b60d bf38 eda6 863a
00000290: 7ce1 2c39 33b8 a93a 4b8a 8a3a 4fa1 1a3a
000002a0: 35d4 9939 907d 043a 1bf8 4839 c859 e939
000002b0: 5cee 5e39 9312 2d3a 1c3a ac3a 4c5f a33a
000002c0: 7ccf ea38 d38f dd39 34c5 3a39 6f02 7b3a
000002d0: 552f 993a e913 2e3a e015 3939 66a8 493a
000002e0: 7777 803a 40f6 5539 aeeb 113a 3594 a338
000002f0: a1cc 2139 3d4a 6c39 ae08 773a 32b3 d139
00000300: 8d39 283a d55a 7a3a 826a c239 a69c fa3a
00000310: 5797 b739 7b9f fe38 7f5b fb38 c345 9d39
00000320: 86de 343a 12e3 8938 0c93 7739 22d6 f738
00000330: 9451 263a fd4c 473a 68ee a539 f1cb 4539
00000340: e3d4 8338 3643 dd39 2a2b 053a 7836 8d39
00000350: c08f b039 124a 183a 1597 6c38 9a47 7b39
00000360: d6ce c339 765e 9f39 ca43 a439 cd5e a538
00000370: 0d41 9b39 5fb8 1539 0567 ad37 4adb fb39
00000380: 1c20 0239 3c2c 513a f041 a039 cd47 4e38
00000390: feb3 e139 8b84 fc39 6800 063a 640f a638
000003a0: e160 0b39 f0ee 5239 0530 1138 193b 0f3a
000003b0: 7051 1538 534f d639 e3ab 0139 2474 2c39
000003c0: eb75 263a 3326 b639 8f08 4038 7392 6c39
000003d0: 8f77 ab39 fb94 103a 0b7f 9d38 e307 de38
000003e0: 8e8e 9a39 9010 3639 373f 6c39 0075 ca39
000003f0: d521 d639 01c2 ee38 2413 8d39 2e49 ab39

exp_avg f4 [10]
-0.0014036857 0.0010595401 0.001039847 -0.0013779348 -0.00039672502 0.0005972143 0.00041102496 0.0007161908
-0.0024555728 0.0018100559
00000000: e0fb b7ba 44e0 8a3a 7a4b 883a d29b b4ba
00000010: 88ff cfb9 608e 1c3a d67e d739 c0be 3b3a
00000020: aded 20bb 663f ed3a

exp_avg_sq f4 [10]
4.3776585e-05 5.553256e-05 8.363175e-05 0.0001012017 7.330123e-05 0.000105880434 4.8427217e-05 6.855818e-05
0.00012371647 0.0001084331
00000000: c09c 3738 a2eb 6838 7463 af38 403c d438
00000010: 4cb9 9938 200c de38 541e 4b38 e5c6 8f38
00000020: e3b9 0139 9466 e338
