swastik_web/Learning&Experiments/PytorchTutorials/pytorch lightning/dashboard/mnist_clsfy/version_1.1/checkpoints/epoch=4-step=1875.ckpt (torch, 484079 bytes, 12 tensors)

fc1.weight f4 [50, 784]
0	0xb98c3000	-0.00026738644
1	0x3c9cf2b6	0.019158702
2	0xbcf0ccac	-0.02939447
3	0xbcd75093	-0.026283538
4	0xbc615ece	-0.013755513
5	0x3c1ce910	0.009577051
6	0xba397f40	-0.00070761517
7	0x3ce7fa12	0.028317485
8	0xbb4fb630	-0.0031694286
9	0x3c1ad610	0.009450451
10	0xbc30d67c	-0.010793325
11	0xbbe609a4	-0.007020192
12	0xbe5205c9	-0.2051002
13	0xbe3f7ee7	-0.18700753
14	0x3df38c40	0.11891985
15	0x3d209742	0.03920675
16	0x3c6753dc	0.014119115
17	0x3caf8cae	0.021429386
18	0xbcc658a0	-0.024212182
19	0xbc7eced8	-0.015552245
20	0x3c5488b0	0.012972042
21	0x3cf2f2a2	0.029656712
22	0xbbf0d854	-0.007350007
23	0x3cdaef46	0.026725423
24	0xbbbca170	-0.0057565495
25	0x3b77aa60	0.003779076
26	0x3d04754f	0.032338437
27	0xbd07b476	-0.033131085
28	0xbcb82f50	-0.022483498
29	0xbc14234a	-0.009041617
30	0xbc6416b2	-0.013921427
31	0x3cfcc82e	0.030857172
32	0xbd9ac083	-0.0755625
33	0xbdeac9ff	-0.11464309
34	0xbe5a3240	-0.21308231
35	0xbe881dee	-0.26585335
36	0xbec1d23c	-0.3785571
37	0xbefd3319	-0.49453047
38	0xbdb5994f	-0.08867132
39	0xbdc3a23d	-0.09552429
40	0xbeabd2a4	-0.33559144
41	0xbf004f20	-0.50120735
42	0x3e536ff4	0.20648175
43	0xbdd4a0e4	-0.1038225
44	0xbc525e91	-0.012839929
45	0xbebc3b55	-0.36764017
46	0xbe232838	-0.15933311
47	0xbed89687	-0.42302343
48	0xbf096477	-0.5366892
49	0xbec8537e	-0.391262
50	0xbe6968ca	-0.2279388
51	0xbdfbb6cf	-0.12290727
52	0x3c683b98	0.0141743645
53	0x3b9e18e8	0.0048247464
54	0x3cc42a48	0.023945943
55	0xbcac444a	-0.021028657
56	0x3bda1368	0.0066551454
57	0xbce2d50e	-0.027689483
58	0xbd7bc729	-0.06146923
59	0xbec1a1e3	-0.37818822
60	0xbec687b5	-0.3877541
61	0xbe97867e	-0.29594797
62	0xbf09c876	-0.53821504
63	0xbf5952e9	-0.84892136
64	0xbf44dd2b	-0.76899976
65	0xbdfeff4e	-0.12451039
66	0xbe167654	-0.14693576
67	0xbf083041	-0.5319863
68	0xbea0cf0c	-0.31407964
69	0x3ce18778	0.027530417
70	0xbe0fc3df	-0.14039563
71	0xbed78374	-0.42092478
72	0xbe64ce8a	-0.22344413
73	0x3e355296	0.17707285
74	0x3ef37f89	0.4755824
75	0x3e8023ca	0.25027305
76	0xbd354354	-0.044253662
77	0x3de29b77	0.11064809
78	0xbda738cb	-0.08165129
79	0xbf049af0	-0.51798916
80	0x3a618c57	0.0008603981
81	0xbe086ead	-0.1332347
82	0x3cde75a6	0.027155709
83	0xbd11ec92	-0.035626
84	0x3bdb0b78	0.006684717
85	0xbbc52578	-0.0060164295
86	0xbd374480	-0.04474306
87	0xbf3ef77e	-0.74596393
88	0xbf3143ca	-0.6924406
89	0x3dccc249	0.099979945
90	0x3d078074	0.033081487
91	0xbd648591	-0.05579144
92	0xbebb9691	-0.3663831
93	0xbdfc7bd5	-0.123283066
94	0xbe1277e6	-0.1430355
95	0xbdb0c165	-0.08630637
96	0xbe62cb71	-0.22147919
97	0x3c177c10	0.009245887
98	0xbdbdeb1a	-0.09273358
99	0xbe0469bd	-0.12930961
100	0xbe64cb57	-0.22343193
101	0xbdae274e	-0.085035905
102	0x3dcf80fd	0.101320244
103	0xbe378eae	-0.17925522
104	0xbf0256be	-0.5091361
105	0xbe32dff9	-0.17468251
106	0xbe1b6667	-0.15175782
107	0xbeea7e3d	-0.45799437
108	0xbf237e14	-0.63864255
109	0x3ed4e8d2	0.41583878
110	0xbcb37cb9	-0.021910058
111	0x3cad9af8	0.021192059
112	0xbcb20a8a	-0.021733541
113	0x3b11aa1f	0.0022226644
114	0xbdb24453	-0.08704438
115	0xbf26eec3	-0.6520807
116	0xbe63f466	-0.222612
117	0xbe0ea0f1	-0.13928582
118	0x3e90c019	0.2827156
119	0x3e0d85eb	0.13820617
120	0x3db15e18	0.08660525
121	0x3dabc0b8	0.083863676
122	0xbe44c5df	-0.19216107
123	0xbe6a9aea	-0.22910658
124	0xbdbe831f	-0.09302353
125	0x3dfd839c	0.12378618
126	0xbd263800	-0.04058075
127	0xbe2132ed	-0.15742083
128	0xbe4a97a6	-0.19784412
129	0xbe6d331c	-0.23164028
130	0xbe0af963	-0.13571696
131	0xbea70c21	-0.3262644
132	0xbea3b53d	-0.3197421
133	0xbe974da2	-0.29551417
134	0x3c44d6a2	0.012014063
135	0x3e9c3641	0.30510142
136	0x3e8b6d67	0.27231905
137	0x3ed315d1	0.41227582
138	0xbeb796c4	-0.35857213
139	0xbc7e5e26	-0.015525376
140	0x3d0a918f	0.03383022
141	0x3cb9cc9a	0.02268057
142	0xbe6a2bee	-0.2286832
143	0xbebf524f	-0.37367484
144	0xbdffab34	-0.12483826
145	0xbd89c53a	-0.06727071
146	0x3e3bf552	0.18355301
147	0xbdc09d5a	-0.094050124
148	0x3e391f8f	0.18078445
149	0xbca7266e	-0.020404067
150	0xbdb1b2fd	-0.086767174
151	0xbe45b1aa	-0.19306055
152	0xbcec7dbf	-0.028868554
153	0x3d43b870	0.047783315
154	0xbe4945ea	-0.19655576
155	0xbe29e4ac	-0.16591138
156	0xbc9d85b4	-0.019228794
157	0xbe427adf	-0.18992184
158	0xbe12faa1	-0.1435342
159	0xbea7f560	-0.32804394
160	0xbed60c3c	-0.4180621
161	0xbd8c500e	-0.06851207
162	0x3c6780c2	0.014129819
163	0xbdf0c911	-0.117571004
164	0x3d431e63	0.0476364
165	0x3eaaacc4	0.33334935
166	0xbf28fde7	-0.66012424
167	0xbd364513	-0.044499468
168	0xbd03aa6b	-0.032144945
169	0xbed0a123	-0.40747938
170	0x3ec484a6	0.38382453
171	0x3ef8208e	0.48462337
172	0x3ecc5957	0.3991191
173	0x3ee225d1	0.44169477
174	0x3e991c31	0.2990432
175	0xbcfcbea8	-0.03085263
176	0x3e1d428b	0.15357415
177	0x3d6d9568	0.058003813
178	0xbaab57d0	-0.0013072435
179	0xbcd8de0f	-0.026473073
180	0x3da54a71	0.08070839
181	0xbdca49d9	-0.098773666
182	0xbc32df1d	-0.010917452
183	0xbe8ddf91	-0.2770963
184	0xbdf47a13	-0.11937346
185	0xbd25cb4a	-0.040477075
186	0xbd26076e	-0.04053443
187	0xbddf2e80	-0.10897541
188	0xbe7c6602	-0.24648288
189	0xbe0fe20c	-0.14051074
190	0x3cb0fdb3	0.021605348
191	0xbd52d0a5	-0.05146851
192	0xbf0aa566	-0.5415863
193	0xbdf40ed5	-0.119168915
194	0xbf02d93b	-0.5111272
195	0xbe8c3189	-0.27381542
196	0xbca7e848	-0.020496503
197	0xbf111a5e	-0.5668086
198	0x3eb0df68	0.34545445
199	0x3f0f3b04	0.55949426
200	0x3edd19db	0.4318379
201	0x3ea09f9a	0.31371766
202	0x3ed4aadd	0.41536608
203	0xbc1c7877	-0.009550205
204	0xbd3d704f	-0.046249684
205	0x3c5d2e39	0.01349979
206	0xbddff533	-0.1093544
207	0xbd86ca7e	-0.06581591
208	0x3d074f55	0.03303464
209	0x3e041b92	0.12901142
210	0xbd8864d8	-0.066598594
211	0xbc853858	-0.016262218
212	0xbdcdbbc8	-0.10045582
213	0x3cabd674	0.020976283
214	0x3c6d8e0f	0.014499201
215	0xbdcb794a	-0.099352434
216	0xbe1d7b0f	-0.15378974
217	0x3d68807e	0.056763165
218	0x3e60974f	0.2193272
219	0xbe467f90	-0.19384599
220	0xbe38056e	-0.17970821
221	0x3ea8d335	0.32973638
222	0xbe19b930	-0.1501205
223	0xbea1bb40	-0.31588173
224	0xbf0bdaa7	-0.5463051
225	0x3eb43996	0.35200185
226	0x3e995e32	0.29954678
227	0x3e13d2f9	0.14435948
228	0x3e612439	0.21986474
229	0x3d7e082d	0.062019516
230	0x3e3a6c02	0.18205264
231	0xbd018c38	-0.031627864
232	0x3c54a5ef	0.012979015
233	0xbd8d7878	-0.06907743
234	0x3c7a414d	0.015274358
235	0xbd990ab3	-0.07472744
236	0xbe98a0bc	-0.2981013
237	0xbe7584f6	-0.23976502
238	0xbd75b3dd	-0.059985984
239	0xbc1e35ed	-0.009656412
240	0xbd93c8b4	-0.072160155
241	0xbc901cfe	-0.01759195
242	0x3d951bf2	0.07280721
243	0xbdd8ce4b	-0.10586222
244	0xbd1f16f4	-0.03884025
245	0xbba1d9ff	-0.0049393172
246	0xbe736ed6	-0.2377275
247	0xbe0032d8	-0.12519395
248	0xbda646ba	-0.08118959
249	0xbd5d1cbf	-0.053982493
250	0xbe8875c2	-0.26652342
251	0xbe3a3237	-0.18183218
252	0x3e7be20b	0.24597947
253	0x3e18f99f	0.14938973
254	0xbd90c7f4	-0.07069388
255	0x3c83c5e3	0.01608557

fc1.bias f4 [50]
0	0x3e19e66f	0.1502931
1	0x3cf92776	0.030414324
2	0x3db78381	0.08960629
3	0x3e688327	0.2270628
4	0x3df81e7f	0.12115192
5	0x3ebdfe70	0.37108183
6	0xbe6f57a9	-0.23373283
7	0x3de16217	0.11005037
8	0x3e8c563a	0.27409536
9	0x3e17f5df	0.14839886
10	0x3df0bce6	0.117547795
11	0xbdee5e9f	-0.11639141
12	0x3d859b83	0.06523802
13	0x3e3b8047	0.18310653
14	0x3da12b83	0.07869627
15	0xbe598518	-0.21242177
16	0xbea4b202	-0.3216706
17	0x3dcd8c8a	0.10036571
18	0x3da58085	0.08081154
19	0xbbff3f8d	-0.0077895583
20	0x3e8a4678	0.27006888
21	0xbe9d6eb7	-0.3074853
22	0xbcbe659e	-0.023241814
23	0x3ea57929	0.32319
24	0xb9d9f906	-0.00041575002
25	0x3d35c2ba	0.04437516
26	0x3e6113fd	0.21980281
27	0x3e28af3b	0.16473095
28	0x3e7f5733	0.24935608
29	0x3d09717d	0.033555496
30	0x3d56c497	0.052433576
31	0xbe8140aa	-0.25244647
32	0x3ec7e80c	0.39044225
33	0x3e27bfe2	0.16381791
34	0xbe0f631d	-0.14002652
35	0x3eba3ce5	0.36374584
36	0xbd3757c5	-0.044761438
37	0x3e4e5e75	0.2015322
38	0xbe04b41d	-0.12959333
39	0x3c985861	0.01859683
40	0x3df4e982	0.119586006
41	0xbd7c4596	-0.0615898
42	0xbe264997	-0.1623901
43	0xbe859a86	-0.26094455
44	0xbe22297d	-0.15836139
45	0xbe53e89d	-0.20694204
46	0xbe4090a9	-0.18805183
47	0x3ceb040a	0.02868845
48	0x3cccc6b6	0.024997097
49	0xbe02202b	-0.12707584

fc2.weight f4 [10, 50]
0	0xbdfdd1fc	-0.12393567
1	0xbf3f4d88	-0.7472768
2	0x3c8567bc	0.016284816
3	0xbf1bca49	-0.6085554
4	0x3d97ef5c	0.07418701
5	0xbf527bb0	-0.8221998
6	0x3e6722bb	0.22571842
7	0x3d15903c	0.036514506
8	0x3e3e0b03	0.18558888
9	0x3ea894ae	0.32925934
10	0xbcbfbd13	-0.023405587
11	0xbb480873	-0.0030522614
12	0xbe514f3d	-0.20440383
13	0x3d6d6287	0.05795529
14	0x3ee9b14c	0.4564308
15	0xbdef242c	-0.11676821
16	0x3e6c83aa	0.23097101
17	0xbfa7902e	-1.3090875
18	0x3d58994a	0.052880563
19	0xbe81b4a5	-0.25333133
20	0x3dbc530a	0.09195526
21	0x3f1538fd	0.5829008
22	0xbdc450b5	-0.09585706
23	0xbf03200b	-0.5122077
24	0xbf298c07	-0.6622929
25	0xbe69e0d0	-0.22839665
26	0x3e90b0fe	0.28260034
27	0x3ec16cd2	0.37778336
28	0xbf9208e9	-1.1408969
29	0xbeceaab8	-0.40364623
30	0xbde1130d	-0.10989962
31	0x3f17fd87	0.5937123
32	0xbe04b329	-0.12958969
33	0xbb46ed17	-0.003035372
34	0xbd8c646e	-0.06855093
35	0xbf42c3f4	-0.7608025
36	0x3ea16533	0.3152252
37	0xbfa4f669	-1.2887698
38	0x3f1014b5	0.56281596
39	0x3e463c67	0.19358979
40	0x3eba00f1	0.36328843
41	0x3ea07153	0.3133646
42	0xbf9d8c27	-1.2308396
43	0x3e8be42c	0.2732252
44	0x3ea3cc39	0.31991747
45	0xbf46a283	-0.77591723
46	0xbf04e6c1	-0.519146
47	0xbe85da89	-0.26143292
48	0x3f252834	0.6451447
49	0xbf2ba6b7	-0.6705126
50	0x3d444986	0.04792168
51	0x3f1d3ca1	0.6142064
52	0xbeccc614	-0.39994872
53	0x3d5176e5	0.051138777
54	0xbf767843	-0.96277255
55	0x3e6c41ba	0.23071948
56	0xbf8046c9	-1.0021602
57	0x3e8ce0db	0.275153
58	0x3cd35bb9	0.025800573
59	0xbf100f79	-0.5627361
60	0x3e2b4a20	0.16727495
61	0xbcccc9ab	-0.024998507
62	0xbfba9756	-1.4577434
63	0x3e917d53	0.28415927
64	0xbe2e8834	-0.17044145
65	0x3e719c2b	0.2359473
66	0xbe681443	-0.22663979
67	0xbdf995c0	-0.12186766
68	0x3f741792	0.95348465
69	0x3ee06454	0.43826544
70	0x3e9175ff	0.28410336
71	0x3d6ccad3	0.057810616
72	0x3d8d01dd	0.06885121
73	0xbde736db	-0.1128976
74	0x3edb5552	0.42838532
75	0xbeed5081	-0.46350482
76	0xbe714dec	-0.23564881
77	0x3f1accd9	0.6046882
78	0xbf640a0d	-0.89077836
79	0xbcc90687	-0.024539245
80	0xbea49ae6	-0.32149428
81	0xbf4a60f3	-0.7905418
82	0x3f8ab6f2	1.083708
83	0xbdfabab5	-0.12242643
84	0xbe806beb	-0.25082335
85	0xbf39ca07	-0.72573894
86	0xbf08dbe2	-0.53460515
87	0x3d8ed3d7	0.06973999
88	0xbbfe2a7d	-0.00775653
89	0x3eed03d7	0.46291992
90	0xbf21034b	-0.6289565
91	0x3edfbe83	0.43700036
92	0x3ea93377	0.33047077
93	0xbefc54bb	-0.49283394
94	0xbef34e72	-0.47520787
95	0xbd727ba9	-0.059199963
96	0x3ed8be46	0.42332667
97	0xbf0aba6c	-0.5419071
98	0xbd6c90ee	-0.057755403
99	0xbef85e12	-0.4850927
100	0x3ef63774	0.48089182
101	0xbf0f0b97	-0.5587706
102	0xbf954585	-1.1661841
103	0x3e31433f	0.17310809
104	0x3cfc0113	0.030762231
105	0xbd55b9a9	-0.052179012
106	0xbd8e8c5b	-0.069603644
107	0x3ebbccfe	0.36679834
108	0xbf519456	-0.8186697
109	0xbd9151f9	-0.07095713
110	0xbd4cefae	-0.050033264
111	0x3e55853a	0.20851603
112	0xbee805c7	-0.45316908
113	0x3e91fe40	0.2851429
114	0x3ea2fca4	0.31833375
115	0xbe8f41d9	-0.27979925
116	0x3dde5f39	0.10858006
117	0xbfd700c9	-1.6797115
118	0xbf10df41	-0.5659066
119	0x3ec5e214	0.38649046
120	0xbf34c574	-0.7061379
121	0x3f05d410	0.52276707
122	0xbdcbb757	-0.09947079
123	0xbd02e095	-0.03195246
124	0x3e197369	0.14985432
125	0xbebd7c21	-0.37008765
126	0x3f1d536c	0.61455417
127	0x3f1d3c5d	0.6142023
128	0xbe9ce7b2	-0.3064552
129	0x3e07baea	0.13254896
130	0x3d45707e	0.048202984
131	0xbecdb338	-0.40175796
132	0xbdca3e35	-0.09875146
133	0x3f21feaf	0.6327924
134	0x3e7a9f35	0.24474795
135	0xbe97704c	-0.29577863
136	0x3e58a645	0.21157177
137	0xbe71ae6e	-0.23601696
138	0xbec8addd	-0.39195147
139	0xbf30aece	-0.6901673
140	0x3cae2149	0.021256106
141	0xbe36f2c9	-0.17866053
142	0x3ec1e462	0.37869555
143	0xbea58192	-0.32325417
144	0xbde6801b	-0.11254903
145	0x3e6f127c	0.23346895
146	0x3f555a64	0.8334105
147	0x3f0e92ea	0.55692923
148	0x3dc99ad3	0.098439835
149	0xbd804694	-0.06263462
150	0xbf8777c5	-1.0583426
151	0x3f181413	0.5940563
152	0x3e0981e7	0.1342846
153	0xbf8d4558	-1.1036787
154	0x3c789021	0.015171082
155	0xbde0616c	-0.10956082
156	0x3edc4384	0.4302026
157	0x3b50519e	0.003178693
158	0x3e0e6fe3	0.13909869
159	0xbe5a53a4	-0.21320969
160	0x3dc2c3f5	0.09510032
161	0x3ef387b4	0.4756447
162	0xbf836c56	-1.0267437
163	0xbdcd6605	-0.10029224
164	0xbf533725	-0.8250602
165	0x3d842ba4	0.06453636
166	0x3e49b224	0.19696862
167	0x3ed1ce0a	0.40977508
168	0xbf03e620	-0.5152302
169	0xbd34d376	-0.044146977
170	0xbf80e8e2	-1.007107
171	0xbe0aa409	-0.13539137
172	0x3d68fff4	0.05688472
173	0x3db6427c	0.088994
174	0x3ec8eb6f	0.39242122
175	0x3e33ec13	0.17570524
176	0xbef7113a	-0.4825533
177	0xbe122317	-0.14271198
178	0xbdff127b	-0.12454697
179	0xbc9c768f	-0.019099502
180	0x3e62a16f	0.22131895
181	0x3eef3aa3	0.46724424
182	0x3de64916	0.11244409
183	0xbe16df05	-0.14733513
184	0x3e48fc5a	0.19627514
185	0x3e896e53	0.26841983
186	0x3f2a558d	0.6653679
187	0xbf54dfd3	-0.8315403
188	0xbee44181	-0.44581226
189	0xbdd84a3b	-0.10561033
190	0x3d292bb2	0.041301437
191	0x3da8cb39	0.08241887
192	0x3ced06d7	0.028933926
193	0x3e02d4e9	0.12776531
194	0xbe88ee72	-0.2674442
195	0x3e4b6270	0.1986177
196	0x3ea5cf4c	0.32384717
197	0x3db0501b	0.08609029
198	0x3dfaef93	0.122527264
199	0xbf29c048	-0.6630902
200	0x3e91cf95	0.28478685
201	0x3da7c68e	0.08192168
202	0x3e73564c	0.23763388
203	0x3f0324d2	0.5122806
204	0x3e0041c1	0.12525083
205	0x3eb79137	0.35852978
206	0x3e50bf16	0.20385394
207	0x3e8e44db	0.27786908
208	0xbf676d57	-0.90401214
209	0x3ec8ba1d	0.39204493
210	0x3dceeaf6	0.10103409
211	0xbf7dd533	-0.9915344
212	0x3edf8bce	0.4366135
213	0xbe08b582	-0.1335049
214	0xbf97e906	-1.1867988
215	0xbf274a6f	-0.6534795
216	0x3bf3b97c	0.007437883
217	0x3f104509	0.5635534
218	0x3e80f2bb	0.2518519
219	0xbe1d5a25	-0.15366419
220	0x3d6f56de	0.058432452
221	0xbf90a424	-1.1300092
222	0x3c0ab1c0	0.00846523
223	0x3c13fdde	0.009032695
224	0xbea9448a	-0.33060104
225	0x3e3a790d	0.1821024
226	0x3ed5e1ec	0.41773927
227	0xbf9c5a2a	-1.2215016
228	0x3eb8c06a	0.360843
229	0xbeb1602b	-0.34643683
230	0x3eb9f8ab	0.3632253
231	0xbf9ac652	-1.2091773
232	0x3f6cd0fd	0.9250639
233	0xbeaaa570	-0.33329344
234	0xbf871364	-1.0552793
235	0x3dddcbe1	0.108299024
236	0xbf7201ae	-0.94533813
237	0x3ec2bd5c	0.38035095
238	0xbefb0e63	-0.49034414
239	0xbfaac038	-1.333991
240	0x3e986933	0.2976776
241	0x3e8dba45	0.27681175
242	0xbf2c0cda	-0.6720711
243	0xbed5d815	-0.4176642
244	0x3b335682	0.0027364795
245	0x3e851f31	0.2600036
246	0xbf7102c6	-0.94144857
247	0xbf5fbc24	-0.87396455
248	0xbdac75a8	-0.08420879
249	0xbf967a16	-1.1756008
250	0xbf35177e	-0.7073897
251	0x3e016600	0.12636566
252	0x3eea9d1a	0.45822984
253	0x3e1212fb	0.14265053
254	0xbf4ee2f0	-0.8081503
255	0xbea61ea6	-0.32445258

fc2.bias f4 [10]
0	0xbea40619	-0.32035902
1	0x3dbf7993	0.0934936
2	0x3e0877ea	0.13326994
3	0xbd0e4d3f	-0.034741636
4	0x3eb97dc9	0.3622878
5	0x3dba6c70	0.09102714
6	0x3e284b53	0.16434984
7	0xbde8f4d6	-0.11374824
8	0x3d474054	0.048645332
9	0xbd9e5cfb	-0.07732578

exp_avg f4 [50, 784]
0	0x00000000	0.0
1	0x00000000	0.0
2	0x00000000	0.0
3	0x00000000	0.0
4	0x00000000	0.0
5	0x00000000	0.0
6	0x00000000	0.0
7	0x00000000	0.0
8	0x00000000	0.0
9	0x00000000	0.0
10	0x00000000	0.0
11	0x00000000	0.0
12	0x9923f9d7	-8.477357e-24
13	0x9b5d5e17	-1.8311094e-22
14	0x9b5d5e17	-1.8311094e-22
15	0x9913940e	-7.629621e-24
16	0x00000000	0.0
17	0x00000000	0.0
18	0x00000000	0.0
19	0x00000000	0.0
20	0x00000000	0.0
21	0x00000000	0.0
22	0x00000000	0.0
23	0x00000000	0.0
24	0x00000000	0.0
25	0x00000000	0.0
26	0x00000000	0.0
27	0x00000000	0.0
28	0x00000000	0.0
29	0x00000000	0.0
30	0x00000000	0.0
31	0x00000000	0.0
32	0x00000000	0.0
33	0x1300622c	1.6204274e-27
34	0x29e52fb2	1.0177917e-13
35	0x2a23d91b	1.4552632e-13
36	0x1a778c33	5.1191655e-23
37	0xa1958a30	-1.0133211e-18
38	0xa360b7ef	-1.2182014e-17
39	0x2fc25932	3.5351772e-10
40	0x304435ae	7.138067e-10
41	0x2fd2c74b	3.8340384e-10
42	0xaf47aa18	-1.8159374e-10
43	0xafe1a7f7	-4.1046608e-10
44	0xaf86ece7	-2.4542787e-10
45	0xaff256b9	-4.4081164e-10
46	0xaecb06fc	-9.232612e-11
47	0x2d37aa7d	1.0440202e-11
48	0x2707e4a0	1.8858951e-15
49	0x25a3609c	2.8341458e-16
50	0x25412ff5	1.675633e-16
51	0x237bd4f0	1.36518285e-17
52	0x00000000	0.0
53	0x00000000	0.0
54	0x00000000	0.0
55	0x00000000	0.0
56	0x00000000	0.0
57	0x00000000	0.0
58	0x00000000	0.0
59	0x2f9c94aa	2.8481867e-10
60	0x2ed7f92f	9.821332e-11
61	0xa4cee44a	-8.9724996e-17
62	0xadf794ca	-2.8146725e-11
63	0xae4f405b	-4.712351e-11
64	0x2f77f6eb	2.2552242e-10
65	0x2ec1fe93	8.821845e-11
66	0x355e7cf4	8.2883275e-07
67	0x3526401f	6.193313e-07
68	0x333c3ced	4.3827573e-08
69	0x35e34d5c	1.6935332e-06
70	0x364cf2e8	3.053976e-06
71	0xb5cccf7b	-1.5259569e-06
72	0xb66f9059	-3.5697797e-06
73	0xb685a1ed	-3.9825595e-06
74	0xb5956db1	-1.113329e-06
75	0xb40d63bc	-1.3167931e-07
76	0xb24ca2c9	-1.1911376e-08
77	0xb0929d14	-1.0667542e-09
78	0xb1107a13	-2.102415e-09
79	0xafba09d3	-3.3840183e-10
80	0xa755a4b6	-2.9648978e-15
81	0xa38bdcc7	-1.5163913e-17
82	0x00000000	0.0
83	0x00000000	0.0
84	0x00000000	0.0
85	0x00000000	0.0
86	0x00000000	0.0
87	0x3062c578	8.249894e-10
88	0x2f972e17	2.749949e-10
89	0xb30af6a9	-3.2354965e-08
90	0xb352d406	-4.908727e-08
91	0xb5b0bd6c	-1.3168151e-06
92	0xb7122dc9	-8.712938e-06
93	0xb788ec00	-1.632236e-05
94	0xb78665d6	-1.6021466e-05
95	0xb7f8f056	-2.9675819e-05
96	0xb476b760	-2.2977247e-07
97	0x3718046f	9.060938e-06
98	0x34446f3c	1.829439e-07
99	0x352c7ccc	6.4256596e-07
100	0x37be4414	2.2681466e-05
101	0x381a4410	3.677985e-05
102	0x3803996f	3.137573e-05
103	0x377495f8	1.4578451e-05
104	0x34b27a77	3.3244189e-07
105	0xb627dca9	-2.501338e-06
106	0xb4938a3d	-2.7481465e-07
107	0xb33968b2	-4.316889e-08
108	0xb372a2dd	-5.649314e-08
109	0xae05bdcc	-3.0409272e-11
110	0x00000000	0.0
111	0x00000000	0.0
112	0x00000000	0.0
113	0x00000000	0.0
114	0x00000000	0.0
115	0xa9181e26	-3.377693e-14
116	0xb08664e2	-9.778456e-10
117	0xb3780709	-5.7748398e-08
118	0xb6181c68	-2.26663e-06
119	0xb79d044e	-1.8717863e-05
120	0x37ef2408	2.8507799e-05
121	0x38828bdb	6.224933e-05
122	0x38438716	4.661743e-05
123	0x37935536	1.7563445e-05
124	0xb663ec94	-3.3963343e-06
125	0xb78d3442	-1.6832844e-05
126	0x3737d948	1.095824e-05
127	0x37d92c12	2.5888938e-05
128	0x3829feaa	4.0529914e-05
129	0x38602c8c	5.344725e-05
130	0x380a0ef8	3.2915705e-05
131	0x380d85aa	3.3741504e-05
132	0x37db9750	2.6177295e-05
133	0x370e5088	8.48261e-06
134	0xb54fbdb3	-7.738956e-07
135	0x33125cd9	3.407772e-08
136	0x3433f321	1.6759124e-07
137	0x34b33e60	3.3386732e-07
138	0x3492c8cc	2.7340718e-07
139	0x00000000	0.0
140	0x00000000	0.0
141	0x00000000	0.0
142	0xac96b1f0	-4.2830114e-12
143	0xa99e4308	-7.0282376e-14
144	0xb168bea5	-3.3868812e-09
145	0xb48a01b6	-2.5705748e-07
146	0xb52dea92	-6.4788867e-07
147	0x3575f8e0	9.1631773e-07
148	0x380fbb77	3.4268447e-05
149	0x3891b59b	6.9479654e-05
150	0x38bcf702	9.0105474e-05
151	0x3792ae4d	1.7485721e-05
152	0xb82ceed7	-4.1230433e-05
153	0x35105b60	5.377715e-07
154	0x37904a62	1.7200775e-05
155	0xb75e999e	-1.3267998e-05
156	0xb8809022	-6.1303625e-05
157	0x3755769e	1.2723407e-05
158	0xb59de190	-1.1763059e-06
159	0x3800b78f	3.068853e-05
160	0x3866ac12	5.4996526e-05
161	0x384870b9	4.7788697e-05
162	0x378ba232	1.664562e-05
163	0xb56da584	-8.8530237e-07
164	0xb5573716	-8.01739e-07
165	0x34550a50	1.9840923e-07
166	0x330486ad	3.0856132e-08
167	0xa4bcf58b	-8.194797e-17
168	0x00000000	0.0
169	0x2a8bf611	2.4862103e-13
170	0xb592611b	-1.0906109e-06
171	0xb6dcfe57	-6.58612e-06
172	0xb76c4abe	-1.4084098e-05
173	0xb827b8dc	-3.9988066e-05
174	0xb891ffc9	-6.9617825e-05
175	0xb840ca52	-4.5964793e-05
176	0xb8885cb4	-6.502253e-05
177	0xb796b362	-1.7964925e-05
178	0xb818c07f	-3.64189e-05
179	0xb8396da6	-4.4209555e-05
180	0xb7d01a32	-2.480773e-05
181	0x3785d338	1.5953192e-05
182	0xb8c549d3	-9.407443e-05
183	0xb8d6b958	-0.00010238838
184	0xb86d6a92	-5.6604455e-05
185	0x35c14eac	1.4402517e-06
186	0xb7c32c18	-2.3266344e-05
187	0x376c6a2c	1.4091416e-05
188	0x388533ba	6.351569e-05
189	0x38cafabe	9.678815e-05
190	0x38979e6b	7.229749e-05
191	0x378f4d8c	1.7083039e-05
192	0xb6ee0777	-7.0938218e-06
193	0xb6aa4e59	-5.0755157e-06
194	0xb4ac409f	-3.2084515e-07
195	0x31177a01	2.2042743e-09
196	0xa7503d8a	-2.889916e-15
197	0xaf5deef5	-2.0184728e-10
198	0xb634ef74	-2.696147e-06
199	0xb7040515	-7.868996e-06
200	0xb79fe6e1	-1.9061788e-05
201	0xb8941b37	-7.062259e-05
202	0xb8a84104	-8.022974e-05
203	0xb8cc10c9	-9.7306045e-05
204	0xb840b720	-4.5946916e-05
205	0xb801efd7	-3.0979365e-05
206	0x37c32048	2.3260844e-05
207	0xb881e8f7	-6.1945924e-05
208	0xb8c06f7a	-9.1760376e-05
209	0xb898b5ac	-7.281764e-05
210	0xb8b82686	-8.780979e-05
211	0xb902a6d4	-0.00012459914
212	0xb894e234	-7.0993236e-05
213	0x3789379e	1.6357571e-05
214	0x38b49dbd	8.61245e-05
215	0x39040767	0.00012591259
216	0x38b84b1f	8.787796e-05
217	0x38b2a498	8.5183594e-05
218	0x38b258e2	8.504257e-05
219	0x37c9db7f	2.4063278e-05
220	0xb6e6c15e	-6.877045e-06
221	0xb743f6ff	-1.1680414e-05
222	0xb7135113	-8.780759e-06
223	0x319fc6d4	4.650113e-09
224	0xa851ec2c	-1.1653042e-14
225	0xadbea776	-2.1674867e-11
226	0x344203be	1.806902e-07
227	0xb698a2e0	-4.548914e-06
228	0x33c52994	9.1810904e-08
229	0xb76f88a5	-1.4277325e-05
230	0xb825cd4c	-3.9530263e-05
231	0xb8c8462b	-9.549813e-05
232	0xb7099bdc	-8.202125e-06
233	0x380f44fe	3.415811e-05
234	0xb75267e8	-1.2541168e-05
235	0xb91e9004	-0.00015121704
236	0xb939eb18	-0.00017730554
237	0xb8d33b95	-0.00010072362
238	0xb87dd4f4	-6.051823e-05
239	0x3657fc98	3.2184525e-06
240	0xb9115117	-0.00013858486
241	0xb8c8fdc5	-9.5840114e-05
242	0x3876a1f3	5.8801797e-05
243	0x393284bd	0.00017024852
244	0x391e480c	0.00015094894
245	0x389a5ebb	7.360937e-05
246	0x38a78d18	7.989461e-05
247	0x37cf9ea2	2.4750192e-05
248	0xb7998dd4	-1.8305065e-05
249	0xb7145ce6	-8.843117e-06
250	0xb6a655cd	-4.957174e-06
251	0x228c7441	3.8070165e-18
252	0xa7dee8aa	-6.1869633e-15
253	0x2b57bdc6	7.664671e-13
254	0xb36d5e23	-5.526648e-08
255	0xb66a2f1c	-3.4896138e-06

exp_avg_sq f4 [50, 784]
0	0x00000000	0.0
1	0x00000000	0.0
2	0x00000000	0.0
3	0x00000000	0.0
4	0x00000000	0.0
5	0x00000000	0.0
6	0x00000000	0.0
7	0x00000000	0.0
8	0x00000000	0.0
9	0x00000000	0.0
10	0x00000000	0.0
11	0x00000000	0.0
12	0x189d6e38	4.069484e-24
13	0x1d0f756c	1.8986598e-21
14	0x1d0f756c	1.8986598e-21
15	0x187f09ad	3.2962863e-24
16	0x00000000	0.0
17	0x00000000	0.0
18	0x00000000	0.0
19	0x00000000	0.0
20	0x00000000	0.0
21	0x00000000	0.0
22	0x00000000	0.0
23	0x00000000	0.0
24	0x00000000	0.0
25	0x00000000	0.0
26	0x00000000	0.0
27	0x00000000	0.0
28	0x00000000	0.0
29	0x00000000	0.0
30	0x00000000	0.0
31	0x00000000	0.0
32	0x00000000	0.0
33	0x104881ae	3.9542947e-29
34	0x1f1af9fa	3.2817544e-20
35	0x1f9e6aae	6.709209e-20
36	0x1b34b057	1.494623e-22
37	0x1c4d810c	6.79956e-22
38	0x25250f6f	1.4316698e-16
39	0x272847d8	2.335363e-15
40	0x2817749d	8.40747e-15
41	0x293eb8c1	4.2348723e-14
42	0x2b9b3170	1.1027134e-12
43	0x2c7501a2	3.48175e-12
44	0x2ba569d0	1.1753324e-12
45	0x29a8f0b7	7.502456e-14
46	0x27a4bc36	4.5723203e-15
47	0x2098fc8a	2.5916918e-19
48	0x21e92ae7	1.580005e-18
49	0x1efd9afe	2.685152e-20
50	0x1db84c86	4.8783518e-21
51	0x1a1cc66a	3.242032e-23
52	0x00000000	0.0
53	0x00000000	0.0
54	0x00000000	0.0
55	0x00000000	0.0
56	0x00000000	0.0
57	0x00000000	0.0
58	0x00000000	0.0
59	0x2519e375	1.33477e-16
60	0x25ba29d9	3.2294214e-16
61	0x263d0f33	6.5593146e-16
62	0x2385cf7c	1.4507762e-17
63	0x26939b7c	1.0242318e-15
64	0x299f1707	7.065013e-14
65	0x2c8f97ff	4.0811794e-12
66	0x2d3ede44	1.08496025e-11
67	0x2f3c5455	1.7128461e-10
68	0x30ef43bf	1.7408793e-09
69	0x311f8e71	2.3218514e-09
70	0x303447f4	6.558587e-10
71	0x30b0c8f1	1.2862796e-09
72	0x323978cc	1.0795883e-08
73	0x3231baf6	1.0345266e-08
74	0x31044810	1.924949e-09
75	0x2ea2dbdb	7.405961e-11
76	0x2dc567cf	2.2442407e-11
77	0x2ce7bf31	6.5866414e-12
78	0x2a28cfe3	1.4993523e-13
79	0x2716a6c7	2.0907092e-15
80	0x2659051c	7.5293923e-16
81	0x1e54ca1d	1.1264983e-20
82	0x00000000	0.0
83	0x00000000	0.0
84	0x00000000	0.0
85	0x00000000	0.0
86	0x00000000	0.0
87	0x2c14348b	2.1061232e-12
88	0x2fef5be7	4.3539147e-10
89	0x2a8a8f88	2.461332e-13
90	0x2f7b2be8	2.2843916e-10
91	0x2f823def	2.369087e-10
92	0x30b1f3fb	1.2947788e-09
93	0x313cb5e3	2.7460991e-09
94	0x32406868	1.119961e-08
95	0x336d1c56	5.5206634e-08
96	0x335ee09f	5.1892695e-08
97	0x33c670ea	9.2406324e-08
98	0x33d8a889	1.008894e-07
99	0x33ca63bb	9.424499e-08
100	0x348c9174	2.6182863e-07
101	0x3442f447	1.8156526e-07
102	0x33686b24	5.4114153e-08
103	0x32e2b188	2.6390595e-08
104	0x32b2ad6d	2.0800792e-08
105	0x32453d29	1.1480815e-08
106	0x3151dff9	3.0540817e-09
107	0x30b75eda	1.3341961e-09
108	0x2fc578cf	3.591993e-10
109	0x2d122fd5	8.30976e-12
110	0x00000000	0.0
111	0x00000000	0.0
112	0x00000000	0.0
113	0x00000000	0.0
114	0x00000000	0.0
115	0x2ce0f463	6.3935953e-12
116	0x2f0053c3	1.167129e-10
117	0x2ed51076	9.6890426e-11
118	0x311589e2	2.176073e-09
119	0x3231b1a3	1.0343146e-08
120	0x32ebaca4	2.7436108e-08
121	0x338c0f51	6.522044e-08
122	0x33e934f0	1.0859537e-07
123	0x3486a486	2.5079152e-07
124	0x34f24f8a	4.5133885e-07
125	0x351b1642	5.777439e-07
126	0x355e84b7	8.289457e-07
127	0x35940ba6	1.1030249e-06
128	0x3584e3aa	9.901025e-07
129	0x35404685	7.1628193e-07
130	0x34fb546c	4.6813818e-07
131	0x348d89b6	2.6363494e-07
132	0x33f78097	1.1525224e-07
133	0x33563d10	4.9881294e-08
134	0x3297abd7	1.7656857e-08
135	0x31d4240e	6.174111e-09
136	0x3269ce70	1.36093234e-08
137	0x31c90291	5.8501617e-09
138	0x2b891c69	9.742321e-13
139	0x00000000	0.0
140	0x00000000	0.0
141	0x00000000	0.0
142	0x25aad594	2.9635025e-16
143	0x2fdb7fdd	3.992672e-10
144	0x2fe13a48	4.0968673e-10
145	0x31891090	3.9891077e-09
146	0x3294634c	1.7274623e-08
147	0x33252267	3.8448345e-08
148	0x33abdf17	8.003388e-08
149	0x348a7e53	2.5796416e-07
150	0x34e21c0a	4.2116181e-07
151	0x355eb975	8.297132e-07
152	0x35ae57e5	1.2989591e-06
153	0x35d82a0f	1.6105495e-06
154	0x35fb13ad	1.8706684e-06
155	0x3605681c	1.9879144e-06
156	0x35fd88cd	1.8889783e-06
157	0x35d3d886	1.5783742e-06
158	0x358ac230	1.0338317e-06
159	0x352f4215	6.528874e-07
160	0x34d51b79	3.969433e-07
161	0x34436012	1.819574e-07
162	0x338952d3	6.394625e-08
163	0x33589d18	5.0434295e-08
164	0x3249aecb	1.1739483e-08
165	0x30facf5c	1.8248829e-09
166	0x2879257e	1.38304065e-14
167	0x1168717c	1.8336543e-28
168	0x00000000	0.0
169	0x23c39759	2.120604e-17
170	0x2b90deb8	1.0293632e-12
171	0x2e70d9f1	5.4763253e-11
172	0x31965a18	4.375817e-09
173	0x32b27c4a	2.0778447e-08
174	0x344037b4	1.7901658e-07
175	0x348fd989	2.6794103e-07
176	0x34b1243f	3.2995192e-07
177	0x35262ba6	6.1903336e-07
178	0x3590bdc4	1.0784065e-06
179	0x35ca8fec	1.509206e-06
180	0x35f9e892	1.8619633e-06
181	0x3628c3c4	2.5147901e-06
182	0x3639aaf2	2.7666651e-06
183	0x36296327	2.5240677e-06
184	0x361c2f10	2.3273205e-06
185	0x36098fc9	2.0498285e-06
186	0x35edb9b1	1.7711919e-06
187	0x35a5b24f	1.2345353e-06
188	0x354c2423	7.604851e-07
189	0x34da8940	4.0705527e-07
190	0x345a672b	2.0340364e-07
191	0x33cdabcc	9.577306e-08
192	0x33189199	3.5522678e-08
193	0x30a89473	1.2265801e-09
194	0x2c6691fa	3.2766e-12
195	0x25a7ff92	2.9143063e-16
196	0x10a8c33a	6.656511e-29
197	0x2882868b	1.4491248e-14
198	0x2d10b861	8.226393e-12
199	0x306a0eeb	8.5149904e-10
200	0x32532b8c	1.2291718e-08
201	0x33d1cc6b	9.769504e-08
202	0x34b81e24	3.42946e-07
203	0x35031287	4.8828264e-07
204	0x355643f6	7.982011e-07
205	0x359ec8cc	1.1830357e-06
206	0x35cc5df6	1.5226531e-06
207	0x360212da	1.9382483e-06
208	0x36272221	2.4904805e-06
209	0x36397e10	2.7640526e-06
210	0x36338953	2.6753012e-06
211	0x3620814d	2.391712e-06
212	0x3622291d	2.4163812e-06
213	0x362d3147	2.5807692e-06
214	0x360a0145	2.0564341e-06
215	0x35cf7014	1.5455321e-06
216	0x35a2126d	1.2075303e-06
217	0x353fe6c0	7.148883e-07
218	0x349da941	2.9366677e-07
219	0x3409f751	1.2849092e-07
220	0x32a09d6a	1.8698035e-08
221	0x317b0f6b	3.6534071e-09
222	0x2f28a284	1.5337248e-10
223	0x26bb578a	1.2999459e-15
224	0x2bda1140	1.549462e-12
225	0x29177f76	3.363929e-14
226	0x2e142029	3.3679868e-11
227	0x321bc9be	9.068058e-09
228	0x32c308cb	2.2704986e-08
229	0x3404d5e7	1.2371275e-07
230	0x34dbea12	4.0962237e-07
231	0x353abc9a	6.956485e-07
232	0x358848d3	1.0153984e-06
233	0x35b54ec7	1.3508478e-06
234	0x35f1cf01	1.8016145e-06
235	0x360f12ed	2.1319677e-06
236	0x362116f4	2.400423e-06
237	0x361c07b8	2.3250304e-06
238	0x360c5be5	2.0915115e-06
239	0x3609bbda	2.0523935e-06
240	0x362c24dd	2.5651455e-06
241	0x3632db9a	2.6651892e-06
242	0x361565ac	2.226191e-06
243	0x35e66caf	1.7167966e-06
244	0x35c59f3b	1.4723986e-06
245	0x358150b6	9.634739e-07
246	0x34d51bb0	3.9694487e-07
247	0x3416b262	1.4034734e-07
248	0x32aabe60	1.9877177e-08
249	0x30f3d29d	1.7740437e-09
250	0x2f462836	1.8022281e-10
251	0x21490bdd	6.811715e-19
252	0x1f619837	4.7771512e-20
253	0x25c246ce	3.3701615e-16
254	0x306a89cc	8.5324525e-10
255	0x32a098d0	1.8695943e-08

exp_avg f4 [50]
0	0xb8a513b4	-7.871483e-05
1	0x390ef078	0.00013631757
2	0xb94ad592	-0.00019343782
3	0x38e3361a	0.00010834281
4	0xba204b88	-0.00061147707
5	0xb9ec995d	-0.00045127692
6	0x376c2a80	1.40765915e-05
7	0xba7a60c2	-0.0009551161
8	0xb867c9ce	-5.5262637e-05
9	0xb90b10e6	-0.00013262368
10	0xb98680f3	-0.00025654546
11	0xba2685a8	-0.0006352314
12	0xba086422	-0.0005202909
13	0x38a36702	7.7916324e-05
14	0x3964ed40	0.00021832157
15	0xb7ffd808	-3.0498966e-05
16	0xb8a5205a	-7.873839e-05
17	0x36f6bb40	7.35317e-06
18	0x390c14cd	0.0001335919
19	0xba069ad9	-0.00051347684
20	0x39f9f5b2	0.00047676038
21	0xba0f830b	-0.0005474544
22	0x00000000	0.0
23	0x395d90be	0.00021130123
24	0x3a35492e	0.00069155067
25	0xb90d8646	-0.00013496829
26	0xb9a67cd0	-0.0003175498
27	0x39a0ccc9	0.00030670155
28	0xb8f73bf5	-0.00011789046
29	0xb9540ba0	-0.00020222226
30	0xb859a8f8	-5.1894196e-05
31	0x38340b20	4.2925705e-05
32	0x3ac6799a	0.0015142441
33	0x3915764a	0.00014253813
34	0x37d4cee0	2.5368703e-05
35	0xb9bb8000	-0.00035762787
36	0x3a09dfa3	0.000525946
37	0x3990718a	0.00027550414
38	0x39983af2	0.00029035617
39	0x3976c77e	0.00023534705
40	0xb9a21ff2	-0.0003092285
41	0x39cd0d11	0.00039110382
42	0x3a267614	0.00063499925
43	0xba27d160	-0.0006401744
44	0xb9611eea	-0.00021469189
45	0x39fdee83	0.00048433625
46	0x39fb6cd5	0.00047955537
47	0xba450e47	-0.0007517081
48	0xba728e2a	-0.00092527515
49	0xb7ef4a80	-2.8525712e-05

exp_avg_sq f4 [50]
0	0x36af367d	5.2217497e-06
1	0x373c211f	1.1213385e-05
2	0x36f8ccbd	7.4148106e-06
3	0x370bb0f7	8.3262485e-06
4	0x3693e3b1	4.407448e-06
5	0x362474de	2.450593e-06
6	0x36bf1ff5	5.695964e-06
7	0x36e87d2d	6.928711e-06
8	0x3701338e	7.701003e-06
9	0x36aca7fa	5.1455545e-06
10	0x365d700d	3.2996788e-06
11	0x371a39f8	9.192612e-06
12	0x36fab6c7	7.4718587e-06
13	0x36b24b55	5.313583e-06
14	0x36e06be6	6.6882812e-06
15	0x36b85cc2	5.4944257e-06
16	0x36372a02	2.7293577e-06
17	0x370870d6	8.132503e-06
18	0x36fe4bf8	7.578634e-06
19	0x37329334	1.06439e-05
20	0x36ddbcf7	6.6083117e-06
21	0x37164c29	8.958429e-06
22	0x00000000	0.0
23	0x363709a4	2.7274737e-06
24	0x3720454b	9.552877e-06
25	0x367f9583	3.8084988e-06
26	0x36d50806	6.3488287e-06
27	0x3731d8a0	1.0600459e-05
28	0x370ab20d	8.266897e-06
29	0x367616e5	3.6670183e-06
30	0x3661c351	3.3641302e-06
31	0x36e9feab	6.9735884e-06
32	0x37945193	1.768096e-05
33	0x369ba13f	4.6381315e-06
34	0x371f9c5d	9.513545e-06
35	0x36db20e6	6.5305385e-06
36	0x373ce928	1.1259959e-05
37	0x36de9b0c	6.6341654e-06
38	0x369ca6c7	4.6685777e-06
39	0x3708d834	8.15657e-06
40	0x3676c68e	3.677243e-06
41	0x36ddc2c7	6.6089883e-06
42	0x3709aaa8	8.20557e-06
43	0x369200bb	4.351224e-06
44	0x369710d8	4.5021116e-06
45	0x3699f532	4.5883e-06
46	0x36ac83f7	5.141362e-06
47	0x370e0163	8.464182e-06
48	0x37397fbd	1.1056601e-05
49	0x376d7f49	1.4155937e-05

exp_avg f4 [10, 50]
0	0xb90133ca	-0.00012321692
1	0xba7a7af7	-0.00095550664
2	0xba11da0a	-0.00055638014
3	0x37c649de	2.3637836e-05
4	0x39e54a2b	0.00043733543
5	0x39b3a428	0.00034263846
6	0xba6c4b26	-0.00090138835
7	0xba48049f	-0.0007630083
8	0xb9ce6443	-0.00039366083
9	0xba221351	-0.0006182688
10	0xba8b2f1b	-0.0010618897
11	0xb91cca2d	-0.00014952636
12	0xb9e981c9	-0.0004453792
13	0xb95063e6	-0.00019873641
14	0xba861947	-0.0010230922
15	0xb99cc49d	-0.00029901127
16	0xbaa59684	-0.0012633358
17	0xb74d5a0a	-1.2239916e-05
18	0x3a6e9620	0.000910135
19	0xb9a2249d	-0.00030926327
20	0xb9a05d00	-0.00030586869
21	0xba399bbc	-0.0007080396
22	0x00000000	0.0
23	0xba000170	-0.00048830267
24	0x3860b418	5.3573487e-05
25	0xbabcf272	-0.0014415516
26	0xb9bd43af	-0.00036099317
27	0xb93d936a	-0.0001807936
28	0xb9b5b046	-0.00034654344
29	0xba6d8423	-0.00090605224
30	0xba1163cf	-0.00055461837
31	0xba9ec8ed	-0.0012114324
32	0xb9725f82	-0.00023114498
33	0xb7bb3faf	-2.2321792e-05
34	0x39118fac	0.000138818
35	0xb983aefa	-0.00025116635
36	0x39a949ad	0.00032289085
37	0xb82ad9c3	-4.0733965e-05
38	0xba58b771	-0.0008267081
39	0xba715424	-0.00092059583
40	0xba1d3dbd	-0.00059982744
41	0x380f1510	3.4113473e-05
42	0xb96322be	-0.0002166135
43	0xba91f6ed	-0.0011136212
44	0xba81c2d8	-0.0009899987
45	0xba083445	-0.0005195777
46	0xb9c56dc8	-0.00037656561
47	0xb8a95340	-8.0740545e-05
48	0xb8171a91	-3.6025947e-05
49	0x3a12e9c2	0.00056042906
50	0x38777d57	5.900612e-05
51	0xba8b52cb	-0.0010629533
52	0x3a80d02a	0.0009827663
53	0x3a806b80	0.0009797662
54	0x3a53833c	0.00080685667
55	0x3a379451	0.0007002997
56	0x39c98578	0.0003843715
57	0xb9c3c365	-0.0003733888
58	0x3aed0146	0.0018082045
59	0xb8969ebc	-7.182124e-05
60	0x3a826434	0.0009948076
61	0x3ae67023	0.0017581027
62	0x38b9bb18	8.856336e-05
63	0xb90a2c40	-0.0001317719
64	0x39c1889e	0.00036913616
65	0x3a9458d7	0.001131798
66	0x3a049634	0.00050577824
67	0x39982103	0.00029016295
68	0x3972f1df	0.00023169022
69	0x3a2baf61	0.0006549266
70	0x3989f810	0.00026315497
71	0x3a98eb98	0.0011666892
72	0x00000000	0.0
73	0x3a82c373	0.0009976461
74	0x3ab814c4	0.0014044275
75	0x39ef87aa	0.0004568671
76	0xba2cdeff	-0.00065945083
77	0xb9bb281c	-0.00035697303
78	0x39f2eb46	0.0004633313
79	0x3aac4a38	0.0013144678
80	0x3a8325f8	0.0010005822
81	0x3a2a3abb	0.0006493737
82	0x3b1be20d	0.002378586
83	0x3a362919	0.0006948873
84	0x38d46af5	0.0001012887
85	0x39bb8a04	0.0003577025
86	0x3946e04b	0.00018966307
87	0x385aff57	5.2213054e-05
88	0xb9b34e55	-0.00034199902
89	0x3a8dd123	0.0010819774
90	0x3aa15173	0.0012307599
91	0x3b40eacf	0.0029436832
92	0x3aa1b31d	0.0012336705
93	0x3a39adb7	0.00070830755
94	0xb9ea6f2a	-0.00044714782
95	0x3afce9ba	0.001929573
96	0x3a0933ff	0.0005233883
97	0x39dff1b1	0.0004271395
98	0xb83900db	-4.4108234e-05
99	0x39e3a891	0.00043422406
100	0x39f3671a	0.00046425388
101	0x39ab06eb	0.00032620816
102	0x3a35e046	0.00069380214
103	0xb95d4bbf	-0.0002110442
104	0xb9b87af2	-0.00035186816
105	0xbaa9365e	-0.001290988
106	0x399ba19d	0.00029684315
107	0xbaa699b8	-0.0012710607
108	0x381d3b24	3.7486796e-05
109	0xba664b64	-0.0008785038
110	0xbabfe8d8	-0.0014641536
111	0x3a9f7a67	0.0012167216
112	0x39259174	0.00015789812
113	0xb9aea639	-0.00033311712
114	0x3898fcb0	7.2949915e-05
115	0xb99955bf	-0.0002924632
116	0xb771f3e0	-1.4421501e-05
117	0x3a11dd95	0.00055643293
118	0xb8e99694	-0.00011138353
119	0xba7556ca	-0.0009358941
120	0xb98c4c65	-0.000267598
121	0x38e6ca6e	0.0001100496
122	0x00000000	0.0
123	0xba10d5d5	-0.00055250275
124	0xba94c4d5	-0.0011350164
125	0xb9bb86fe	-0.00035767996
126	0xba8f1e7c	-0.0010919119
127	0x39e094a6	0.0004283536
128	0xb972d021	-0.00023156453
129	0xbaa76aec	-0.0012772954
130	0x3906100e	0.00012785217
131	0xba57ce4d	-0.00082323403
132	0x38864ff5	6.404511e-05
133	0xba1cf42c	-0.0005987312
134	0x3a9daa29	0.0012028861
135	0xba8ddcc7	-0.0010823243
136	0x3a0319b4	0.00050010835
137	0x39813d70	0.00024650572
138	0xb93f6a16	-0.000182547
139	0xba52fd2f	-0.00080485916
140	0x3a8e9587	0.0010878303
141	0xba77779b	-0.0009440125
142	0x38b2c630	8.524617e-05
143	0x37988238	1.818045e-05
144	0x392c4cea	0.00016431851
145	0xb9c6a721	-0.00037890024
146	0xbb11b754	-0.0022234516
147	0xb9b9660c	-0.0003536198
148	0xba6f1ae1	-0.0009121132
149	0x38f3acdc	0.000116193405
150	0x39809e92	0.00024532207
151	0xba991c65	-0.0011681436
152	0x3a249fad	0.0006279897
153	0x3a77ce16	0.00094530114
154	0x3a11edcf	0.0005566747
155	0x3a8fe8d4	0.0010979422
156	0x3970f4ce	0.0002297938
157	0x3b7bd7cd	0.0038428188
158	0xba88188e	-0.0010383294
159	0x3ad03ced	0.0015887298
160	0x3aa9383d	0.0012910437
161	0x3aab5241	0.0013070778
162	0x3ac48abf	0.0014994963
163	0x389bb0a0	7.423875e-05
164	0xb9d5d69e	-0.00040786428
165	0x3abdb4d0	0.0014473442
166	0x3acd8ef2	0.001568286
167	0x3935f8f8	0.00017354253
168	0x3a83273c	0.00100062
169	0x3b32acb8	0.0027263593
170	0xba4bd7b7	-0.00077759795
171	0x39c683a8	0.00037863594
172	0x00000000	0.0
173	0x3b0bbed9	0.002132347
174	0xb9eb5062	-0.00044882583
175	0x3b2802f1	0.002563652
176	0x3a6b0e90	0.00089667086
177	0x3a0f789c	0.0005472989
178	0x3afec5ac	0.0019437573
179	0x3b576098	0.003286397
180	0x3abe456f	0.0014516542
181	0x3b66b8c5	0.0035205346
182	0xba829686	-0.0009963072
183	0x399354e0	0.00028101262
184	0xb9dd31c0	-0.0004218947
185	0x3b03254c	0.0020011244
186	0xbb1a4de4	-0.0023544962
187	0x3a23de8a	0.00062511174
188	0x3aa259b3	0.0012386352
189	0xb9fdd83a	-0.00048417022
190	0xbabaedb8	-0.001426152
191	0x3b0914d6	0.002091696
192	0x3ab96236	0.0014143649
193	0x39634458	0.00021673867
194	0x3add8683	0.001690105
195	0xb9ad20b4	-0.00033021497
196	0x3a00f067	0.0004918635
197	0x3ad576cc	0.0016286015
198	0x3ac45d9f	0.0014981515
199	0xb9ab06c9	-0.00032620717
200	0xb7e61fce	-2.7432947e-05
201	0xb987e855	-0.00025922307
202	0xb8071cbe	-3.2213276e-05
203	0xb9eda404	-0.00045326364
204	0xb9f19794	-0.00046080037
205	0xba67ce69	-0.0008842708
206	0xba3565b4	-0.0006919757
207	0x3a2af283	0.00065211224
208	0x3934bd5f	0.00017236684
209	0xba02bda2	-0.0004987364
210	0xba4a68e6	-0.00077213196
211	0x3a2e258f	0.000664317
212	0x3a47f575	0.00076278235
213	0xba77c643	-0.00094518455
214	0x389e401a	7.545967e-05
215	0x39ce0720	0.0003929669
216	0x38ae4fe7	8.3118495e-05
217	0xb8eed104	-0.000113876566
218	0xb978eed7	-0.00023740098
219	0xb8b45812	-8.599473e-05
220	0x39908ed2	0.0002757223
221	0x37fbaa33	3.0000787e-05
222	0x00000000	0.0
223	0xb9f9f7ef	-0.00047677706
224	0xb9579778	-0.00020560424
225	0x3982ee1f	0.00024972946
226	0xba189abc	-0.0005821397
227	0x38adad63	8.2815786e-05
228	0x3a2867b8	0.00064241467
229	0x38d8d1cc	0.0001033876
230	0x3911bf4c	0.00013899541
231	0x398a601a	0.00026393012
232	0x39aaaf12	0.00032555364
233	0xb9f28489	-0.00046256583
234	0x3a3154c9	0.0006764648
235	0xba297f0c	-0.000646577
236	0xb984c754	-0.00025325513
237	0xb84de0bd	-4.9085113e-05
238	0xb971defd	-0.0002306662
239	0xb8308c7a	-4.20925e-05
240	0x387bfbb6	6.0077487e-05
241	0x3a097ea9	0.0005245009
242	0x38b0c64a	8.429268e-05
243	0x3990f833	0.00027650743
244	0x3a11dbae	0.0005564046
245	0x39608b7a	0.00021414264
246	0xb7d46b99	-2.5322473e-05
247	0x39d1734a	0.00039949483
248	0x3a8f3d37	0.0010928278
249	0xb5e8ace0	-1.733566e-06
250	0x38443bae	4.6785623e-05
251	0x3b50f3d7	0.003188362
252	0x3b60b246	0.0034285947
253	0x3a286ebb	0.00064251915
254	0x3a6e6ead	0.00090954715
255	0x3a93cae5	0.0011275677

exp_avg_sq f4 [10, 50]
0	0x380458db	3.1554006e-05
1	0x37c1ecdc	2.311769e-05
2	0x380ad727	3.310214e-05
3	0x36311481	2.638699e-06
4	0x381f6f9d	3.8012502e-05
5	0x37089c2e	8.142595e-06
6	0x389042d3	6.878902e-05
7	0x36fcd5ee	7.53509e-06
8	0x3780755e	1.5313442e-05
9	0x3805b358	3.1876698e-05
10	0x38acb765	8.235759e-05
11	0x36f5a6f4	7.321005e-06
12	0x371a1cb9	9.185803e-06
13	0x3848a07b	4.7833175e-05
14	0x37d269b2	2.5083169e-05
15	0x3623ac02	2.4389014e-06
16	0x386c657c	5.63613e-05
17	0x34a53fa0	3.0779938e-07
18	0x38905af2	6.883395e-05
19	0x37e4da9b	2.7281514e-05
20	0x3770f7d9	1.4362821e-05
21	0x3812edeb	3.503069e-05
22	0x00000000	0.0
23	0x37a56dc7	1.9720652e-05
24	0x36105b2b	2.1510739e-06
25	0x37fae588	2.9909206e-05
26	0x37d670c0	2.5563291e-05
27	0x379f9511	1.9023691e-05
28	0x36b1939f	5.2921964e-06
29	0x3821988b	3.8527458e-05
30	0x3870a829	5.737707e-05
31	0x38067630	3.205816e-05
32	0x36b74611	5.461982e-06
33	0x3782db34	1.5599282e-05
34	0x37b130d1	2.1122776e-05
35	0x36788235	3.703067e-06
36	0x36f800c1	7.3910637e-06
37	0x35cdaaec	1.5323435e-06
38	0x3741595b	1.1524501e-05
39	0x3810c1fd	3.451294e-05
40	0x38f479fa	0.000116575466
41	0x3639b029	2.7669687e-06
42	0x35640a1b	8.4951324e-07
43	0x38119965	3.4713554e-05
44	0x3809d464	3.286115e-05
45	0x36f56c7a	7.3141973e-06
46	0x369f93f0	4.7557915e-06
47	0x360223e0	1.9392392e-06
48	0x36cfeabe	6.1964083e-06
49	0x36824243	3.882016e-06
50	0x36112887	2.1630274e-06
51	0x38163650	3.581337e-05
52	0x3934390a	0.00017187386
53	0x38ca9afb	9.660978e-05
54	0x372a8f4f	1.0166156e-05
55	0x37e65d82	2.746168e-05
56	0x3713a34f	8.799906e-06
57	0x396765da	0.0002206782
58	0x3881e909	6.1946055e-05
59	0x374285be	1.159444e-05
60	0x3889877c	6.557905e-05
61	0x37995fd2	1.8283641e-05
62	0x34d24f7e	3.9173386e-07
63	0x38933563	7.01945e-05
64	0x369c786e	4.663182e-06
65	0x382657de	3.9659317e-05
66	0x379ce681	1.8703986e-05
67	0x370eaf53	8.50468e-06
68	0x3812aede	3.497197e-05
69	0x389f8438	7.6063385e-05
70	0x3910bc9a	0.0001380317
71	0x3875e346	5.8624217e-05
72	0x00000000	0.0
73	0x38a4e06f	7.8619334e-05
74	0x3816e87a	3.5979298e-05
75	0x3804dacf	3.1675034e-05
76	0x3711493e	8.6597265e-06
77	0x3827b5c7	3.9985196e-05
78	0x36cb75c9	6.0635834e-06
79	0x393decb3	0.00018112622
80	0x38a090f8	7.656397e-05
81	0x37013869	7.702133e-06
82	0x37a4b51d	1.9634661e-05
83	0x374ce494	1.22125675e-05
84	0x37f34141	2.8998244e-05
85	0x365a00d6	3.2485018e-06
86	0x369a22d3	4.5936117e-06
87	0x369f1e5a	4.7421026e-06
88	0x377787e9	1.4753991e-05
89	0x3760e04f	1.3403666e-05
90	0x3822da19	3.882693e-05
91	0x381cae29	3.7355498e-05
92	0x381bce90	3.7147256e-05
93	0x36d72151	6.411378e-06
94	0x380a8fca	3.3035678e-05
95	0x3868d3ec	5.5510478e-05
96	0x37038fbe	7.841676e-06
97	0x376a3df7	1.3961914e-05
98	0x38070fdb	3.2201275e-05
99	0x371daeb4	9.3986055e-06
100	0x38402410	4.5809953e-05
101	0x37df5372	2.6622529e-05
102	0x38ba6651	8.888229e-05
103	0x38344cc7	4.298685e-05
104	0x38996d09	7.315918e-05
105	0x383d3949	4.5114462e-05
106	0x3864ce6d	5.4551685e-05
107	0x389b873f	7.4161675e-05
108	0x38030844	3.1240532e-05
109	0x3853b22c	5.0472256e-05
110	0x39010aa8	0.00012306368
111	0x38a3c9f6	7.810064e-05
112	0x36eb5fd1	7.0147003e-06
113	0x38d2770a	0.00010035753
114	0x37afbe24	2.0950167e-05
115	0x38005555	3.059705e-05
116	0x3890ce9d	6.90494e-05
117	0x3669dc48	3.4847926e-06
118	0x38a12e97	7.685756e-05
119	0x38ec49a5	0.00011267074
120	0x378f4ecc	1.7083621e-05
121	0x39163aed	0.00014327066
122	0x00000000	0.0
123	0x38a0b05a	7.6622426e-05
124	0x3809e33d	3.2874977e-05
125	0x3892cd05	7.0000104e-05
126	0x38415d62	4.6101755e-05
127	0x38a49032	7.846988e-05
128	0x3735bd05	1.083245e-05
129	0x39012106	0.00012314701
130	0x390504cd	0.00012685657
131	0x38468b9e	4.7336907e-05
132	0x379b124d	1.8485962e-05
133	0x37fd95b8	3.0229668e-05
134	0x38ba89a4	8.894809e-05
135	0x375760b4	1.2837514e-05
136	0x3788fa2c	1.6328959e-05
137	0x36e8dc01	6.9397506e-06
138	0x372de72e	1.0365429e-05
139	0x376d77f4	1.415423e-05
140	0x392664c8	0.00015868538
141	0x3823e666	3.9076804e-05
142	0x389f985e	7.6100914e-05
143	0x381b84ce	3.7078564e-05
144	0x3821d16a	3.8580423e-05
145	0x38b88137	8.797872e-05
146	0x37a5de2d	1.9772991e-05
147	0x38152bc1	3.5565117e-05
148	0x3759c67d	1.2980422e-05
149	0x37707e62	1.43345405e-05
150	0x38008aad	3.064673e-05
151	0x3892d28d	7.001041e-05
152	0x3947d414	0.00019057124
153	0x37f01a87	2.8622582e-05
154	0x381ad415	3.6913978e-05
155	0x384c2b6d	4.8677834e-05
156	0x388378cf	6.269069e-05
157	0x39058b84	0.00012735842
158	0x385b1b83	5.223929e-05
159	0x38179c8a	3.6146994e-05
160	0x3902b1c8	0.00012463995
161	0x38aa69f7	8.125969e-05
162	0x3787caff	1.6187782e-05
163	0x38fa5f70	0.000119387056
164	0x37bf1c6d	2.2782211e-05
165	0x3886718a	6.410766e-05
166	0x38b805bd	8.7748725e-05
167	0x382fce0f	4.191516e-05
168	0x391a3406	0.00014705965
169	0x38d81825	0.0001030418
170	0x38210d92	3.839803e-05
171	0x3901da8d	0.00012383815
172	0x00000000	0.0
173	0x391c4f70	0.00014906912
174	0x380dbac9	3.3790977e-05
175	0x39365393	0.00017388006
176	0x3800b833	3.0689127e-05
177	0x3895b309	7.1382216e-05
178	0x380bb99f	3.3313056e-05
179	0x39496cf7	0.00019209446
180	0x3948a2b5	0.000191341
181	0x39320665	0.00016977785
182	0x37a7e6f4	2.0015497e-05
183	0x375b0100	1.305365e-05
184	0x398b6fb2	0.00026595365
185	0x382cc576	4.1191895e-05
186	0x38359817	4.3295408e-05
187	0x369e67e0	4.7208596e-06
188	0x36f6d4d2	7.356147e-06
189	0x37735deb	1.4505796e-05
190	0x3962fd6f	0.00021647451
191	0x3864bd92	5.4535987e-05
192	0x3891dd62	6.9553746e-05
193	0x38ad8f2a	8.275949e-05
194	0x38cb0877	9.681371e-05
195	0x392f8c51	0.00016741572
196	0x37ab4de8	2.0421066e-05
197	0x3817a5e8	3.6155718e-05
198	0x37d7e97e	2.5738726e-05
199	0x37351ab0	1.0794654e-05
200	0x38cef745	9.868903e-05
201	0x37c15a77	2.3049519e-05
202	0x38e208a0	0.00010778126
203	0x38381443	4.388789e-05
204	0x3870607a	5.731031e-05
205	0x384a9ab7	4.8304642e-05
206	0x37ae0132	2.0742973e-05
207	0x38ceff8a	9.870443e-05
208	0x37aa5962	2.0307201e-05
209	0x388f807d	6.842704e-05
210	0x3909e6df	0.00013151344
211	0x37012f79	7.700052e-06
212	0x3806f1f8	3.217344e-05
213	0x3824e87d	3.931717e-05
214	0x3607c4e1	2.0231166e-06
215	0x37439398	1.165727e-05
216	0x380abca2	3.3077442e-05
217	0x38192d4f	3.652024e-05
218	0x38b98b5e	8.8474466e-05
219	0x37ae1504	2.0752203e-05
220	0x38bd076c	9.013605e-05
221	0x379cf6cc	1.8711573e-05
222	0x00000000	0.0
223	0x38cc12ad	9.730957e-05
224	0x365b3881	3.2666433e-06
225	0x389fd93c	7.622174e-05
226	0x381bb0d1	3.7119553e-05
227	0x369769bf	4.512461e-06
228	0x38f683ae	0.00011754721
229	0x38cb52cc	9.6952164e-05
230	0x38f55797	0.00011698825
231	0x37a7be1c	1.9996478e-05
232	0x37464ddd	1.1819849e-05
233	0x381ca514	3.734704e-05
234	0x36a4e77d	4.9145297e-06
235	0x38c14146	9.215115e-05
236	0x3656e862	3.202375e-06
237	0x37c29256	2.3194745e-05
238	0x3793bced	1.7611741e-05
239	0x375290f3	1.2550724e-05
240	0x38a089ae	7.6550394e-05
241	0x38e5e9fe	0.000109631554
242	0x35932045	1.0961745e-06
243	0x37c552f7	2.3522864e-05
244	0x37e4e47e	2.7286118e-05
245	0x37ea80af	2.7954897e-05
246	0x366c536a	3.5215294e-06
247	0x37b135e2	2.1125135e-05
248	0x38aebbb4	8.331929e-05
249	0x36d8ccf6	6.4611622e-06
250	0x379c2d69	1.8617795e-05
251	0x388105a6	6.1522514e-05
252	0x3900c903	0.00012281914
253	0x37cd3260	2.4461362e-05
254	0x37d4427c	2.5303329e-05
255	0x37ce681a	2.460559e-05

exp_avg f4 [10]
0	0xb973fd39	-0.00023268619
1	0x3a10620f	0.0005507776
2	0xb93b418d	-0.0001785813
3	0x39983757	0.0002903293
4	0xb8890a7c	-6.534622e-05
5	0x3a50c2d2	0.0007963601
6	0xb90ff7ac	-0.00013729808
7	0xb91d711e	-0.00015014826
8	0xb98de7b6	-0.00027066254
9	0xba1e041f	-0.0006027836

exp_avg_sq f4 [10]
0	0x3603e795	1.965532e-06
1	0x369e80b2	4.723749e-06
2	0x36ab348d	5.102315e-06
3	0x3702ada0	7.789029e-06
4	0x36be93dd	5.679655e-06
5	0x36a74ad4	4.985699e-06
6	0x3625a4be	2.4682809e-06
7	0x36b54762	5.4025304e-06
8	0x3711add5	8.683147e-06
9	0x3716e2bc	8.993487e-06
