swastik_web/Learning&Experiments/PytorchTutorials/pytorch lightning/dashboard/mnist_clsfy/version_1.1/checkpoints/epoch=3-step=1500-v1.ckpt (torch, 484079 bytes, 12 tensors)

fc1.weight f4 [50, 784]
000000 00 30 8c b9 b6 f2 9c 3c ac cc f0 bc 93 50 d7 bc
       -0.00026738644 0.019158702 -0.02939447 -0.026283538
000010 ce 5e 61 bc 10 e9 1c 3c 40 7f 39 ba 12 fa e7 3c
       -0.013755513 0.009577051 -0.00070761517 0.028317485
000020 30 b6 4f bb 10 d6 1a 3c 7c d6 30 bc a4 09 e6 bb
       -0.0031694286 0.009450451 -0.010793325 -0.007020192
000030 8d 0b 52 be 2e fc 3f be 9a 91 f2 3d 4d 82 20 3d
       -0.20512219 -0.18748543 0.118441775 0.039186765
000040 dc 53 67 3c ae 8c af 3c a0 58 c6 bc d8 ce 7e bc
       0.014119115 0.021429386 -0.024212182 -0.015552245
000050 b0 88 54 3c a2 f2 f2 3c 54 d8 f0 bb 46 ef da 3c
       0.012972042 0.029656712 -0.007350007 0.026725423
000060 70 a1 bc bb 60 aa 77 3b 4f 75 04 3d 76 b4 07 bd
       -0.0057565495 0.003779076 0.032338437 -0.033131085
000070 50 2f b8 bc 4a 23 14 bc b2 16 64 bc 2e c8 fc 3c
       -0.022483498 -0.009041617 -0.013921427 0.030857172
000080 83 c0 9a bd ff c9 ea bd e8 41 58 be b1 bf 86 be
       -0.0755625 -0.11464309 -0.21118891 -0.26318124
000090 1d c0 c1 be 73 07 fd be 7f ce 01 be cf 52 fb bd
       -0.37841883 -0.49419746 -0.12676428 -0.12271654
0000a0 a1 e5 90 be dd da da be 46 ca 10 3e c9 52 0e be
       -0.28300193 -0.42745104 0.14139661 -0.13898768
0000b0 e6 ab a8 bd fd 55 d6 be 2f 05 5d be 6f 21 d5 be
       -0.08235912 -0.4186248 -0.21584009 -0.4162707
0000c0 5e a7 05 bf 2b 08 c7 be 4e ba 68 be 1a 9a fb bd
       -0.5220851 -0.3887342 -0.2272732 -0.12285252
0000d0 98 3b 68 3c e8 18 9e 3b 48 2a c4 3c 4a 44 ac bc
       0.0141743645 0.0048247464 0.023945943 -0.021028657
0000e0 68 13 da 3b 0e d5 e2 bc 29 c7 7b bd a0 cf ac be
       0.0066551454 -0.027689483 -0.06146923 -0.33752155
0000f0 92 91 b3 be e1 92 89 be 3e 2c 04 bf da 85 3f bf
       -0.35072 -0.26869872 -0.5163001 -0.74813616
000100 8b 88 4b bf 45 db 20 be 92 44 ff bd 63 7a 0e bf
       -0.79505223 -0.15708645 -0.124642506 -0.556555
000110 f3 1d bd be 2a 76 7c bc ef 9c 3d be 51 e5 d0 be
       -0.36936912 -0.015409032 -0.18516897 -0.40799955
000120 73 cc 5f be 2b 7e 24 3e f4 dc e9 3e 0a 95 4d 3e
       -0.21855335 0.16063754 0.45676386 0.20076385
000130 33 6c a2 bd 80 42 42 3d 2c 90 15 be 5b 94 0b bf
       -0.079307936 0.0474267 -0.14605778 -0.5452325
000140 9b 0e f3 bc 8e 23 09 be a6 75 de 3c 92 ec 11 bd
       -0.02967005 -0.1339247 0.027155709 -0.035626
000150 78 0b db 3b 78 25 c5 bb 80 44 37 bd 38 31 25 bf
       0.006684717 -0.0060164295 -0.04474306 -0.64528227
000160 df 29 1d bf f1 3c bb ba bc 39 69 3d 28 85 7d bd
       -0.61392015 -0.001428513 0.056939825 -0.061894566
000170 f7 98 c4 be 53 54 f9 bd 8d f2 57 be 6b 2c 18 be
       -0.38397953 -0.12174287 -0.2108862 -0.14860694
000180 5e 3f 6b be a9 12 b0 39 70 9c 8c bd 8a f3 ef bd
       -0.22973391 0.0003358324 -0.068657756 -0.11716373
000190 75 46 45 be 9a 5f b9 bd a2 a1 30 3d 0d c1 5c be
       -0.19265158 -0.09051438 0.043122895 -0.21558018
0001a0 cb b2 f2 be 7d 66 08 be d8 da 11 be 70 72 01 bf
       -0.47402033 -0.13320346 -0.14243639 -0.5056524
0001b0 ae 77 23 bf 55 b2 ad 3e b9 7c b3 bc f8 9a ad 3c
       -0.6385449 0.3392512 -0.021910058 0.021192059
0001c0 8a 0a b2 bc 1f aa 11 3b 53 44 b2 bd 7b c0 15 bf
       -0.021733541 0.0022226644 -0.08704438 -0.58496827
0001d0 24 3c 7e be c5 4a 1e be 9c 41 83 3e 34 4f 00 3e
       -0.2482763 -0.1545821 0.25635993 0.12530214
0001e0 96 08 81 3d e5 9f a2 3d 69 14 37 be b8 a7 66 be
       0.06300466 0.07940654 -0.1787888 -0.22524917
0001f0 25 fd 06 be e3 7c d7 3d 8e 6c 29 bd e2 76 12 be
       -0.13182504 0.10521867 -0.04136329 -0.14303163
000200 72 82 45 be 5d 26 6b be 48 e0 06 be 91 8f 8f be
       -0.19288042 -0.22963853 -0.13171494 -0.2803922
000210 8a c3 8e be 4f 45 98 be fe 96 59 bd 73 4f 3a 3e
       -0.2788356 -0.29740378 -0.053122513 0.1819437
000220 31 dd 42 3e ec f4 a2 3e 4e 98 9e be 26 5e 7e bc
       0.1902969 0.31827486 -0.30975574 -0.015525376
000230 8f 91 0a 3d 9a cc b9 3c b2 2f 45 be bd 4f a4 be
       0.03383022 0.02268057 -0.19256476 -0.32092085
000240 5e 03 03 be 2b 01 2f bd 92 c8 4f 3e 58 e8 2f bd
       -0.12794253 -0.042725723 0.20291355 -0.04294619
000250 f2 9b 45 3e a7 32 0a 3d 37 f2 33 bd 87 71 32 be
       0.1929777 0.033739712 -0.043932166 -0.1742612
000260 b7 26 5a bd 24 ed d3 3c f3 59 2f be 40 9c 27 be
       -0.053259578 0.025869913 -0.17124157 -0.16368198
000270 60 6b de bc 3d 3d 46 be 45 af 34 be 46 fa a0 be
       -0.02715081 -0.19359298 -0.17644985 -0.31440943
000280 c2 d6 bc be 5f 87 02 be ee d2 86 bd 70 d8 09 be
       -0.36882597 -0.12746952 -0.065832004 -0.1346147
000290 9a 9d 08 3c b9 8f 7b 3e 64 0c 19 bf 26 45 36 bd
       0.008338356 0.24566545 -0.5978453 -0.04449954
0002a0 6b aa 03 bd 6a 1d c3 be 46 19 b4 3e d3 42 d2 3e
       -0.032144945 -0.3810838 0.35175532 0.41066608
0002b0 2a 72 af 3e 07 0f be 3e 74 45 90 3e 25 a2 94 3c
       0.34266788 0.3712084 0.2817799 0.018143723
0002c0 5f 57 29 3e 60 5d b0 3d 6b aa 09 3d ed 2c 8f bc
       0.16537236 0.0861156 0.03360979 -0.017477477
0002d0 2e a8 9b 3d 7e e6 b1 bd ab 11 8c bc 15 f9 83 be
       0.07600437 -0.08686541 -0.017098268 -0.25775972
0002e0 c9 d3 e6 bd 2f eb 50 bc 34 ec 28 bd e6 3b dd bd
       -0.112708636 -0.012751385 -0.041240886 -0.1080244
0002f0 97 8c 6c be d4 f2 d0 bd 4e 41 72 bb dd a2 84 bd
       -0.23100506 -0.10202566 -0.0036965194 -0.06476376
000300 15 54 fa be 7d f7 36 be 2c 1e bf be c2 48 72 be
       -0.48892274 -0.17867847 -0.37327707 -0.23660567
000310 5f e8 a7 bc 55 26 08 bf fc b6 ac 3e f0 30 fd 3e
       -0.020496545 -0.5318349 0.33733356 0.494514
000320 ac 7a bd 3e 06 a7 98 3e 7b 59 cb 3e 7a be 0a bc
       0.37007654 0.2981493 0.39716706 -0.008468265
000330 43 e2 63 bd 3b 43 a1 3c f2 b7 c3 bd 9d 6c 2e bd
       -0.055635702 0.019685378 -0.09556569 -0.04258405
000340 d3 86 07 3d 57 fb f3 3d 3f 89 8a bd d5 9d c0 bc
       0.033087563 0.11913174 -0.06764459 -0.02351276
000350 ef 10 a1 bd 7e 8b 1b 3d 38 f1 9d 3c a3 1f bb bd
       -0.07864558 0.037974827 0.019280061 -0.091368936
000360 2f 22 1e be b6 40 28 3d e7 6c 2d 3e 08 8d 65 be
       -0.15442728 0.04107734 0.16936074 -0.2241708
000370 9a db 0d be d6 9b a4 3e 02 d1 c2 bd e6 f8 89 be
       -0.13853303 0.32150143 -0.09512521 -0.26947707
000380 37 8e ed be 2d c5 98 3e bb 16 9a 3e e6 0e e5 3d
       -0.46397564 0.29837933 0.30095467 0.11184482
000390 c9 80 3d 3e 29 91 e7 3d a4 73 46 3e 39 14 f0 bc
       0.18506159 0.11306984 0.19380051 -0.029306518
0003a0 e4 66 33 3a 5d 6e 63 bd 75 95 8d 3c 33 74 9d bd
       0.000684364 -0.055525173 0.01728318 -0.07688179
0003b0 dc 54 8c be c7 13 55 be 80 f5 0e bd 42 20 12 bc
       -0.27408493 -0.20808326 -0.034902096 -0.008918824
0003c0 26 1f 6e bd f6 0c ac 3b f2 73 a2 3d 90 08 9a bd
       -0.058135174 0.0052505685 0.07932271 -0.075211644
0003d0 71 dd 17 bd c9 69 05 3c d4 5f 82 be 42 ed 16 be
       -0.037076417 0.008142897 -0.25463736 -0.14738944
0003e0 b3 c0 70 bc ca 6d ec 3c da 3a 68 be cc a7 30 be
       -0.014694381 0.028860945 -0.226787 -0.1725151
0003f0 55 b5 79 3e 13 f9 1d 3e 7f 83 3f bd 37 8e 25 3d
       0.24385579 0.15427046 -0.046756264 0.04041883

fc1.bias f4 [50]
000000 86 00 30 3e bb 21 2b 3d 61 f6 94 3d 38 22 61 3e
       0.171877 0.041780215 0.072735555 0.2198571
000010 0c 95 05 3e 9b d4 ae 3e 4b 54 4d be ed 5b e5 3d
       0.13045138 0.3414658 -0.20051686 0.11199174
000020 f0 39 8a 3e ed 95 0b 3e dd 03 df 3d 20 45 e2 bd
       0.26997328 0.13631411 0.10889409 -0.11048341
000030 39 3c a2 3d 02 76 31 3e 60 db 64 3d 24 b7 52 be
       0.07921643 0.17330173 0.055873275 -0.20577675
000040 3f 10 9a be 06 0a a0 3d ac 46 b2 3d a0 d4 75 3b
       -0.3009052 0.07814412 0.08704886 0.0037510768
000050 b1 c7 85 3e 14 28 96 be 9e 65 be bc b4 d2 98 3e
       0.26128915 -0.29327452 -0.023241814 0.29848254
000060 fe f1 07 bc fe 80 cf 3c d0 3d 66 3e 73 93 30 3e
       -0.0082974415 0.025330063 0.22484517 0.17243747
000070 c0 f2 6e 3e c6 b0 d1 3c 16 43 0c 3d 8e 63 70 be
       0.2333479 0.025596987 0.034243666 -0.23475477
000080 5f a4 c0 3e 2e b7 32 3e 40 a9 0d be 7f 36 bc 3e
       0.37625405 0.1745269 -0.13834095 0.36760327
000090 96 b7 37 bd 7e 51 3e 3e e7 6d f5 bd ff 13 56 3d
       -0.044852816 0.18585774 -0.11983853 0.052265164
0000a0 7a 6e d5 3d fc c3 bf bc f5 f9 0c be da 61 88 be
       0.10421462 -0.023408882 -0.13767226 -0.26637155
0000b0 80 2b 18 be 6e 26 35 be 91 39 1b be de ab 3d 3d
       -0.14860344 -0.17690441 -0.15158679 0.046306483
0000c0 c5 df 5d 3d ec 9f f3 bd
       0.05416848 -0.11895737

fc2.weight f4 [10, 50]
000000 03 e6 e5 bd 19 48 31 bf a1 0c 41 3c a2 a9 12 bf
       -0.11225512 -0.6925064 0.011782796 -0.5729009
000010 39 0b 88 3d 59 12 3c bf 54 dc 6a 3e 5c 8d a8 3c
       0.066427656 -0.73465496 0.22935611 0.020575218
000020 30 31 44 3e 49 23 a1 3e fb 2a 0f bd f9 a5 28 bc
       0.19159389 0.31472233 -0.0349531 -0.010293477
000030 25 8a 43 be 28 dd 5d 3d 60 b4 dc 3e ab b2 17 be
       -0.19095667 0.05416599 0.43106365 -0.1481425
000040 76 e8 62 3e 2d 2a 96 bf 7e 64 93 3d 27 28 81 be
       0.2215899 -1.1731621 0.07196902 -0.25225946
000050 11 f8 72 3d 03 3c 09 3f b5 50 c4 bd bf 16 e5 be
       0.059318606 0.53607196 -0.09585706 -0.44743916
000060 64 a2 25 bf 5e 64 4f be a1 9a 84 3e f5 cc ad 3e
       -0.64700913 -0.20253131 0.25899222 0.33945432
000070 74 b6 8a bf 56 23 bf be e4 69 e1 bd 50 78 12 3f
       -1.083693 -0.37331647 -0.11006525 0.5721483
000080 ee 02 b6 bd 93 b3 7d bc 93 f5 a9 bd c8 72 34 bf
       -0.088872775 -0.015484708 -0.08298793 -0.7048764
000090 fb ec 9c 3e 8b 01 9a bf 12 c8 06 3f 73 2f 43 3e
       0.30649552 -1.2031721 0.52649033 0.19061069
0000a0 60 b5 b2 3e f9 c6 9a 3e c3 33 95 bf 96 81 8a 3e
       0.34904003 0.3022993 -1.1656421 0.2705199
0000b0 41 92 9d 3e a8 16 31 bf 80 82 e6 be 2e 83 4a be
       0.30775645 -0.69175196 -0.4502144 -0.19776604
0000c0 9a c5 20 3f 54 11 22 bf b2 7d 31 bb 58 a2 16 3f
       0.62801516 -0.6330769 -0.0027082977 0.58841467
0000d0 e9 27 c4 be 03 59 5c 3d ac 0b 64 bf ec 82 53 3e
       -0.383117 0.053795826 -0.8908031 0.20655411
0000e0 63 92 70 bf 2b b3 8b 3e b9 05 08 3d 75 f6 0a bf
       -0.9397337 0.27285132 0.033208583 -0.54282314
0000f0 c7 4f 21 3e 32 f3 01 bb df a5 a2 bf 26 f0 8d 3e
       0.15753089 -0.0019828794 -1.270687 0.2772228
000100 bb 2e 28 be 04 16 65 3e e9 79 6a be 1a ef b5 bd
       -0.16424076 0.2237168 -0.22898068 -0.08883496
000110 d9 02 67 3f ba 9d d4 3e f8 0e 90 3e 04 ef 9b 3d
       0.9023872 0.41526586 0.2813642 0.07613948
000120 dd 01 8d 3d 4b 73 cd bd d2 02 d0 3e 5c af e1 be
       0.06885121 -0.10031756 0.40627152 -0.440791
000130 a3 19 72 be 18 3e 12 3f a9 4f 59 bf 34 4f 6e bc
       -0.23642592 0.57126 -0.84887177 -0.014545251
000140 e5 bb 9f be aa d7 39 bf 39 43 84 3f 4a ec ee bd
       -0.3119804 -0.725947 1.0333015 -0.11666162
000150 da e6 5e be 0b 08 31 bf 68 d5 fc be 37 48 93 3d
       -0.2176775 -0.691529 -0.49381566 0.07191508
000160 c5 c8 e5 bc af 17 d3 3e c6 18 1c bf 4a c8 d7 3e
       -0.028049836 0.41229007 -0.609753 0.42144996
000170 64 51 ae 3e b4 09 d7 be 10 16 e8 be f2 41 32 bd
       0.3404647 -0.4199959 -0.45329332 -0.04351992
000180 b5 c8 cc 3e be 27 00 bf c5 7e 63 bd 75 21 f1 be
       0.39996877 -0.5006064 -0.05554082 -0.47095838
000190 88 b9 ef 3e 4b 06 08 bf 2b 4a 90 bf 12 f9 19 3e
       0.46821237 -0.531346 -1.1272634 0.15036419
0001a0 24 bd c1 3c bf 68 5a bd 27 b4 81 bd 24 13 ab 3e
       0.02364976 -0.05332255 -0.063331895 0.3341304
0001b0 48 74 4e bf 0d ea 85 bd fc 40 d6 bc 1e bf 50 3e
       -0.8064618 -0.06538782 -0.026154034 0.20385405
0001c0 67 da d4 be 44 36 8b 3e a0 0f 97 3e 5c 76 84 be
       -0.41572878 0.2718984 0.29504108 -0.2587155
0001d0 03 63 fd 3d 0e 5d c3 bf cd 38 07 bf 12 2d bc 3e
       0.123724006 -1.5262773 -0.52821046 0.36753136
0001e0 ef 5e 2f bf 29 d4 00 3f 57 b7 cb bd a0 84 e7 bc
       -0.6850423 0.5032373 -0.09947079 -0.028261483
0001f0 a3 ca 15 3e b1 01 b8 be 97 c9 10 3f 55 ce 1c 3f
       0.14628081 -0.3593879 0.565576 0.6125234
000200 ca 4f 98 be a4 85 08 3e 58 9f 66 3d 47 94 c0 be
       -0.29748374 0.1333223 0.056304306 -0.37613127
000210 6b 61 b4 bd 5d fa 14 3f 55 3d 68 3e a5 c2 80 be
       -0.088076435 0.58194524 0.22679646 -0.25148502
000220 43 d7 5a 3e f2 1d 64 be 74 dd b8 be 7a 3a 28 bf
       0.21371178 -0.22277048 -0.36106455 -0.6571423
000230 53 75 7b 3c 96 e4 22 be 94 1b bb 3e e2 db 96 be
       0.0153477965 -0.15907511 0.36544478 -0.29464632
000240 00 8e e4 bd 03 a6 6e 3e 58 1d 45 3f ef 8b 07 3f
       -0.11159897 0.23305516 0.769979 0.52947897
000250 14 4c 09 3e 9c 98 00 bd d2 37 72 bf 11 a0 10 3f
       0.13407928 -0.03139554 -0.94616425 0.5649424
000260 9b 22 0c 3e 91 31 84 bf f0 09 3a bb 6b e2 ea bd
       0.13685076 -1.0327626 -0.002838727 -0.11468967
000270 1a a8 cb 3e e9 73 3d 3c 77 f1 ec 3d 1d d7 39 be
       0.3977669 0.01156328 0.11569493 -0.18148465
000280 13 3a d8 3d e5 75 e9 3e 35 f3 75 bf 1e 48 d8 bd
       0.10557952 0.4559776 -0.9607423 -0.1056063
000290 51 a0 47 bf 53 63 ab 3d ff 6c 3d 3e e0 d0 cc 3e
       -0.77979 0.08368554 0.1849861 0.4000311
0002a0 04 4b 01 bf da ba cc bc ed ae 75 bf c4 08 f9 bd
       -0.5050509 -0.024991442 -0.9597004 -0.12159875
0002b0 f4 ff 68 3d ff a4 b0 3d 05 8e c1 3e ef 07 35 3e
       0.05688472 0.086252205 0.37803665 0.17678808
0002c0 ce 3b e8 be 23 5a 1a be 53 6a 02 be 33 3d 0a bc
       -0.45358127 -0.15073447 -0.12735872 -0.008437443
0002d0 bf ac 62 3e 91 9e dd 3e af bf cd 3d ca 5a fc bd
       0.2213621 0.4328504 0.10046326 -0.12322004
0002e0 37 5f 48 3e 18 be 74 3e bb 5f 1f 3f f5 b4 43 bf
       0.19567572 0.2390064 0.6225545 -0.76447994
0002f0 ed 33 c9 be 90 20 b8 bd bc 2f 0d 3d 5b 2f c4 3d
       -0.3929743 -0.08990586 0.03446935 0.09579345
000300 14 71 34 3d c1 8d f2 3d 65 0c 86 be 7d 1b 48 3e
       0.044053152 0.11843444 -0.2618133 0.19541736
000310 72 51 86 3e 8a 32 8d 3d 91 65 eb 3d d9 d5 1b bf
       0.26234013 0.06894405 0.11493982 -0.6087318
000320 ae 04 81 3e 21 90 a6 3d 0e bf 51 3e c8 71 f1 3e
       0.25198883 0.08132959 0.20483038 0.4715712
000330 f7 05 eb 3d 3b 85 ab 3e 5c 07 41 3e 59 29 78 3e
       0.11475747 0.33500084 0.18850464 0.24234523
000340 52 6a 56 bf 8d 78 c8 3e fd 05 c9 3d 4b 20 69 bf
       -0.8375598 0.39154473 0.09815595 -0.910649
000350 53 d8 dd 3e 25 82 01 be 64 62 94 bf c6 11 17 bf
       0.43329105 -0.12647302 -1.1592526 -0.59011495
000360 ab 25 40 3c 43 90 06 3f f5 b7 83 3e 6e 3e 12 be
       0.011727731 0.52563876 0.25726286 -0.14281628
000370 1b cf 70 3d 00 e2 87 bf c0 b1 0a 3c b5 4e 28 3b
       0.05879126 -1.0615845 0.00846523 0.0025681679
000380 53 5a b5 be 34 48 2b 3e db 8a ca 3e 88 8e 9d bf
       -0.35420474 0.16726762 0.39559063 -1.2309122
000390 5b 59 b8 3e e3 32 aa be e1 33 b1 3e db 17 95 bf
       0.36005673 -0.33241948 0.34609893 -1.1647905
0003a0 71 56 62 3f 4a 72 ad be f9 09 7a bf b0 29 c4 3d
       0.8841315 -0.33876258 -0.9767147 0.09578264
0003b0 aa 90 69 bf 0a 5c ce 3e 15 a5 e3 be 42 76 9d bf
       -0.91236365 0.40304595 -0.44461885 -1.2301714
0003c0 f7 03 8e 3e e7 35 8a 3e 70 47 25 bf 89 e7 ce be
       0.277374 0.2699425 -0.6456213 -0.40411022
0003d0 14 88 81 bb 27 56 51 3e c6 34 66 bf ea 94 52 bf
       -0.0039529894 0.20443021 -0.89924276 -0.82258475
0003e0 49 58 b8 bd 9d b2 8f bf fa 4b 2c bf d5 59 f3 3d
       -0.09001214 -1.1226383 -0.6730343 0.118823685
0003f0 c0 86 da 3e 46 50 f9 3d 4a 5f 3f bf d3 f1 94 be
       0.4268093 0.12173514 -0.74754775 -0.29090747

fc2.bias f4 [10]
000000 f5 1b 9d be ca eb d7 3d e9 5b 19 3e 4d 49 fd bc
       -0.30685392 0.1054302 0.14976467 -0.030918742
000010 9a 2b ae 3e 01 5e bc 3d 27 15 20 3e 83 7d d6 bd
       0.3401764 0.09197617 0.15633069 -0.10473158
000020 f1 97 c9 3c 9c f1 83 bd
       0.024608584 -0.06442568

exp_avg f4 [50, 784]
000000 00 00 00 00 00 00 00 00 00 00 00 00 00 00 00 00
       0.0 0.0 0.0 0.0
000010 00 00 00 00 00 00 00 00 00 00 00 00 00 00 00 00
       0.0 0.0 0.0 0.0
000020 00 00 00 00 00 00 00 00 00 00 00 00 00 00 00 00
       0.0 0.0 0.0 0.0
000030 00 1c ae 2a aa 9e 3e 2b 33 77 c4 9a 1e fa 82 98
       3.0928038e-13 6.772175e-13 -8.1256277e-23 -3.3856766e-24
000040 00 00 00 00 00 00 00 00 00 00 00 00 00 00 00 00
       0.0 0.0 0.0 0.0
000050 00 00 00 00 00 00 00 00 00 00 00 00 00 00 00 00
       0.0 0.0 0.0 0.0
000060 00 00 00 00 00 00 00 00 00 00 00 00 00 00 00 00
       0.0 0.0 0.0 0.0
000070 00 00 00 00 00 00 00 00 00 00 00 00 00 00 00 00
       0.0 0.0 0.0 0.0
000080 00 00 00 00 19 ec 0b 16 0b 89 23 2b a5 d3 69 2b
       0.0 1.130283e-25 5.809942e-13 8.3071945e-13
000090 6d 2d 23 24 96 4f 0a 2a c7 24 bd 2b 51 c0 83 2f
       3.5383468e-17 1.2284474e-13 1.3439465e-12 2.396541e-10
0000a0 0c 5a e9 30 47 a4 ba 30 f2 a0 64 31 96 d3 6c 32
       1.6978574e-09 1.3579972e-09 3.3269854e-09 1.3785117e-08
0000b0 7f ac 80 30 1d 90 f4 2d 4d a3 56 2c 32 fa e6 2b
       9.362252e-10 2.7803588e-11 3.050188e-12 1.6411926e-12
0000c0 23 cf 87 ab fc 38 8e aa e8 16 53 90 00 00 00 00
       -9.649819e-13 -2.5263808e-13 -4.163006e-29 0.0
0000d0 00 00 00 00 00 00 00 00 00 00 00 00 00 00 00 00
       0.0 0.0 0.0 0.0
0000e0 00 00 00 00 00 00 00 00 00 00 00 00 4b 3f 96 2c
       0.0 0.0 0.0 4.2702833e-12
0000f0 57 be e7 28 79 15 fc 24 63 ee 93 af 2a 2f a5 ad
       2.5728699e-14 1.09323955e-16 -2.6908528e-10 -1.8779273e-11
000100 23 32 80 30 35 ef 10 33 33 91 03 34 bd 1b 5a 31
       9.327475e-10 3.374517e-08 1.2253149e-07 3.1738943e-09
000110 51 86 0d b4 96 02 45 b4 bd 62 96 36 fe 5a 85 37
       -1.3180512e-07 -1.8347995e-07 4.481843e-06 1.5897207e-05
000120 bf f6 ed 37 25 20 b7 37 e8 4d a4 36 56 f2 b8 b3
       2.8367502e-05 2.1830268e-05 4.8966504e-06 -8.612248e-08
000130 9a ae 66 32 26 79 32 31 4b e5 1f af 4d 44 a4 2e
       1.3427462e-08 2.5971274e-09 -1.4542427e-10 7.469989e-11
000140 3b 82 a7 2e 00 00 00 00 00 00 00 00 00 00 00 00
       7.617414e-11 0.0 0.0 0.0
000150 00 00 00 00 00 00 00 00 00 00 00 00 71 3c 10 2e
       0.0 0.0 0.0 3.2795492e-11
000160 ed 62 fa 2d 13 54 7f 32 60 89 8c 31 cf 44 ad 33
       2.8465641e-11 1.486207e-08 4.090154e-09 8.0684565e-08
000170 c4 7f f2 37 d9 5c 45 38 21 da 02 b7 bf 4b dd b8
       2.8908144e-05 4.705493e-05 -7.799391e-06 -0.0001055221
000180 7f f0 85 b7 c9 bd 9e 37 88 bf e0 37 b9 83 2e 38
       -1.5966825e-05 1.8923443e-05 2.679207e-05 4.160751e-05
000190 d4 30 d1 37 4d f0 1e b8 2c 8e b2 b8 b0 a0 4f b7
       2.4937479e-05 -3.7893933e-05 -8.514183e-05 -1.2375574e-05
0001a0 1d 9c 22 34 58 f6 4d b5 0f 3f 32 b5 53 c4 f0 b4
       1.514422e-07 -7.672693e-07 -6.640193e-07 -4.4846328e-07
0001b0 ca 15 ea 33 0e 1e a8 b2 00 00 00 00 00 00 00 00
       1.09004375e-07 -1.9571441e-08 0.0 0.0
0001c0 00 00 00 00 9b f4 17 2b ea 3c 78 1d f6 d4 75 31
       0.0 5.3985435e-13 3.2854019e-21 3.5773247e-09
0001d0 d3 09 bd b2 0b 8a a8 b4 8e 8f e6 b5 74 2b 09 b5
       -2.2006963e-08 -3.1392878e-07 -1.7178115e-06 -5.109971e-07
0001e0 e6 24 39 38 60 9c 13 38 a3 a9 d0 37 e1 43 5d b8
       4.41418e-05 3.5193167e-05 2.4874525e-05 -5.2753723e-05
0001f0 fc cf 97 b8 df 54 3f b6 83 c7 19 38 00 cd c7 33
       -7.238981e-05 -2.851062e-06 3.6663852e-05 9.303949e-08
000200 6e cc 2a b9 e8 c8 5b b9 13 97 93 b8 c2 5f 1e 39
       -0.0001628862 -0.00020960311 -7.037646e-05 0.00015103727
000210 5f 32 e8 38 88 a7 8e 38 0e 83 9e b5 49 ee ef b6
       0.000110720044 6.802293e-05 -1.1810059e-06 -7.150495e-06
000220 98 7f 04 b6 5d f2 3e b4 92 4d c0 2d 00 00 00 00
       -1.9743802e-06 -1.77833e-07 2.1862321e-11 0.0
000230 00 00 00 00 00 00 00 00 70 47 23 ae eb a2 aa 30
       0.0 0.0 -3.712536e-11 1.2415432e-09
000240 38 f3 91 b3 b5 f0 59 b7 c8 ad b1 b7 27 d4 ec b7
       -6.79633e-08 -1.2990252e-05 -2.1180967e-05 -2.8232183e-05
000250 ea b2 ef b5 5a c6 fc b7 3f 5f 26 b7 b6 a7 5f b8
       -1.7858958e-06 -3.0133106e-05 -9.916547e-06 -5.3323536e-05
000260 20 de 44 b8 b0 86 4d b8 76 b9 55 b8 b4 6c 32 b9
       -4.693691e-05 -4.9001246e-05 -5.095588e-05 -0.00017015898
000270 e8 56 6c b9 41 56 bd b8 4b 4a be 38 b3 5d 2c 39
       -0.00022539089 -9.028288e-05 9.073744e-05 0.00016438104
000280 43 69 33 39 00 21 fc 38 08 79 bd 37 88 4b 08 b7
       0.00017109983 0.00012022443 2.2586915e-05 -8.123818e-06
000290 c8 fa 73 b6 bf 5e db b4 ce b0 f0 ac 6e 3c 60 9e
       -3.6355796e-06 -4.0860866e-07 -6.8408395e-12 -1.1870958e-20
0002a0 00 00 00 00 13 3b 1f 1d b1 15 35 32 94 48 1d b3
       0.0 2.1074015e-21 1.0540519e-08 -3.662042e-08
0002b0 d1 64 96 31 5d 2a 0f b8 31 08 a8 b8 a2 d2 54 b8
       4.377036e-09 -3.413331e-05 -8.01239e-05 -5.0740906e-05
0002c0 d0 4c cb b8 02 8c 31 b7 44 cd 0a 39 e6 41 e9 38
       -9.694102e-05 -1.058262e-05 0.00013237173 0.0001112258
0002d0 74 c8 97 38 c4 fb 84 38 63 28 1b b9 a0 cc 38 b9
       7.2375784e-05 6.3411455e-05 -0.00014796997 -0.00017623836
0002e0 56 e7 d0 b8 80 cf 3c 38 fa 3a 04 39 94 c4 2a 39
       -9.9613026e-05 4.5015942e-05 0.00012610471 0.00016285694
0002f0 41 93 df 38 b5 f2 82 38 1d af b9 b7 d0 6e 3d b7
       0.00010660897 6.244091e-05 -2.2135262e-05 -1.1291078e-05
000300 0c af a8 35 67 27 5d 35 1d 48 08 b3 22 9c fc 22
       1.2567921e-06 8.2386254e-07 -3.1730554e-08 6.847005e-18
000310 95 c9 5b 98 01 52 59 b1 3b 56 97 32 ef 71 81 b5
       -2.840686e-24 -3.162427e-09 1.7617927e-08 -9.644408e-07
000320 0c 77 40 b7 45 4b 92 b8 82 31 cb b8 d7 b4 21 b8
       -1.147181e-05 -6.9758426e-05 -9.689016e-05 -3.855381e-05
000330 e8 2f 01 37 02 b7 02 39 0e aa 7d 39 76 e4 54 39
       7.700153e-06 0.00012465942 0.0002419131 0.00020303004
000340 7d 4d 21 39 cc 00 e9 37 e3 00 07 b9 bc 4d f5 b7
       0.00015383023 2.7776136e-05 -0.00012874934 -2.9242474e-05
000350 46 88 4c 38 24 39 ff 37 29 b9 88 38 90 1a 52 39
       4.8764305e-05 3.0424977e-05 6.519474e-05 0.00020037056
000360 24 8b 2a 39 88 f0 08 38 80 a9 32 b8 63 2a cd b7
       0.00016264297 3.264894e-05 -4.2596366e-05 -2.4457642e-05
000370 47 39 d5 b5 d6 e6 95 35 b5 d7 36 32 f3 11 d1 23
       -1.5886407e-06 1.1168547e-06 1.064284e-08 2.2667427e-17
000380 f6 f2 13 33 76 b8 8a b0 d9 d7 00 b2 73 c9 2a b5
       3.4447076e-08 -1.0093248e-09 -7.499659e-09 -6.362308e-07
000390 56 9b 47 b7 9f 87 74 b8 0a 03 93 b8 4d a7 a3 38
       -1.1897491e-05 -5.830044e-05 -7.010072e-05 7.803608e-05
0003a0 65 8e 1a 39 d8 fb cf 38 fc 8f 31 39 c6 06 3d 39
       0.0001473963 9.917439e-05 0.00016933674 0.00018026968
0003b0 36 f8 39 39 e8 77 4a 38 78 28 04 b8 3f 4b 59 39
       0.0001773544 4.8272224e-05 -3.1508942e-05 0.00020722764
0003c0 0a f8 4a 39 52 36 2d 39 16 f0 3a 39 bc 62 83 39
       0.00019356623 0.00016518802 0.00017827781 0.0002505983
0003d0 6c 03 f6 38 4a 49 5d 38 b6 cb c1 36 24 90 9a b7
       0.000117308315 5.275876e-05 5.7755633e-06 -1.8425351e-05
0003e0 bd a1 6e b6 4d c6 17 36 54 2f 75 33 6f 54 68 2d
       -3.5558908e-06 2.261618e-06 5.7086552e-08 1.3206421e-11
0003f0 a5 a5 9e a9 70 d7 31 ae 9e 2c e5 b1 56 9f 18 35
       -7.045344e-14 -4.0436487e-11 -6.6698496e-09 5.6856277e-07

exp_avg_sq f4 [50, 784]
000000 00 00 00 00 00 00 00 00 00 00 00 00 00 00 00 00
       0.0 0.0 0.0 0.0
000010 00 00 00 00 00 00 00 00 00 00 00 00 00 00 00 00
       0.0 0.0 0.0 0.0
000020 00 00 00 00 00 00 00 00 00 00 00 00 00 00 00 00
       0.0 0.0 0.0 0.0
000030 d4 82 ea 21 2c d0 0c 23 c1 2a 89 1e 39 da f3 19
       1.5891087e-18 7.633497e-18 1.4523122e-20 2.521375e-23
000040 00 00 00 00 00 00 00 00 00 00 00 00 00 00 00 00
       0.0 0.0 0.0 0.0
000050 00 00 00 00 00 00 00 00 00 00 00 00 00 00 00 00
       0.0 0.0 0.0 0.0
000060 00 00 00 00 00 00 00 00 00 00 00 00 00 00 00 00
       0.0 0.0 0.0 0.0
000070 00 00 00 00 00 00 00 00 00 00 00 00 00 00 00 00
       0.0 0.0 0.0 0.0
000080 00 00 00 00 4b 79 51 16 de a2 c2 20 d9 f3 46 21
       0.0 1.6921159e-25 3.2972655e-19 6.740774e-19
000090 77 31 d9 20 c2 8d 53 23 ba dc 38 27 42 cf 2b 29
       3.6793963e-19 1.1468351e-17 2.5654786e-15 3.8149395e-14
0000a0 0f 4e 14 29 fd 2f 25 29 5f 4f e2 2a 63 0d e8 2b
       3.2930307e-14 3.6678983e-14 4.020074e-13 1.6488307e-12
0000b0 8b 9e f8 2a 0d 10 f5 26 7a 6b 81 23 b2 0c 17 23
       4.416366e-13 1.7004641e-15 1.4031726e-17 8.188415e-18
0000c0 bf ac 1e 23 19 f8 02 21 24 d6 4b 1b 00 00 00 00
       8.6017776e-18 4.437407e-19 1.6860959e-22 0.0
0000d0 00 00 00 00 00 00 00 00 00 00 00 00 00 00 00 00
       0.0 0.0 0.0 0.0
0000e0 00 00 00 00 00 00 00 00 00 00 00 00 2d 73 e9 25
       0.0 0.0 0.0 4.0497103e-16
0000f0 4f 79 85 24 1b bb c0 23 7a 35 47 24 a0 00 93 27
       5.788506e-17 2.0895924e-17 4.3196543e-17 4.0801374e-15
000100 6e 1c 35 27 33 ae ef 2d 61 85 90 2d 61 36 8c 2f
       2.5134208e-15 2.7248514e-11 1.6430137e-11 2.550449e-10
000110 7e 04 d7 31 16 d8 19 32 c6 33 db 30 a5 27 54 30
       6.2578343e-09 8.954904e-09 1.5949062e-09 7.718149e-10
000120 0d 6a 28 32 d6 f5 d2 32 a1 78 88 32 12 b4 98 2f
       9.803e-09 2.455901e-08 1.588734e-08 2.7776587e-10
000130 c4 1c f1 2e b6 c2 47 2e 93 71 da 2b ad 33 61 25
       1.0964521e-10 4.54203e-11 1.5521355e-12 1.9533148e-16
000140 c3 f0 e3 1f 00 00 00 00 00 00 00 00 00 00 00 00
       9.6536546e-20 0.0 0.0 0.0
000150 00 00 00 00 00 00 00 00 00 00 00 00 65 6b db 2b
       0.0 0.0 0.0 1.5590694e-12
000160 6c cf b3 2f f1 c4 64 2a 4e e4 98 2b e3 f6 67 2e
       3.2707292e-10 2.0318796e-13 1.0863617e-12 5.27426e-11
000170 e1 38 37 31 69 13 0a 32 7c d2 b9 33 32 e0 20 34
       2.6662337e-09 8.037071e-09 8.653021e-08 1.4982723e-07
000180 ec bf c6 33 f0 7d 01 34 67 8e 06 34 29 6c b8 33
       9.255004e-08 1.2059877e-07 1.2531528e-07 8.587842e-08
000190 95 aa 54 34 fe af 1d 34 94 7b c2 33 7e 83 1f 33
       1.9806096e-07 1.468579e-07 9.056308e-08 3.7139664e-08
0001a0 e4 e4 8e 32 ed bb ff 31 87 43 2e 31 fe 7b 0f 31
       1.6635063e-08 7.4428415e-09 2.5358717e-09 2.087972e-09
0001b0 38 d6 51 30 99 0b 60 2b 00 00 00 00 00 00 00 00
       7.633818e-10 7.959688e-13 0.0 0.0
0001c0 00 00 00 00 3d 31 15 1d 11 53 60 1e 06 d9 a7 2c
       0.0 1.9745441e-21 1.1875639e-20 4.77052e-12
0001d0 1f ed 4f 2f b9 72 0a 31 6b 47 05 32 03 6b 29 33
       1.8910783e-10 2.0146855e-09 7.7578575e-09 3.9445705e-08
0001e0 b9 84 b9 33 f9 08 1e 34 a9 f4 67 34 0f e6 09 35
       8.638876e-08 1.4718161e-07 2.1602558e-07 5.1371256e-07
0001f0 a0 05 3e 35 3c 54 58 35 52 96 70 35 dd aa 79 35
       7.07887e-07 8.058885e-07 8.962571e-07 9.300837e-07
000200 99 dc 66 35 42 cd 20 35 91 aa d1 34 63 3e a5 34
       8.600269e-07 5.9903334e-07 3.9053387e-07 3.0779037e-07
000210 32 44 f4 33 86 51 30 33 d1 9c 48 32 c2 bc da 31
       1.137454e-07 4.105234e-08 1.1677188e-08 6.3660943e-09
000220 48 f6 b1 31 12 34 a3 30 e7 b9 2f 30 00 00 00 00
       5.179377e-09 1.187461e-09 6.392881e-10 0.0
000230 00 00 00 00 00 00 00 00 98 3f 81 26 69 d4 a3 2f
       0.0 0.0 8.96841e-16 2.9800454e-10
000240 82 a1 9c 30 a0 0e 33 32 0c 41 5b 33 5e bb d6 33
       1.1396397e-09 1.0422497e-08 5.104907e-08 9.9992334e-08
000250 60 48 46 34 e2 c2 af 34 c6 66 05 35 c8 0f 76 35
       1.8466517e-07 3.2738086e-07 4.9695916e-07 9.1665106e-07
000260 c6 5a c9 35 48 21 fc 35 7a 33 07 36 83 90 0a 36
       1.5002086e-06 1.8785149e-06 2.014653e-06 2.064772e-06
000270 1d 32 e7 35 98 fe bb 35 2f 40 81 35 eb d4 2a 35
       1.7225426e-06 1.4006682e-06 9.629929e-07 6.363977e-07
000280 1c e1 e7 34 67 c0 2b 34 69 7b 3b 33 c3 1c 2b 33
       4.3190892e-07 1.5995612e-07 4.365157e-08 3.98402e-08
000290 17 6f 3b 32 a4 db 26 31 89 8e 02 2d d3 f1 29 13
       1.09100915e-08 2.428103e-09 7.421294e-12 2.1450027e-27
0002a0 00 00 00 00 92 d6 36 25 4c 43 bf 2b f5 9f 19 30
       0.0 1.5858683e-16 1.3590045e-12 5.588839e-10
0002b0 ad 9d 50 31 ea 6e d1 32 2b 1e 40 34 4a 35 8d 34
       3.0357612e-09 2.438124e-08 1.7892368e-07 2.630207e-07
0002c0 d8 90 c9 34 8e 13 2a 35 f9 f7 96 35 ff 4f e6 35
       3.7544555e-07 6.335839e-07 1.124804e-06 1.7159617e-06
0002d0 e4 dd 16 36 22 84 32 36 73 23 3a 36 6f df 37 36
       2.24809e-06 2.6600978e-06 2.7736794e-06 2.739918e-06
0002e0 a1 76 33 36 6d 38 10 36 1f 09 df 35 65 1c 8c 35
       2.674213e-06 2.1490516e-06 1.6617449e-06 1.0439077e-06
0002f0 b3 2f 49 35 4a f4 df 34 79 54 0f 34 0b a2 6d 33
       7.4947746e-07 4.171473e-07 1.3348644e-07 5.532824e-08
000300 a8 86 bc 32 e3 90 3e 31 12 c5 2e 2d ef 3b 1a 25
       2.1947315e-08 2.7730997e-09 9.934513e-12 1.3377677e-16
000310 6b cf 90 13 13 79 5e 2a f9 4c 07 2e 74 8f 9b 30
       3.655524e-27 1.9759567e-13 3.076381e-11 1.1318506e-09
000320 28 91 0d 32 c1 fa 87 33 7a 60 97 34 f8 bb d7 34
       8.240285e-09 6.332039e-08 2.8196138e-07 4.0183636e-07
000330 20 5a 3f 35 69 f5 a0 35 97 e0 e1 35 74 47 1c 36
       7.1284194e-07 1.1992353e-06 1.6829171e-06 2.3287403e-06
000340 dd 5a 34 36 ce f9 3b 36 57 50 35 36 e9 0f 40 36
       2.687498e-06 2.8010577e-06 2.7017866e-06 2.861949e-06
000350 b5 03 3c 36 3e 9b 33 36 a8 97 12 36 71 20 c5 35
       2.801634e-06 2.6763441e-06 2.184397e-06 1.4687085e-06
000360 ea 59 97 35 45 79 3c 35 c4 60 84 34 d1 f8 93 33
       1.1276545e-06 7.021193e-07 2.4657322e-07 6.8904804e-08
000370 7b 22 43 32 45 52 8d 31 c0 9a 8e 2f b4 82 2c 26
       1.1358334e-08 4.112993e-09 2.5939606e-10 5.9851623e-16
000380 99 f3 e5 2c bd 7a da 2a 8c ff 90 2e dc ea 75 31
       6.5356162e-12 3.8809746e-13 6.593756e-11 3.5785694e-09
000390 f6 f8 82 32 8d 13 81 33 3a 96 b1 34 6a e4 24 35
       1.5247206e-08 6.010587e-08 3.3078123e-07 6.1427147e-07
0003a0 fb ff 8b 35 b2 68 c6 35 9b ac 11 36 88 37 23 36
       1.0430807e-06 1.478262e-06 2.1707153e-06 2.4321216e-06
0003b0 6e 7d 19 36 c5 e9 16 36 b3 12 18 36 32 83 1f 36
       2.2871786e-06 2.2487814e-06 2.266065e-06 2.3769212e-06
0003c0 98 06 2f 36 1f 2b 42 36 b6 05 2e 36 27 89 f3 35
       2.608087e-06 2.8933352e-06 2.5931345e-06 1.8144827e-06
0003d0 fe 29 c0 35 db a4 69 35 26 fb e3 34 5a e9 1b 34
       1.4317336e-06 8.703916e-07 4.246478e-07 1.4520393e-07
0003e0 2e 82 82 32 49 2f e5 30 1f 14 1d 2f 4e d0 c8 20
       1.519319e-08 1.6675382e-09 1.4286215e-10 3.4019162e-19
0003f0 34 51 2d 20 af 58 36 27 75 7e b5 30 14 31 5a 32
       1.4680538e-19 2.530565e-15 1.3205425e-09 1.2700429e-08

exp_avg f4 [50]
000000 dc 69 07 39 05 84 ab 3a 08 a1 38 ba 1e 1d a6 b9
       0.00012914039 0.001308561 -0.00070430385 -0.0003168368
000010 a0 8b 18 36 1b 41 69 39 fe 57 f4 b9 d7 a9 b8 ba
       2.2731037e-06 0.00022244865 -0.00046604866 -0.0014088702
000020 80 f8 e0 b8 fe ba e6 b9 be 66 4f b9 d7 da ae b9
       -0.00010727439 -0.0004400834 -0.00019779333 -0.00033350915
000030 6e 13 99 39 6f ad 10 39 5b 56 b7 39 06 04 7b ba
       0.0002919691 0.00013797519 0.0003496882 -0.00095754897
000040 a6 30 1e ba 6e b2 c6 38 18 20 f0 39 67 c4 1a ba
       -0.0006034471 9.474611e-05 0.0004580028 -0.00059039
000050 f8 c1 de 3a 44 f7 ba b9 00 00 00 00 a0 26 da 37
       0.0016995063 -0.00035660912 0.0 2.6005611e-05
000060 dc 5e b0 38 73 71 8d ba bf fe cf 39 4b 40 17 3a
       8.410003e-05 -0.0010791257 0.00039671917 0.0005769773
000070 62 20 e0 38 00 dc 31 b6 d6 6e 87 ba 80 1d 1e 3a
       0.00010687184 -2.6503112e-06 -0.0010332714 0.00060316175
000080 ce e7 bd 3a 72 24 9c 38 6c d2 4c ba 12 b8 7a ba
       0.0014488639 7.445448e-05 -0.0007813338 -0.0009564172
000090 e6 33 39 b9 e8 0d 83 b9 d1 0e 5d b9 dc ba be 3a
       -0.00017662309 -0.00024996628 -0.00021081722 0.0014551538
0000a0 c3 af 90 ba c0 73 2c 39 5e 5f 0d b8 96 38 74 ba
       -0.0011038709 0.00016446318 -3.3705837e-05 -0.0009316293
0000b0 b5 bc 25 b9 49 53 b4 ba 14 3c c5 b8 a6 b1 64 39
       -0.00015805925 -0.0013757731 -9.4048824e-05 0.00021809954
0000c0 42 04 dd 3a ef 93 dd 39
       0.0016862231 0.00042262624

exp_avg_sq f4 [50]
000000 d7 93 b1 36 cf c9 65 37 c9 35 0a 37 af b8 1c 37
       5.292222e-06 1.3696451e-05 8.237964e-06 9.341325e-06
000010 51 34 b7 36 80 4a 3e 36 a5 a7 e7 36 e3 6b 16 37
       5.4599154e-06 2.835557e-06 6.903853e-06 8.965816e-06
000020 fb 9d 06 37 ce 14 b4 36 fb 6f 94 36 1e 41 2e 37
       8.023805e-06 5.36684e-06 4.42378e-06 1.03863695e-05
000030 bb 8f 1a 37 80 c5 db 36 08 9c 05 37 29 be c6 36
       9.21258e-06 6.5497006e-06 7.963747e-06 5.9229974e-06
000040 82 9d 62 36 e7 0b 2d 37 dc 46 1e 37 9f 3c 23 37
       3.3768306e-06 1.0314375e-05 9.434032e-06 9.729672e-06
000050 d0 75 ff 36 1a 69 1b 37 00 00 00 00 9e 6b 67 36
       7.6133074e-06 9.263191e-06 0.0 3.4484324e-06
000060 36 10 35 37 d5 ea 93 36 b9 6e 00 37 a3 7d 53 37
       1.0792215e-05 4.4082794e-06 7.655174e-06 1.2605832e-05
000070 e2 fc 19 37 33 81 90 36 f8 be 87 36 73 f8 fd 36
       9.1783895e-06 4.306575e-06 4.045545e-06 7.568911e-06
000080 32 00 a6 37 68 62 c2 36 25 ee 1d 37 e0 ff f0 36
       1.9788833e-05 5.7931065e-06 9.413377e-06 7.182345e-06
000090 3f 24 42 37 3c b4 0a 37 18 cb a3 36 0d 45 1d 37
       1.157174e-05 8.267405e-06 4.881422e-06 9.374006e-06
0000a0 35 3c 90 36 01 1d 16 37 4a 64 43 37 ac f7 a2 36
       4.2985434e-06 8.94745e-06 1.1646256e-05 4.856809e-06
0000b0 c6 88 ae 36 be ab cf 36 39 41 e5 36 bf 20 38 37
       5.2015266e-06 6.189074e-06 6.8323247e-06 1.0974879e-05
0000c0 78 7f 4b 37 5b 6d 89 37
       1.21294215e-05 1.6382595e-05

exp_avg f4 [10, 50]
000000 c1 e3 a1 ba 8d 26 60 b9 87 0e 36 ba 18 f8 06 3a
       -0.0012351201 -0.00021376666 -0.0006944914 0.0005148663
000010 f0 62 81 ba 72 c3 83 b8 e8 69 7e ba 53 89 31 b9
       -0.0009871405 -6.282971e-05 -0.00097051123 -0.00016931193
000020 8d 9a 33 39 25 19 80 ba 74 cc a4 ba 90 d9 9e 37
       0.00017128345 -0.0009773119 -0.0012573139 1.8936378e-05
000030 fa 23 3e b8 80 90 5e ba 17 ec 41 3a 40 cf 83 39
       -4.5333036e-05 -0.000849016 0.0007397546 0.0002514068
000040 d4 5d 42 ba d1 d4 f5 37 b9 5d 91 b9 26 e3 35 ba
       -0.0007414494 2.9305376e-05 -0.00027726384 -0.000693845
000050 60 af 01 ba 80 4a 32 b7 00 00 00 00 bc 95 a3 b9
       -0.00049470924 -1.0626973e-05 0.0 -0.00031201344
000060 e1 b2 d4 39 f8 f7 72 b8 38 5b d2 ba 56 dc a0 39
       0.00040569066 -5.7928235e-05 -0.0016048914 0.0003068174
000070 bd 0b 50 3a 06 14 e1 b9 09 ca 22 ba 4f 4e 92 ba
       0.00079363195 -0.00042930263 -0.0006209915 -0.0011162254
000080 4e c3 93 b8 c6 6f 8a b8 6f dd 10 3a f0 8a aa 39
       -7.0458846e-05 -6.601172e-05 0.000552616 0.00032528443
000090 a8 3a b1 39 46 e8 97 39 71 7e 5b ba f1 ca 51 3a
       0.00033803773 0.00028974022 -0.0008373028 0.0008002958
0000a0 c0 54 84 ba 23 0c 63 39 cd 63 d4 38 48 61 ab b9
       -0.0010096058 0.00021652928 0.00010127537 -0.00032688142
0000b0 43 0a 0c b9 c8 3e 0c 3a 27 cb af 39 5c 69 68 38
       -0.00013355263 0.00053499313 0.0003352996 5.5411234e-05
0000c0 d9 67 50 ba 6a 9f 09 b9 07 36 38 b8 85 2f a9 3a
       -0.0007950045 -0.00013124725 -4.3919335e-05 0.0012907839
0000d0 a5 5e 31 3b 1b 7d 03 3b 80 09 70 3a ca 80 eb 3a
       0.002706447 0.0020063582 0.0009156689 0.0017967459
0000e0 20 b2 8c 3a 68 a8 c4 3a f5 1b d9 3a 71 28 a6 3a
       0.0010734238 0.0015003802 0.0016564118 0.0012676847
0000f0 d6 b7 2b 3b 02 3d d2 3a 07 2e 5e 39 a3 79 3f 3b
       0.0026202104 0.001603991 0.00021188716 0.0029216788
000100 14 11 ff 38 32 5c aa 3a d5 90 16 3b 75 0c 6a 3a
       0.000121625286 0.0012997447 0.002297451 0.0008928248
000110 b0 31 b1 39 e7 9c 23 3b 21 b3 1f 3b a7 ba 87 3b
       0.0003379709 0.0024965347 0.0024368244 0.0041421237
000120 00 00 00 00 a7 5f 36 3b df 3d 1f 3b a7 a6 ec 3a
       0.0 0.002782801 0.0024298353 0.0018055037
000130 26 d0 dd 39 ac ea f6 3a 0a 9a aa b9 ed 1c 98 3b
       0.00042307487 0.0018838248 -0.00032539695 0.00464212
000140 e9 1e 25 3b 8f 18 46 3a 34 ff d3 3a 02 e1 5b 37
       0.0025195426 0.000755676 0.0016174079 1.3105806e-05
000150 df 1d c3 3a 05 ff e3 38 b6 ed 33 39 bd 11 15 3a
       0.0014886222 0.000108717046 0.00017159324 0.0005686542
000160 76 01 c0 39 4c f1 89 3a 1e 2c 3b 3a 70 78 aa 3a
       0.00036622182 0.0010524183 0.0007140058 0.0013005864
000170 59 89 e8 3a 35 85 16 3a 06 e9 90 3a 66 5a 16 3b
       0.0017741128 0.00057418953 0.0011055775 0.0022942065
000180 28 35 5b 3a 3e 93 f7 b6 c4 89 23 b9 20 d3 2a 3a
       0.0008362108 -7.378315e-06 -0.00015596213 0.00065164454
000190 f2 4c d7 b9 9c 8a 6e ba 40 ad df 38 df 05 29 ba
       -0.00041065324 -0.0009099634 0.00010665739 -0.0006447713
0001a0 d0 eb 2f 39 08 4f a0 3a 6b b2 b8 ba 80 c0 af ba
       0.00016777148 0.0012230584 -0.0014091259 -0.001340881
0001b0 c0 7b 87 b8 8c e5 bd ba f5 ab 4b ba 0c ab e9 39
       -6.460352e-05 -0.0014487966 -0.0007769459 0.00044568663
0001c0 fe f0 4d 39 c4 72 d8 ba 62 5e 1c 39 68 69 0d ba
       0.000196401 -0.0016513695 0.0001491248 -0.000539443
0001d0 f8 9e 88 b8 0b bd 06 3a 52 e0 b1 b9 80 6c 05 b7
       -6.5145956e-05 0.0005139864 -0.00033927202 -7.95268e-06
0001e0 71 76 b2 ba ec fa 35 3a 00 00 00 00 6a e9 1a ba
       -0.001361562 0.00069419923 0.0 -0.0005909415
0001f0 a4 93 c3 ba f8 6d 6c ba 00 8b e9 ba 6b 37 18 bb
       -0.001492132 -0.0009019072 -0.0017817914 -0.002322639
000200 da 23 8e b9 c2 2e a3 ba b0 58 d3 b9 7a 1a 11 ba
       -0.00027111062 -0.0012449848 -0.00040311133 -0.00055352564
000210 1d f5 e6 b8 33 83 4e ba 46 85 2d 39 a8 b3 bc 39
       -0.000110129105 -0.00078778266 0.00016548214 0.0003599201
000220 06 d4 8d b9 74 81 eb b9 84 30 1e 38 77 7e d2 b9
       -0.00027051585 -0.00044919143 3.771532e-05 -0.00040148545
000230 50 c7 85 b9 72 13 fd 3a 8c 1b 32 b9 09 81 38 ba
       -0.00025516236 0.0019308163 -0.00016985665 -0.00070382707
000240 b6 f2 1a b9 7a 02 31 ba 30 1f e3 39 fe 59 99 ba
       -0.00014777001 -0.0006752383 0.0004332005 -0.0011699793
000250 fc 26 20 ba ae 8e 62 b9 b6 4e 20 39 de 6e 09 bb
       -0.0006109325 -0.00021606192 0.00015288111 -0.0020970623
000260 41 75 9f ba 21 d0 20 3a 1a 2c 07 ba ca e5 e6 ba
       -0.0012165682 0.0006134529 -0.0005156413 -0.001761609
000270 d5 78 14 ba 41 95 bd ba c2 ca b4 ba 77 ee 79 39
       -0.00056637573 -0.0014464037 -0.0013793337 0.00023835326
000280 46 e7 b3 ba f3 ca 22 bb e3 a7 87 b9 80 b8 78 bb
       -0.0013725541 -0.0024840205 -0.00025874292 -0.0037951767
000290 d1 16 13 ba 0b e3 05 bb 9a 92 69 ba b8 b2 81 ba
       -0.0005611005 -0.0020429518 -0.000891009 -0.0009895181
0002a0 d1 a8 36 bb 7f 88 19 bb 17 04 f0 ba eb eb 88 b9
       -0.0027871619 -0.0023427305 -0.0018311766 -0.00026115714
0002b0 00 00 00 00 1f 7c 71 bb 70 7f ad b9 82 20 e6 ba
       0.0 -0.0036847664 -0.0003309208 -0.0017557296
0002c0 9a df 98 ba 16 74 78 ba 1d c1 a0 3a b3 fd 5a bb
       -0.0011663318 -0.00094777474 0.0012264583 -0.0033415377
0002d0 b6 04 20 bb 11 77 0d bb 17 2d 94 ba e0 ea 90 b9
       -0.002441687 -0.0021585862 -0.0011304942 -0.00027640816
0002e0 29 2a c2 bb b5 59 20 ba db 87 ae ba 53 1d d1 39
       -0.005925436 -0.0006116883 -0.0013315635 0.00039885435
0002f0 34 30 a4 b9 a0 d5 36 39 11 2e f9 ba b8 5c e2 b9
       -0.00031316432 0.00017436454 -0.0019010921 -0.0004317516
000300 02 be 6e bb 2d 5d 8b ba 66 3e 80 ba 5e 46 98 bb
       -0.0036429171 -0.0010632627 -0.0009784221 -0.0046470603
000310 98 ff 83 ba 98 9c a6 b8 b2 09 30 ba b0 2c 9f ba
       -0.001007068 -7.944665e-05 -0.0006715312 -0.0012144055
000320 94 22 87 39 6d cc ad ba e1 b3 14 b9 81 b0 c0 3a
       0.0002577497 -0.0013259776 -0.0001418139 0.001470104
000330 dd 2f 2c b9 21 86 b9 ba 45 a7 42 ba a9 64 31 3b
       -0.00016421029 -0.0014154353 -0.0007425438 0.0027068055
000340 8b 15 b6 39 8d 19 34 3a 55 da 10 b9 68 e9 2b 3a
       0.00034729796 0.00068702624 -0.00013814245 0.00065579126
000350 99 89 28 3a 24 30 54 ba 47 e1 b7 b9 8f cc 1b 3a
       0.0006429195 -0.0008094332 -0.00035072325 0.00059432624
000360 26 8e ce b8 b9 61 f7 38 9f 5c 91 ba b8 7b a5 39
       -9.849323e-05 0.0001179608 -0.0011090225 0.0003156343
000370 6a 3e 0e ba d7 84 00 38 00 00 00 00 0a f6 ca 38
       -0.00054261705 3.0641295e-05 0.0 9.677939e-05
000380 89 38 0f 3a ea be 3c 3a 83 8a 2b bb bb 5c 5f b7
       0.00054634415 0.0007200079 -0.0026175089 -1.3313426e-05
000390 fd c1 f7 3a 68 3b 86 3a 58 ad a0 b8 e1 b3 4f 3a
       0.0018902418 0.0010241093 -7.661682e-05 0.00079232274
0003a0 d6 2d 16 3a 72 df e6 b8 ef bc 46 39 c0 29 43 3a
       0.0005728876 -0.000110088746 0.00018953135 0.0007444881
0003b0 22 46 be 37 f6 da 23 3a a9 a6 86 3a 60 86 3b 3a
       2.2682423e-05 0.0006250584 0.0010273057 0.00071535073
0003c0 76 88 25 ba 82 3c 1f 3b a6 9e e2 b9 13 ad a3 3a
       -0.0006314585 0.002429754 -0.0004322428 0.0012487493
0003d0 27 cc 99 b9 ee 6e 8b b9 57 49 9d 38 a1 ca 90 3a
       -0.0002933454 -0.00026594795 7.500004e-05 0.0011046716
0003e0 cc a8 15 3b b4 f0 43 ba c4 66 5d 3a af 48 6c 39
       0.0022836206 -0.0007474527 0.0008445794 0.0002253379
0003f0 60 57 1c bb 36 f0 a2 ba 7e 44 b8 ba d9 20 db 39
       -0.002385579 -0.0012431208 -0.0014058498 0.00041795408

exp_avg_sq f4 [10, 50]
000000 46 25 27 38 e8 77 df 37 94 2f 1f 38 c1 15 88 36
       3.9850616e-05 2.6639507e-05 3.7952865e-05 4.0556483e-06
000010 c1 2e 39 38 31 b0 64 37 b5 fa d7 38 74 a0 15 37
       4.415098e-05 1.3630882e-05 0.00010298697 8.9184505e-06
000020 68 3d 57 37 d7 d5 3d 38 8d e8 bb 38 b1 44 56 37
       1.2829296e-05 4.5260265e-05 8.960171e-05 1.2771387e-05
000030 91 af 67 37 3a 6a 73 38 5b 6b da 37 56 1f 9c 36
       1.380955e-05 5.8034646e-05 2.6037616e-05 4.6528103e-06
000040 f9 20 a0 38 5c 50 08 35 05 02 ed 38 cc 8c 12 38
       7.635536e-05 5.0780886e-07 0.00011301417 3.494024e-05
000050 69 6e b2 37 8c 6b 24 38 00 00 00 00 fb 90 d6 37
       2.1270667e-05 3.9200808e-05 0.0 2.55783e-05
000060 c2 4c 35 36 51 26 3d 38 e0 31 27 38 52 2a cf 37
       2.701578e-06 4.5096796e-05 3.9862352e-05 2.469603e-05
000070 67 5f f9 36 f2 3b 49 38 7c 62 85 38 23 49 2b 38
       7.4318846e-06 4.7977963e-05 6.360278e-05 4.083769e-05
000080 6a bd c1 36 d4 44 c8 37 c5 7e d6 37 60 1b 51 36
       5.773899e-06 2.3873909e-05 2.556982e-05 3.1159361e-06
000090 03 30 bc 36 e5 bd e2 35 1d b9 80 37 03 6c 5d 38
       5.608426e-06 1.6893579e-06 1.534499e-05 5.27911e-05
0000a0 9e 9a 17 39 05 e9 56 36 62 d2 28 36 ea 75 5e 38
       0.00014458082 3.202412e-06 2.515641e-06 5.303874e-05
0000b0 66 1b 57 38 bb 2e 11 37 1e 72 31 37 2d 78 3a 36
       5.128551e-05 8.653554e-06 1.0576592e-05 2.7786111e-06
0000c0 2d 0f e0 36 01 b1 d1 36 d2 49 d6 35 b0 c1 3a 38
       6.677487e-06 6.2492913e-06 1.5965727e-06 4.452624e-05
0000d0 24 75 47 39 03 84 f4 38 18 da 45 37 b7 34 01 38
       0.00019021757 0.00011659416 1.1792894e-05 3.080509e-05
0000e0 a2 cb 1c 37 76 2f 8e 39 aa 80 8a 38 e5 45 27 37
       9.3457365e-06 0.00027119712 6.604318e-05 9.970249e-06
0000f0 4c 61 99 38 f1 e3 a1 37 6f 00 f4 34 81 cf af 38
       7.3137315e-05 1.929884e-05 4.5448857e-07 8.383301e-05
000100 d5 8b 95 36 69 2e 37 38 70 35 98 37 79 10 37 37
       4.4568246e-06 4.3673823e-05 1.8144696e-05 1.0911485e-05
000110 79 84 24 38 05 2c 94 38 d3 b2 2d 39 e0 c2 6e 38
       3.922402e-05 7.065389e-05 0.00016565183 5.6925113e-05
000120 00 00 00 00 c4 0a d8 38 80 c1 28 38 a5 f9 3f 38
       0.0 0.00010301688 4.0234532e-05 4.577045e-05
000130 09 03 31 37 3b f9 34 38 d4 e6 0d 37 28 97 4c 39
       1.0550729e-05 4.314746e-05 8.457999e-06 0.00019511266
000140 85 3f c4 38 db 04 1a 37 f3 da 82 37 1a 67 b5 37
       9.35784e-05 9.180246e-06 1.5599164e-05 2.1624892e-05
000150 1f 2b 03 38 bd c1 88 36 b0 0c 87 36 fd cb dd 36
       3.1272994e-05 4.07567e-06 4.0247905e-06 6.6100606e-06
000160 ad c6 6c 37 56 af 80 37 32 9d 18 38 85 d4 39 38
       1.4112954e-05 1.5340436e-05 3.6386024e-05 4.430536e-05
000170 25 01 2b 38 4d 4f ef 36 14 99 12 38 88 a0 88 38
       4.0770643e-05 7.131987e-06 3.4951678e-05 6.5148866e-05
000180 44 d0 2d 37 44 f8 79 37 3e f6 3c 38 f7 bf 23 37
       1.0360094e-05 1.489936e-05 4.5052024e-05 9.760252e-06
000190 c1 72 56 38 c3 d1 10 38 48 6e d0 38 e5 dd 2e 38
       5.112845e-05 3.452763e-05 9.9387544e-05 4.1691488e-05
0001a0 86 a0 8f 38 d4 bf 68 38 d3 b9 9d 38 4b e5 bf 38
       6.848671e-05 5.5491764e-05 7.520956e-05 9.150299e-05
0001b0 63 c3 c8 37 a1 0f 69 38 46 11 09 39 56 ba cc 38
       2.3932842e-05 5.5566084e-05 0.00013071773 9.762186e-05
0001c0 45 3d 39 37 88 fe 03 39 fe b4 b7 37 11 22 28 38
       1.1041125e-05 0.00012587954 2.1899581e-05 4.0086048e-05
0001d0 ce b4 af 38 f3 c7 b1 36 c6 d7 c7 38 9e 41 0e 39
       8.378328e-05 5.298288e-06 9.5292504e-05 0.0001356662
0001e0 c1 eb dd 37 ec 93 27 39 00 00 00 00 96 7e d3 38
       2.6455034e-05 0.00015981466 0.0 0.000100848425
0001f0 13 34 25 38 5f 6c bf 38 2c b8 82 38 b1 bf ba 38
       3.9387563e-05 9.1277754e-05 6.233188e-05 8.9048764e-05
000200 3c 76 a5 37 1f 42 1b 39 20 f9 1d 39 99 72 52 38
       1.972459e-05 0.00014806584 0.00015065493 5.017463e-05
000210 d5 20 80 37 fe d2 2a 38 a6 f6 bd 38 79 19 a2 37
       1.5274078e-05 4.072766e-05 9.058164e-05 1.9323767e-05
000220 d4 cd 99 37 c2 e9 21 37 e2 43 60 37 e2 68 9b 37
       1.8334867e-05 9.650774e-06 1.3367246e-05 1.852628e-05
000230 96 58 37 39 eb 12 3e 38 bb f3 c6 38 51 0f 43 38
       0.00017485241 4.531715e-05 9.486774e-05 4.6505887e-05
000240 6e fc 73 38 43 58 d2 38 bb b9 05 38 91 1c 28 38
       5.817081e-05 0.0001003002 3.1882646e-05 4.0080926e-05
000250 9e 45 98 37 50 30 7e 37 37 5c 18 38 22 80 d3 38
       1.815223e-05 1.5150828e-05 3.6325506e-05 0.000100851306
000260 87 b8 51 39 8a e4 27 38 f7 be 40 38 8d ef 6f 38
       0.00020000535 4.0028746e-05 4.5954217e-05 5.720514e-05
000270 c6 b9 e0 38 7a 3a 1f 39 37 0d 57 38 82 68 33 38
       0.00010715755 0.00015185206 5.12723e-05 4.2774256e-05
000280 9b b1 10 39 8d 2f d4 38 de b2 cb 37 dd 2b 2a 39
       0.00013799073 0.00010117805 2.4282777e-05 0.00016228804
000290 0a 08 e2 37 18 09 b0 38 2d 25 f6 38 06 25 86 38
       2.6945043e-05 8.394028e-05 0.000117371186 6.396514e-05
0002a0 2e 1c 51 39 07 cc 02 39 2d 96 7d 38 8e a5 2a 39
       0.00019942291 0.00012473772 6.0459763e-05 0.00016274137
0002b0 00 00 00 00 b3 50 59 39 6d f9 41 38 a8 a7 7e 39
       0.0 0.00020724795 4.624708e-05 0.00024285784
0002c0 1a 1b 32 38 46 93 b5 38 96 a5 37 38 ef 30 79 39
       4.2463747e-05 8.6581844e-05 4.3784814e-05 0.0002376472
0002d0 52 4b 82 39 59 12 86 39 bb 4f a9 37 f7 2d cb 37
       0.0002485165 0.00025572142 2.0183497e-05 2.422089e-05
0002e0 e8 62 af 39 6f c3 11 38 fc 12 6c 38 7e 65 e1 36
       0.00033452292 3.4752706e-05 5.6284465e-05 6.717338e-06
0002f0 26 21 f0 36 25 d1 c4 37 98 c9 88 39 06 43 8b 38
       7.1564164e-06 2.3462411e-05 0.0002609014 6.6405206e-05
000300 ad 06 c4 38 cc a1 da 38 d0 d5 06 39 27 22 5d 39
       9.347252e-05 0.00010425187 0.00012858887 0.00021088925
000310 b4 09 f3 37 e7 0c 28 38 a1 13 d6 37 0f 6e 94 37
       2.8972376e-05 4.0066338e-05 2.5519928e-05 1.7694225e-05
000320 27 d0 fc 38 44 95 ca 37 f1 80 ca 38 51 09 49 38
       0.00012055068 2.4149784e-05 9.656128e-05 4.793081e-05
000330 0c c0 86 38 bf 3b 69 38 1a 5f 16 38 65 21 d9 38
       6.4253894e-05 5.560717e-05 3.5851357e-05 0.000103535865
000340 ae 21 97 37 f8 1f 94 38 14 0d 09 39 3b 60 f4 36
       1.8016286e-05 7.0631446e-05 0.0001307021 7.2829694e-06
000350 f1 62 23 38 0e 23 3e 38 f7 bd ce 35 56 3f 57 37
       3.8954375e-05 4.5332177e-05 1.5403483e-06 1.2829745e-05
000360 57 8b 15 38 c6 ec 26 38 54 b8 01 39 80 c2 a4 37
       3.565414e-05 3.9797997e-05 0.00012371066 1.9640895e-05
000370 1e cc cb 38 40 43 88 37 00 00 00 00 c9 ba dc 38
       9.717814e-05 1.624378e-05 0.0 0.00010525209
000380 fb 55 8e 36 a0 5b bb 38 d7 b8 49 38 bf 0d 9f 36
       4.241939e-06 8.933921e-05 4.809428e-05 4.7401695e-06
000390 9f 43 0c 39 13 e5 c9 38 6d b4 01 39 18 6b be 37
       0.00013376631 9.627095e-05 0.00012369613 2.2699634e-05
0003a0 43 44 68 37 44 02 56 38 e6 fe aa 36 e6 32 b6 38
       1.3844171e-05 5.1023686e-05 5.096069e-06 8.687917e-05
0003b0 7d 3b 8f 36 08 01 da 37 93 96 b1 37 62 e0 a3 37
       4.2686574e-06 2.5988105e-05 2.117016e-05 1.95356e-05
0003c0 b0 e8 af 38 fe 20 f0 38 8d 26 9d 35 da 02 df 37
       8.387992e-05 0.00011450237 1.1708631e-06 2.6585e-05
0003d0 b8 55 1b 38 0f 71 08 38 26 36 9e 36 b3 95 d1 37
       3.703471e-05 3.253022e-05 4.7150706e-06 2.498445e-05
0003e0 ee 3d a3 38 d4 c5 02 37 b8 1a e5 37 36 d7 cf 38
       7.783981e-05 7.794664e-06 2.731137e-05 9.910615e-05
0003f0 cd c7 19 39 10 ac 03 38 fe 69 19 38 c8 fb 06 38
       0.00014665649 3.139308e-05 3.6576756e-05 3.218258e-05

exp_avg f4 [10]
000000 1d d8 ce b8 c2 f5 49 3a 3b c4 14 b9 c3 23 29 ba
       -9.8631e-05 0.0007704162 -0.00014187481 -0.0006452167
000010 7a 80 9b 38 a1 36 e9 39 26 62 9f 3a 71 94 17 b9
       7.4149066e-05 0.00044481925 0.0012159988 -0.00014455781
000020 5b 29 ac ba 76 81 29 b9
       -0.0013134883 -0.00016165324

exp_avg_sq f4 [10]
000000 dc d7 36 36 1a ca c3 36 61 1b de 36 b3 4b 24 37
       2.724576e-06 5.8349806e-06 6.619303e-06 9.792787e-06
000010 09 99 dc 36 66 6b 00 37 e2 19 86 36 f6 66 f6 36
       6.5743266e-06 7.6544e-06 3.9965244e-06 7.3433575e-06
000020 a8 12 3c 37 2f 45 36 37
       1.1210017e-05 1.0864153e-05
