swastik_web/Learning&Experiments/PytorchTutorials/pytorch lightning/dashboard/mnist_clsfy/version_1.1/checkpoints/epoch=2-step=1125-v2.ckpt (torch, 484079 bytes, 12 tensors)

fc1.weight f4 [50, 784]
0	0xb98c3000	-0.00026738644
1	0x3c9cf2b6	0.019158702
2	0xbcf0ccac	-0.02939447
3	0xbcd75093	-0.026283538
4	0xbc615ece	-0.013755513
5	0x3c1ce910	0.009577051
6	0xba397f40	-0.00070761517
7	0x3ce7fa12	0.028317485
8	0xbb4fb630	-0.0031694286
9	0x3c1ad610	0.009450451
10	0xbc30d67c	-0.010793325
11	0xbbe609a4	-0.007020192
12	0xbd75d77d	-0.06001996
13	0xbd471eae	-0.048613243
14	0x3c6527d9	0.013986551
15	0x3cd1d479	0.02561401
16	0x3c6753dc	0.014119115
17	0x3caf8cae	0.021429386
18	0xbcc658a0	-0.024212182
19	0xbc7eced8	-0.015552245
20	0x3c5488b0	0.012972042
21	0x3cf2f2a2	0.029656712
22	0xbbf0d854	-0.007350007
23	0x3cdaef46	0.026725423
24	0xbbbca170	-0.0057565495
25	0x3b77aa60	0.003779076
26	0x3d04754f	0.032338437
27	0xbd07b476	-0.033131085
28	0xbcb82f50	-0.022483498
29	0xbc14234a	-0.009041617
30	0xbc6416b2	-0.013921427
31	0x3cfcc82e	0.030857172
32	0xbd2268de	-0.03965079
33	0xbf1b6920	-0.60707283
34	0xbf014d3d	-0.5050848
35	0xbebb6cf5	-0.36606565
36	0xbeca89ab	-0.39558157
37	0xbf190ee7	-0.59788364
38	0xbf2b2de7	-0.66866916
39	0xbe93176b	-0.28728804
40	0xbf387dda	-0.72067034
41	0xbe183a8c	-0.14866084
42	0x3e93b8ec	0.28852022
43	0xbf8382de	-1.0274312
44	0xbf593a46	-0.84854543
45	0xbf41f0f3	-0.75758284
46	0xbe44a863	-0.1920486
47	0xbec4b875	-0.3842198
48	0xbee4995c	-0.44648254
49	0xbefb2639	-0.490526
50	0xbf1b19c6	-0.605862
51	0xbf0ff3ed	-0.56231576
52	0x3c683b98	0.0141743645
53	0x3b9e18e8	0.0048247464
54	0x3cc42a48	0.023945943
55	0xbcac444a	-0.021028657
56	0x3bda1368	0.0066551454
57	0xbce2d50e	-0.027689483
58	0xbde47c60	-0.11156535
59	0xbf1512f1	-0.5823203
60	0xbf36a9bd	-0.7135275
61	0xbf322edf	-0.6960277
62	0xbeae27cf	-0.34014747
63	0xbf43b377	-0.76445717
64	0xbf29f6ea	-0.66392386
65	0x3f15bcfb	0.58491486
66	0xbe82abf6	-0.2552182
67	0xbf85ef33	-1.0463623
68	0xbf747365	-0.9548858
69	0xbf5c4f2b	-0.860583
70	0xbfa28739	-1.2697517
71	0xbfc43790	-1.5329456
72	0xbfb924ba	-1.4464333
73	0xbf43e4b7	-0.76520866
74	0xbf5207f2	-0.82043374
75	0xbec36b0a	-0.38167602
76	0x3bd5c054	0.0065231714
77	0x3f25a75b	0.6470849
78	0x3f0828ba	0.53187144
79	0xbf4da90a	-0.8033606
80	0xbf314106	-0.6923984
81	0xbeb423e0	-0.3518362
82	0x3cde75a6	0.027155709
83	0xbd11ec92	-0.035626
84	0x3bdb0b78	0.006684717
85	0xbbc52578	-0.0060164295
86	0xbdb14e03	-0.08657458
87	0xbf7c95de	-0.9866618
88	0xbf54d7bc	-0.83141685
89	0x3f20ac3c	0.6276281
90	0xbdceccdc	-0.100976676
91	0xbe391184	-0.18073088
92	0xbed58e67	-0.41710207
93	0xbe8851be	-0.26624864
94	0x3e0b9615	0.1363147
95	0x3ecc2232	0.3986984
96	0xbdd653e4	-0.104652196
97	0xbd934dd3	-0.07192578
98	0xbca7743d	-0.020441169
99	0xbf179762	-0.59215367
100	0xbf40093d	-0.75014096
101	0xbf2da9f4	-0.6783745
102	0xbf7a3a85	-0.97745544
103	0xbf20bcab	-0.62787884
104	0xbecb4d2e	-0.3970732
105	0xbe3ec476	-0.18629631
106	0xbeb7879d	-0.35845652
107	0xbf340f31	-0.7033568
108	0xbf471456	-0.77765405
109	0x3d2796a9	0.040915165
110	0xbd5f0653	-0.05444939
111	0x3cad9af8	0.021192059
112	0xbcb20a8a	-0.021733541
113	0xbb9efb4a	-0.0048517333
114	0xbdd93ede	-0.10607694
115	0xbebc87d0	-0.36822367
116	0x3e2bb4e9	0.1676823
117	0xbe5ffbbe	-0.21873376
118	0xbe18abef	-0.14909337
119	0x3f3aef9e	0.73021877
120	0x3e3b2881	0.1827717
121	0x3f0dd1a7	0.5539803
122	0x3eedf0ba	0.46472722
123	0x3d802d0a	0.062585905
124	0x3e639301	0.22224046
125	0x3f29cca3	0.66327876
126	0xbc92eac6	-0.017934214
127	0xbec78c5a	-0.38974267
128	0xbed23b5c	-0.41060913
129	0xbca1f3ca	-0.019769568
130	0xbe5ea937	-0.21744238
131	0xbed441b5	-0.4145638
132	0x3e2ba61f	0.16762589
133	0xbed273ed	-0.4110407
134	0xbeac03de	-0.335967
135	0x3e887720	0.26653385
136	0x3f79722d	0.97439843
137	0x40029376	2.0402503
138	0xbf767733	-0.96275634
139	0xbc834a52	-0.01602665
140	0x3d0a918f	0.03383022
141	0x3cb9cc9a	0.02268057
142	0x3f0006ec	0.5001056
143	0xbd4433e1	-0.047901038
144	0x3e8869ec	0.26643312
145	0xbdeb7b64	-0.11498144
146	0x3d80a799	0.06281967
147	0x3e527613	0.20552854
148	0x3f4f37e0	0.80944633
149	0x3f7059ae	0.9388684
150	0x3ee6e19e	0.45094007
151	0x3dae21e2	0.085025564
152	0x3d5d0f40	0.05396962
153	0x3e7fade1	0.24968673
154	0xbe04cf68	-0.12969744
155	0xbe46b572	-0.19405153
156	0xbe4bbde7	-0.19896661
157	0xbea9d35a	-0.3316906
158	0xbea7e951	-0.32795194
159	0xbe96c6e2	-0.2944861
160	0xbe916220	-0.28395176
161	0xbe9f9c7d	-0.3117408
162	0xbec4c29d	-0.38429728
163	0x3ec8dcc5	0.39230934
164	0x3f02be0b	0.5107123
165	0x3f037b99	0.5136047
166	0xbf085e0b	-0.532685
167	0xbd71360a	-0.058889426
168	0xbd03aa6b	-0.032144945
169	0xbd69dff4	-0.057098344
170	0xbe30c1cd	-0.17261429
171	0xbd9961fe	-0.07489394
172	0xbaedf4e1	-0.0018154645
173	0x3f1d4eee	0.6144856
174	0x3ed4a681	0.41533282
175	0x3eb46e0d	0.35240212
176	0x3f185075	0.5949777
177	0x3cd5339e	0.02602559
178	0xbc9c7b23	-0.019101685
179	0xbcccac39	-0.024984466
180	0xbdcd5d2c	-0.10027537
181	0xbe50aab0	-0.20377612
182	0xbdaf85e2	-0.08570458
183	0xbe9e16be	-0.30876726
184	0xbe0df4c7	-0.13862906
185	0xbe0c3909	-0.13693632
186	0xbe51dffa	-0.20495597
187	0x3dcd635d	0.10028718
188	0x3e800b76	0.25008744
189	0xbe6657da	-0.2249445
190	0x3c08a551	0.008340196
191	0x3f655b8e	0.89592826
192	0x3e73e8e3	0.23819308
193	0xbe65f13c	-0.22455305
194	0xbeae0e17	-0.33995125
195	0xbde2d074	-0.110749155
196	0xbc8e6deb	-0.017386397
197	0xbe72ab73	-0.23698215
198	0x3f0bbbe2	0.5458356
199	0x3ed1eb33	0.40999755
200	0x3e9b7ced	0.30368748
201	0x3ed82786	0.42217654
202	0x3f25a608	0.6470647
203	0x3d58b8b2	0.052910514
204	0xbe815212	-0.25257927
205	0xbd7db8d7	-0.061943855
206	0xbccb02f8	-0.024781689
207	0xb9199b60	-0.00014649099
208	0x3e1bcf37	0.15215765
209	0x3e14e53a	0.14540568
210	0xbe98b287	-0.29823706
211	0xbea5201f	-0.3225107
212	0xbe77540b	-0.24153154
213	0xbd167fdc	-0.03674303
214	0xbb8d74ca	-0.004316901
215	0x3d4eadbc	0.050458655
216	0x3beada8b	0.0071671656
217	0x3effcb6b	0.49959883
218	0x3f0e0788	0.5548024
219	0xbce82380	-0.02833724
220	0x3ee7a151	0.45240262
221	0x3efb0985	0.490307
222	0x3ed9021e	0.42384428
223	0xbd8ebf96	-0.06970136
224	0x3cc2a3d5	0.023759762
225	0x3e84b449	0.25918797
226	0x3fab4e16	1.3383205
227	0x3e8bbc6d	0.27292195
228	0x3e375bc3	0.17906098
229	0x3ea5f636	0.32414407
230	0x3e8fecec	0.28110445
231	0xbd1c97b4	-0.038230613
232	0x3dc3d8b0	0.09562814
233	0x3ed6f27a	0.4198187
234	0x3e70bb66	0.23508987
235	0xbb3b6917	-0.0028596574
236	0xbe8b6001	-0.27221683
237	0xbeadc48a	-0.3393901
238	0xbeb79375	-0.35854688
239	0xbe2ebd0f	-0.17064308
240	0x3d0caf8f	0.034347113
241	0x3d975df3	0.07390966
242	0x3d57f6c4	0.05272557
243	0xbdeae1eb	-0.11468872
244	0xbe2429be	-0.16031548
245	0x3d6af8de	0.057366244
246	0xbee9a87d	-0.4563636
247	0x3cee7632	0.029109094
248	0x3eac7616	0.33683842
249	0x3edbea53	0.42952213
250	0x3d8a5036	0.0675358
251	0xbd780aea	-0.060557283
252	0x3f225ea0	0.63425636
253	0x3ec996b0	0.39372778
254	0x3f290cdb	0.6603524
255	0x3dcd554f	0.10026037

fc1.bias f4 [50]
0	0x3d2ee3b0	0.04269761
1	0xbd920e8f	-0.07131683
2	0xbeaa0eba	-0.3321436
3	0x3c8399b4	0.016064502
4	0x3d0aacc2	0.03385616
5	0x3de8d894	0.11369434
6	0xbdaf3b15	-0.08556191
7	0x3d284a7d	0.041086663
8	0x3e0974a4	0.13423401
9	0xbe2d24c6	-0.16908559
10	0xbf2f31c6	-0.68435323
11	0xbe827efd	-0.2548751
12	0xbe9b9568	-0.30387425
13	0x3d358917	0.044320192
14	0xbddf456e	-0.109019145
15	0xbed4769f	-0.4149675
16	0xbf4fadd6	-0.8112463
17	0xbeabc1e8	-0.33546376
18	0x3ebbb43e	0.3666095
19	0xbd9996f7	-0.074994974
20	0x3f2794ce	0.6546143
21	0xbe8967c3	-0.26836976
22	0xbedf4990	-0.4361081
23	0xbe9ea007	-0.30981466
24	0xbe9175a0	-0.28410053
25	0xbde50faa	-0.11184628
26	0x3f1dcf61	0.6164456
27	0x3f49f97b	0.788963
28	0x3f0a007f	0.53907007
29	0xbee6352d	-0.44962445
30	0xbecdc91e	-0.40192503
31	0x3eb6a80e	0.3567509
32	0x3ea6515e	0.32483953
33	0xbda4ccec	-0.08046898
34	0xbe9c804f	-0.30566642
35	0x3f9872b7	1.1910008
36	0xbdf3efe7	-0.11910992
37	0x3e98cf6a	0.29845744
38	0x3e35664c	0.17714804
39	0x3f130666	0.5743164
40	0xbdeadb5a	-0.11467619
41	0xbe253c09	-0.16136183
42	0xbdfe7047	-0.12423759
43	0xbe848cdd	-0.2588872
44	0xbea8db52	-0.32979828
45	0x3c0de8b8	0.0086614415
46	0x3d57f624	0.052724972
47	0xbefb0f2e	-0.4903502
48	0x3ed0adfc	0.4075774
49	0xbdbf8490	-0.09351456

fc2.weight f4 [10, 50]
0	0x3e000170	0.12500548
1	0xbec11343	-0.37710008
2	0xbf96cc30	-1.1781063
3	0xbf617e17	-0.8808302
4	0xbe01c200	-0.12671661
5	0xbf4b83a6	-0.79497755
6	0x3ee47a1b	0.4462441
7	0xbd507ba5	-0.050899167
8	0xbe0e15aa	-0.13875452
9	0x3e885e2e	0.26634353
10	0x3e89e09d	0.2692918
11	0xbe859874	-0.26092875
12	0xbdc2a5bb	-0.09504267
13	0xbe418d00	-0.18901443
14	0x3edb4785	0.42828003
15	0x3e5efe7a	0.21776763
16	0x3eb9bfd9	0.3627918
17	0xbeb2274b	-0.34795603
18	0x3e0d6752	0.13808945
19	0xbeaa9e00	-0.3332367
20	0xbe0bea0f	-0.13663505
21	0x3e93db27	0.28878137
22	0xbf73d438	-0.95245695
23	0xbede443e	-0.4341144
24	0xbf52e434	-0.8237946
25	0xbdc77e24	-0.09740856
26	0x3e4ef98e	0.20212385
27	0x3f0a6262	0.5405637
28	0xbeda0ddf	-0.42588708
29	0xbe977b82	-0.29586416
30	0xbe82ce15	-0.25547853
31	0x3e221136	0.15826878
32	0xbe4b4289	-0.198496
33	0x3e256c1f	0.16154526
34	0xbe7ebb72	-0.24876192
35	0xbf346dd7	-0.704801
36	0x3e27a5c0	0.16371822
37	0xbf1da6ea	-0.61582816
38	0xbc2b295b	-0.010446872
39	0x3d5f4189	0.05450586
40	0x3d52d13a	0.051469065
41	0xbc0708a1	-0.008241803
42	0xbf4582f5	-0.7715295
43	0x3dcdc0ac	0.10046515
44	0x3ea4acc5	0.32163063
45	0xbf43a680	-0.76425934
46	0xbf86a917	-1.0520352
47	0xbe06a55d	-0.13149019
48	0x3eaf4b7d	0.3423728
49	0xbf2e91c1	-0.6819115
50	0xbf532f01	-0.824936
51	0x3f132d8c	0.57491374
52	0xbf56c87c	-0.83899665
53	0xbe6f1c3a	-0.23350611
54	0xbe09f893	-0.1347373
55	0x3e8f08fe	0.27936548
56	0xbf9beddf	-1.2181967
57	0x3eb734fd	0.35782614
58	0xbe72c875	-0.23709281
59	0x3e9fef5f	0.31237313
60	0x3e2ffb88	0.17185795
61	0xbd17ca91	-0.037058417
62	0xbf9f932c	-1.2466788
63	0x3eaa3fdd	0.3325185
64	0xbe8b4b2b	-0.27205786
65	0xbdde0e3b	-0.10842558
66	0xbec4c74b	-0.38433298
67	0x3f06a0a3	0.5258886
68	0x3e813f42	0.25243574
69	0x3e5d4392	0.21607807
70	0x3d147429	0.03624359
71	0xbd625216	-0.055254065
72	0xbece0a04	-0.40242016
73	0x3c9331e7	0.017968131
74	0x3e36930b	0.1782953
75	0xbe50e1a1	-0.2039857
76	0xbf137dff	-0.5761413
77	0x3f15ff23	0.5859243
78	0xbe84ed25	-0.25962177
79	0x3eb84d44	0.3599645
80	0xbc008892	-0.007845061
81	0xbfc639e6	-1.5486419
82	0x3f1d5fc5	0.6147426
83	0xbe15ab96	-0.14616236
84	0x3d614eae	0.055006675
85	0xbf03148c	-0.5120323
86	0xbd14860b	-0.036260646
87	0xbccd5530	-0.025065035
88	0xbf402a56	-0.750646
89	0xba57f6d5	-0.000823838
90	0xbe89380f	-0.26800582
91	0x3e807328	0.25087857
92	0x3e6b975c	0.23006958
93	0xbe48d5b4	-0.19612771
94	0xbf4eab18	-0.8072982
95	0xbee625e0	-0.4495077
96	0x3eba50f6	0.36389893
97	0xbeb157f3	-0.34637412
98	0xbebb41f2	-0.3657375
99	0xbe8004c3	-0.25003633
100	0x3d88e78f	0.06684791
101	0xbbec1a78	-0.0072053038
102	0xbf8e0b4c	-1.1097198
103	0x3f150b1d	0.5822008
104	0xbf084e68	-0.5324464
105	0xbd80bd91	-0.06286157
106	0x3da771ae	0.081759796
107	0x3e838f5b	0.2569531
108	0xbed80b18	-0.42195964
109	0xbec06216	-0.37574834
110	0x3e0a6600	0.13515472
111	0x3ea51cc3	0.32248506
112	0xbec9ea3e	-0.39436525
113	0x3e5e9bae	0.21739075
114	0x3d4e4d1e	0.050366513
115	0xbd5db472	-0.054127164
116	0x3d559267	0.052141573
117	0xbefa9462	-0.48941332
118	0xbe96178c	-0.2931484
119	0x3ee34e9f	0.4439592
120	0xbf6dcaa4	-0.9288733
121	0x3e9e2538	0.3088777
122	0xbf18b6d2	-0.5965396
123	0x3dfa61b4	0.12225667
124	0x3e3c65bc	0.18398184
125	0xbe988629	-0.29789856
126	0x3ed52330	0.41628408
127	0x3eccdbe0	0.400115
128	0xbe6342c2	-0.22193435
129	0x3e77b1a6	0.24188861
130	0x3db3e925	0.08784703
131	0xbe97629c	-0.2956742
132	0xbe055ef0	-0.13024497
133	0x3db17345	0.08664564
134	0xbd51ba24	-0.05120291
135	0xbdc201cb	-0.09472998
136	0x3e248b03	0.16068654
137	0xbf073069	-0.52808243
138	0xbf279458	-0.6546073
139	0xbf5b28a8	-0.8560891
140	0xbd841240	-0.064487934
141	0xbec46ad2	-0.38362747
142	0x3f01cc5a	0.5070244
143	0xbd1a3c40	-0.037655115
144	0xbe23897d	-0.15970416
145	0xbe0cda93	-0.13755254
146	0x3eea6cf5	0.45786253
147	0xbce586e5	-0.028018424
148	0x3d850bcd	0.064963914
149	0xbeab67f1	-0.33477738
150	0xbf5c2387	-0.8599171
151	0x3e75976c	0.23983544
152	0x3ebd6fef	0.3699946
153	0xbcfe57f7	-0.031047804
154	0xbe5d5a89	-0.21616568
155	0xbe56c85e	-0.20974872
156	0xbf1bbd6a	-0.608359
157	0x3d3159b6	0.043298446
158	0xbd0a5ff3	-0.03378291
159	0xbedd4286	-0.43214816
160	0xbd00dab4	-0.03145857
161	0x3ef84b18	0.48494792
162	0xbed47b1d	-0.41500178
163	0xbd4d374a	-0.050101556
164	0xbe558be3	-0.20854144
165	0x3e0de4a4	0.1385675
166	0x3e2bcd08	0.16777432
167	0x3e8284a2	0.25491816
168	0xbee7bc67	-0.45260927
169	0x3e8509c4	0.25984013
170	0xbf604458	-0.87604284
171	0xbda464d9	-0.08027048
172	0x3ed64d6e	0.4185595
173	0x3d7ca497	0.061680403
174	0x3d723dc6	0.059140943
175	0x3e4a1a6b	0.1973664
176	0xbe92863d	-0.2861804
177	0xbce7ac8f	-0.028280525
178	0xbf322097	-0.6958098
179	0xbdecfe65	-0.115719594
180	0x3e8a239a	0.26980287
181	0x3e530db5	0.20610698
182	0xbde71bea	-0.11284621
183	0xbd84d8f6	-0.064866945
184	0x3ebee68e	0.37285274
185	0x3d0ef2f2	0.03489966
186	0x3ea82d0c	0.32846868
187	0xbeec4ca8	-0.46152234
188	0xbe7265dc	-0.23671669
189	0x3dbf946a	0.093544796
190	0xbed5553e	-0.41666597
191	0xbe2b2171	-0.16711976
192	0x3e76d81d	0.24105878
193	0x3da0d244	0.07852605
194	0xbe8e9da1	-0.27854636
195	0x3f141b48	0.5785413
196	0x3d0bd897	0.034142103
197	0x3e8c01c7	0.27345106
198	0xbde654bc	-0.112466305
199	0xbedcf4ba	-0.43155462
200	0x3e866c16	0.26254338
201	0x3dc97a13	0.09837737
202	0x3eb1a976	0.346996
203	0xbeca4bc0	-0.39510918
204	0x3f128099	0.57227474
205	0x3eac2a9c	0.33626258
206	0x3c4160e8	0.011802889
207	0x3e46f5c8	0.19429696
208	0xbed5282d	-0.41632214
209	0x3edbd54a	0.42936164
210	0xbe268415	-0.16261323
211	0xbf333a07	-0.7001042
212	0x3e4923a4	0.19642502
213	0xbdf0e564	-0.11762503
214	0xbf60e4b7	-0.8784899
215	0xbf01abac	-0.50652575
216	0x3be4b41b	0.006979478
217	0xbda6a86c	-0.08137593
218	0x3e757618	0.2397083
219	0xbe87aa76	-0.2649724
220	0x3e41835e	0.18897769
221	0xbec578d1	-0.38568738
222	0x3d4bb7b3	0.049735736
223	0x3dede113	0.11615195
224	0xbf34c84a	-0.70618117
225	0xbd84d762	-0.064863935
226	0x3ec3ea90	0.38264894
227	0xbf056e3a	-0.5212132
228	0x3f0f76bd	0.56040555
229	0xbda4a846	-0.08039908
230	0x3e3c179f	0.18368386
231	0xbed62399	-0.41824034
232	0x3f15d3d6	0.5852636
233	0xbf1a6775	-0.6031411
234	0xbfa1699d	-1.2610356
235	0x3d8ef9b5	0.069812216
236	0xbebdc744	-0.3706609
237	0x3e5da4f3	0.21644954
238	0xbf1e5749	-0.61851937
239	0xbee75bee	-0.45187324
240	0x3ebf5390	0.3736844
241	0x3e7a1f41	0.24425985
242	0xbf20e837	-0.6285433
243	0xbf2c729d	-0.67362386
244	0xbe4b1fed	-0.19836397
245	0xbf07b25a	-0.5300652
246	0xbf4c94bf	-0.7991447
247	0x3c4a84be	0.01236075
248	0x3b9b89b1	0.0047466387
249	0xbf359e6e	-0.7094487
250	0xbf13bb1f	-0.577074
251	0xbd594fb4	-0.053054526
252	0x3ebda450	0.37039423
253	0xbf0199c9	-0.5062528
254	0xbf184b57	-0.5948996
255	0xbeef187d	-0.4669837

fc2.bias f4 [10]
0	0xbe05a021	-0.13049366
1	0xbe54f85c	-0.20797867
2	0xbdbc7c84	-0.09203437
3	0xbeb9e3aa	-0.36306506
4	0x3f02df45	0.5112193
5	0xbdc55c11	-0.09636701
6	0xbe1dd797	-0.15414272
7	0xbf0d9b63	-0.55315226
8	0x3f640800	0.8907471
9	0x3e7d4a02	0.24735263

exp_avg f4 [50, 784]
0	0x00000000	0.0
1	0x00000000	0.0
2	0x00000000	0.0
3	0x00000000	0.0
4	0x00000000	0.0
5	0x00000000	0.0
6	0x00000000	0.0
7	0x00000000	0.0
8	0x00000000	0.0
9	0x00000000	0.0
10	0x00000000	0.0
11	0x00000000	0.0
12	0x00000000	0.0
13	0x00000000	0.0
14	0x00000000	0.0
15	0x00000000	0.0
16	0x00000000	0.0
17	0x00000000	0.0
18	0x00000000	0.0
19	0x00000000	0.0
20	0x00000000	0.0
21	0x00000000	0.0
22	0x00000000	0.0
23	0x00000000	0.0
24	0x00000000	0.0
25	0x00000000	0.0
26	0x00000000	0.0
27	0x00000000	0.0
28	0x00000000	0.0
29	0x00000000	0.0
30	0x00000000	0.0
31	0x00000000	0.0
32	0x00000000	0.0
33	0x1a514b8a	4.3281207e-23
34	0x1c845807	8.757782e-22
35	0x216914bc	7.897091e-19
36	0x2270c5d9	3.2630805e-18
37	0x2c3b5ca8	2.6625733e-12
38	0x2c8bfad2	3.9784643e-12
39	0x2b8347f3	9.32808e-13
40	0xa8966a7c	-1.6699526e-14
41	0xa7e3c58d	-6.321934e-15
42	0x2874cd33	1.3589216e-14
43	0x28004f71	7.1226535e-15
44	0x24d14a58	9.0765245e-17
45	0x18ef59a7	6.1870578e-24
46	0x00000000	0.0
47	0x00000000	0.0
48	0x00000000	0.0
49	0x00000000	0.0
50	0x00000000	0.0
51	0x00000000	0.0
52	0x00000000	0.0
53	0x00000000	0.0
54	0x00000000	0.0
55	0x00000000	0.0
56	0x00000000	0.0
57	0x00000000	0.0
58	0x00000000	0.0
59	0x00000000	0.0
60	0x1244ae92	6.206187e-28
61	0x1daafa4f	4.525744e-21
62	0xae7c6710	-5.7389704e-11
63	0xad99d0f6	-1.7486883e-11
64	0x2d876c2b	1.539576e-11
65	0x3240d392	1.1223976e-08
66	0x33a19b54	7.525401e-08
67	0xb384c44e	-6.1824366e-08
68	0x361cd4c5	2.336966e-06
69	0x36361e9b	2.7137928e-06
70	0x35714ca2	8.989101e-07
71	0x34dfddd3	4.1698385e-07
72	0x33bb3352	8.717201e-08
73	0x33946aa8	6.911188e-08
74	0x32532bea	1.2291801e-08
75	0xb2d34e71	-2.4599304e-08
76	0xb223a0f7	-9.524448e-09
77	0xb20bcf37	-8.13798e-09
78	0xb31dfc13	-3.678367e-08
79	0xb1bc6326	-5.482792e-09
80	0x12344bd2	5.689144e-28
81	0x00000000	0.0
82	0x00000000	0.0
83	0x00000000	0.0
84	0x00000000	0.0
85	0x00000000	0.0
86	0x00000000	0.0
87	0x3162b484	3.298994e-09
88	0x955c53fe	-4.4494904e-26
89	0x35ea988b	1.7478754e-06
90	0x361a2d55	2.2974175e-06
91	0x351c9f1a	5.834605e-07
92	0x36d3eedf	6.3160983e-06
93	0x3784ae81	1.5816886e-05
94	0x3854bf26	5.072276e-05
95	0x38eaa3e3	0.00011188516
96	0x398125fc	0.00024633098
97	0x394bf426	0.00019450541
98	0x385bd7de	5.241471e-05
99	0x38056a4b	3.1808664e-05
100	0xb708422e	-8.12164e-06
101	0xb7baa601	-2.225023e-05
102	0xb814f3f8	-3.5513163e-05
103	0xb7e93fbe	-2.7805447e-05
104	0xb7e7b196	-2.762004e-05
105	0xb6bb5204	-5.582582e-06
106	0xb49349bd	-2.7434535e-07
107	0xb470b92a	-2.2419104e-07
108	0xb251a3e3	-1.2202665e-08
109	0xabed58a3	-1.6864464e-12
110	0x00000000	0.0
111	0x00000000	0.0
112	0x00000000	0.0
113	0x00000000	0.0
114	0x00000000	0.0
115	0x317785f1	3.6019367e-09
116	0xb42ffa70	-1.6389254e-07
117	0x358e899a	1.0619872e-06
118	0x37ef71b1	2.8543962e-05
119	0x3898396c	7.2586205e-05
120	0x38fcf7a8	0.00012062426
121	0x38f134a2	0.00011501579
122	0x38b8e550	8.8165165e-05
123	0x396d0040	0.00022602174
124	0xb81bb445	-3.712277e-05
125	0xb9b7ba27	-0.00035043174
126	0xba1a6c36	-0.00058907585
127	0xba2c6fe3	-0.0006577952
128	0xba03cb5d	-0.0005027557
129	0xb9a6af48	-0.00031792582
130	0xb7d6cb70	-2.5605521e-05
131	0x38819677	6.1792256e-05
132	0x38c4ead1	9.389746e-05
133	0x38f1ff11	0.00011539285
134	0x373d3d90	1.12796115e-05
135	0x36c50a60	5.8722653e-06
136	0x36d2547d	6.2683234e-06
137	0x35f51b3f	1.8261852e-06
138	0x2182e6d2	8.87024e-19
139	0x00000000	0.0
140	0x00000000	0.0
141	0x00000000	0.0
142	0xa8d78c84	-2.3930734e-14
143	0xaebf2c75	-8.6935716e-11
144	0xb58306b3	-9.76221e-07
145	0x3893ce11	7.047889e-05
146	0x3902ac9b	0.00012462067
147	0x391b9329	0.00014836773
148	0x37dafd57	2.6105596e-05
149	0xb98c9ece	-0.000268212
150	0xb9764bb9	-0.00023488597
151	0xb997c5b3	-0.00028948262
152	0xba41d6f7	-0.0007394398
153	0xba8fdd48	-0.0010975981
154	0xba8d1dbd	-0.0010766309
155	0xba5ee9ab	-0.0008503447
156	0xba3b987a	-0.00071562047
157	0xba0f83b6	-0.00054746435
158	0xb974573d	-0.00023302152
159	0x390082a8	0.00012255704
160	0x38f4a609	0.00011665753
161	0x38f27850	0.00011561869
162	0x36bc5b9f	5.6135027e-06
163	0x37527b42	1.2545674e-05
164	0x37357bc9	1.0817262e-05
165	0x37198292	9.149911e-06
166	0x2691cc86	1.0116832e-15
167	0x10a59a4d	6.531876e-29
168	0x00000000	0.0
169	0x00000000	0.0
170	0xaccc492c	-5.8061524e-12
171	0x30478ca3	7.2595635e-10
172	0xb54de2bc	-7.6698393e-07
173	0x3900c0f1	0.00012278908
174	0x36dcd4cf	6.581285e-06
175	0xb94a3ba9	-0.00019286446
176	0xb99b1c7e	-0.00029585132
177	0xb999fb75	-0.00029369784
178	0xb97a09a2	-0.00023845446
179	0xba65d3a8	-0.0008767196
180	0xba8bd12b	-0.0010667195
181	0xba720950	-0.0009232955
182	0xba4cc0d5	-0.00078107166
183	0xba3ba693	-0.00071583054
184	0xba3df0b3	-0.0007245645
185	0xb9e8ba36	-0.00044389226
186	0xb9feeecf	-0.00048624582
187	0xb95dc933	-0.00021151155
188	0x3952a744	0.00020089472
189	0x38da0fbd	0.000103979815
190	0xb7ececba	-2.8243627e-05
191	0xb85abbb6	-5.215007e-05
192	0xb5b8ef54	-1.3778722e-06
193	0x37562fe4	1.2766544e-05
194	0x367977f1	3.7173706e-06
195	0x21194b59	5.193814e-19
196	0x1087a2b8	5.349882e-29
197	0x20a7ab87	2.8404408e-19
198	0xae21fdd4	-3.6832606e-11
199	0xb324a8d4	-3.8337774e-08
200	0xb8198412	-3.6601043e-05
201	0xb946ae24	-0.00018947624
202	0xb99edfc0	-0.00030302815
203	0xb99db5b1	-0.00030080744
204	0xb9c6cf56	-0.0003791998
205	0xb98ab94d	-0.0002645947
206	0xba48508e	-0.0007641398
207	0xba98a219	-0.0011644989
208	0xba5ed014	-0.0008499634
209	0xb9815059	-0.0002466466
210	0xb846c1e5	-4.7387457e-05
211	0xb7ac00bd	-2.0504342e-05
212	0xb99d9866	-0.0003005892
213	0xb9eefa70	-0.00045581488
214	0xba13f9ff	-0.00056448573
215	0xb9ef3f49	-0.00045632783
216	0x38739324	5.807275e-05
217	0x39233b14	0.000155669
218	0x3853a96e	5.0464114e-05
219	0x37e62e57	2.7439715e-05
220	0xb7f55ba5	-2.9248951e-05
221	0x372f4b2a	1.0448313e-05
222	0x36e3a118	6.783881e-06
223	0x21a1b1a8	1.095681e-18
224	0x1189ccd4	2.1741024e-28
225	0xa731ed11	-2.4692198e-15
226	0xafcc4c1f	-3.716147e-10
227	0x362b9ab8	2.5571044e-06
228	0xb89b06a2	-7.3922114e-05
229	0xb9e10183	-0.0004291647
230	0xb9b7c485	-0.00035050898
231	0xb9985ae3	-0.00029059415
232	0xb91e539a	-0.00015099198
233	0xb889b2b8	-6.565958e-05
234	0xba2f05cd	-0.00066765846
235	0xba2f35ba	-0.0006683726
236	0xb94551ea	-0.000188179
237	0x39372e12	0.00017469403
238	0x38473d20	4.7502224e-05
239	0xb9501084	-0.00019842578
240	0xb9efe425	-0.00045755613
241	0xba203fd8	-0.0006113029
242	0xba1638ea	-0.0005730527
243	0xba0b6bc2	-0.00053184864
244	0xba0d9767	-0.0005401284
245	0x3885c063	6.377769e-05
246	0xb887ac79	-6.469427e-05
247	0xb8c1fdd8	-9.250239e-05
248	0xb88988b0	-6.558129e-05
249	0xb69382f4	-4.3961863e-06
250	0x34e3eee4	4.245586e-07
251	0x11a9b8d0	2.6777398e-28
252	0xa619205a	-5.3126383e-16
253	0xa6134dee	-5.1106485e-16
254	0x35e758fe	1.7236741e-06
255	0x36855f87	3.9748297e-06

exp_avg_sq f4 [50, 784]
0	0x00000000	0.0
1	0x00000000	0.0
2	0x00000000	0.0
3	0x00000000	0.0
4	0x00000000	0.0
5	0x00000000	0.0
6	0x00000000	0.0
7	0x00000000	0.0
8	0x00000000	0.0
9	0x00000000	0.0
10	0x00000000	0.0
11	0x00000000	0.0
12	0x00000000	0.0
13	0x00000000	0.0
14	0x00000000	0.0
15	0x00000000	0.0
16	0x00000000	0.0
17	0x00000000	0.0
18	0x00000000	0.0
19	0x00000000	0.0
20	0x00000000	0.0
21	0x00000000	0.0
22	0x00000000	0.0
23	0x00000000	0.0
24	0x00000000	0.0
25	0x00000000	0.0
26	0x00000000	0.0
27	0x00000000	0.0
28	0x00000000	0.0
29	0x00000000	0.0
30	0x00000000	0.0
31	0x00000000	0.0
32	0x00000000	0.0
33	0x1253d85c	6.6846544e-28
34	0x2087d96b	2.3013765e-19
35	0x210ae229	4.705554e-19
36	0x1ec05081	2.0362086e-20
37	0x23b3b548	1.9483994e-17
38	0x2604f06a	4.612252e-16
39	0x26f88b97	1.7246293e-15
40	0x2b167870	5.3457846e-13
41	0x2fb6a9fc	3.3226388e-10
42	0x319df195	4.596766e-09
43	0x2659d207	7.557164e-16
44	0x2623b2a0	5.6794067e-16
45	0x2442e177	4.225802e-17
46	0x1d90e971	3.8357855e-21
47	0x00000000	0.0
48	0x00000000	0.0
49	0x00000000	0.0
50	0x00000000	0.0
51	0x00000000	0.0
52	0x00000000	0.0
53	0x00000000	0.0
54	0x00000000	0.0
55	0x00000000	0.0
56	0x00000000	0.0
57	0x00000000	0.0
58	0x00000000	0.0
59	0x00000000	0.0
60	0x25fb4474	4.3587945e-16
61	0x26863101	9.3114e-16
62	0x2205546a	1.806955e-18
63	0x281cc464	8.702325e-15
64	0x29876964	6.013487e-14
65	0x314d90ea	2.99138e-09
66	0x30019454	4.7140714e-10
67	0x2f7b49bc	2.2854513e-10
68	0x315c9ad8	3.2102232e-09
69	0x32aaef55	1.989944e-08
70	0x32a279fb	1.8914752e-08
71	0x311f1195	2.314754e-09
72	0x324150a8	1.1252418e-08
73	0x332fec59	4.096032e-08
74	0x311ef453	2.3130908e-09
75	0x2ac60530	3.5175465e-13
76	0x2aab08aa	3.0381714e-13
77	0x2e17eda7	3.4544503e-11
78	0x2e2d590e	3.9414742e-11
79	0x28917fbf	1.6153635e-14
80	0x2897332b	1.6786558e-14
81	0x00000000	0.0
82	0x00000000	0.0
83	0x00000000	0.0
84	0x00000000	0.0
85	0x00000000	0.0
86	0x00000000	0.0
87	0x262966df	5.877307e-16
88	0x272e7a66	2.4213703e-15
89	0x300722f4	4.9162385e-10
90	0x312ed3db	2.5440758e-09
91	0x316da959	3.4584302e-09
92	0x328ed222	1.6626533e-08
93	0x33510c89	4.8673005e-08
94	0x3389983f	6.407253e-08
95	0x342611f0	1.546648e-07
96	0x3458faff	2.020788e-07
97	0x3492b0ab	2.7323162e-07
98	0x3486068c	2.4964208e-07
99	0x3451a878	1.952593e-07
100	0x3449b1fc	1.8784334e-07
101	0x341189be	1.3554288e-07
102	0x3399bf43	7.159408e-08
103	0x3340d49a	4.4896844e-08
104	0x32852d71	1.5503902e-08
105	0x321b5f9e	9.043928e-09
106	0x328288ad	1.5196145e-08
107	0x3293bb4b	1.7198223e-08
108	0x31caeeae	5.9061085e-09
109	0x2e9f4882	7.243363e-11
110	0x00000000	0.0
111	0x00000000	0.0
112	0x00000000	0.0
113	0x00000000	0.0
114	0x00000000	0.0
115	0x2b7c8567	8.971352e-13
116	0x2ce833dc	6.599594e-12
117	0x31c92add	5.854743e-09
118	0x32313eac	1.0317006e-08
119	0x33a71caa	7.7817575e-08
120	0x344824cc	1.8639838e-07
121	0x34abf6e4	3.203087e-07
122	0x34d9b45e	4.0550634e-07
123	0x35220ea7	6.0371025e-07
124	0x354c08a9	7.6008524e-07
125	0x35896760	1.0237382e-06
126	0x359783fb	1.1288788e-06
127	0x358a7ced	1.0318159e-06
128	0x354ef77f	7.7101134e-07
129	0x350ebd85	5.317491e-07
130	0x34ac4a72	3.2091663e-07
131	0x34438cb3	1.8211976e-07
132	0x33faa2db	1.16711554e-07
133	0x33b6d108	8.513058e-08
134	0x3365c169	5.3494123e-08
135	0x330dea3f	3.3042166e-08
136	0x3288ecde	1.5940198e-08
137	0x31070c40	1.9652049e-09
138	0x2747a312	2.7705198e-15
139	0x00000000	0.0
140	0x00000000	0.0
141	0x00000000	0.0
142	0x21c20920	1.3148367e-18
143	0x2e907da4	6.57068e-11
144	0x308b3806	1.0129504e-09
145	0x32a9f616	1.9786096e-08
146	0x33c8e63a	9.355104e-08
147	0x3472d31e	2.261481e-07
148	0x34f0da44	4.4862293e-07
149	0x3561e892	8.4157466e-07
150	0x35af2a61	1.305085e-06
151	0x35f4076c	1.8181577e-06
152	0x3620f6ef	2.3985592e-06
153	0x363643bf	2.7159547e-06
154	0x362dedb2	2.5917366e-06
155	0x361e84a7	2.3621049e-06
156	0x360262b5	1.9428965e-06
157	0x35cbd267	1.5185914e-06
158	0x3590324c	1.0743474e-06
159	0x352b96f3	6.3922124e-07
160	0x34d15f0d	3.8998442e-07
161	0x346c5092	2.2008524e-07
162	0x33f3a407	1.1345406e-07
163	0x33765f39	5.7362943e-08
164	0x32ab3674	1.9931782e-08
165	0x318a6792	4.028103e-09
166	0x28065a83	7.458121e-15
167	0x1d239ada	2.1652927e-21
168	0x00000000	0.0
169	0x00000000	0.0
170	0x298f77fb	6.371289e-14
171	0x310e9d43	2.0753113e-09
172	0x3396e164	7.0259176e-08
173	0x3478001e	2.3096842e-07
174	0x34e9e8ee	4.356911e-07
175	0x353f25dd	7.1208143e-07
176	0x357ca89c	9.4122674e-07
177	0x35bb9739	1.3976597e-06
178	0x360c27f5	2.0884884e-06
179	0x363d0869	2.816809e-06
180	0x36547db4	3.166363e-06
181	0x365fa173	3.3323565e-06
182	0x364c7096	3.0463902e-06
183	0x36415fc4	2.8814984e-06
184	0x36373d02	2.7304636e-06
185	0x361bd9d7	2.32236e-06
186	0x360584a8	1.989576e-06
187	0x35c64994	1.4773564e-06
188	0x359e1a83	1.1779633e-06
189	0x353afe8d	6.966082e-07
190	0x3481d293	2.4181335e-07
191	0x33db98d5	1.0225782e-07
192	0x32ea82af	2.7300613e-08
193	0x31ac0850	5.006804e-09
194	0x2de50748	2.603752e-11
195	0x238bf7b4	1.5175317e-17
196	0x142e92f6	8.813738e-27
197	0x2eedd6a1	1.0815638e-10
198	0x300024cd	4.6618426e-10
199	0x33a0d0c0	7.488552e-08
200	0x3468d35d	2.1683577e-07
201	0x34cda185	3.8301746e-07
202	0x352ea1a6	6.505528e-07
203	0x35823445	9.700967e-07
204	0x35bc6bb5	1.4038438e-06
205	0x3607acb8	2.0217103e-06
206	0x3634b9db	2.6930272e-06
207	0x36508e5e	3.1077284e-06
208	0x364db1e2	3.0650922e-06
209	0x364c98f2	3.0487395e-06
210	0x36463f9a	2.954132e-06
211	0x3652a58c	3.13888e-06
212	0x364facef	3.0946064e-06
213	0x36408bcd	2.8691604e-06
214	0x363119f5	2.6390164e-06
215	0x3618b390	2.2754284e-06
216	0x35f127cc	1.7967482e-06
217	0x359c5b6f	1.1649516e-06
218	0x35074a6f	5.0399734e-07
219	0x34450a68	1.835084e-07
220	0x33586d9f	5.039112e-08
221	0x319a4e5e	4.490899e-09
222	0x2f3ecc29	1.7352932e-10
223	0x249bb9aa	6.753506e-17
224	0x2c50d969	2.9679265e-12
225	0x2f8b75dd	2.53677e-10
226	0x328f0067	1.6647574e-08
227	0x33b39281	8.361986e-08
228	0x348c969b	2.6186612e-07
229	0x351d6eac	5.8648106e-07
230	0x355411ff	7.900234e-07
231	0x35a5f13f	1.236367e-06
232	0x35f35724	1.8130272e-06
233	0x3626a956	2.4834494e-06
234	0x36540b34	3.1596983e-06
235	0x3653bd58	3.1551663e-06
236	0x36385f27	2.7473523e-06
237	0x362e98b1	2.6016899e-06
238	0x36255ed4	2.4642113e-06
239	0x362dccb8	2.589817e-06
240	0x3641eb6a	2.889627e-06
241	0x365106bb	3.1147345e-06
242	0x364475ad	2.9274772e-06
243	0x362cae35	2.57314e-06
244	0x360b34ee	2.0743423e-06
245	0x35bac0da	1.3914207e-06
246	0x35384a69	6.865362e-07
247	0x34821606	2.423041e-07
248	0x33aa7dcd	7.939125e-08
249	0x321eb0ec	9.237038e-09
250	0x2fe7cc02	4.2163611e-10
251	0x1906ea25	6.974923e-24
252	0x2a15f113	1.3317498e-13
253	0x2faf2b5f	3.1863132e-10
254	0x32e1497b	2.6226862e-08
255	0x33fe69a9	1.1847016e-07

exp_avg f4 [50]
0	0xba467ad1	-0.00075714017
1	0x3a1ef52b	0.00060637546
2	0x3ac1e7bb	0.0014793793
3	0xb8da74a6	-0.000104167775
4	0xba5f8106	-0.0008526001
5	0xbaa20a03	-0.0012362603
6	0xba2362a1	-0.00062326534
7	0xba3d846a	-0.0007229509
8	0x3b07c049	0.0020713976
9	0xb932bd47	-0.00017045914
10	0xb9df26d6	-0.0004256281
11	0xb9b6f61c	-0.0003489711
12	0xba8040f8	-0.0009784987
13	0xba2373d6	-0.00062352174
14	0xba2c67f9	-0.00065767724
15	0xb9d7cf06	-0.0004116224
16	0x3a24cd21	0.000628667
17	0x3a4fc187	0.0007925261
18	0xba12543f	-0.00055820117
19	0xba8a3873	-0.0010545388
20	0xb9c0a839	-0.0003674643
21	0xb9816de3	-0.0002468667
22	0x3a7c49b1	0.0009624018
23	0x3a4bc1de	0.0007772724
24	0x3945ee2b	0.00018876109
25	0x3a83b791	0.0010049214
26	0xbada8548	-0.0016671801
27	0xb9b512e7	-0.00034537094
28	0xb8d16250	-9.984209e-05
29	0xb782326c	-1.5520687e-05
30	0x39e4fa53	0.00043674055
31	0xb9634ffe	-0.00021678206
32	0xb9d67b5c	-0.0004090917
33	0x39b1c26c	0.00033904926
34	0x3a72a993	0.0009256836
35	0x3a11f007	0.0005567078
36	0x39a745f4	0.0003190484
37	0xb9c98ba6	-0.00038441754
38	0x3a53a601	0.0008073748
39	0x39d123be	0.00039890216
40	0xb86c7cae	-5.63829e-05
41	0x39c1aa68	0.0003693879
42	0xbaaa05f9	-0.0012971751
43	0x3a10d69b	0.0005525143
44	0xb9e3fd0b	-0.00043485346
45	0x38f585f8	0.00011707464
46	0xba50b1b5	-0.0007961051
47	0x395f74db	0.0002131047
48	0x39aa8d32	0.00032530125
49	0x3a10e074	0.000552661

exp_avg_sq f4 [50]
0	0x370251ad	7.76762e-06
1	0x3700f8c9	7.687319e-06
2	0x379c0511	1.8599008e-05
3	0x371adda6	9.230722e-06
4	0x36c7cb27	5.954312e-06
5	0x369c767f	4.662957e-06
6	0x35c5edfb	1.4746905e-06
7	0x37370693	1.0909181e-05
8	0x3700fb43	7.687896e-06
9	0x36a2638e	4.839566e-06
10	0x36a11d17	4.8015604e-06
11	0x36d4e594	6.3448188e-06
12	0x371cd4e3	9.347891e-06
13	0x364a41b7	3.0138597e-06
14	0x36b5b99c	5.415828e-06
15	0x36c3c79b	5.83469e-06
16	0x36f83f8a	7.398373e-06
17	0x3630b3c8	2.633069e-06
18	0x36e21b68	6.7385154e-06
19	0x371700ba	9.0004705e-06
20	0x36f69892	7.349133e-06
21	0x3703510f	7.827081e-06
22	0x373f244a	1.1392936e-05
23	0x36e12cc2	6.710733e-06
24	0x37065bf1	8.008429e-06
25	0x37313862	1.056315e-05
26	0x37666b8b	1.3734108e-05
27	0x375e63f0	1.32555e-05
28	0x368c7bd4	4.1867406e-06
29	0x356bdcc5	8.7865584e-07
30	0x363a4cee	2.7760939e-06
31	0x36c0bac1	5.743787e-06
32	0x371ff8d8	9.535077e-06
33	0x3714de5e	8.873261e-06
34	0x374e087c	1.2280532e-05
35	0x37322f2b	1.0620609e-05
36	0x36f1e36b	7.2088346e-06
37	0x37019346	7.723289e-06
38	0x36b95bce	5.524117e-06
39	0x36862d06	3.9987526e-06
40	0x35dc23a0	1.6401646e-06
41	0x369cc586	4.672157e-06
42	0x3733e6bc	1.0722953e-05
43	0x36ab34e3	5.102354e-06
44	0x3633546d	2.672222e-06
45	0x3644eeae	2.9345206e-06
46	0x369b2765	4.623946e-06
47	0x36a991de	5.0535737e-06
48	0x36f61c66	7.3346773e-06
49	0x3768d579	1.3877981e-05

exp_avg f4 [10, 50]
0	0x3ba5f7f2	0.005064958
1	0x3997b430	0.00028935215
2	0xb910f75a	-0.00013825056
3	0xba6c90bc	-0.00090242526
4	0x39966783	0.00028687352
5	0x39a2d27c	0.0003105587
6	0x3b0290e6	0.0019922792
7	0xb9f20db8	-0.00046168058
8	0xbb8ee184	-0.0043603797
9	0xbb3e7d34	-0.0029066326
10	0xbafbf896	-0.0019223865
11	0xb931dc99	-0.00016962214
12	0x3bbfd9e1	0.0058548306
13	0x3a866aa5	0.0010255171
14	0x3b90bc64	0.004416989
15	0x3971e1a0	0.00023067603
16	0xbb3f5401	-0.0029194357
17	0x362faf17	2.6178948e-06
18	0xbb07371a	-0.0020632208
19	0x3881fe3b	6.1985535e-05
20	0xbace018e	-0.0015717016
21	0xbc14193e	-0.009039221
22	0xb936b5ae	-0.00017424554
23	0xbbf82a97	-0.0075734365
24	0xbb7df6af	-0.0038751771
25	0x3acca3d8	0.0015612794
26	0x3808df50	3.2632903e-05
27	0x3b64f74a	0.0034937435
28	0x399a4a0a	0.00029428332
29	0x32c5045c	2.29358e-08
30	0x3a5b2d6c	0.00083609554
31	0x3b7c01b5	0.0038453166
32	0x3aea65a5	0.0017883076
33	0xbc30dc17	-0.010794661
34	0x3ac6dd60	0.0015172176
35	0x3a3b1dd2	0.00071379275
36	0x3b5ffb11	0.0034176747
37	0xb97e0d5e	-0.00024228307
38	0xbb34f77f	-0.002761334
39	0xb8c95f8d	-9.6022246e-05
40	0xb859a923	-5.1894353e-05
41	0x3a08f4b7	0.00052244536
42	0xb81e7d18	-3.7786638e-05
43	0x39a416f6	0.00031297625
44	0xbba3b863	-0.004996346
45	0x3453e2e6	1.9733451e-07
46	0x37074e60	8.064875e-06
47	0xb9f3a660	-0.0004647253
48	0xba4ae813	-0.000774027
49	0xb929bc63	-0.00016187275
50	0x35ea8e36	1.7475747e-06
51	0x3a66a5ba	0.0008798499
52	0xba41a82d	-0.0007387426
53	0xba7a5d8d	-0.00095506833
54	0x3910bb76	0.00013802745
55	0xbab0dbcb	-0.0013493238
56	0x3118eaa7	2.2252296e-09
57	0xbb4a177a	-0.0030836747
58	0x3a429c9c	0.00074238493
59	0xb9c98dbe	-0.00038443314
60	0xbb9d210a	-0.0047951983
61	0xbb84fa10	-0.00405813
62	0x386c1bf1	5.6292807e-05
63	0xbbb29c91	-0.005450793
64	0x398784e0	0.00025848206
65	0x3a477e87	0.00076101016
66	0xbb282e43	-0.002566234
67	0xba6a15ff	-0.0008929669
68	0x3a907f90	0.0011024345
69	0xbb9dc0f7	-0.004814263
70	0xbbda636f	-0.0066646854
71	0xbb7d657f	-0.0038665233
72	0x3a424aea	0.0007411676
73	0xbadaca1f	-0.0016692317
74	0xbb9dde73	-0.004817778
75	0x3b25ce5d	0.0025300004
76	0xb99886f4	-0.00029092247
77	0x3b2a59db	0.00259935
78	0xb8f0fb80	-0.00011490937
79	0xba3b33a9	-0.0007141182
80	0x3af71675	0.0018851297
81	0x32badf58	2.1754815e-08
82	0xbaeb1c4c	-0.001793751
83	0xbad5bc23	-0.001630668
84	0xbaa5e631	-0.0012657103
85	0xb9e3da00	-0.00043459237
86	0xbac52f61	-0.0015044027
87	0xbad0b8ec	-0.0015924252
88	0xb64c34b5	-3.0429048e-06
89	0x39e7e311	0.0004422893
90	0x37ecb3c0	2.8217095e-05
91	0xbb20bff6	-0.002452848
92	0x3b025b0a	0.001989069
93	0x3a1249d1	0.00055804575
94	0xb9f90e64	-0.00047503703
95	0xb8c23191	-9.259873e-05
96	0x3a8e436b	0.0010853832
97	0x38cdb800	9.8094344e-05
98	0xba1255b3	-0.0005582228
99	0x3a1eb83d	0.00060546753
100	0xbba01ebf	-0.0048864777
101	0xbabd90f0	-0.001446275
102	0xba591608	-0.0008281176
103	0xbc239372	-0.009983884
104	0xb9f09847	-0.00045889823
105	0x3b27dbdc	0.0025613224
106	0x3a011232	0.0004923671
107	0xbad5fe60	-0.001632642
108	0xbc5fbdf4	-0.013656128
109	0x396a26a5	0.00022330375
110	0xba8b88c5	-0.0010645619
111	0xbbb8f737	-0.0056447047
112	0x38eddb8e	0.00011341936
113	0x3ab778f1	0.0013997835
114	0xbc1edc76	-0.009696117
115	0xbb623107	-0.0034514086
116	0xbc715146	-0.01472885
117	0x38c4e0cd	9.387881e-05
118	0xb9b54f28	-0.00034581986
119	0xbb22b87c	-0.00248292
120	0x3a7eb0d3	0.000971568
121	0xbca5dc50	-0.020246655
122	0xbbdba6c3	-0.006703229
123	0xbbdf76ed	-0.006819597
124	0xbc0a826a	-0.008453945
125	0xbc2f8ede	-0.010715215
126	0xbc003242	-0.007824482
127	0xbb8648bf	-0.0040980275
128	0x36a7ea69	5.0042768e-06
129	0xb8460cd8	-4.721884e-05
130	0xbb6c5ace	-0.0036064866
131	0x379a8b95	1.8423229e-05
132	0x3a525ca4	0.0008024669
133	0xbc214615	-0.009843369
134	0xbb498ebb	-0.003075524
135	0xbb80cd73	-0.0039307415
136	0xbbde3816	-0.0067815883
137	0xbaa6b10f	-0.0012717562
138	0x389a14e5	7.347184e-05
139	0xba1611f0	-0.0005724719
140	0xb7ab1bd1	-2.0397742e-05
141	0xbb122e90	-0.0022305585
142	0xbc920994	-0.017826833
143	0xbb774889	-0.0037732443
144	0x39002fb9	0.0001222481
145	0xbaea1236	-0.001785821
146	0xbb6a0178	-0.0035706442
147	0xbb4502fc	-0.0030061593
148	0xbba0f767	-0.004912305
149	0xb93153d4	-0.00016911264
150	0x3c0d2f4b	0.008617233
151	0x3b7fc558	0.0039027538
152	0x3c4b519f	0.012409597
153	0x3b9974df	0.0046831216
154	0x3a2e86e4	0.00066576735
155	0xbaff8793	-0.001949536
156	0x36c21804	5.7844463e-06
157	0x3c83bf03	0.016082292
158	0x3c853d11	0.01626447
159	0xbb407f26	-0.0029372661
160	0x3b99edae	0.004697523
161	0x3c3f0694	0.011659283
162	0x3bb36d05	0.0054756426
163	0x3a39cafa	0.0007087436
164	0x3c1042d1	0.008804993
165	0x3bf4b07e	0.0074673286
166	0x3bfefbd2	0.007781484
167	0x3bdc4f85	0.0067233467
168	0x3b01cdb8	0.0019806456
169	0x3b6e4761	0.0036358463
170	0x3acb0276	0.0015488404
171	0x3c76c0ae	0.015060587
172	0x3bfa591c	0.007640017
173	0x3896fbc0	7.1994495e-05
174	0x3c27134c	0.010197472
175	0x3cf35b35	0.029706577
176	0x3aab07d8	0.0013048602
177	0x3b565a07	0.003270747
178	0x3a8b144a	0.0010610905
179	0x399271e8	0.00027932157
180	0x3a5b12c8	0.00083569856
181	0xbbf10f48	-0.007356558
182	0x3b1a8aaf	0.0023581197
183	0x3c0da727	0.008645809
184	0x3b823281	0.0039733057
185	0x3b9b8bff	0.0047469134
186	0x3bdf310a	0.006811266
187	0x3be7e2b5	0.007076586
188	0xbb302937	-0.0026880035
189	0xba30bff6	-0.00067424716
190	0x3814d3b5	3.5483117e-05
191	0x3ac5f736	0.0015103582
192	0x3bc52ca8	0.0060172863
193	0x3bdbbaef	0.006705634
194	0x3abe6a77	0.0014527579
195	0x3ae425fd	0.0017406341
196	0x3a964883	0.0011465702
197	0x3ac33f34	0.0014896155
198	0x3b0b2511	0.002123181
199	0xbaca52c5	-0.0015436044
200	0xba9f4ec8	-0.0012154216
201	0x3a974af2	0.0011542721
202	0x3b4693c2	0.0030300473
203	0xbbe7e035	-0.007076288
204	0xbbac8dd2	-0.0052659297
205	0xbb4f217c	-0.0031605652
206	0x37d883ff	2.5810672e-05
207	0x3bbea148	0.005817566
208	0xbbe55c2e	-0.006999514
209	0xb830817f	-4.2082273e-05
210	0xb82ad5a0	-4.0730112e-05
211	0x3ab89d2a	0.0014084924
212	0x3be3d263	0.0069525703
213	0xb9e5cc82	-0.00043830654
214	0x392257a4	0.00015482173
215	0x3b1345da	0.0022472055
216	0xba86ebb4	-0.0010293634
217	0x39d71981	0.00041026997
218	0xb8d6df0a	-0.000102458594
219	0x3b6f0156	0.0036469302
220	0x3a837252	0.0010028577
221	0xbb2ab8e4	-0.0026050145
222	0x3adb4fc6	0.0016732148
223	0x3a535120	0.00080611
224	0x3995fdff	0.00028608736
225	0x3b5c8896	0.0033650748
226	0x3b4e771e	0.0031504105
227	0x3382e47d	6.0951585e-08
228	0x3a192f0e	0.00058434985
229	0x387e63f2	6.06514e-05
230	0x39af3553	0.0003341833
231	0x35f3c276	1.8161506e-06
232	0xbaa3b978	-0.0012491187
233	0x3a51a7fb	0.00079977483
234	0x38b37193	8.55654e-05
235	0xbc31d0c8	-0.010853
236	0x39301949	0.00016794087
237	0xbc111144	-0.008854214
238	0x3a11079e	0.0005532446
239	0x39750d18	0.00023369899
240	0xb69f4bdc	-4.7474005e-06
241	0xbc3e347d	-0.011609194
242	0x39734585	0.00023200184
243	0xba28a8a1	-0.0006433819
244	0x38db95a6	0.00010470608
245	0x3ab62d5f	0.001389902
246	0xb725be1b	-9.879029e-06
247	0xbb43db2f	-0.0029885282
248	0xbbd4f1a5	-0.006498533
249	0x3867c64e	5.5259377e-05
250	0xba95a781	-0.0011417718
251	0xb9b525e2	-0.00034551235
252	0x3b4ae45a	0.0030958862
253	0x399dc174	0.00030089507
254	0xb8e36f62	-0.0001084495
255	0x3a547f23	0.0008106103

exp_avg_sq f4 [10, 50]
0	0x39bd918e	0.00036157336
1	0x380395ae	3.1372234e-05
2	0x36a1834c	4.813459e-06
3	0x37553e87	1.2710348e-05
4	0x36f4b21d	7.292502e-06
5	0x361760b6	2.2557047e-06
6	0x3969ec1d	0.0002230857
7	0x37e306ca	2.706367e-05
8	0x38289359	4.019155e-05
9	0x39049750	0.0001264487
10	0x37b0b8d6	2.1066906e-05
11	0x37595787	1.2954587e-05
12	0x395721a4	0.0002051653
13	0x3799e64e	1.8346265e-05
14	0x39a9ddf5	0.00032399563
15	0x38828dc2	6.2252875e-05
16	0x3aa30f56	0.0012440484
17	0x371b21cb	9.246588e-06
18	0x3983d1a9	0.00025142476
19	0x3743bf4e	1.1667447e-05
20	0x380d9122	3.3752185e-05
21	0x39d062b5	0.00039746394
22	0x37733542	1.4496329e-05
23	0x3917cb76	0.00014476277
24	0x377f444a	1.5215084e-05
25	0x393d572e	0.00018056922
26	0x39893fc5	0.00026178188
27	0x392b9f2d	0.00016367128
28	0x37439efe	1.1659924e-05
29	0x36d680d9	6.392697e-06
30	0x3816b39c	3.593006e-05
31	0x396ae79c	0.0002240226
32	0x37a0f725	1.9188572e-05
33	0x3a16f687	0.00057587813
34	0x38e2d190	0.00010815554
35	0x388360ec	6.26462e-05
36	0x38f3b47e	0.00011620762
37	0x380986da	3.2788936e-05
38	0x38a5738d	7.889336e-05
39	0x3813ce7e	3.5239842e-05
40	0x380a5bd5	3.298729e-05
41	0x379fc1a5	1.904445e-05
42	0x37fa2c4c	2.982295e-05
43	0x39a379ca	0.00031180523
44	0x38e3a2ed	0.00010854551
45	0x33b8335f	8.577512e-08
46	0x3742b05c	1.1604363e-05
47	0x38510b49	4.9839993e-05
48	0x385ce9cd	5.266983e-05
49	0x38063fe9	3.200761e-05
50	0x355ca2b5	8.2193156e-07
51	0x390a7735	0.00013205114
52	0x37f27ffe	2.8908249e-05
53	0x38d93a22	0.000103581944
54	0x368da1a4	4.220945e-06
55	0x389c08a9	7.440273e-05
56	0x2e3ef203	4.3415948e-11
57	0x3a78cb44	0.0009490738
58	0x398b38d2	0.0002655448
59	0x37f3fef9	2.9086588e-05
60	0x39a81642	0.0003206004
61	0x388d085b	6.72496e-05
62	0x3701b9ce	7.73226e-06
63	0x3936d8a3	0.00017437576
64	0x37b0ef4f	2.1092272e-05
65	0x3821e9a0	3.860297e-05
66	0x38cdfcd0	9.822252e-05
67	0x37fe3222	3.0302504e-05
68	0x381a1195	3.6732836e-05
69	0x38ff2701	0.000121666126
70	0x39d55745	0.00040691547
71	0x396a3cd2	0.00022338636
72	0x385e3aa3	5.2983534e-05
73	0x3957f24d	0.00020594262
74	0x39cb4309	0.00038769122
75	0x39246904	0.0001567938
76	0x383e9564	4.543866e-05
77	0x39422c96	0.00018517891
78	0x35dd6755	1.6495857e-06
79	0x37a3ae24	1.9512205e-05
80	0x3888b005	6.5177715e-05
81	0x33666382	5.364155e-08
82	0x38f1f78a	0.00011537883
83	0x398da68a	0.00027017697
84	0x385ab7a9	5.2146297e-05
85	0x379c2766	1.8614995e-05
86	0x385e1790	5.295087e-05
87	0x38f5aa63	0.000117142474
88	0x359ac566	1.1531345e-06
89	0x389eb2cb	7.56733e-05
90	0x370692fa	8.021243e-06
91	0x395c94c1	0.0002103625
92	0x39900f4f	0.00027477226
93	0x3732a1ad	1.064727e-05
94	0x36377975	2.7339822e-06
95	0x360190d8	1.9306808e-06
96	0x380e16f9	3.3876833e-05
97	0x37d90db5	2.5874799e-05
98	0x3813f541	3.527594e-05
99	0x37e7a70f	2.7615139e-05
100	0x398a825f	0.00026418545
101	0x38a41181	7.82339e-05
102	0x380d2058	3.3647142e-05
103	0x3a0091a2	0.00049045135
104	0x382e8af8	4.1614257e-05
105	0x388c456d	6.688652e-05
106	0x38940779	7.058582e-05
107	0x3a1a1730	0.0005878089
108	0x39909f25	0.00027584392
109	0x37c8b34a	2.3925346e-05
110	0x394b1ce9	0.00019370358
111	0x39eede94	0.0004556073
112	0x3930d77f	0.00016864947
113	0x391d9877	0.00015029484
114	0x38d9908f	0.000103742925
115	0x38ee8126	0.0001137278
116	0x3a778fab	0.00094437104
117	0x3725b99b	9.877981e-06
118	0x38cc75e4	9.749437e-05
119	0x39a2941b	0.00031009395
120	0x37d35e78	2.519715e-05
121	0x3a9a9135	0.0011792543
122	0x390ed787	0.00013622465
123	0x3a12e2e0	0.0005603265
124	0x3a06a41e	0.00051361497
125	0x3a38bbd7	0.0007047033
126	0x3a6e9031	0.00091004657
127	0x3a188cee	0.000581934
128	0x37190337	9.120259e-06
129	0x3803e443	3.144542e-05
130	0x39b69c39	0.0003483014
131	0x37ea4624	2.7927636e-05
132	0x38a0a258	7.6596334e-05
133	0x3a5dd0b0	0.0008461578
134	0x3996c93f	0.0002876017
135	0x398ff5a3	0.000274581
136	0x3924cb29	0.00015715942
137	0x3880c433	6.1400606e-05
138	0x36ee5edd	7.1039963e-06
139	0x37c658f6	2.3644865e-05
140	0x387895a3	5.9267168e-05
141	0x3896a94f	7.1840936e-05
142	0x3a9d129f	0.0011983699
143	0x38db5c22	0.00010459895
144	0x381d8991	3.7559836e-05
145	0x38649aea	5.450371e-05
146	0x39154f55	0.00014239301
147	0x39c89d06	0.00038263964
148	0x397351a0	0.00023204694
149	0x3899991a	7.324126e-05
150	0x393805a5	0.0001754971
151	0x39131bd1	0.00014029375
152	0x3a4e43a3	0.0007868355
153	0x395dcad8	0.00021151768
154	0x380ac162	3.3081866e-05
155	0x38a6c5da	7.9523496e-05
156	0x36c4a98d	5.8609935e-06
157	0x3a3a8141	0.0007114597
158	0x3a0cfa8b	0.000537791
159	0x384f2279	4.938475e-05
160	0x393f7221	0.00018257696
161	0x39f050ed	0.00045836662
162	0x39596ac9	0.00020734513
163	0x3835b34d	4.332075e-05
164	0x38ba0eac	8.871904e-05
165	0x39eee9dd	0.0004556914
166	0x3a8d7b0c	0.0010794117
167	0x3939f82a	0.00017735423
168	0x38cab294	9.665373e-05
169	0x3959d98a	0.00020775772
170	0x3826bda7	3.975411e-05
171	0x3a3eab38	0.00072734384
172	0x3a8d1463	0.0010763522
173	0x3a3e79d0	0.0007266076
174	0x39bd5e8f	0.0003611934
175	0x3b353de3	0.0027655296
176	0x39268bd2	0.00015883081
177	0x39c7633e	0.0003803018
178	0x373af597	1.1143645e-05
179	0x37ae888b	2.0806e-05
180	0x3a00bb69	0.0004910739
181	0x397f52a5	0.00024349483
182	0x3881c5d9	6.188051e-05
183	0x3aad90eb	0.0013242041
184	0x3aca7cb6	0.0015448544
185	0x39982418	0.0002901859
186	0x39c1496b	0.0003686653
187	0x38c300ec	9.298496e-05
188	0x381e73c5	3.7777954e-05
189	0x388918c5	6.537283e-05
190	0x380b9173	3.3275643e-05
191	0x39053e61	0.00012707106
192	0x3a54e3fb	0.000812113
193	0x39cd482b	0.00039154416
194	0x38cd1602	9.779261e-05
195	0x397eeec9	0.00024312282
196	0x384d4cf4	4.8947477e-05
197	0x39af1235	0.00033392166
198	0x3917b951	0.00014469518
199	0x3894c407	7.093703e-05
200	0x3a018953	0.00049414224
201	0x3909021d	0.00013066125
202	0x39a9f335	0.00032415395
203	0x38909c4b	6.895567e-05
204	0x3967aea3	0.00022094934
205	0x3a44ec20	0.0007511992
206	0x3715d98e	8.9317455e-06
207	0x3a14bea9	0.00056741625
208	0x3938bfd5	0.0001761907
209	0x38e5b20a	0.00010952733
210	0x3828f230	4.0279876e-05
211	0x37aac42c	2.0356929e-05
212	0x3a2cda67	0.0006593824
213	0x38444c17	4.6800906e-05
214	0x3760c26e	1.339671e-05
215	0x38b6ab1e	8.710309e-05
216	0x39d22a8c	0.0004008602
217	0x380a5fc4	3.2990953e-05
218	0x39c6ad0c	0.00037894433
219	0x381948aa	3.6545716e-05
220	0x399e9cad	0.0003025284
221	0x3887106e	6.440362e-05
222	0x3795ce4d	1.785825e-05
223	0x399de876	0.0003011857
224	0x3833ec30	4.2896892e-05
225	0x3a5760d2	0.00082160265
226	0x3a6c201b	0.00090074696
227	0x34e090aa	4.1828508e-07
228	0x39190cd4	0.00014595996
229	0x3820622f	3.8238413e-05
230	0x3894e7d9	7.100375e-05
231	0x370c526b	8.36384e-06
232	0x3952dbc6	0.00020109033
233	0x38589b63	5.164313e-05
234	0x36be0c16	5.6638482e-06
235	0x3a62ea55	0.0008656134
236	0x37cb406b	2.4229483e-05
237	0x398ba720	0.00026636664
238	0x381e4ab5	3.7739712e-05
239	0x37a0283a	1.9092218e-05
240	0x38739435	5.8073743e-05
241	0x3950802a	0.0001988417
242	0x369b6d90	4.6321147e-06
243	0x38567716	5.1132483e-05
244	0x387a683a	5.9701713e-05
245	0x36f8ec57	7.4184895e-06
246	0x37278da5	9.986955e-06
247	0x39966b3b	0.00028690122
248	0x399e6250	0.00030209357
249	0x38453b8e	4.7023925e-05
250	0x38ab7095	8.1748854e-05
251	0x391666ea	0.00014343453
252	0x3a019d80	0.0004944429
253	0x3813d173	3.5242596e-05
254	0x371e2735	9.4266625e-06
255	0x388fae15	6.851197e-05

exp_avg f4 [10]
0	0xba6c5c6d	-0.0009016458
1	0xba484c33	-0.0007640749
2	0xbb74d98f	-0.003736112
3	0x3b53779a	0.0032267333
4	0xb8fb03d0	-0.00011969323
5	0x3ae92512	0.0017787537
6	0x3a213809	0.00061500125
7	0x39ffed34	0.0004881412
8	0x39a78e9a	0.0003195897
9	0xba6db16c	-0.00090672704

exp_avg_sq f4 [10]
0	0x379371c3	1.757674e-05
1	0x378e447b	1.6959608e-05
2	0x38023f31	3.1053267e-05
3	0x38358846	4.3280677e-05
4	0x37f4b7be	2.9172628e-05
5	0x37f7930e	2.9513172e-05
6	0x378f1071	1.7054585e-05
7	0x37f2108d	2.8856355e-05
8	0x382bd7d2	4.0970575e-05
9	0x38458cf6	4.709974e-05
