swastik_web/Learning&Experiments/PytorchTutorials/pytorch lightning/dashboard/mnist_clsfy/version_1.1/checkpoints/epoch=2-step=3.ckpt (torch, 484079 bytes, 12 tensors)

fc1.weight f4 [50, 784]
0	0xb98c3000	-0.00026738644
1	0x3c9cf2b6	0.019158702
2	0xbcf0ccac	-0.02939447
3	0xbcd75093	-0.026283538
4	0xbc615ece	-0.013755513
5	0x3c1ce910	0.009577051
6	0xba397f40	-0.00070761517
7	0x3ce7fa12	0.028317485
8	0xbb4fb630	-0.0031694286
9	0x3c1ad610	0.009450451
10	0xbc30d67c	-0.010793325
11	0xbbe609a4	-0.007020192
12	0xbd17ae11	-0.037031237
13	0xbcda0508	-0.026613727
14	0xbc71359c	-0.014722254
15	0x3aad6800	0.0013229847
16	0x3c6753dc	0.014119115
17	0x3caf8cae	0.021429386
18	0xbcc658a0	-0.024212182
19	0xbc7eced8	-0.015552245
20	0x3c5488b0	0.012972042
21	0x3cf2f2a2	0.029656712
22	0xbbf0d854	-0.007350007
23	0x3cdaef46	0.026725423
24	0xbbbca170	-0.0057565495
25	0x3b77aa60	0.003779076
26	0x3d04754f	0.032338437
27	0xbd07b476	-0.033131085
28	0xbcb82f50	-0.022483498
29	0xbc14234a	-0.009041617
30	0xbc6416b2	-0.013921427
31	0x3cfcc82e	0.030857172
32	0xbcbda38c	-0.023149274
33	0xbc86ae25	-0.01644046
34	0xbce3c692	-0.027804647
35	0xbd15341d	-0.036426652
36	0xbcc35233	-0.023842907
37	0x3ce2f8df	0.027706562
38	0x3c547903	0.012968305
39	0x3c6a9452	0.014317589
40	0xba935e3e	-0.0011243296
41	0xbcae951e	-0.021311339
42	0x3b47a0e2	0.0030460884
43	0xbd03b774	-0.032157376
44	0xbcbb1cfb	-0.022840967
45	0xbcaf5d97	-0.021406932
46	0x3ca02122	0.019547049
47	0x3c935ebb	0.017989507
48	0xbc99c41a	-0.018770266
49	0xbb8a3dc2	-0.004218788
50	0x3ca302b7	0.019898755
51	0x3d07b84f	0.033134755
52	0x3c683b98	0.0141743645
53	0x3b9e18e8	0.0048247464
54	0x3cc42a48	0.023945943
55	0xbcac444a	-0.021028657
56	0x3bda1368	0.0066551454
57	0xbce2d50e	-0.027689483
58	0xbccac6f8	-0.024753079
59	0xbc97233a	-0.018449415
60	0x3c58c263	0.013229939
61	0x3c61cbc9	0.013781496
62	0xbcc3a7ee	-0.023883786
63	0x3c004955	0.007829984
64	0x3c881fcf	0.01661673
65	0xbbedbcce	-0.0072551733
66	0x3aa12d5f	0.0012296847
67	0x3bb2065e	0.005432888
68	0x3c9cf893	0.019161498
69	0x3d0028f2	0.03128905
70	0xbcfa110c	-0.030525707
71	0xbc83cad0	-0.01608792
72	0x3c34e5d3	0.0110411225
73	0x3cd9f2d0	0.02660504
74	0x3ce63064	0.028099246
75	0x3ce9d622	0.02854449
76	0x3b88ec5e	0.004178568
77	0xbd0b20b0	-0.03396672
78	0x39a9dcfe	0.00032398844
79	0xbccf6e4f	-0.025321154
80	0xbd08770c	-0.033316657
81	0x3d02f98d	0.03197627
82	0x3cde75a6	0.027155709
83	0xbd11ec92	-0.035626
84	0x3bdb0b78	0.006684717
85	0xbbc52578	-0.0060164295
86	0xbc0bc8d9	-0.0085317725
87	0xbc9d6769	-0.019214349
88	0x3c5ce5e2	0.013482543
89	0xbcc4e1e4	-0.024033494
90	0x3c7204c9	0.014771649
91	0x3ca6b7b5	0.02035127
92	0x3ce815cd	0.028330708
93	0x3c845f5f	0.016158758
94	0xbd059932	-0.0326168
95	0xbca90b7d	-0.02063536
96	0x3ca480b8	0.02008091
97	0x3c1823ed	0.009285909
98	0xbce5703a	-0.028007615
99	0xbcc0d2af	-0.023537962
100	0x3cfa9f5b	0.030593565
101	0x3caca46e	0.0210745
102	0xbc97ef65	-0.01854677
103	0xbc43e096	-0.011955401
104	0xbd17697a	-0.036965825
105	0xbb69c374	-0.0035669478
106	0xbcf42d05	-0.029806623
107	0xbcf95fb7	-0.030441148
108	0xbb9f71ec	-0.0048658755
109	0x3b27fe6f	0.0025633832
110	0xbc8847e5	-0.016635844
111	0x3cad9af8	0.021192059
112	0xbcb20a8a	-0.021733541
113	0x3d04bc3b	0.032406073
114	0x3cb2697c	0.021778814
115	0xbd066370	-0.032809675
116	0xbc425605	-0.011861329
117	0xbaa9e6f8	-0.0012962511
118	0x3beacf9c	0.0071658622
119	0x3c32c251	0.010910586
120	0x3c875910	0.01652196
121	0x3b9c253d	0.0047651813
122	0xbc7d8376	-0.015473237
123	0x3c86d82c	0.0164605
124	0xbd1871bd	-0.037217844
125	0xbcc54972	-0.024082873
126	0xbc429950	-0.011877373
127	0xbca68e17	-0.020331426
128	0xbc7c93cc	-0.015416097
129	0xbd03e261	-0.032198314
130	0xbc2cb5d9	-0.010541403
131	0x3b9944eb	0.004677405
132	0xbcd6d22e	-0.026223268
133	0xbb9c9a01	-0.004779101
134	0x3cb9a699	0.022662448
135	0xbbd34bb7	-0.006448235
136	0xbad75572	-0.0016428663
137	0xbbbe286f	-0.00580316
138	0x3b8e0b5b	0.00433485
139	0x3ca1eba0	0.019765675
140	0x3d0a918f	0.03383022
141	0x3cb9cc9a	0.02268057
142	0x3cfdda3d	0.030987853
143	0xbb9a2030	-0.004703544
144	0xbd0e8a3b	-0.034799796
145	0xbca214a9	-0.019785242
146	0x3cb08bea	0.021551091
147	0xbb42819a	-0.00296793
148	0xbca88ee5	-0.02057595
149	0xbcf763fd	-0.030199045
150	0xbd14d250	-0.036333382
151	0xbd078453	-0.03308518
152	0xbc2706ba	-0.010194475
153	0x3c8845b5	0.016634801
154	0x3c85fd3a	0.0163561
155	0xbd192a74	-0.037394002
156	0x3c9e59ed	0.01932999
157	0xbcfd08f9	-0.030888068
158	0xbc2be829	-0.010492363
159	0xbc8ebac4	-0.017423041
160	0xbc20d21a	-0.009815717
161	0xbc22aeb9	-0.009929352
162	0xbd0eee19	-0.034895036
163	0xbd0981a0	-0.033570886
164	0xbc077c71	-0.008269415
165	0xbb1d99fb	-0.0024048078
166	0xbc9d0fd0	-0.019172579
167	0x3c2c39f8	0.010511868
168	0xbd03aa6b	-0.032144945
169	0xbb9dbac3	-0.0048135235
170	0x3cebb7e0	0.028774202
171	0xbc89142f	-0.016733257
172	0x3cf1de73	0.029525017
173	0x3c2a07ed	0.010377866
174	0xbd0da433	-0.03458042
175	0x3ca39b60	0.01997155
176	0xbbe25015	-0.006906519
177	0xbc99d415	-0.018777886
178	0x3cd2260a	0.025652904
179	0xbd023dc1	-0.031797174
180	0x3a6b4a82	0.0008975641
181	0xbc2a5bf9	-0.010397905
182	0x3cb9152b	0.022593101
183	0x3be792b4	0.007067049
184	0x3c69a484	0.014260415
185	0x3c1f0552	0.009705858
186	0xbc3c9942	-0.011511149
187	0xbc2b0b6f	-0.010439738
188	0xbd048740	-0.032355547
189	0x3c86bd85	0.016447792
190	0x3cd0e03b	0.025497546
191	0x3cb10478	0.021608576
192	0xbce5d029	-0.02805336
193	0xbaadc0b2	-0.001325628
194	0xbce6694a	-0.028126378
195	0xbcb70edc	-0.022345953
196	0xbc950bc6	-0.01819409
197	0x3c174276	0.009232154
198	0xbc95e046	-0.018295418
199	0xba5fd87a	-0.00085390324
200	0xb88295cb	-6.226784e-05
201	0x3cbcb606	0.023036014
202	0xbcde58cd	-0.027141953
203	0xbcd68bc1	-0.026189687
204	0xbcbb5fa6	-0.022872757
205	0x3cbbaf03	0.0229106
206	0xbc7a14a6	-0.015263712
207	0x3ce1a075	0.027542332
208	0x3c2ac10e	0.010422004
209	0x3b092645	0.0020927351
210	0xbb2f8f17	-0.002678817
211	0xbc1c2ad6	-0.009531697
212	0x3b00bd8c	0.0019644229
213	0xbc306727	-0.010766781
214	0xbb46bd9c	-0.0030325418
215	0x3ade3b72	0.0016954972
216	0xbcfc75e2	-0.03081793
217	0xbcb0e82a	-0.02159508
218	0x3cd4ca21	0.025975289
219	0xbd027c73	-0.031856965
220	0xbbb337ac	-0.005469283
221	0x3d04bc82	0.032406338
222	0x3c22d5d2	0.009938674
223	0xbae4cd66	-0.0017456233
224	0xbce5d2f3	-0.02805469
225	0x3ca974ee	0.02068564
226	0xbcb7cc37	-0.022436244
227	0xbbea788d	-0.007155484
228	0xbc178c9d	-0.009249833
229	0xbb18004e	-0.002319354
230	0x3b5c0291	0.0033570866
231	0x3d04c560	0.032414794
232	0x3bf381a0	0.007431224
233	0x3d0f4105	0.034974117
234	0x3ccb67b2	0.02482972
235	0xbca0ae9e	-0.019614514
236	0x3c9ae2ae	0.018906917
237	0xbcca612e	-0.024704542
238	0xbc80ef5c	-0.015739135
239	0x3c138378	0.009003513
240	0x3c2b2122	0.010444911
241	0x3cdbee38	0.02684699
242	0xbc3a3d12	-0.011367099
243	0xbafc493f	-0.0019247903
244	0x3c81191c	0.015759043
245	0xbd18e6e3	-0.037329566
246	0x3cbc2a65	0.022969434
247	0xbd04d5d0	-0.03243047
248	0xbb1f2808	-0.0024285335
249	0xbc136056	-0.008995136
250	0xbcb23b13	-0.021756684
251	0x3b009e4d	0.0019625605
252	0x3d04e72f	0.032447036
253	0xbbf41271	-0.0074484874
254	0xbc95179a	-0.01819973
255	0xbc2736a8	-0.010205902

fc1.bias f4 [50]
0	0xbd0b8411	-0.034061495
1	0xbcac30c3	-0.021019345
2	0xbd17564e	-0.03694754
3	0xbc2a1ac6	-0.01038236
4	0x3cca697b	0.0247085
5	0x3c2e28fb	0.010629888
6	0x3b51be68	0.003200436
7	0xbd098856	-0.033577286
8	0x3c683ffb	0.01417541
9	0x3d0047b5	0.031318385
10	0x3c286167	0.010277129
11	0x3cc4a0d8	0.024002478
12	0x3c899406	0.016794216
13	0xbc2d6c19	-0.0105848545
14	0xbcb48583	-0.02203632
15	0x3ce77436	0.028253656
16	0xbc74451f	-0.014909058
17	0xbcb7e25c	-0.022446804
18	0xbce0552f	-0.027384369
19	0xbc09f483	-0.008420113
20	0xbc6df958	-0.01452478
21	0x3c6aecfa	0.014338726
22	0xbc7c0973	-0.015383112
23	0x3d076403	0.033054363
24	0x3b3ff9e9	0.0029293245
25	0x3cbb75c5	0.022883305
26	0xbbf6f38b	-0.007536357
27	0x3d01d073	0.031692933
28	0xbafe7914	-0.0019414746
29	0xbc50f444	-0.01275355
30	0xbc9c416a	-0.01907416
31	0x3ca2c36c	0.019868575
32	0x3c61850b	0.01376463
33	0x3cefe76e	0.029285159
34	0xbcb0a32c	-0.021562181
35	0xbc909e84	-0.017653711
36	0xbcb66bfc	-0.022268288
37	0x3ce504d8	0.027956411
38	0x3c3406c7	0.010987944
39	0xbcedd942	-0.02903426
40	0x3c9200b8	0.017822608
41	0xbba9957b	-0.00517529
42	0x3ba28356	0.004959504
43	0x3c7d6c86	0.015467769
44	0xbcea42f7	-0.028596384
45	0x3d012daa	0.03153769
46	0xbc8330eb	-0.016014537
47	0xbcf07727	-0.029353691
48	0xba68e899	-0.00088847574
49	0xbc087c7f	-0.008330463

fc2.weight f4 [10, 50]
0	0xbc4fdeeb	-0.012687425
1	0xbdb96683	-0.09052756
2	0x3c39b3f0	0.011334404
3	0x3bff7fd2	0.00779722
4	0xbd312f59	-0.043258045
5	0xbdea2a90	-0.114338994
6	0x3dd74b7e	0.10512446
7	0xbdc7e96f	-0.09761321
8	0x3d9f0868	0.07765275
9	0x3e0548ac	0.13016003
10	0x3c1db0da	0.009624684
11	0xbca3e963	-0.020008748
12	0x3cd1435d	0.025544817
13	0x3cbdd3aa	0.023172218
14	0x3e0521e0	0.13001204
15	0x3c4b2120	0.012398034
16	0x3d57bc48	0.052669793
17	0x3d4d6656	0.050146423
18	0x3da88616	0.082287
19	0x3d9172c8	0.07101971
20	0xbdaa2390	-0.08307564
21	0x3dabd830	0.08390844
22	0xbdc999ef	-0.09843814
23	0xbda4bd2c	-0.08043894
24	0xbcdc3c78	-0.026884302
25	0x3bd373f3	0.006453031
26	0xba8ae1da	-0.0010595873
27	0x3e0507ea	0.129913
28	0xbd940678	-0.07227796
29	0xbdff0a55	-0.124531426
30	0xbd038b0e	-0.032115035
31	0x3de4c624	0.11170605
32	0x3cd20b40	0.02564013
33	0x3d2a5b19	0.041590784
34	0xbcecaf5c	-0.028892212
35	0xbd65d0fe	-0.056107514
36	0x3d659652	0.05605156
37	0xbce173e3	-0.02752108
38	0x3d8aeb58	0.067831695
39	0x3dfb6881	0.12275792
40	0x3d9cf564	0.07663992
41	0xbd164019	-0.036682222
42	0x3bfd4c28	0.007730026
43	0x3db9f544	0.09079984
44	0x3dd64f50	0.104643464
45	0xbd63dec9	-0.055632386
46	0x3e006232	0.12537459
47	0xbda4cdcc	-0.08047065
48	0xba8e8c36	-0.0010875526
49	0xbd4da3a8	-0.050204903
50	0xbde778c3	-0.1130233
51	0x3da60f57	0.081083946
52	0xbe028c13	-0.12748747
53	0x3d1559ff	0.03646278
54	0xbdd41c6e	-0.10356985
55	0x3d85bc5b	0.065300666
56	0xbdc592f5	-0.096471705
57	0x3dca21b6	0.09869711
58	0x3d9b2698	0.075757205
59	0x3cbf7ef7	0.023375971
60	0x3d407b7d	0.046992768
61	0xbd07e6bc	-0.03317903
62	0xbb23e1fb	-0.002500652
63	0x3dbfd21f	0.09366249
64	0x3caf1150	0.02137056
65	0x3dcfe572	0.10151185
66	0xbd078b80	-0.033092022
67	0x3e0419c9	0.12900461
68	0x3d2a0318	0.041506857
69	0x3dddc7c1	0.10829116
70	0x3ce30042	0.027710084
71	0xbc415fc2	-0.011802616
72	0x3d998213	0.07495513
73	0xbd01827d	-0.031618584
74	0x3ddb1fea	0.106994465
75	0xbd61d829	-0.055137787
76	0xbce96d42	-0.028494481
77	0x3e05b321	0.13056614
78	0xbe0d6a43	-0.13810067
79	0xbd1e7a61	-0.03869093
80	0xbdd0d3c7	-0.10196643
81	0xbd2b3e52	-0.04180748
82	0x3d80df13	0.06292548
83	0xbdcd8665	-0.10035399
84	0xbc78cc45	-0.01518542
85	0xbdc6c8a6	-0.097062394
86	0xbd80ebc7	-0.06294971
87	0xbc44e15c	-0.0120166205
88	0x3ba26b6a	0.0049566524
89	0x3da2f719	0.079572864
90	0xbe0c7f69	-0.13720478
91	0x3dc13622	0.09434153
92	0x3dcdf5b5	0.100566305
93	0x3cf52235	0.029923538
94	0xbe05bb1b	-0.13059656
95	0xbc1e00f8	-0.009643786
96	0x3dda991e	0.10673736
97	0xbd8bd462	-0.06827618
98	0xbd8a3fb8	-0.06750435
99	0xbda3440e	-0.07971965
100	0x3d2ea895	0.04264124
101	0xbdc84bd3	-0.09780087
102	0xbe0dd693	-0.13851385
103	0xbd374f14	-0.04475315
104	0x3c209000	0.009799957
105	0x3d001de3	0.031278502
106	0xbcd2e6da	-0.025744844
107	0x3d013b11	0.03155047
108	0xbe058174	-0.13037664
109	0xbd3de0b5	-0.046356875
110	0x3c690c26	0.014224088
111	0x3e0971a1	0.13422252
112	0xbe0d2e1e	-0.13787124
113	0x3dd0829f	0.10181164
114	0xbdea33fc	-0.114356965
115	0xbde92d1a	-0.113855556
116	0x3d77abf9	0.06046674
117	0xbda20163	-0.07910421
118	0xbda8f75b	-0.08250304
119	0x3e112636	0.14174733
120	0xbdeda2eb	-0.1160334
121	0x3e10dc96	0.14146647
122	0xbddca2c2	-0.10773231
123	0xbd1c2908	-0.038125068
124	0xbc18b213	-0.0093198
125	0xbdbd4c1c	-0.09243032
126	0x3dc37fa6	0.095458314
127	0x3e0276e2	0.12740663
128	0xbd553301	-0.052050594
129	0x3d913f99	0.070922084
130	0x3da8e903	0.082475685
131	0xbe0c2fdb	-0.1369013
132	0x3d5b9edd	0.0536183
133	0x3b8bffde	0.004272445
134	0xbcf36a86	-0.02971388
135	0xbce0b9bc	-0.027432315
136	0xbdc12030	-0.094299674
137	0xbcd165e9	-0.02556129
138	0xbe088e20	-0.13335466
139	0xbdd868ac	-0.105668396
140	0xbbaf48b1	-0.0053492417
141	0x3cc98d8a	0.024603624
142	0x3df28673	0.118420504
143	0xbdc8e856	-0.098099396
144	0xbdd05ba4	-0.10173729
145	0x3de75fb7	0.11297553
146	0xbd8db728	-0.069197
147	0x3e08ae3d	0.13347717
148	0xbc3900c2	-0.011291685
149	0x3df3d2ad	0.119054176
150	0xbdec21d3	-0.11529889
151	0x3deb6192	0.114932194
152	0x3e049df2	0.12950876
153	0xbdbd28a6	-0.09236269
154	0xbd4e0bb0	-0.050304115
155	0xbd10acac	-0.035320923
156	0x3d051506	0.032490753
157	0xbc8c1b02	-0.017102722
158	0xbd87bce7	-0.06627827
159	0x3c8a2d39	0.016867267
160	0x3b5829dc	0.0032983935
161	0x3e0c7d02	0.13719562
162	0xbe092853	-0.13394289
163	0xbd434d45	-0.04768111
164	0xbde4a454	-0.111641556
165	0x3d485cb5	0.048916537
166	0x3d7894c0	0.060688734
167	0x3d2ce5d1	0.042211358
168	0xbda29f3e	-0.07940529
169	0xbd4f6609	-0.050634418
170	0xbd9ce8d5	-0.07661597
171	0xbdfe3875	-0.12413112
172	0x3d671a9b	0.056421857
173	0xbcb49c44	-0.02204717
174	0x3e0e7b0f	0.1391413
175	0x3d68098c	0.05664973
176	0xbda7a1ab	-0.081851326
177	0xbd02fe44	-0.031980768
178	0xbd7751d5	-0.060380775
179	0xbd855615	-0.065105595
180	0x3d9047d7	0.07044952
181	0x3dbab329	0.09116203
182	0x3d6dfc68	0.05810204
183	0xbde5ab37	-0.11214297
184	0x3e0db138	0.13837135
185	0xbe0f704d	-0.14007683
186	0x3e1387fb	0.14407341
187	0xbdf60e2e	-0.12014423
188	0xbd9e42a1	-0.07727552
189	0xbd417d94	-0.0472389
190	0xbd4f5f80	-0.050628185
191	0x3dc5baa6	0.09654741
192	0x3dda2ce3	0.10653093
193	0x3cf1c7f3	0.029514289
194	0xbdfab196	-0.12240903
195	0x3dc01db7	0.09380668
196	0xbc725090	-0.014789715
197	0xbdc376ad	-0.0954412
198	0x3bf6154c	0.007509863
199	0xbdda3173	-0.10653963
200	0x3d19088d	0.03736167
201	0x3d918bda	0.07106753
202	0x3d232127	0.03982654
203	0x3d949e03	0.07256701
204	0x3cf99d67	0.030470563
205	0x3e074a82	0.13212016
206	0x3cad1e81	0.02113271
207	0x3d187296	0.037218653
208	0xbdc33a11	-0.0953256
209	0x3dfee848	0.12446648
210	0x3d5fa84a	0.054603852
211	0x3cb03424	0.021509238
212	0x3e0eb3a7	0.1393572
213	0x3c82c174	0.015961386
214	0xbe0971bd	-0.13422294
215	0xbe0e923c	-0.13922971
216	0xbce90e59	-0.028449224
217	0x3da6a81d	0.08137534
218	0x3d45eafb	0.048319798
219	0xbd8ed15d	-0.069735266
220	0xbe0639a0	-0.1310792
221	0xbdc61071	-0.09671105
222	0x3b9522ce	0.004551268
223	0x3cf8708f	0.03032711
224	0xbe04c70b	-0.12966554
225	0x3d4c5e7e	0.049894802
226	0x3d276164	0.040864363
227	0xbdce01f8	-0.10058969
228	0x3e006e43	0.12542062
229	0xbe0ff13f	-0.14056872
230	0x3e00625a	0.12537518
231	0xbddf1bcb	-0.10893973
232	0x3df5668a	0.119824484
233	0xbddec057	-0.1087653
234	0xbd22bce4	-0.03973092
235	0xbd7c3b91	-0.061580244
236	0xbd299212	-0.04139907
237	0x3e0a123a	0.13483515
238	0xbd73f641	-0.059561018
239	0xbe1366f2	-0.1439474
240	0x3db43f2d	0.08801112
241	0x3dec8473	0.115487
242	0xbd7009a8	-0.05860296
243	0xbdc7fe56	-0.097653076
244	0xbc74ad5a	-0.014933908
245	0x3d35ba7b	0.044367295
246	0xbd904fb1	-0.0704645
247	0xbd3957f9	-0.045249913
248	0xbd2f4f5a	-0.042800285
249	0xbd9f50f6	-0.07779114
250	0xbda57b56	-0.08080165
251	0x3d72507e	0.059158795
252	0x3d89bb09	0.06725127
253	0x3d2c67d4	0.042091206
254	0xbd97c310	-0.07410252
255	0xbd365dd0	-0.04452306

fc2.bias f4 [10]
0	0xbce21354	-0.027597107
1	0xbbecc3f6	-0.007225509
2	0x3e0bd2b9	0.13654603
3	0x3d51a5aa	0.05118338
4	0x3cfb8827	0.030704571
5	0x3d8c59b2	0.068530455
6	0x3d6be267	0.05758896
7	0xbda96b37	-0.08272403
8	0x3cff0a03	0.031132704
9	0x3dbfaefa	0.09359546

exp_avg f4 [50, 784]
0	0x00000000	0.0
1	0x00000000	0.0
2	0x00000000	0.0
3	0x00000000	0.0
4	0x00000000	0.0
5	0x00000000	0.0
6	0x00000000	0.0
7	0x00000000	0.0
8	0x00000000	0.0
9	0x00000000	0.0
10	0x00000000	0.0
11	0x00000000	0.0
12	0x33bd92f6	8.8277304e-08
13	0x344f8d08	1.9329684e-07
14	0x00000000	0.0
15	0x00000000	0.0
16	0x00000000	0.0
17	0x00000000	0.0
18	0x00000000	0.0
19	0x00000000	0.0
20	0x00000000	0.0
21	0x00000000	0.0
22	0x00000000	0.0
23	0x00000000	0.0
24	0x00000000	0.0
25	0x00000000	0.0
26	0x00000000	0.0
27	0x00000000	0.0
28	0x00000000	0.0
29	0x00000000	0.0
30	0x00000000	0.0
31	0x00000000	0.0
32	0x00000000	0.0
33	0x00000000	0.0
34	0x3364aa1a	5.3240093e-08
35	0x34aad7b2	3.1821907e-07
36	0x35706d7e	8.95663e-07
37	0x35b6cb98	1.361931e-06
38	0x36014fa3	1.9268853e-06
39	0x362c2e3c	2.565691e-06
40	0x36880fb4	4.054944e-06
41	0x364cedac	3.0536712e-06
42	0x35913be2	1.082077e-06
43	0x32a57dc3	1.9265718e-08
44	0xb5838811	-9.799861e-07
45	0x35a51d60	1.2302007e-06
46	0x36070d38	2.0124262e-06
47	0x3564e8be	8.5275303e-07
48	0x355063e0	7.7631375e-07
49	0x34c7c8b6	3.7212675e-07
50	0x34139d23	1.3747608e-07
51	0x323408d6	1.0479388e-08
52	0x00000000	0.0
53	0x00000000	0.0
54	0x00000000	0.0
55	0x00000000	0.0
56	0x00000000	0.0
57	0x00000000	0.0
58	0x00000000	0.0
59	0x00000000	0.0
60	0x33edb620	1.1069301e-07
61	0x33623005	5.26634e-08
62	0x3503aa9e	4.9049584e-07
63	0x35e0a387	1.6736893e-06
64	0x362bfd8c	2.562857e-06
65	0x360d2efc	2.1037986e-06
66	0x360ffdb7	2.1456342e-06
67	0x36ad7c58	5.1702773e-06
68	0x377703b4	1.47232095e-05
69	0x37ba6f90	2.2224878e-05
70	0x37b398ee	2.1409676e-05
71	0x37dec57a	2.655642e-05
72	0x38329f85	4.258707e-05
73	0x3849fb1d	4.8156002e-05
74	0x382ff16d	4.1948097e-05
75	0x37deb550	2.6548892e-05
76	0x37176222	9.02315e-06
77	0x366bd1eb	3.5139917e-06
78	0x35f7b9f8	1.8457058e-06
79	0x3508609f	5.080455e-07
80	0x341e0425	1.4716404e-07
81	0x3389a0e2	6.408824e-08
82	0x00000000	0.0
83	0x00000000	0.0
84	0x00000000	0.0
85	0x00000000	0.0
86	0x332eea92	4.0725872e-08
87	0x338033c3	5.96988e-08
88	0x339e0f2f	7.36021e-08
89	0x352e9bd2	6.50468e-07
90	0xb40a1316	-1.2859195e-07
91	0xb5dbfe9e	-1.6390875e-06
92	0xb6fce346	-7.5366434e-06
93	0xb76a0539	-1.3948703e-05
94	0xb784bd60	-1.582381e-05
95	0xb77085f9	-1.4336308e-05
96	0xb717ca5a	-9.047415e-06
97	0xb62bfec8	-2.5629288e-06
98	0x3762f082	1.3526647e-05
99	0x3816c506	3.594628e-05
100	0x387f4f8c	6.087082e-05
101	0x389ca346	7.469072e-05
102	0x388a9cea	6.60958e-05
103	0x383b9b38	4.4728833e-05
104	0x37c49fb4	2.3439388e-05
105	0x375a9cfc	1.3030363e-05
106	0x36ccb45c	6.1006704e-06
107	0x363ec501	2.8426878e-06
108	0x357bc1e9	9.3786963e-07
109	0x33de643f	1.0355915e-07
110	0x324b284b	1.1825317e-08
111	0x00000000	0.0
112	0x00000000	0.0
113	0x00000000	0.0
114	0x34118d37	1.3555551e-07
115	0x3376e67b	5.748596e-08
116	0x34e5d289	4.2807758e-07
117	0x35ae4482	1.2983949e-06
118	0xb5191e95	-5.7041444e-07
119	0xb656f9d2	-3.20339e-06
120	0xb6c9a0d9	-6.008992e-06
121	0xb717bbb2	-9.044003e-06
122	0xb607e047	-2.0247114e-06
123	0x370d2870	8.41367e-06
124	0x3805eda2	3.1930984e-05
125	0x38d8262f	0.00010306795
126	0x395c6fb4	0.00021022448
127	0x39995355	0.0002924452
128	0x39b0737c	0.00033655379
129	0x39b8a05e	0.00035214698
130	0x39ab7ba2	0.00032707775
131	0x398d4944	0.00026948203
132	0x39397d1c	0.00017689582
133	0x38d40dac	0.00010111494
134	0x3835ff14	4.3391323e-05
135	0x376c3ec4	1.408131e-05
136	0x3690cb5d	4.315209e-06
137	0x35c4f0ae	1.4673185e-06
138	0x3556d777	8.0034755e-07
139	0x34187e74	1.4202107e-07
140	0x00000000	0.0
141	0x00000000	0.0
142	0x341c577b	1.4560457e-07
143	0x3490358c	2.686105e-07
144	0x3650a54d	3.1090633e-06
145	0x36cab99e	6.041678e-06
146	0x368d15ac	4.2046504e-06
147	0x37027357	7.7754585e-06
148	0x37a0d4f8	1.9172658e-05
149	0x383faf9c	4.5701498e-05
150	0x38fe389a	0.00012122207
151	0x398d1867	0.00026911797
152	0x3a012075	0.0004925796
153	0x3a4c3b64	0.00077908323
154	0x3a891731	0.0010459182
155	0x3a9bc5f0	0.0011884551
156	0x3aa0b4c2	0.0012260901
157	0x3a91d41d	0.0011125837
158	0x3a71177f	0.00091969216
159	0x3a353fe6	0.00069141237
160	0x39ef9561	0.00045696928
161	0x39829eb3	0.00024913772
162	0x38de35a8	0.00010595779
163	0x382a898b	4.0659255e-05
164	0x378b68ac	1.6618833e-05
165	0x3710f5f1	8.6403315e-06
166	0x365d11ec	3.2941998e-06
167	0x341523fb	1.3889796e-07
168	0x00000000	0.0
169	0x323befca	1.0939354e-08
170	0x34094d86	1.2787322e-07
171	0x35b15f34	1.3215235e-06
172	0x3700a885	7.668631e-06
173	0x36e9be5b	6.9661014e-06
174	0x371ca71e	9.337235e-06
175	0x37e48bc5	2.7244803e-05
176	0x388f2d02	6.827155e-05
177	0x39034cdb	0.00012521764
178	0x39875da3	0.0002581897
179	0x39f3912e	0.0004645674
180	0x3a3479bf	0.00068845967
181	0x3a680a23	0.0008851608
182	0x3a885fe6	0.0010404557
183	0x3a8eafef	0.0010886173
184	0x3a8ef32e	0.0010906213
185	0x3a87413a	0.0010319122
186	0x3a793652	0.00095066905
187	0x3a502410	0.0007939944
188	0x3a1986ca	0.0005856572
189	0x39b80b67	0.0003510371
190	0x393a6d64	0.00017779093
191	0x38cb9545	9.707598e-05
192	0x3863c8a7	5.430789e-05
193	0x37dc7ff4	2.6285627e-05
194	0x36d81677	6.439917e-06
195	0x34cbd612	3.7967453e-07
196	0xb29ef042	-1.8502877e-08
197	0x34a01d46	2.9823622e-07
198	0xb55773c2	-8.026219e-07
199	0xb5f62b42	-1.8341018e-06
200	0x33815320	6.022151e-08
201	0xb725a6af	-9.873575e-06
202	0xb78ae421	-1.6557113e-05
203	0x33380800	4.2848114e-08
204	0x379b1a89	1.8489796e-05
205	0x37b9071f	2.2057035e-05
206	0x388d46ad	6.736568e-05
207	0x3909b1a3	0.00013131513
208	0x3927513b	0.00015956622
209	0x394f2792	0.000197558
210	0x39763d19	0.00023483149
211	0x39971667	0.00028817655
212	0x399f7cd9	0.00030419862
213	0x39a7ceae	0.0003200671
214	0x39d311d6	0.00040258345
215	0x39f6c73f	0.00047069226
216	0x39eb2d15	0.00044856282
217	0x39aa73ca	0.00032511196
218	0x395bbb66	0.00020955279
219	0x391b7a96	0.00014827619
220	0x38ca637e	9.6506425e-05
221	0x3829b81a	4.0464198e-05
222	0x371dc50f	9.4038105e-06
223	0x35107990	5.3821077e-07
224	0xb3a17988	-7.519253e-08
225	0xb565924b	-8.552203e-07
226	0xb6952dcc	-4.4458775e-06
227	0xb721af39	-9.637145e-06
228	0xb75289ee	-1.254909e-05
229	0xb83f32e4	-4.5585344e-05
230	0xb8a8f728	-8.056901e-05
231	0xb8f14b3e	-0.000115057905
232	0xb94e46e9	-0.00019672107
233	0xb9a59b90	-0.00031587156
234	0xb9de66f4	-0.00042419846
235	0xb9f678fd	-0.0004701092
236	0xb9ee8982	-0.0004549735
237	0xb9b8a89c	-0.0003522084
238	0xb94e54bb	-0.00019677255
239	0xb86e2ff8	-5.6788296e-05
240	0xb8c38afb	-9.324212e-05
241	0xb97a2592	-0.00023855854
242	0xb947399f	-0.00018999584
243	0x37bf76b8	2.2824257e-05
244	0x3929715c	0.00016159326
245	0x395aa4ac	0.00020851445
246	0x3949751d	0.00019212482
247	0x392d9504	0.00016554078
248	0x38e72bb4	0.00011023079
249	0x383cd480	4.50206e-05
250	0x3712befc	8.746745e-06
251	0x34cda400	3.830355e-07
252	0xb3c342f6	-9.092575e-08
253	0xb57e337c	-9.4697293e-07
254	0xb6f3c300	-7.2646653e-06
255	0xb78ee9b0	-1.7036538e-05

exp_avg_sq f4 [50, 784]
0	0x00000000	0.0
1	0x00000000	0.0
2	0x00000000	0.0
3	0x00000000	0.0
4	0x00000000	0.0
5	0x00000000	0.0
6	0x00000000	0.0
7	0x00000000	0.0
8	0x00000000	0.0
9	0x00000000	0.0
10	0x00000000	0.0
11	0x00000000	0.0
12	0x25b66aea	3.1644415e-16
13	0x26daa788	1.5172198e-15
14	0x00000000	0.0
15	0x00000000	0.0
16	0x00000000	0.0
17	0x00000000	0.0
18	0x00000000	0.0
19	0x00000000	0.0
20	0x00000000	0.0
21	0x00000000	0.0
22	0x00000000	0.0
23	0x00000000	0.0
24	0x00000000	0.0
25	0x00000000	0.0
26	0x00000000	0.0
27	0x00000000	0.0
28	0x00000000	0.0
29	0x00000000	0.0
30	0x00000000	0.0
31	0x00000000	0.0
32	0x00000000	0.0
33	0x00000000	0.0
34	0x250481de	1.1493176e-16
35	0x2793f080	4.1061447e-15
36	0x29127bdc	3.2525943e-14
37	0x29aad64a	7.58669e-14
38	0x2a3090ea	1.5682217e-13
39	0x2a97d6ea	2.6972115e-13
40	0x2b3b8b40	6.6628994e-13
41	0x2ad514ea	3.7850913e-13
42	0x2955db14	4.748552e-14
43	0x255b72aa	1.9034072e-16
44	0x293927d2	4.111279e-14
45	0x298a619e	6.145365e-14
46	0x2a3d375b	1.6805777e-13
47	0x290d1243	3.132413e-14
48	0x28f1e4da	2.6855623e-14
49	0x27e2852a	6.2871978e-15
50	0x265e5350	7.713463e-16
51	0x22a45e74	4.4552295e-18
52	0x00000000	0.0
53	0x00000000	0.0
54	0x00000000	0.0
55	0x00000000	0.0
56	0x00000000	0.0
57	0x00000000	0.0
58	0x00000000	0.0
59	0x00000000	0.0
60	0x260f57d2	4.973211e-16
61	0x2549adbc	1.7492834e-16
62	0x2853972c	1.1745633e-14
63	0x2a0402c6	1.1724917e-13
64	0x2a97d276	2.6969025e-13
65	0x2a885be2	2.422221e-13
66	0x2ad35fa8	3.7547504e-13
67	0x2bba4d62	1.3237573e-12
68	0x2d1d025a	8.924939e-12
69	0x2db05cec	2.0050149e-11
70	0x2da3875a	1.8591063e-11
71	0x2dfc6927	2.869578e-11
72	0x2ea39cd8	7.440243e-11
73	0x2ed3ecbc	9.6372216e-11
74	0x2ea24022	7.3782994e-11
75	0x2e03c766	2.9963053e-11
76	0x2c81130b	3.6685147e-12
77	0x2b225963	5.767801e-13
78	0x2a26e152	1.4821935e-13
79	0x2840b192	1.06966455e-14
80	0x27347d42	2.504792e-15
81	0x2674d3c0	8.494148e-16
82	0x00000000	0.0
83	0x00000000	0.0
84	0x00000000	0.0
85	0x00000000	0.0
86	0x250298bd	1.1327452e-16
87	0x252b2231	1.484347e-16
88	0x25f3e8a9	4.2311437e-16
89	0x28a79448	1.8605031e-14
90	0x293a1825	4.132124e-14
91	0x2b0035b3	4.554926e-13
92	0x2c72f896	3.4528261e-12
93	0x2d42cb29	1.1072734e-11
94	0x2d8d0613	1.6032542e-11
95	0x2daa00c2	1.9327099e-11
96	0x2d928691	1.6658038e-11
97	0x2d62a336	1.2882853e-11
98	0x2d7ed25f	1.448494e-11
99	0x2e6d3899	5.393783e-11
100	0x2f2518dd	1.5015496e-10
101	0x2f7d1aab	2.301969e-10
102	0x2f4a0212	1.8372528e-10
103	0x2ebac328	8.4929674e-11
104	0x2dd4a498	2.4174704e-11
105	0x2d08bc32	7.772493e-12
106	0x2bf74fb2	1.7572525e-12
107	0x2ad8a413	3.8483157e-13
108	0x293f32d1	4.2454596e-14
109	0x262a4bd1	5.908335e-16
110	0x23c43092	2.1270933e-17
111	0x00000000	0.0
112	0x00000000	0.0
113	0x00000000	0.0
114	0x26be0323	1.3184749e-15
115	0x256cd590	2.0542095e-16
116	0x28097a9a	7.631613e-15
117	0x29a4817c	7.305525e-14
118	0x2a66fc3c	2.0515615e-13
119	0x2bb932e3	1.3159165e-12
120	0x2c8d7ae2	4.0211038e-12
121	0x2cf0bf45	6.8424454e-12
122	0x2c45945b	2.8077738e-12
123	0x2c9e36b3	4.496703e-12
124	0x2e4457e7	4.4643313e-11
125	0x30073ce0	4.919922e-10
126	0x310879f2	1.9859923e-09
127	0x3184ad31	3.861395e-09
128	0x31b35ed7	5.2203677e-09
129	0x31c373e7	5.6884235e-09
130	0x31a43801	4.779395e-09
131	0x315adf4a	3.18501e-09
132	0x30bcfa6b	1.3749973e-09
133	0x2ffa6847	4.5548829e-10
134	0x2ec5f5f0	9.00221e-11
135	0x2d4eaf13	1.1748619e-11
136	0x2bc84da2	1.4232402e-12
137	0x2a1803e2	1.3501659e-13
138	0x29065830	2.9830468e-14
139	0x266db8e7	8.247648e-16
140	0x00000000	0.0
141	0x00000000	0.0
142	0x2682f151	9.085971e-16
143	0x28841545	1.4664168e-14
144	0x2b210d68	5.7217295e-13
145	0x2bf52624	1.7418883e-12
146	0x2b860c46	9.524679e-13
147	0x2c76e3e9	3.5085218e-12
148	0x2dac56f3	1.959275e-11
149	0x2ef5bc1c	1.1174725e-10
150	0x303d89ee	6.895381e-10
151	0x315e0276	3.230665e-09
152	0x32375a9c	1.0672604e-08
153	0x32e4e77a	2.6647957e-08
154	0x334e2ae0	4.8002107e-08
155	0x3385b7a4	6.226699e-08
156	0x338efdef	6.6585805e-08
157	0x336e31c6	5.5458962e-08
158	0x3322e697	3.7928285e-08
159	0x32b857b2	2.1460298e-08
160	0x322266e8	9.453039e-09
161	0x3146f27f	2.8950635e-09
162	0x3021d9b2	5.888082e-10
163	0x2eebc047	1.0720718e-10
164	0x2dad4c3e	1.9701681e-11
165	0x2c82d64e	3.718615e-12
166	0x2b0611ea	4.7631224e-13
167	0x26636042	7.88869e-16
168	0x00000000	0.0
169	0x22b408e4	4.879851e-18
170	0x2688aa97	9.483134e-16
171	0x2ab0762c	3.1345879e-13
172	0x2c7ef99a	3.6234128e-12
173	0x2c89a023	3.911553e-12
174	0x2d4e3e5e	1.1723593e-11
175	0x2e824c57	5.925276e-11
176	0x2f956390	2.7173686e-10
177	0x30654efc	8.342196e-10
178	0x31585192	3.1478504e-09
179	0x3226e74c	9.7150625e-09
180	0x32b7b5b1	2.1386628e-08
181	0x331b6079	3.617649e-08
182	0x335a8354	5.0876523e-08
183	0x33731de1	5.660502e-08
184	0x33754276	5.7103954e-08
185	0x3359abe3	5.068058e-08
186	0x333437ff	4.1960444e-08
187	0x32f8b27b	2.8952163e-08
188	0x3288256b	1.58495e-08
189	0x31c9d99c	5.8746092e-09
190	0x30df6c17	1.6256106e-09
191	0x300b9105	5.077399e-10
192	0x2f25858e	1.5054111e-10
193	0x2e0c74a3	3.193591e-11
194	0x2c017656	1.8397692e-12
195	0x283193df	9.857538e-15
196	0x2380df3e	1.3972335e-17
197	0x2782c335	3.6293892e-15
198	0x28ec4398	2.6230577e-14
199	0x2acd01f0	3.641666e-13
200	0x2be75acc	1.6438738e-12
201	0x2d187276	8.665615e-12
202	0x2df5728f	2.790415e-11
203	0x2e6ddda6	5.4084424e-11
204	0x2f1a6bff	1.4044586e-10
205	0x2f88ef5e	2.4908337e-10
206	0x302f8b41	6.386252e-10
207	0x30de78d8	1.6186972e-09
208	0x314c5885	2.9736225e-09
209	0x31b82bbb	5.3600764e-09
210	0x320a7db6	8.061241e-09
211	0x3234e45d	1.0529303e-08
212	0x3235efd8	1.0590121e-08
213	0x321f4f2f	9.273022e-09
214	0x322c3258	1.00231645e-08
215	0x3246f1d0	1.1580099e-08
216	0x322c92cb	1.00450945e-08
217	0x31b63d90	5.303896e-09
218	0x311a25d8	2.2431461e-09
219	0x3096bf4d	1.0968307e-09
220	0x2ff26e78	4.4098036e-10
221	0x2ea49eb3	7.486047e-11
222	0x2c863afd	3.815058e-12
223	0x28a1038d	1.787613e-14
224	0x2585048e	2.3074909e-16
225	0x2905bdea	2.9696657e-14
226	0x2b619bf4	8.0152486e-13
227	0x2c86f611	3.835828e-12
228	0x2d0c3af7	7.9711715e-12
229	0x2ebf4132	8.6972554e-11
230	0x2f964fba	2.734149e-10
231	0x301b7a43	5.6562416e-10
232	0x30e03490	1.6313084e-09
233	0x318e5ebd	4.1435144e-09
234	0x3200eb78	7.50412e-09
235	0x32222ae0	9.43939e-09
236	0x32243c61	9.559785e-09
237	0x3200dda0	7.500972e-09
238	0x31c96da7	5.862336e-09
239	0x31c3ffe2	5.7043374e-09
240	0x31abdedd	5.0020916e-09
241	0x31a58a8b	4.8178825e-09
242	0x314a9dad	2.9484497e-09
243	0x30c16dec	1.407384e-09
244	0x311b9471	2.2639848e-09
245	0x31310bb5	2.5763545e-09
246	0x31046d18	1.927054e-09
247	0x30b482b1	1.3133868e-09
248	0x3019a554	5.589602e-10
249	0x2ecb1b60	9.236234e-11
250	0x2c6d0e82	3.368778e-12
251	0x28121bc1	8.110646e-15
252	0x25c19e7e	3.3587562e-16
253	0x2924429d	3.6473093e-14
254	0x2c167f5c	2.138698e-12
255	0x2d4f6a4d	1.1790191e-11

exp_avg f4 [50]
0	0x393c7805	0.00017973788
1	0x3924e7c0	0.00015726592
2	0x3b2ce166	0.0026379465
3	0xb9f07b10	-0.00045868056
4	0xb9a9a68c	-0.0003235828
5	0xba5e07e8	-0.0008469806
6	0x3a4a7bc6	0.0007724132
7	0x3a081597	0.00051912054
8	0xba1ef07a	-0.00060630555
9	0x37eb7600	2.8069131e-05
10	0xbad8b34c	-0.0016532927
11	0xba08d64c	-0.0005219921
12	0x3a446cca	0.00074930175
13	0xba629739	-0.000864375
14	0xbac3176f	-0.0014884303
15	0xba8563a8	-0.0010176795
16	0xb992d6d4	-0.0002800735
17	0xba0e1f22	-0.0005421509
18	0xba3549d4	-0.00069156033
19	0xbb0cda24	-0.0021492327
20	0xba8ba3c6	-0.0010653667
21	0xba3e9dda	-0.00072714465
22	0x3af2894b	0.0018504051
23	0x399ca5fc	0.00029878307
24	0xbacc73d4	-0.0015598484
25	0x39dc2a53	0.00041993204
26	0xb9392968	-0.000176584
27	0xbb2e6f48	-0.0026616622
28	0xbaa4be17	-0.0012568858
29	0xbabb6488	-0.0014296928
30	0xb9507fde	-0.0001988406
31	0xba035742	-0.0005010256
32	0x3a0cabb8	0.0005366164
33	0x3b01d68f	0.0019811725
34	0xb94316ba	-0.00018605115
35	0x3a35fa3d	0.00069418905
36	0xbaa971e2	-0.0012927616
37	0xba59c7ae	-0.00083076477
38	0x389886a7	7.273006e-05
39	0xba5a3212	-0.0008323501
40	0xbb006b20	-0.0019595101
41	0xbac9b8c4	-0.0015390147
42	0x3a97b86b	0.0011575347
43	0xba790cae	-0.00095004856
44	0xbadcda2e	-0.0016849691
45	0xbb151e8c	-0.0022753803
46	0xb9a6ec42	-0.00031838013
47	0xba24a56d	-0.0006280754
48	0xbaa35962	-0.0012462551
49	0xba933ae9	-0.0011232767

exp_avg_sq f4 [50]
0	0x32b6b971	2.1271918e-08
1	0x3370b53e	5.6044193e-08
2	0x34a418ee	3.056552e-07
3	0x328916e5	1.595931e-08
4	0x324a88e2	1.1789071e-08
5	0x3393bd59	6.879663e-08
6	0x33426a2d	4.526571e-08
7	0x33094c26	3.1967055e-08
8	0x32e0abc3	2.615514e-08
9	0x32a0311b	1.8648782e-08
10	0x33f1d8b2	1.1261854e-07
11	0x327d6d66	1.47514125e-08
12	0x334e50b6	4.803652e-08
13	0x33749eaf	5.6955e-08
14	0x33d4b48a	9.904859e-08
15	0x33836074	6.1177076e-08
16	0x318fb4ed	4.1824166e-09
17	0x329faa4c	1.8587478e-08
18	0x3313c920	3.4409027e-08
19	0x3450e3c6	1.9454373e-07
20	0x334eebd1	4.8177586e-08
21	0x32d6481d	2.4945672e-08
22	0x343aac5c	1.7385304e-07
23	0x3247a164	1.16200205e-08
24	0x33e2de74	1.0564409e-07
25	0x3315508a	3.4765016e-08
26	0x3237ac06	1.06911155e-08
27	0x349f0ed8	2.9626858e-07
28	0x339ec653	7.393523e-08
29	0x33b30892	8.336896e-08
30	0x310e8145	2.07372e-09
31	0x32533932	1.2294821e-08
32	0x32b6db29	2.1287251e-08
33	0x34629005	2.1100284e-07
34	0x32406901	1.1199746e-08
35	0x32c4414b	2.2847095e-08
36	0x33bb986d	8.735592e-08
37	0x3305cd74	3.1153334e-08
38	0x31c6c120	5.784514e-09
39	0x331a7098	3.5958323e-08
40	0x3429a6bf	1.5800013e-07
41	0x33e0f9e9	1.0476271e-07
42	0x33c710bc	9.2697036e-08
43	0x331d550f	3.663177e-08
44	0x34017c92	1.205938e-07
45	0x34664060	2.1443839e-07
46	0x319d5235	4.5786472e-09
47	0x329cc1dc	1.8248947e-08
48	0x33b7413f	8.53347e-08
49	0x33788536	5.7863154e-08

exp_avg f4 [10, 50]
0	0x3aaa9c78	0.0013016602
1	0x38b3adc4	8.5677515e-05
2	0x3ab23023	0.0013594668
3	0xbae7c401	-0.0017682315
4	0xbbaeb060	-0.005331084
5	0x3a9068b8	0.0011017537
6	0x390a94db	0.00013216159
7	0xba010f9f	-0.0004923287
8	0x39c934f5	0.00038377164
9	0x3a8ca468	0.0010730149
10	0x3ab5a912	0.0013859591
11	0x3afea136	0.0019426707
12	0x3890fd98	6.9136906e-05
13	0x3a7e48d8	0.00097001856
14	0xb865f30a	-5.4824202e-05
15	0xbb26a50f	-0.0025427972
16	0xb7d65ef8	-2.5555011e-05
17	0xbb741107	-0.0037241594
18	0x39895a38	0.00026197894
19	0x3a3e47a4	0.00072586
20	0x3a9f5a53	0.0012157656
21	0x3a153f58	0.0005693338
22	0xb9d17825	-0.000399531
23	0x3a95e442	0.0011435824
24	0xba946152	-0.0011320508
25	0xba883dc9	-0.001039439
26	0x3a5c787c	0.00084102876
27	0xbb911828	-0.0044279285
28	0xbb10b72a	-0.002208183
29	0x39f6f4b2	0.0004710309
30	0x3b244f13	0.0025071546
31	0xba535fce	-0.0008063287
32	0x3a05da70	0.0005106097
33	0x3a04148d	0.00050384627
34	0xbb8f6427	-0.0043759528
35	0x3a5737c8	0.0008209911
36	0x3914d17f	0.00014192423
37	0x3a8dd538	0.001082099
38	0x3978e762	0.0002373732
39	0x3a1b5a44	0.00059262314
40	0xbb3f7b3e	-0.0029217745
41	0xbb5301b3	-0.0032197058
42	0x399e441e	0.0003018686
43	0xbb8bee6b	-0.004270365
44	0xbb235bdd	-0.002492658
45	0x3b0dd9be	0.0021644677
46	0x38597ece	5.1854928e-05
47	0x3918daed	0.00014577406
48	0xb9003133	-0.0001222536
49	0x389acbd4	7.381258e-05
50	0x3a2ba94f	0.0006548361
51	0x3aa08051	0.0012245273
52	0xbb8665c1	-0.0041014855
53	0x39ee7a04	0.00045485806
54	0x3aa4de3b	0.0012578437
55	0xbb9d14e6	-0.004793751
56	0xb9c26385	-0.0003707671
57	0xba59e276	-0.00083116384
58	0xb8d78d70	-0.00010278344
59	0xb972c37d	-0.00023151744
60	0xbb30c5f0	-0.0026973449
61	0xb9aa7ffe	-0.00032520288
62	0x38e437b8	0.000108822656
63	0xba1daf99	-0.0006015241
64	0x39652f74	0.0002185682
65	0x3ae96f54	0.0017809668
66	0xba3d70e5	-0.00072266004
67	0x3abc31d0	0.0014358107
68	0x3a854f04	0.0010170643
69	0xbaa00078	-0.0012207171
70	0xbba796ff	-0.0051144357
71	0xb9874697	-0.000258018
72	0x3a8c668c	0.0010711714
73	0xb959d864	-0.00020775344
74	0xb977b9de	-0.00023624997
75	0x39c445c5	0.00037436016
76	0x3aba5cfb	0.0014218384
77	0xbab5d7e6	-0.0013873547
78	0x3afbf770	0.0019223522
79	0x3a0f474c	0.0005465641
80	0x3af72105	0.0018854445
81	0x394a5d0c	0.00019298884
82	0xb89c5e48	-7.456221e-05
83	0xba283d6f	-0.0006417846
84	0x3b22e3ac	0.0024854941
85	0x3b0898e6	0.0020843088
86	0x398d3335	0.00026931768
87	0x3ac7b609	0.0015236746
88	0xba9d17e6	-0.0011985272
89	0xbb012f7a	-0.0019712136
90	0x3b36aaa2	0.0027872701
91	0x3a452d78	0.0007521729
92	0x39413df6	0.00018428997
93	0x3a8e4be6	0.001085636
94	0x3ac0818e	0.0014687048
95	0xbb436376	-0.0029813922
96	0xb9ad0256	-0.00032998872
97	0x3934f421	0.00017257083
98	0xb9cbd77e	-0.0003887973
99	0x3a173cce	0.00057692535
100	0x3a88608c	0.001040475
101	0xb9563f1d	-0.00020432142
102	0xb99e1732	-0.0003015339
103	0x39bab7fb	0.0003561376
104	0x38c0c876	9.192612e-05
105	0xba5e66e5	-0.00084839604
106	0x385d6eac	5.2793577e-05
107	0xb9a7a91e	-0.00031978724
108	0x39cfe35a	0.00039651507
109	0x3a1d870e	0.00060091994
110	0xba9e7a3f	-0.0012090876
111	0x3a0c2130	0.00053455215
112	0xb998ba2b	-0.00029130405
113	0xba649b52	-0.00087206543
114	0x3a78e7ab	0.00094949704
115	0x39858de0	0.00025473442
116	0xba94082c	-0.0011293939
117	0x3a3733d8	0.00069886213
118	0x3a63d38e	0.0008690887
119	0xba3e77a4	-0.00072657526
120	0xba7c6ef2	-0.0009629569
121	0xbb0f7053	-0.0021887019
122	0xbb1e8b44	-0.0024191895
123	0x39d3cfba	0.00040399825
124	0x390f31ad	0.00013656048
125	0x383462ae	4.3007247e-05
126	0xb9d8ccfe	-0.00041351462
127	0xb91aaf17	-0.0001475181
128	0x3a4741fa	0.0007601079
129	0xb975acd3	-0.00023429403
130	0x3a3ece86	0.0007278699
131	0x3a203ec9	0.00061128713
132	0xb9b5dd40	-0.00034687854
133	0xba5e3d21	-0.0008477737
134	0xb9a34fce	-0.00031149242
135	0xb82cbffc	-4.1186795e-05
136	0x38e06693	0.00010700258
137	0x37fc6078	3.0085663e-05
138	0x3a76639c	0.0009398998
139	0x39cd6d28	0.00039181975
140	0x3abc349a	0.0014358938
141	0xbaeebf9e	-0.0018215065
142	0xb9bfd9ca	-0.00036592624
143	0x3b0ee146	0.0021801754
144	0x3a601cfc	0.0008549241
145	0x39907176	0.00027550355
146	0x384952eb	4.7999358e-05
147	0xba2903e3	-0.00064474175
148	0x3ac51e72	0.0015038981
149	0x3a56ad2a	0.00081892556
150	0x39d20798	0.0004005998
151	0xbaa8c9f7	-0.0012877573
152	0xb9e8deb1	-0.00044416406
153	0x392f6c7a	0.00016729711
154	0x3a0bc381	0.00053315616
155	0x396fb733	0.00022861063
156	0x389749f4	7.214016e-05
157	0x3968c482	0.00022198449
158	0xba858716	-0.0010187353
159	0x3a70eb35	0.0009190322
160	0x3a1b9984	0.00059356564
161	0xba22bf12	-0.0006208281
162	0xb77acee2	-1.494933e-05
163	0x3889160b	6.536775e-05
164	0xb9b0e0c3	-0.00033736796
165	0xbae261b6	-0.0017271552
166	0xba8bbac0	-0.0010660514
167	0xb9b45129	-0.00034392744
168	0xba7e1b4e	-0.00096934
169	0x3a54daa8	0.00081197405
170	0x39448418	0.00018741225
171	0x396381e4	0.00021696795
172	0xba34f772	-0.00069033273
173	0xbaf02bfb	-0.0018323654
174	0xbb2681f2	-0.0025407043
175	0x394da06e	0.00019610088
176	0xba07a6ff	-0.00051747257
177	0xb9669445	-0.00021989744
178	0xb832392e	-4.249176e-05
179	0x3aa4cee3	0.0012573864
180	0xbaa70ec1	-0.0012745486
181	0xbb384db2	-0.0028122482
182	0x3985856e	0.0002546715
183	0x3898ec05	7.291887e-05
184	0xbad2bb54	-0.0016077557
185	0x397472a8	0.00023312366
186	0xba020a3c	-0.00049606315
187	0x3a370f5d	0.00069831853
188	0xbab18b9b	-0.0013545634
189	0xb8845372	-6.3097934e-05
190	0x3a74b206	0.0009334389
191	0x3a4ce577	0.00078161753
192	0x39baa964	0.0003560289
193	0x3ac4b27d	0.0015006807
194	0xb92eb773	-0.00016662273
195	0xba4739f6	-0.00075998844
196	0x38614cbe	5.3715652e-05
197	0xb7080ac9	-8.108743e-06
198	0xb974829a	-0.00023318306
199	0x3a56763c	0.00081810704
200	0xb9811957	-0.00024623677
201	0x3a516f0f	0.00079892663
202	0x3a728c22	0.0009252449
203	0x39b2d786	0.00034111383
204	0x3a53011f	0.0008049178
205	0x3a87f036	0.0010371271
206	0xb948c9d5	-0.00019148675
207	0x3a387693	0.0007036712
208	0xb9abc0fa	-0.0003275944
209	0xba82aa4a	-0.0009968963
210	0xb8706b4c	-5.7320387e-05
211	0xbaa48bd4	-0.0012553879
212	0xb8983001	-7.256866e-05
213	0xb91aef98	-0.0001477584
214	0x3a0dc576	0.0005408147
215	0x399af406	0.0002955498
216	0x3a2bd2c4	0.0006554539
217	0x38d487dc	0.000101342535
218	0xb9c321f5	-0.00037218598
219	0x39eaa1c8	0.00044752494
220	0x3a2b877d	0.00065433217
221	0xb92360b5	-0.00015580918
222	0x397902ff	0.00023747607
223	0x3a11802c	0.000555041
224	0x3adf2508	0.0017024586
225	0xba18bb2a	-0.00058262295
226	0xb9ee83d8	-0.0004549313
227	0x3b089c5c	0.002084515
228	0xbaabf9e9	-0.0013120744
229	0x38da3b3a	0.00010406082
230	0xbae63939	-0.0017564661
231	0x3b192464	0.0023367638
232	0xba4e17f7	-0.00078618474
233	0xb9a0237c	-0.00030544016
234	0x3ada1362	0.0016637857
235	0xbb113434	-0.002215636
236	0xb8b51ba1	-8.635899e-05
237	0xbb193e24	-0.0023382986
238	0xb9005311	-0.00012237976
239	0x39ecd7a3	0.0004517409
240	0x374f2cfc	1.2348635e-05
241	0xba101f68	-0.0005497844
242	0xba311267	-0.00067547563
243	0x3a9dd996	0.0012042995
244	0xba257e90	-0.000631311
245	0x39c360a3	0.00037265298
246	0x366a3f70	3.4905643e-06
247	0x397efbd6	0.00024317144
248	0xb9f90d04	-0.00047502678
249	0x3a0b8e37	0.0005323621
250	0x3a97f413	0.0011593126
251	0xb9d1fd1e	-0.00040052173
252	0x3a85c4d5	0.0010205755
253	0xb9093040	-0.00013083313
254	0x3a32b4cc	0.0006817102
255	0x3ae3fcd0	0.001739407

exp_avg_sq f4 [10, 50]
0	0x33988d44	7.1037476e-08
1	0x31b70d8e	5.327542e-09
2	0x33b05032	8.210226e-08
3	0x3419b378	1.4314526e-07
4	0x35a904f2	1.259292e-06
5	0x338b0a82	6.474603e-08
6	0x306469db	8.3096346e-10
7	0x330e3fa0	3.3119818e-08
8	0x329b1f08	1.8058486e-08
9	0x336ccbd8	5.5133427e-08
10	0x33a9861e	7.8940715e-08
11	0x34243b92	1.5295362e-07
12	0x2fc10c9b	3.5115452e-10
13	0x332483a2	3.8303945e-08
14	0x3185eca5	3.897713e-09
15	0x34973310	2.8163095e-07
16	0x32283143	9.790088e-09
17	0x35180bd2	5.6641613e-07
18	0x3186d492	3.9240797e-09
19	0x32c44560	2.2848951e-08
20	0x33823a2f	6.06418e-08
21	0x3261cb7d	1.3142992e-08
22	0x32cca38b	2.3823096e-08
23	0x3369b109	5.4410553e-08
24	0x336d3db0	5.5236967e-08
25	0x3382cddb	6.0910416e-08
26	0x3302c918	3.0450877e-08
27	0x3560b96d	8.371633e-07
28	0x347187ea	2.249432e-07
29	0x322fc210	1.0230465e-08
30	0x34892624	2.554599e-07
31	0x3396348a	6.994476e-08
32	0x326416f6	1.3276567e-08
33	0x3285e8e8	1.5589151e-08
34	0x35520021	7.8231284e-07
35	0x32f2ea18	2.8278961e-08
36	0x30626320	8.2359186e-10
37	0x335512a8	4.9609895e-08
38	0x321ddd5a	9.188932e-09
39	0x3279581f	1.4513744e-08
40	0x34caef3c	3.7799498e-07
41	0x350d81e0	5.2715586e-07
42	0x31bbb8fc	5.4634466e-09
43	0x3548491d	7.46122e-07
44	0x34a1748a	3.007338e-07
45	0x34512d77	1.9481182e-07
46	0x2f04de48	1.20843e-10
47	0x30898254	1.0005103e-09
48	0x30b55813	1.3194515e-09
49	0x2f986cbf	2.7725908e-10
50	0x32ba6c49	2.1702492e-08
51	0x33b00a04	8.1974605e-08
52	0x3541ed8a	7.224377e-07
53	0x321d67c7	9.162199e-09
54	0x33964105	6.996746e-08
55	0x3579f4ee	9.311615e-07
56	0x325ab5f3	1.27306405e-08
57	0x330c3878	3.2647648e-08
58	0x320c75e6	8.1758795e-09
59	0x31a469a3	4.7850377e-09
60	0x349e66bc	2.9504542e-07
61	0x325d8128	1.289326e-08
62	0x3081b64b	9.437796e-10
63	0x32a8306f	1.95798e-08
64	0x313768ce	2.668958e-09
65	0x343318fd	1.6679765e-07
66	0x331d3a05	3.660718e-08
67	0x33b47fcc	8.405149e-08
68	0x33378162	4.272568e-08
69	0x33926208	6.8164866e-08
70	0x358ed0b5	1.0640566e-06
71	0x313bdd36	2.7337825e-09
72	0x33a08878	7.475404e-08
73	0x31036c82	1.9124688e-09
74	0x329c1696	1.8171061e-08
75	0x31dee984	6.487598e-09
76	0x33afecfd	8.1921804e-08
77	0x33a7ef1c	7.820037e-08
78	0x3420c950	1.4974398e-07
79	0x325838d6	1.2585778e-08
80	0x3420a8d2	1.4962578e-07
81	0x3292b455	1.7078643e-08
82	0x31498704	2.9326097e-09
83	0x32d3a4a1	2.4638497e-08
84	0x348b8aea	2.599184e-07
85	0x343d099b	1.7605491e-07
86	0x3164cb37	3.329388e-09
87	0x33ca8d28	9.432034e-08
88	0x338741be	6.298386e-08
89	0x342ec741	1.6277501e-07
90	0x34b7bc04	3.4223206e-07
91	0x3355c6a2	4.9773583e-08
92	0x314e1a77	2.999199e-09
93	0x334f151d	4.8215146e-08
94	0x33d15b30	9.748908e-08
95	0x34c17c6c	3.603958e-07
96	0x31aee0b9	5.0896145e-09
97	0x30dbd96d	1.5996143e-09
98	0x32984866	1.7728052e-08
99	0x329560f6	1.7389976e-08
100	0x333c78d4	4.3882054e-08
101	0x31ff34aa	7.427464e-09
102	0x3268a549	1.3541759e-08
103	0x31b19523	5.168333e-09
104	0x2fbda1e6	3.4493935e-10
105	0x33141ace	3.4483314e-08
106	0x2f142efd	1.3477215e-10
107	0x31e9959d	6.7982016e-09
108	0x3294a5ed	1.7304922e-08
109	0x32821ecc	1.5147997e-08
110	0x33824d76	6.067687e-08
111	0x3272ca32	1.4132228e-08
112	0x3203d624	7.6738935e-09
113	0x3313b3a2	3.438948e-08
114	0x33328399	4.1563542e-08
115	0x3257fdb8	1.2572336e-08
116	0x3366d422	5.374398e-08
117	0x32c06447	2.2397343e-08
118	0x33058348	3.1085875e-08
119	0x33023764	3.031836e-08
120	0x335d66b7	5.154899e-08
121	0x3462e3bb	2.1130738e-07
122	0x34a4f184	3.0723106e-07
123	0x31e34a7e	6.6150383e-09
124	0x313d500d	2.7548623e-09
125	0x31753430	3.5681857e-09
126	0x3211658d	8.463201e-09
127	0x3129a0ae	2.4684073e-09
128	0x32f74e45	2.8790177e-08
129	0x31c25878	5.656201e-09
130	0x32c0a7f3	2.2428116e-08
131	0x32d1a56a	2.4406024e-08
132	0x31c5797a	5.747265e-09
133	0x3318f8a8	3.561641e-08
134	0x3188b08a	3.978191e-09
135	0x327bae26	1.464972e-08
136	0x30453012	7.1736495e-10
137	0x31e7fe1e	6.7518746e-09
138	0x33234336	3.8012523e-08
139	0x31d5d2b7	6.2230714e-09
140	0x33bea8c8	8.8782656e-08
141	0x3418105d	1.4162056e-07
142	0x31c857b6	5.8307377e-09
143	0x345c1a3c	2.049864e-07
144	0x33057056	3.1068645e-08
145	0x315bcb02	3.198409e-09
146	0x2eea50a0	1.065541e-10
147	0x32c0aabc	2.2429383e-08
148	0x33ca3178	9.415356e-08
149	0x32f3f5b2	2.8400652e-08
150	0x321219fb	8.504226e-09
151	0x33958b24	6.963663e-08
152	0x32172c12	8.799377e-09
153	0x310cf77c	2.051336e-09
154	0x324d0c48	1.1935363e-08
155	0x31867954	3.9137067e-09
156	0x2f89b979	2.505194e-10
157	0x310b8990	2.0305357e-09
158	0x3335ba5a	4.2311832e-08
159	0x3327353d	3.8931137e-08
160	0x3279a528	1.453126e-08
161	0x3289a007	1.6021671e-08
162	0x2ecc61ad	9.294197e-11
163	0x2f4766ab	1.813542e-10
164	0x31aea451	5.082747e-09
165	0x3405f625	1.2476137e-07
166	0x3357ffad	5.0291124e-08
167	0x321457b6	8.634677e-09
168	0x3387d0e1	6.324422e-08
169	0x32ec6c7f	2.7523354e-08
170	0x31775dcc	3.5996548e-09
171	0x310394b3	1.9147535e-09
172	0x32cb437a	2.3662995e-08
173	0x34123080	1.3614954e-07
174	0x3493feb9	2.756622e-07
175	0x30e274ea	1.6476893e-09
176	0x32ede4cf	2.7694481e-08
177	0x31697c19	3.3976504e-09
178	0x31980906	4.424808e-09
179	0x3389b452	6.41236e-08
180	0x339d827a	7.334616e-08
181	0x34ac1f47	3.2060254e-07
182	0x3162fcf5	3.3031118e-09
183	0x2f796302	2.2681593e-10
184	0x340fef31	1.340493e-07
185	0x324ef90d	1.2047406e-08
186	0x326ec2d0	1.38977185e-08
187	0x32e3e079	2.6528356e-08
188	0x33bd60b2	8.818587e-08
189	0x310eea5d	2.079694e-09
190	0x33195bee	3.5706698e-08
191	0x32d5a678	2.4872165e-08
192	0x3209fb41	8.031578e-09
193	0x33cba9f7	9.4838406e-08
194	0x30c93dd2	1.4642245e-09
195	0x3307515e	3.150614e-08
196	0x2f0de89e	1.2906518e-10
197	0x2d32433b	1.0133057e-11
198	0x3217e1bb	8.840682e-09
199	0x33030073	3.0501223e-08
200	0x320879af	7.9439095e-09
201	0x330c019e	3.259776e-08
202	0x3328b907	3.928383e-08
203	0x31c1da48	5.641855e-09
204	0x3305a18c	3.11134e-08
205	0x336ae0e2	5.46869e-08
206	0x30e1533e	1.6394563e-09
207	0x32e2ef1e	2.64186e-08
208	0x31bc37b0	5.477851e-09
209	0x332d18ea	4.030236e-08
210	0x2f4382e5	1.778165e-10
211	0x338a825b	6.449837e-08
212	0x2f7a3736	2.2756982e-10
213	0x311aa8f0	2.250598e-09
214	0x3258cf22	1.2619951e-08
215	0x320bf042	8.145493e-09
216	0x329606fa	1.746547e-08
217	0x2ffcdb00	4.5994142e-10
218	0x322183e6	9.401424e-09
219	0x3222370a	9.4421555e-09
220	0x32955560	1.7384707e-08
221	0x30d43f9e	1.5443111e-09
222	0x317b3d8e	3.6560297e-09
223	0x3256eedc	1.251075e-08
224	0x3403e9c7	1.2285373e-07
225	0x3278d942	1.4484899e-08
226	0x326893cb	1.3537782e-08
227	0x34484850	1.8652759e-07
228	0x33ba6275	8.679209e-08
229	0x307adfbc	9.1267416e-10
230	0x3408a21a	1.2724959e-07
231	0x346d8c9a	2.2123496e-07
232	0x3303c348	3.067842e-08
233	0x31c90d52	5.8513843e-09
234	0x33f3c9a2	1.1352246e-07
235	0x345ccb1a	2.0562985e-07
236	0x300cfe83	5.1293386e-10
237	0x347f238e	2.376166e-07
238	0x3029b8ca	6.1744443e-10
239	0x32127a7e	8.52617e-09
240	0x3045f86d	7.2021217e-10
241	0x3296cb21	1.755467e-08
242	0x3305721d	3.107026e-08
243	0x337e068a	5.914493e-08
244	0x328d339a	1.6438026e-08
245	0x31c4562d	5.714148e-09
246	0x2ddca0b0	2.5082464e-11
247	0x3147ef42	2.9094314e-09
248	0x326e58b6	1.3873594e-08
249	0x3248086c	1.1643447e-08
250	0x336a6b34	5.457987e-08
251	0x31e62194	6.6976984e-09
252	0x3354c96d	4.9543292e-08
253	0x306d9f70	8.644667e-10
254	0x32a1fd0c	1.885794e-08
255	0x3409099a	1.2762612e-07

exp_avg f4 [10]
0	0xba871fd3	-0.0010309167
1	0xbba65e98	-0.0050771944
2	0x3adeb791	0.0016991963
3	0x39cf6f20	0.0003956491
4	0xba20fde2	-0.0006141347
5	0x3b96453a	0.004585889
6	0xb9a1aba0	-0.00030836184
7	0xbb32f95e	-0.002730928
8	0x39971ff5	0.00028824774
9	0x3b370314	0.0027925419

exp_avg_sq f4 [10]
0	0x33617ae5	5.2498667e-08
1	0x358c5795	1.0456303e-06
2	0x3407622f	1.2608574e-07
3	0x3242bf8c	1.1335839e-08
4	0x32df1166	2.5968529e-08
5	0x356ad04e	8.7474916e-07
6	0x318bf62c	4.073419e-09
7	0x34a5a16a	3.085109e-07
8	0x32b8116d	2.1428344e-08
9	0x34aba691	3.1972425e-07
