swastik_web/Learning&Experiments/PytorchTutorials/pytorch lightning/dashboard/mnist_clsfy/version_1.1/checkpoints/epoch=3-step=1500.ckpt (torch, 484079 bytes, 12 tensors)

fc1.weight f4 [50, 784]
00000000: 0030 8cb9 b6f2 9c3c accc f0bc 9350 d7bc
00000010: ce5e 61bc 10e9 1c3c 407f 39ba 12fa e73c
00000020: 30b6 4fbb 10d6 1a3c 7cd6 30bc a409 e6bb
00000030: 154f 35be bfc4 17be 1349 e83d 1f95 1f3d
00000040: dc53 673c ae8c af3c a058 c6bc d8ce 7ebc
00000050: b088 543c a2f2 f23c 54d8 f0bb 46ef da3c
00000060: 70a1 bcbb 60aa 773b 4f75 043d 76b4 07bd
00000070: 502f b8bc 4a23 14bc b216 64bc 2ec8 fc3c
00000080: 83c0 9abd 32c7 eabd b3e3 52be f218 83be
00000090: 2ec5 b7be 27c4 e7be 1312 41be 37fd 2fbe
000000a0: 41b5 75be ea02 70be 9506 f73d 1352 1dbe
000000b0: 849e 1dbe 3a3b bfbe 6931 7bbe 60ae b8be
000000c0: f422 e4be df4d b2be a534 51be f57e f4bd
000000d0: 983b 683c e818 9e3b 482a c43c 4a44 acbc
000000e0: 6813 da3b 0ed5 e2bc 29c7 7bbd f939 8dbe
000000f0: 947a 92be 56f3 6ebe 9edb f0be 15b7 1fbf
00000100: 5c2a 2ebf 029d 75be faa9 25be 2b17 fabe
00000110: b6d6 aabe 4c88 593c 163e 04be 70db 81be
00000120: 801a 1bbe 0046 913d a717 943e a409 ae3d
00000130: 3b36 91bd 1705 80bb 7e02 35be c3bb f2be
00000140: dc3b 5ebd aafc 04be a675 de3c 92ec 11bd
00000150: 780b db3b 7825 c5bb 8044 37bd 4ff2 06bf
00000160: c775 fdbe cc63 0abe e2f8 063d 20c5 2cbe
00000170: b9a8 afbe 7dc2 7fbd 486a 39be 48ae 37be
00000180: 0540 46be 8828 a2bc 9c1b 5cbd a341 dbbd
00000190: bb08 21be dde3 cbbd 9eda 90bc 8bc2 6bbe
000001a0: 9cf2 d3be 666a c9bd 5a56 cfbd 6ac7 fcbe
000001b0: 1bc8 0bbf c9a8 7d3e b97c b3bc f89a ad3c
000001c0: 8a0a b2bc f804 3b3b 567b b1bd bef4 e7be
000001d0: 9ff2 5abe b646 64bd e57a 5c3e 32f0 953d
000001e0: a26b 423d 57de c33d b0f8 22be 23e4 32be
000001f0: 4bea dcbd ec06 fc3d b161 26bd d756 cbbd
00000200: aef2 0dbe 28be 41be e270 f2bd 5d71 42be
00000210: b852 67be e079 8fbe 39dd cbbd 9c3a d23d
00000220: 14ea 033e 8236 893e 7f85 23be 265e 7ebc
00000230: 8f91 0a3d 9acc b93c aa8e 07be bfee 74be
00000240: 98a5 9bbc 88b5 753d 6ff2 373e 4a60 9fbc
00000250: 7bf9 433e 171a a23d c7a0 fabc 3de9 cdbd
00000260: f85a 9cbc 4af2 3f3d 8cb2 f1bd 6008 02be
00000270: bd7f 18bd 2f99 47be 047b 36be f20f 6cbe
00000280: a7bc 92be 4a7a 41be f93f 31be 1052 45be
00000290: f821 b2bd f69d b73d 1c52 dbbe 7846 36bd
000002a0: 6baa 03bd b979 94be cd6c a23e b1cf c43e
000002b0: 06a0 b73e 5a85 b53e 7289 8a3e 1f1e 913d
000002c0: d128 243e 1c44 c33d 7af2 8d3d 28a1 a33c
000002d0: ef67 ac3d 8a8a b4bd c7db a9bd 72d9 78be
000002e0: ed69 86bd b5c9 193d ad28 cdbc 3f86 83bd
000002f0: ed13 3dbe 133d 5dbd d215 333c ded5 58bd
00000300: c252 c5be f0f0 85be 7eb4 56be 3767 36be
00000310: 7eeb a7bc c420 c9be 67ef a73e 89e3 e03e
00000320: 2a26 973e aaee 5c3e 1abd c13e 8dbe 383d
00000330: d499 45bd d6ce 2c3d fdca c8bd 3220 68bd
00000340: 59d9 13bc f7b6 8f3d a894 b7bd fc91 33bd
00000350: 86d7 03bd 9130 3f3d d537 933b 4c30 05bd
00000360: 506f 32bd 4df6 b53d 9d62 473e 8f60 49be
00000370: 6fb8 c3bd 0db8 6c3e d86e febd bd2d 41be
00000380: 22c1 b4be bba5 523e 4131 9c3e 23cc 1e3e
00000390: 8918 e53d 146b a73d b844 4f3e 5fcc 853c
000003a0: 2b8f 683c 3975 42bd 7878 cfbb c605 e9bd
000003b0: c2c6 79be d73d 28be a0b2 53bc 4321 e73c
000003c0: 3991 b0bc bf38 db3c 6814 a63d a175 e6bc
000003d0: 10e9 f03c 3ca2 d33d 1565 25be 5d0d c4bd
000003e0: 7e00 b53d 62b2 b43d 8647 91be 2777 12be
000003f0: 586c 723e 1981 333e 7173 21bc 8f24 833d
-0.00026738644 0.019158702 -0.02939447 -0.026283538 -0.013755513 0.009577051 -0.00070761517 0.028317485
-0.0031694286 0.009450451 -0.010793325 -0.007020192 -0.17705949 -0.14821146 0.11342063 0.038960572
0.014119115 0.021429386 -0.024212182 -0.015552245 0.012972042 0.029656712 -0.007350007 0.026725423
-0.0057565495 0.003779076 0.032338437 -0.033131085 -0.022483498 -0.009041617 -0.013921427 0.030857172
-0.0755625 -0.11463775 -0.20594673 -0.2560497 -0.35892624 -0.4526684 -0.18854551 -0.17186438
-0.23994924 -0.23438612 0.12061802 -0.1536334 -0.153925 -0.37349874 -0.24530567 -0.36070538
-0.44557917 -0.34825036 -0.20430239 -0.11938278 0.0141743645 0.0048247464 0.023945943 -0.021028657
0.0066551454 -0.027689483 -0.06146923 -0.27583292 -0.28609145 -0.23335013 -0.47042555 -0.62388736
-0.68033385 -0.23985675 -0.16178122 -0.488458 -0.33366936 0.013277125 -0.12914309 -0.2536273
-0.15146828 0.070934296 0.28924295 0.084979326 -0.07090422 -0.0039068568 -0.17676732 -0.47408876
-0.054256305 -0.12987009 0.027155709 -0.035626 0.006684717 -0.0060164295 -0.04474306 -0.52713484
-0.4950392 -0.13514632 0.032952197 -0.16872072 -0.34308413 -0.062441338 -0.1810695 -0.17937577
-0.19360359 -0.019794717 -0.053737268 -0.107058786 -0.15725987 -0.09955571 -0.01768237 -0.23023431
-0.41396034 -0.09834747 -0.10123892 -0.4937089 -0.5460221 0.24771418 -0.021910058 0.021192059
-0.021733541 0.0028536897 -0.086661026 -0.4530391 -0.21381615 -0.055731498 0.21531256 0.07321204
0.047465928 0.09563892 -0.15915179 -0.1746984 -0.10786875 0.12306008 -0.04062051 -0.09928673
-0.13862106 -0.18920195 -0.11837937 -0.18988557 -0.22590148 -0.2802267 -0.09954304 0.10265085
0.12882262 0.267994 -0.15968893 -0.015525376 0.03383022 0.02268057 -0.13238016 -0.239192
-0.01899986 0.059987575 0.17963575 -0.019455094 0.19138138 0.079151325 -0.030594243 -0.10054252
-0.019086346 0.046861924 -0.11801633 -0.12698507 -0.037231196 -0.19492029 -0.17820364 -0.23052958
-0.28659555 -0.18894306 -0.1730956 -0.19269586 -0.08697885 0.089656755 -0.42836082 -0.044500798
-0.032144945 -0.28999117 0.31723633 0.38439706 0.35864276 0.35453302 0.27057987 0.07085823
0.16031195 0.09534475 0.06931014 0.019974306 0.08418261 -0.08815487 -0.08293872 -0.24301699
-0.065631725 0.03754588 -0.02504381 -0.0642209 -0.18464632 -0.054013323 0.010930495 -0.052938335
-0.38539702 -0.26160383 -0.2096729 -0.17812811 -0.020498034 -0.3928281 0.32799837 0.43923596
0.29521304 0.21575418 0.37839586 0.0451036 -0.048242405 0.04218944 -0.09804342 -0.05667133
-0.009023988 0.0701732 -0.08963901 -0.043840393 -0.03218796 0.046677176 0.0044927397 -0.032516763
-0.043563187 0.08884869 0.19471212 -0.1966574 -0.09556662 0.23117085 -0.124234855 -0.18865104
-0.353036 0.20571034 0.30506328 0.1550756 0.1118632 0.081747204 0.20241058 0.016332803
0.01419429 -0.047475073 -0.0063314997 -0.11378054 -0.24392226 -0.1642984 -0.0129210055 0.028214103
-0.021553623 0.026760457 0.08109361 -0.028132262 0.029408008 0.10333678 -0.16151841 -0.09572861
0.088379845 0.08823086 -0.2837488 -0.14303266 0.23674142 0.17529716 -0.0098541835 0.064034574

fc1.bias f4 [50]
00000000: fa2f 493e 7b1c 743d 4d49 4d3d 84ae 5a3e
00000010: 4a98 d03d 0401 8f3e c99c 28be e411 d33d
00000020: 73ba 853e fb93 013e bfc3 a73d 0263 cebd
00000030: e53d e83d c09e 193e be99 483d 7d13 32be
00000040: 7c7b a7be 692e 963d 910a 083e 66c0 443c
00000050: 1634 803e f033 81be 9e65 bebc 86ff 693e
00000060: dce5 98bc 6f9b 023c c581 773e baa5 393e
00000070: bad6 733e 5de2 0dbc a113 16bc 903b 4dbe
00000080: 23b9 b63e 38e7 3f3e ab7f 02be d214 b23e
00000090: bc83 a3bc 3677 383e ec3b cfbd 6421 b43d
000000a0: 3c6f ac3d 205f 053d 6411 b5bd b220 82be
000000b0: ca94 f1bd 4356 04be 4204 dfbd f0e6 653d
000000c0: b526 ba3d ff1a abbd
0.19647208 0.059597474 0.050118733 0.21355635 0.10185297 0.27930462 -0.16466059 0.10306147
0.26118812 0.12654106 0.081916325 -0.10077478 0.113399304 0.15001965 0.048974745 -0.17390247
-0.327114 0.07333071 0.13285281 0.012008762 0.25039738 -0.25234938 -0.023241814 0.2285138
-0.018664293 0.007971629 0.24170597 0.18129626 0.2381238 -0.008659926 -0.009159953 -0.20042253
0.35688123 0.18740547 -0.12744014 0.3478151 -0.019960277 0.18014225 -0.10118851 0.08795431
0.08419654 0.03256142 -0.088412076 -0.2541557 -0.117959574 -0.12923531 -0.10889484 0.056128442
0.09089414 -0.083547585

fc2.weight f4 [10, 50]
00000000: c50e e6bd 929d 24bf 3f74 433c 024c cdbe
00000010: 8098 433d f11a 16bf 8d12 673e d5bf ea3b
00000020: 3dd3 163e 857c 993e 5b0d 48bd 84a6 4fbc
00000030: e1a1 1fbe 0457 cd3c 66d1 cb3e bbc0 e1bd
00000040: 6ffc 533e 024e 6fbf 407e ac3d 26b1 63be
00000050: 2386 303d cf1c f03e b550 c4bd f3fa c4be
00000060: f58b 11bf f6fc 2abe da7e 563e e96d a83e
00000070: b497 76bf 69e8 b0be 2575 d9bd 8257 013f
00000080: b5b7 09be 303a 05bd ea02 a3bd 5604 19bf
00000090: 5b70 933e 5da7 80bf 7fea ec3e 8003 453e
000000a0: 04af a53e e5fd 913e 3754 81bf 532e 843e
000000b0: cf5e 973e ed36 16bf e4a6 b3be 1cd4 debd
000000c0: 73d7 123f d9d5 07bf fabc fdbc 3b1c 0f3f
000000d0: 931b bcbe c020 453d 91ec 45bf 4968 583e
000000e0: 5145 56bf 5fb3 833e b9bc 863d 3cfb e8be
000000f0: e124 103e ab10 eebc 9925 7cbf 0918 7e3e
00000100: 1644 e6bd f504 4b3e e13e 84be c040 97bd
00000110: 14c5 553f 9ab3 b63e 857c 893e c791 773d
00000120: dd01 8d3d 9796 91bd ab88 b33e f05f dcbe
00000130: 75ae 6dbe d447 003f 2460 47bf e168 f2bb
00000140: 69f1 a1be 478c 15bf 4ba1 6b3f 62aa f9bd
00000150: 9c2e 5cbe 221b 22bf 7eb0 f6be a176 243c
00000160: 6e4a 55bd dfbb ad3e f608 1abf 5d66 b73e
00000170: ea02 a93e 7343 b7be c7e4 ebbe 669f 33bd
00000180: d984 b83e 2ab3 e7be 0719 8ebd fefc ccbe
00000190: 1e64 d43e 5ddb e7be 8540 81bf ad22 e93d
000001a0: 5ea0 133c e952 51bd 1238 3cbd 048b 9d3e
000001b0: 7ed9 45bf 14fc afbd 9c45 8d3a 5297 433e
000001c0: 3328 ccbe 3e36 823e ea61 8d3e 923a 6bbe
000001d0: 97b8 043e bfd5 b0bf d5dc eebe 3f54 b03e
000001e0: e486 2dbf b7aa f23e 57b7 cbbd c342 fbbc
000001f0: 84f1 2b3e 95cd a2be 768b fc3e 4177 113f
00000200: f0d9 a2be ef9c 0c3e 5cdd 9c3d d076 babe
00000210: 97c6 5ebd 4b9b 053f 0a8a 3f3e a9be 73be
00000220: 8e7f 423e fff9 59be 11cb b3be eb0c 17bf
00000230: 287a 673c f6b7 1ebe 9fb6 a83e 6a76 78be
00000240: 06e2 00be d917 5f3e 6079 313f 8dcc fc3e
00000250: be9f e63d c7a7 013d e5c7 4bbf 6e4d 003f
00000260: 70fa e93d 1c1c 6abf ef57 8fbc 5973 1bbe
00000270: 1e04 b03e 7616 ad3c b0aa a93d e0eb e0bd
00000280: fe60 c73d 8f06 e23e 54b7 63bf aa0d bdbd
00000290: 0945 2cbf bc01 c83d ebe9 2e3e 3be5 bb3e
000002a0: 3ac6 eebe e6a1 f0bc 71eb 65bf 4978 06be
000002b0: f4ff 683d 516b 6a3d 255b a53e 29f2 1d3e
000002c0: 7ee3 c0be 54e4 febd 92bf 02be 619b 18bb
000002d0: 66b3 4d3e 88b8 c63e c858 eb3d ba6d f8bd
000002e0: 47fd 423e aa8b 483e 40bf 0f3f ff42 30bf
000002f0: d3f5 9abe af40 afbd c54f 833c 7e50 bc3d
00000300: e780 933d 3f04 dd3d c3c8 75be 2c28 3f3e
00000310: 6d9e 533e 5e84 b53c 201f da3d 5da9 06bf
00000320: 6835 613e 6747 e43d 5f6e 253e 2659 e03e
00000330: ccd5 a43d 2f9b 963e f297 123e ddd4 5e3e
00000340: 8336 40bf b0d4 c23e 0e27 c53d 054c 46bf
00000350: 76a7 d63e 160b c9bd b88b 7fbf e119 fabe
00000360: 0b9b 04bc ca2c ee3e 06f3 6c3e b26d e8bd
00000370: 9ea4 703d 52fa 6ebf c0b1 0a3c 5fc8 453c
00000380: 781e 96be c450 033e 3df1 c03e c143 9dbf
00000390: d2b5 b13e 078b 9cbe b610 a93e caf9 89bf
000003a0: e47e 4a3f 5035 a9be 13c1 50bf 32a2 9a3d
000003b0: 2205 53bf 0583 d53e a4af c3be 2612 8ebf
000003c0: 7366 7d3e f692 833e b5c0 17bf 8c82 d2be
000003d0: 5dc6 53bc 5e77 013e 72d7 48bf 93a9 46bf
000003e0: 0cd7 d0bd adf0 82bf 76a5 1abf f954 e03d
000003f0: 3cd3 c73e 2ac9 0b3e c69b 2bbf 420a 8cbe
-0.11233286 -0.64302933 0.011929571 -0.40097052 0.047752857 -0.5863486 0.2256567 0.0071639814
0.14729019 0.29977813 -0.04884086 -0.012673978 -0.15589096 0.025065906 0.39808196 -0.110230885
0.20701765 -0.93478405 0.08422518 -0.22235546 0.043096673 0.4689698 -0.09585706 -0.3847271
-0.5685418 -0.1669806 0.20946828 0.32896355 -0.9632523 -0.34552315 -0.10618047 0.5052415
-0.13448985 -0.032526195 -0.0795954 -0.5977224 0.28796658 -1.0051075 0.46272656 0.19239616
0.3236009 0.2851402 -1.0103825 0.25816593 0.2956452 -0.5867756 -0.35088265 -0.108803004
0.5736 -0.5306068 -0.0309739 0.5590245 -0.36739787 0.048126936 -0.77314097 0.21133532
-0.8369952 0.25722787 0.06578965 -0.45504177 0.14076568 -0.029060682 -0.9849487 0.24813856
-0.11243455 0.1982611 -0.25829223 -0.07385397 0.8350384 0.356839 0.26852813 0.06044176
0.06885121 -0.07108801 0.35065207 -0.43041945 -0.23211081 0.501096 -0.77881074 -0.0073977564
-0.31629494 -0.5841717 0.9204299 -0.12190701 -0.21502155 -0.6332265 -0.48181528 0.010038049
-0.052072935 0.33932397 -0.60169923 0.35820284 0.33010036 -0.35793647 -0.4607298 -0.043853186
0.36038855 -0.4525388 -0.06938367 -0.40036768 0.41482633 -0.45284548 -1.0097815 0.11383567
0.0090104025 -0.05110446 -0.04595191 0.30770123 -0.7728499 -0.08593002 0.0010778191 0.19100693
-0.3987442 0.25432009 0.27613765 -0.22971562 0.1296104 -1.381523 -0.46652856 0.34439275
-0.6778395 0.4739587 -0.09947079 -0.030671483 0.1679135 -0.31797472 0.4932515 0.5682259
-0.31806898 0.1373174 0.076594085 -0.36418772 -0.05438861 0.52190083 0.18705001 -0.238032
0.18993971 -0.21286772 -0.35115865 -0.59004086 0.014128245 -0.15499863 0.3295183 -0.24263921
-0.12586221 0.21786441 0.6932583 0.4937481 0.11260937 0.031654146 -0.7960189 0.5011815
0.1142472 -0.9144914 -0.017497985 -0.1518072 0.3437814 0.021128874 0.08284509 -0.109824896
0.09735297 0.4414563 -0.8895161 -0.09231122 -0.6729284 0.09765956 0.1708142 0.36698326
-0.4663561 -0.029374074 -0.8981238 -0.13131823 0.05688472 0.05723125 0.322961 0.15424408
-0.37673563 -0.12445894 -0.12768391 -0.0023285972 0.20087966 0.3881266 0.11491543 -0.12130304
0.1904193 0.19584528 0.561512 -0.6885223 -0.30265674 -0.08557259 0.016029248 0.0919504
0.072023205 0.107918255 -0.24002366 0.18667668 0.20665903 0.022157844 0.10650468 -0.5260218
0.21993029 0.111464314 0.16155384 0.43818015 0.08048591 0.2941527 0.14315775 0.21760888
-0.7508318 0.38052893 0.0962659 -0.77459747 0.41924638 -0.098165676 -0.9982257 -0.4884787
-0.008093606 0.46518546 0.23139581 -0.11349048 0.05875074 -0.9335071 0.00846523 0.012071698
-0.2932012 0.12823778 0.3768405 -1.2286302 0.3470903 -0.3057482 0.33020562 -1.0779355
0.7909987 -0.33048487 -0.8154461 0.075504676 -0.8242971 0.41701522 -0.3821994 -1.1099288
0.24746113 0.2569806 -0.5927842 -0.41115224 -0.012925711 0.12643191 -0.78453743 -0.776025
-0.10197267 -1.0229698 -0.60408723 0.10953707 0.39028347 0.13650957 -0.67034566 -0.27351576

fc2.bias f4 [10]
00000000: 3747 85be 2fc0 f33d 3299 213e 3a94 81bd
00000010: 87da 983e cc40 e23d e2fe fa3d 4a3d 9abd
00000020: a718 fd3b 71e7 2bbd
-0.26030895 0.119018905 0.15781096 -0.063271 0.29854223 0.11047515 0.12255646 -0.07531221
0.007723886 -0.041968767

exp_avg f4 [50, 784]
00000000: 0000 0000 0000 0000 0000 0000 0000 0000
00000010: 0000 0000 0000 0000 0000 0000 0000 0000
00000020: 0000 0000 0000 0000 0000 0000 0000 0000
00000030: 0000 0000 0000 0000 0000 0000 0000 0000
00000040: 0000 0000 0000 0000 0000 0000 0000 0000
00000050: 0000 0000 0000 0000 0000 0000 0000 0000
00000060: 0000 0000 0000 0000 0000 0000 0000 0000
00000070: 0000 0000 0000 0000 0000 0000 0000 0000
00000080: 0000 0000 16b2 c51f 96c4 c52c 0378 2a2d
00000090: bd95 6e2b f5ac 952c 0e05 62ab 3855 fd2f
000000a0: 1e71 8730 162d 5931 c3b9 5932 2e27 5033
000000b0: 3493 1433 b187 0332 bba7 ff2f 2940 b52b
000000c0: e0b4 992e 4441 5e30 ef36 8a30 3031 b42e
000000d0: 0000 0000 0000 0000 0000 0000 0000 0000
000000e0: 0000 0000 0000 0000 0000 0000 ff1d 0d2c
000000f0: ac6f 2a2f 6301 782f 3ede 312e f56e 6730
00000100: 4c6b 3831 c890 0c32 0614 3db4 d5ac 10b5
00000110: ec34 4732 aefe 3835 8a85 0a37 37bc 4237
00000120: 0ee1 6135 36a8 f4b3 7499 4ab4 1b69 2fb4
00000130: e5e5 f1b2 786e 4232 232e 4b32 e0ba 0330
00000140: 9bfe a59e 4850 bd9f 0000 0000 0000 0000
00000150: 0000 0000 0000 0000 0000 0000 2aa7 cc2c
00000160: ada3 e42e 2f7f 3db1 fad6 2c38 0467 0038
00000170: 84c2 dcb4 0118 ffb6 4940 a337 3087 3437
00000180: 570c 6738 6240 aa38 c8bd e837 a313 f9b8
00000190: 87b9 2637 6e91 0739 ca8a cf38 3ce8 bf38
000001a0: ccba a338 fca1 7a37 ee9d 3c36 853b 7635
000001b0: a1ee 7636 e4ca d8b0 0000 0000 0000 0000
000001c0: 0000 0000 8c6f 5e22 0000 0000 9055 972e
000001d0: c019 ec35 e392 6437 b906 8138 aa0e 4a38
000001e0: 379b d936 cd61 ee37 206e 4f38 30fc f238
000001f0: 384b 3739 1feb 4339 1603 0939 21fa 5237
00000200: bbf8 5d39 80d3 9739 e77d 6b39 0698 4839
00000210: cee1 3e38 6cce 7538 2c82 7fb5 8cdc d436
00000220: f984 1736 83ca d6b2 fca5 cb31 0000 0000
00000230: 0000 0000 0000 0000 1e51 012d de3a 3d31
00000240: fb28 0637 45eb bd37 5e4a a038 37a3 4738
00000250: 7bc1 3336 84f3 1f38 fe37 10b6 2608 1eb9
00000260: 9409 26b9 47be 0f38 d25b 0639 f6b5 3c39
00000270: a6ce a039 71e8 7339 ee5b c138 447f 26b9
00000280: f440 a9b8 8943 92b7 a9f1 88b8 b48d 26b8
00000290: e5df 6bb8 9784 2fb8 294c 3130 75e4 059c
000002a0: 0000 0000 8430 c324 2173 75b0 7364 b4b3
000002b0: 1265 7937 10c0 1338 1885 ec38 1dfa e738
000002c0: 94de 62b8 6cd1 0eb8 4915 5eb9 9714 8eb9
000002d0: cafb 4ab9 3e72 fe38 66a2 4839 9e91 3e39
000002e0: 27a1 8339 2330 6439 08c2 69b7 ea81 57b9
000002f0: 7b8d 32b9 801b 4bb9 5d71 62b9 9aae 58b9
00000300: 151f 39b9 e6a8 bcb8 4c10 2934 bfa3 392a
00000310: 0000 0000 00e6 1f2a ce16 2ab2 ead5 d5b4
00000320: eaff 3537 a26a 2838 ae03 f338 38f0 a6b7
00000330: 4e36 fdb8 e6e3 56b9 c8ea 4cb9 289c a9b8
00000340: a41e 5ab9 ea70 61b9 ac82 0fb9 3070 1538
00000350: 1e85 0039 0803 fe37 03ec d738 00ce d737
00000360: 7524 9eb9 4bec 9fb9 49c3 88b9 1d6a 3eb9
00000370: e131 49b9 1c7f 8bb8 3bee a8b3 1b06 142d
00000380: e644 da1d 6342 8f2a 0905 8cb3 4e8c 0c34
00000390: d43f f336 a26f 0439 8598 4139 9aaf 88b8
000003a0: 922f a6b9 48bd 81b8 40b3 4137 7249 29b9
000003b0: c161 b5b9 8fda edb9 8340 86b9 1150 0e39
000003c0: 7fc6 eb38 f0c5 5e39 6fbc 5739 9e29 1039
000003d0: 3641 2db8 8cbe 89b9 7ab5 e1b8 480e 31b7
000003e0: ea44 abb8 0ff9 afb7 a458 c3b3 c2f6 092c
000003f0: 8302 3a9a ba8b b6a9 158a 3db3 e1fd cb35
0.0 0.0 0.0 0.0 0.0 0.0 0.0 0.0
0.0 0.0 0.0 0.0 0.0 0.0 0.0 0.0
0.0 0.0 0.0 0.0 0.0 0.0 0.0 0.0
0.0 0.0 0.0 0.0 0.0 0.0 0.0 0.0
0.0 8.3727364e-20 5.620902e-12 9.690029e-12 8.476239e-13 4.254037e-12 -8.0298344e-13 4.6080983e-10
9.854693e-10 3.1603284e-09 1.26733e-08 4.8464408e-08 3.4592816e-08 7.656056e-09 4.650341e-10 1.2878632e-12
6.989764e-11 8.085588e-10 1.0056435e-09 8.19419e-11 0.0 0.0 0.0 0.0
0.0 0.0 0.0 2.0053956e-12 1.5501084e-10 2.2555961e-10 4.044253e-11 8.419499e-10
2.6836515e-09 8.181992e-09 -1.7609281e-07 -5.3895684e-07 1.1595358e-08 6.891595e-07 8.256533e-06 1.1607123e-05
8.414653e-07 -1.1392733e-07 -1.8868542e-07 -1.6336382e-07 -2.8160636e-08 1.1317404e-08 1.1826645e-08 4.792309e-10
-1.7575357e-20 -8.017743e-20 0.0 0.0 0.0 0.0 0.0 5.8165877e-12
1.0397314e-10 -2.7575415e-09 4.1208208e-05 3.061352e-05 -4.1119722e-07 -7.6023866e-06 1.946105e-05 1.0760312e-05
5.5086184e-05 8.118224e-05 2.7744929e-05 -0.00011876903 9.9375675e-06 0.0001292878 9.896381e-05 9.150847e-05
7.807239e-05 1.4938876e-05 2.810611e-06 9.1728754e-07 3.6795757e-06 -1.5773733e-09 0.0 0.0
0.0 3.0145663e-18 0.0 6.881884e-11 1.7590864e-06 1.3624059e-05 6.1524515e-05 4.817421e-05
6.4851733e-06 2.8417353e-05 4.9455208e-05 0.00011586433 0.00017480261 0.00018684239 0.00013066488 1.2575213e-05
0.00021168862 0.00028958544 0.00022458249 0.0001913012 4.5509827e-05 5.8604797e-05 -9.518433e-07 6.3437674e-06
2.2578154e-06 -2.500497e-08 5.926948e-09 0.0 0.0 0.0 7.350813e-12 2.7536582e-09
7.996564e-06 2.2640112e-05 7.6432465e-05 4.7597303e-05 2.67857e-06 3.8135346e-05 -2.1490264e-06 -0.0001507109
-0.00015834562 3.4271066e-05 0.00012813442 0.00017996863 0.00030671543 0.00023260877 9.2200804e-05 -0.00015878404
-8.0706464e-05 -1.7436005e-05 -6.529998e-05 -3.9709455e-05 -5.6236884e-05 -4.1846735e-05 6.4500455e-10 -4.430128e-22
0.0 8.464996e-17 -8.929409e-10 -8.400175e-08 1.4865089e-05 3.5226403e-05 0.000112781476 0.000110615256
-5.408989e-05 -3.4050478e-05 -0.00021179499 -0.0002709969 -0.0001935802 0.00012132943 0.00019133984 0.00018174059
0.00025106335 0.00021761707 -1.3933059e-05 -0.00020552395 -0.00017028108 -0.00019369833 -0.0002159527 -0.0002066441
-0.00017654554 -8.995998e-05 1.574528e-07 1.6488112e-13 0.0 1.4201834e-13 -9.9004875e-09 -3.9829985e-07
1.0848025e-05 4.015363e-05 0.00011587828 -1.9900603e-05 -0.00012074095 -0.00020493529 -0.00019542419 -8.087634e-05
-0.00020801515 -0.00021499736 -0.00013686222 3.562885e-05 0.00012256621 3.0280571e-05 0.000102959595 2.5725923e-05
-0.0003016327 -0.00030502895 -0.0002608544 -0.00018159342 -0.00019187435 -6.6517125e-05 -7.8664435e-08 8.414182e-12
5.777536e-21 2.5447968e-13 -6.520174e-08 1.3089559e-07 7.249395e-06 0.00012630087 0.00018462732 -6.517694e-05
-0.0003169743 -6.186456e-05 1.1545431e-05 -0.00016144456 -0.00034595843 -0.00045367 -0.00025606537 0.00013572002
0.00011242646 0.00021245307 0.00020574195 0.00013748414 -4.1307147e-05 -0.00026272645 -0.00010762639 -1.0553347e-05
-8.166752e-05 -2.0977603e-05 -9.096519e-08 1.960585e-12 -3.8465927e-23 -8.106662e-14 -4.4130577e-08 1.5198567e-06

exp_avg_sq f4 [50, 784]
00000000: 0000 0000 0000 0000 0000 0000 0000 0000
00000010: 0000 0000 0000 0000 0000 0000 0000 0000
00000020: 0000 0000 0000 0000 0000 0000 0000 0000
00000030: 0000 0000 0000 0000 0000 0000 0000 0000
00000040: 0000 0000 0000 0000 0000 0000 0000 0000
00000050: 0000 0000 0000 0000 0000 0000 0000 0000
00000060: 0000 0000 0000 0000 0000 0000 0000 0000
00000070: 0000 0000 0000 0000 0000 0000 0000 0000
00000080: 0000 0000 4bcb 3019 c93a bc24 c66b 4025
00000090: 2a30 a224 2433 e722 6bda dc29 fa96 be2b
000000a0: 0b56 a62a 4d6d 8d2a 94e6 a82d cc5c 6e2e
000000b0: 0eca b32d 4528 1c2b 80a7 6627 5150 d527
000000c0: ebcc 6427 021c 9625 0b68 6e25 c3aa 6222
000000d0: 0000 0000 0000 0000 0000 0000 0000 0000
000000e0: 0000 0000 0000 0000 0000 0000 997c 3f28
000000f0: 4a3b b726 550a b223 5085 1826 9116 5928
00000100: feb8 9529 0cb9 822f ec30 6e2e c8b1 1230
00000110: 63e6 1632 4672 ea31 d548 ce30 5ac0 ee30
00000120: ebd1 aa31 658d 8531 ae44 e330 fb69 bf30
00000130: 6e6b ad30 6336 c22f 1661 6f2c d355 ff29
00000140: 2386 e626 02ca 611e 0000 0000 0000 0000
00000150: 0000 0000 0000 0000 0000 0000 b7f3 912a
00000160: 5bb2 1c2e 0818 e02a 9147 b130 821c b530
00000170: f766 1831 eebf e531 71b7 b333 2758 0a34
00000180: d054 ba33 5c7d c533 ece5 9d33 a1d8 f633
00000190: 23d9 5234 5a4c 3234 1d47 a233 b874 6533
000001a0: edfc 4633 f3ad 4432 8d43 a831 96b3 3f31
000001b0: c0e8 8030 f977 4a27 0000 0000 0000 0000
000001c0: 0000 0000 ed01 861e 0000 0000 5f95 8f2b
000001d0: b98e 262f 6279 8631 124c 8f32 8680 9733
000001e0: 0051 dd33 9143 6834 8ba0 8834 7e59 2135
000001f0: c452 4d35 6c2a 7135 561b 9735 1aba a635
00000200: bdc1 8335 d823 6135 31c2 1b35 1ce4 c334
00000210: cc89 2b34 c817 b333 8965 0533 e40f 2732
00000220: 4f7b 8532 2e12 d331 d8e2 cd2c 0000 0000
00000230: 0000 0000 0000 0000 30ea b226 6bae 592e
00000240: be40 e030 eaf6 9a32 f4a6 bd33 8988 0e34
00000250: 964d 6434 50b7 0c35 e367 5e35 8706 ad35
00000260: 85e6 f935 829d 1336 0f08 2d36 fefd 3536
00000270: 653c 2336 740e fc35 8a87 ae35 78a2 6f35
00000280: 1ba7 1135 8d97 8b34 a027 cb33 844e 3333
00000290: 8e3f 7232 3068 9530 0db4 0c2b adb0 a015
000002a0: 0000 0000 8e99 8227 6e0c 8b2c 1bcb a82f
000002b0: e100 1532 bbf8 7c33 e48f 6f34 2874 ab34
000002c0: 1ed1 f834 3dd9 8935 305c d535 2a4f 1636
000002d0: 4077 3c36 1360 6e36 a6d3 8336 6db0 7936
000002e0: 8498 5e36 1f74 3e36 259e 2536 3775 ec35
000002f0: d3c9 a335 fa5d 3135 d860 9d34 33e5 0734
00000300: ee6f ff32 cc22 a031 3869 a22c e353 ca25
00000310: 0000 0000 51da 2d2c 823c 752e 382a e030
00000320: 52d5 db32 bada f733 96f3 dd34 8332 2735
00000330: f1a8 9c35 e772 e035 efab 0c36 a6be 3936
00000340: 5c8b 6d36 7c7c 8a36 a72f 7f36 f673 6c36
00000350: d6f8 6c36 e050 6336 5ebd 4636 8d50 2536
00000360: 5ca3 0c36 8a8e b235 fd9d 1635 8c1c 8734
00000370: bcc7 c933 6808 7632 f937 0230 918d e226
00000380: dd86 782e ca91 b928 587e c12f c0f4 7832
00000390: 4da6 5c33 d47f 3e34 4456 1335 9c2e 8035
000003a0: 4e93 be35 aba1 ec35 15e6 2236 7ac1 5336
000003b0: ecf1 6a36 fc90 6d36 a499 5336 848f 5a36
000003c0: b94d 6c36 c335 6f36 eeaa 6636 a4ed 3536
000003d0: 204e 1d36 2439 e135 7729 8035 81ff b034
000003e0: 950f d733 4b40 7633 3616 d22f c238 de24
000003f0: f611 3f1a 8622 f827 ebe0 d831 458a 0d33
0.0 0.0 0.0 0.0 0.0 0.0 0.0 0.0
0.0 0.0 0.0 0.0 0.0 0.0 0.0 0.0
0.0 0.0 0.0 0.0 0.0 0.0 0.0 0.0
0.0 0.0 0.0 0.0 0.0 0.0 0.0 0.0
0.0 9.1400414e-24 8.163159e-17 1.668986e-16 7.0337894e-17 6.2666823e-18 9.807852e-14 1.3542216e-12
2.9547228e-13 2.5122474e-13 1.9201786e-11 5.4197355e-11 2.0439674e-11 5.547822e-13 3.2009714e-15 5.9206455e-15
3.1752442e-15 2.603983e-16 2.067846e-16 3.0719112e-18 0.0 0.0 0.0 0.0
0.0 0.0 0.0 1.0629648e-14 1.2714246e-15 1.9303174e-17 5.2916266e-16 1.2050813e-14
6.64902e-14 2.3778346e-10 5.4158386e-11 5.3367133e-10 8.783533e-09 6.8232877e-09 1.5009173e-09 1.7371449e-09
4.971516e-09 3.886884e-09 1.6535944e-09 1.39272e-09 1.261794e-09 3.5327039e-10 3.4017836e-12 1.1339163e-13
1.5995814e-15 1.1953175e-20 0.0 0.0 0.0 0.0 0.0 2.5926285e-13
3.5628705e-11 3.9807068e-13 1.2898785e-09 1.3177586e-09 2.217744e-09 6.686597e-09 8.368705e-08 1.2884321e-07
8.676727e-08 9.19633e-08 7.352705e-08 1.1494672e-07 1.9636768e-07 1.6605318e-07 7.556648e-08 5.3424372e-08
4.6330502e-08 1.1448253e-08 4.897123e-09 2.789624e-09 9.379377e-10 2.8098169e-15 0.0 0.0
0.0 1.4188598e-20 0.0 1.020222e-12 1.5148317e-10 3.913713e-09 1.6681984e-08 7.054864e-08
1.0305848e-07 2.1631264e-07 2.5448784e-07 6.01074e-07 7.648889e-07 8.984123e-07 1.1258333e-06 1.2422126e-06
9.816646e-07 8.387119e-07 5.8024585e-07 3.6487552e-07 1.5975746e-07 8.339663e-08 3.105882e-08 9.7242925e-09
1.5539312e-08 6.142975e-09 5.851635e-12 0.0 0.0 0.0 1.2414708e-15 4.9495002e-11
1.6316546e-09 1.8040243e-08 8.831367e-08 1.3274452e-07 2.126238e-07 5.242082e-07 8.285262e-07 1.2891404e-06
1.8619036e-06 2.1996389e-06 2.57837e-06 2.7118945e-06 2.4324047e-06 1.877967e-06 1.3003457e-06 8.927086e-07
5.425988e-07 2.6001035e-07 9.460132e-08 4.1748095e-08 1.4100705e-08 1.0870789e-09 4.998786e-13 6.490223e-26
0.0 3.6248733e-15 3.9519976e-12 3.0703337e-10 8.673141e-09 5.889954e-08 2.2310957e-07 3.1935747e-07
4.6345752e-07 1.027052e-06 1.5896567e-06 2.2397821e-06 2.8083596e-06 3.5520686e-06 3.9287434e-06 3.7206585e-06
3.3169354e-06 2.8379798e-06 2.4678968e-06 1.7617484e-06 1.2203185e-06 6.607439e-07 2.9313992e-07 1.2656237e-07
2.9736807e-08 4.660569e-09 4.6159986e-12 3.5098258e-16 0.0 2.4705969e-12 5.5760292e-11 1.6310144e-09
2.5591962e-08 1.154162e-07 4.134169e-07 6.228585e-07 1.1672074e-06 1.6722742e-06 2.0961704e-06 2.767812e-06
3.539687e-06 4.1272124e-06 3.8025698e-06 3.5234239e-06 3.5311582e-06 3.3872711e-06 2.9614525e-06 2.4633803e-06
2.0956713e-06 1.3303518e-06 5.610926e-07 2.516648e-07 9.396123e-08 1.4320996e-08 4.7373266e-10 1.5720272e-15
5.6508454e-11 2.0602352e-14 3.5196268e-10 1.449115e-08 5.137399e-08 1.7741633e-07 5.48873e-07 9.550308e-07
1.4198974e-06 1.7630422e-06 2.4273807e-06 3.1554068e-06 3.5009534e-06 3.5400144e-06 3.153088e-06 3.2568068e-06
3.521198e-06 3.5645069e-06 3.4372165e-06 2.7109427e-06 2.3440298e-06 1.6780436e-06 9.548811e-07 3.2968458e-07
1.0014552e-07 5.7334812e-08 3.821456e-10 9.6373304e-17 3.9512383e-23 6.887126e-15 6.3119976e-09 3.2954876e-08

exp_avg f4 [50]
00000000: 7454 57b9 d68e 6b3a 8820 4f3a f906 0eba
00000010: 7532 78ba 4737 8839 e381 a1b9 5b2f 43ba
00000020: e6d6 3338 38fc ff39 0491 13ba 7a5c 88b9
00000030: f59a ef39 4ffe c139 6f10 89b9 0223 bab9
00000040: e72f 84b9 c999 3e3a cd9b 9d39 a46c 64ba
00000050: ecb3 753a bcaa 86ba 0000 0000 b97f 283a
00000060: 0676 c839 649b e7b8 4cb7 1d3a 6277 11ba
00000070: e09c 7039 2317 be39 86f8 2db9 600c 84b8
00000080: 6625 03ba 453e f338 5dd4 a139 24f3 193a
00000090: 2785 0d3a 4620 8a39 a3ce 223a 1e32 b739
000000a0: e8ff eab9 f03c 0339 dadc 0b3b e366 82ba
000000b0: 2e8c 1739 5857 bcb9 c00f 103a 6fd6 acb9
000000c0: fb1e 36ba 1606 933a
-0.00020535459 0.0008985823 0.0007901271 -0.0005417909 -0.0009467968 0.00025981126 -0.00030805086 -0.0007445716
4.2877065e-05 0.00048825308 -0.0005629214 -0.00026008842 0.00045701084 0.00037001303 -0.0002614292 -0.00035502767
-0.00025212692 0.00072708406 0.00030061454 -0.00087136985 0.0009372819 -0.0010274271 0.0 0.00064277236
0.00038234907 -0.00011043882 0.0006016388 -0.00055491005 0.00022946624 0.00036256862 -0.00016591148 -6.2965555e-05
-0.0005002826 0.000115987415 0.00030866536 0.00058727176 0.00053985644 0.00026345457 0.0006210601 0.0003494182
-0.00044822623 0.00012515835 0.0021341355 -0.0009948876 0.00014452703 -0.0003592323 0.0005495511 -0.00032966162
-0.00069473655 0.0011217024

exp_avg_sq f4 [50]
00000000: e82b 0537 cc18 9537 32a3 2637 b7bf 3e37
00000010: 8c8d fa36 e3e5 8c36 f583 0a37 23e2 4137
00000020: 15d7 2a37 bb86 e736 fc6c d336 402f 5937
00000030: 84bb 3937 7970 f036 3bda 1537 5410 c936
00000040: 0581 8b36 64c5 6037 0d03 6b37 bd44 7e37
00000050: 7388 4237 278a 3337 0000 0000 2a8b a736
00000060: 8d19 4b37 4c89 cd36 f36a 2237 7cb1 9837
00000070: 7903 5237 a69a c536 eb88 d036 011b 3637
00000080: 7b58 c737 aa01 2d37 d5fc 4937 170a 2337
00000090: 9432 7d37 abcb 3637 8f20 f336 c4dc 3237
000000a0: 4a43 cc36 4158 3637 cbe5 8337 4fb0 d436
000000b0: bf15 0537 c66a ea36 735f f936 ea8b 5837
000000c0: d085 8837 56e6 ae37
7.9376405e-06 1.7773731e-05 9.932368e-06 1.136952e-05 7.467059e-06 4.1990875e-06 8.256165e-06 1.1556348e-05
1.0182867e-05 6.900021e-06 6.3009775e-06 1.2945209e-05 1.1070519e-05 7.165651e-06 8.931903e-06 5.9921676e-06
4.1575427e-06 1.3397399e-05 1.4007802e-05 1.5155584e-05 1.1595071e-05 1.07013975e-05 0.0 4.9931887e-06
1.2105692e-05 6.1254595e-06 9.6808535e-06 1.820246e-05 1.2517784e-05 5.889061e-06 6.2148224e-06 1.0854333e-05
2.376385e-05 1.0311991e-05 1.2039401e-05 9.717906e-06 1.5091751e-05 1.08954655e-05 7.2457547e-06 1.0661028e-05
6.0875072e-06 1.0868594e-05 1.5723423e-05 6.3386174e-06 7.932481e-06 6.9861735e-06 7.43189e-06 1.290718e-05
1.6274775e-05 2.0849675e-05

exp_avg f4 [10, 50]
00000000: 7506 85bb 7c67 9cba 9095 2ebb 40fd 53b9
00000010: e1e8 88bb b467 30ba 3935 ccbb c0d2 a0ba
00000020: 3ab3 f1ba a938 cbba 9e16 acbb d71b c4ba
00000030: f67c 99b8 2893 6fbb fdc4 a9bb 07bd b3b9
00000040: f2d0 a0bb d294 5eb9 cd72 94bb 0962 68bb
00000050: 32f3 ddba 3b54 bbbb 0000 0000 3aea 56bb
00000060: 66c0 d1b9 068e 50bb c014 3fbb 03d5 64ba
00000070: 9f7c 2db9 2cce 51bb 7dc0 b4bb da78 39b9
00000080: 4adf 21ba 3b24 02bb 998e 1fbb 29d8 b1b9
00000090: b12d 4dbb 24f9 99b9 bbb2 48ba 5483 5dbb
000000a0: f525 0fbc d3eb fa39 4942 e9b9 f35f 69bb
000000b0: 4396 35bb 1ea1 c9b8 2e2f 41b9 0304 e9b8
000000c0: 1d19 dcb9 1f45 06ba 3602 a3b9 c013 08b8
000000d0: 0af7 a9ba dadf 68ba 3b0c da39 d587 003a
000000e0: 0eb7 e438 a426 77b9 87e6 8bba 2b0d 933a
000000f0: fc10 033a 3ae3 a2b8 c026 6639 805f 943a
00000100: 5c8f 8f38 dc89 42b9 10fe ed39 9949 5f39
00000110: 458e 073a c72f 0eba ca15 04ba c3f1 a039
00000120: 0000 0000 405b 083a 8e25 59b8 ee9f b738
00000130: fc2e 113a 9895 c139 5ccb 363a 0047 5ab6
00000140: a64a 4f39 0f12 633a 5c2b 06ba a4ff 9839
00000150: 3381 8339 b124 17ba 25f0 3139 0e36 8539
00000160: 2d24 d6b9 5efb 46b9 0397 2f39 8925 b0b9
00000170: 60b8 8db9 cbad bf38 bf70 e439 5604 e238
00000180: 0941 84b9 5e59 8db7 e6e0 26ba af12 b6b7
00000190: 4f19 6a3b bcc9 0db9 7e35 c6ba 900d 14bb
000001a0: 03c6 0e3b 0c58 0bbb 2c54 b53b 7e01 32bb
000001b0: fc69 67ba 646e 213b ea6f 983a 58e2 963a
000001c0: 0e3f 083a 6db6 a7ba c679 253b f38d 83ba
000001d0: 9bf2 7b3b ba95 6cba 3571 a53b fa5c 6c3b
000001e0: 7e4d 07bb 97a5 b33a 0000 0000 34c8 a33a
000001f0: 020e dcba 260e 3e3b 1c3f 043b 06db d2ba
00000200: 56e3 c5b9 7003 b4b8 8810 6d3b 2e18 183b
00000210: 011a 003b b011 b2b8 bb47 933a 8db7 803a
00000220: 04fe a23a ad31 9838 67b3 1cb9 3e50 d23a
00000230: bc4d 993b 7c1d c5ba 02bb b339 51f4 2f3b
00000240: eee1 80ba 2602 8dba 292f e6b9 2cdb 803a
00000250: 4037 2db7 c546 0e39 b523 24ba 7967 6bbb
00000260: 14b9 9a39 2c6e c63a d227 343a 3c0a 313a
00000270: f051 55bb 0ca0 b23a 1518 823a 2558 12bb
00000280: 84a0 c3ba 5e02 2139 4887 cf39 94e1 0cbb
00000290: 5776 3aba 1707 3f3a b2ce 43bb b89c b0ba
000002a0: eaa4 25bb 7404 65bb a69f 6d39 762a 2ab9
000002b0: 0000 0000 cc7c 5abb 0bff 293a ff32 26bb
000002c0: 9b51 0bbb c06b 3d3a 9cc0 a339 dc43 1ebb
000002d0: 1237 52bb 08d4 0abb 49c6 adba 90aa f8b9
000002e0: dd25 deba 8360 3b3a 6ef4 84b9 b39f 9939
000002f0: 8efc e1b8 9756 00bb 3e55 1abb 1067 9f3a
00000300: f457 803a 40a7 eaba 2493 59b8 6f65 e3ba
00000310: 984a 963a 50c6 b43a 4414 0dba fb35 ae39
00000320: b80c 963a 5ba7 1bbb dca7 43bb 84cf 18b9
00000330: 3955 9bb9 5466 49b9 4da5 ecb9 e8dd df3a
00000340: dc78 263a 1592 2fba ec2b adb9 9484 613a
00000350: 567f 4aba ba50 a7ba 6777 2639 df82 133a
00000360: 5c74 a3b9 ea5c 053a 80b3 a33a e6e8 ad3a
00000370: 6f59 dcba e9dd 26b9 0000 0000 5a82 2d3a
00000380: 5be7 2bba 7502 2939 b6d9 85ba 3224 3f37
00000390: 4883 ecb9 d07c 3c38 2a78 7aba 9007 c13a
000003a0: e57c 9b3a 59ac 3c3a ea07 7e39 af6e 9739
000003b0: 1824 5638 b557 77ba 6f11 8fba d253 d438
000003c0: 98d0 a6b9 9da4 623a 7e13 8439 b743 8a39
000003d0: 78f5 ecb9 166f 2939 055a 20ba 50fe 0938
000003e0: 94bc 0fbb 8236 f6b9 9e5c 753b 912c 3e3b
000003f0: 10ac 583b f61f 083a bf9c 7f3b adf3 973a
-0.0040596076 -0.0011932696 -0.002663944 -0.00020216871 -0.004178152 -0.000672932 -0.0062319306 -0.001226984
-0.0018440254 -0.0015504557 -0.0052517196 -0.001496191 -7.318884e-05 -0.0036556218 -0.0051809535 -0.00034282377
-0.0049077207 -0.0002122701 -0.004530287 -0.0035458824 -0.001693344 -0.005716828 0.0 -0.0032793419
-0.00040006934 -0.0031822934 -0.0029156655 -0.0008729251 -0.0001654499 -0.0032013757 -0.0055161105 -0.00017687996
-0.0006174935 -0.001985802 -0.002434647 -0.00033921123 -0.0031307752 -0.00029368058 -0.00076560274 -0.0033800201
-0.008737077 0.0004785942 -0.0004449061 -0.0035610169 -0.0027707971 -9.614437e-05 -0.0001842349 -0.00011111053
-0.0004198038 -0.0005121994 -0.0003109143 -3.244332e-05 -0.00129673 -0.0008883454 0.00041589313 0.0004903053
0.00010905984 -0.0002357015 -0.0010673561 0.0011219134 0.0004999784 -7.767086e-05 0.00021948945 0.0011319965
6.845474e-05 -0.00018552638 0.00045393454 0.00021294355 0.0005171041 -0.00054239895 -0.0005038647 0.00030697705
0.0 0.00052015856 -5.1771807e-05 8.755909e-05 0.0005538312 0.00036923285 0.0006973052 -3.2525859e-06
0.00019768867 0.0008662054 -0.00051181554 0.00029182166 0.00025082528 -0.00057656603 0.00016969496 0.0002540801
-0.00040844214 -0.00018976393 0.00016745557 -0.00033597302 -0.00027030986 9.139961e-05 0.0004357155 0.000107773274
-0.00025225457 -1.6850125e-05 -0.000636591 -2.1704791e-05 0.0035720652 -0.0001352196 -0.0015122143 -0.0022591092
0.0021785505 -0.0021262197 0.0055337157 -0.0027161534 -0.00088277436 0.0024632448 0.0011630033 0.0011511547
0.0005197384 -0.0012795456 0.0025249585 -0.0010036811 0.0038444165 -0.00090249965 0.0050488957 0.003606616
-0.0020645554 0.0013705966 0.0 0.0012495578 -0.0016788843 0.0029000132 0.0020179218 -0.0016087003
-0.00037744147 -8.583709e-05 0.0036173183 0.0023207772 0.001954675 -8.490996e-05 0.0011236587 0.0009820327
0.0012435322 7.257178e-05 -0.00014944152 0.0016045643 0.004678456 -0.0015038694 0.00034280872 0.0026848505
-0.0009832957 -0.0010758087 -0.00043904156 0.0009830943 -1.0324467e-05 0.00013568539 -0.0006261424 -0.0035919829
0.00029511063 0.0015139035 0.0006872389 0.0006753539 -0.003255006 0.001362802 0.000992539 -0.002233037
-0.0014925157 0.00015355038 0.0003958291 -0.002149676 -0.0007112971 0.0007287128 -0.0029877839 -0.001347444
-0.0025275298 -0.0034945281 0.00022661555 -0.00016228281 0.0 -0.0033338545 0.0006484843 -0.0025359986
-0.0021258357 0.0007225834 0.00031233288 -0.0024149334 -0.0032076281 -0.002118351 -0.0013257946 -0.00047429325
-0.001694854 0.0007147865 -0.00025359116 0.0002930142 -0.00010775878 -0.0019582862 -0.0023549343 0.0012161452
0.0009791837 -0.0017902628 -5.1873867e-05 -0.0017348955 0.0011466322 0.0013792012 -0.0005381743 0.00033228085
0.0011447882 -0.0023750875 -0.002985469 -0.00014573155 -0.000296274 -0.00019206974 -0.00045136586 0.0017079683
0.0006350407 -0.0006697488 -0.00033029856 0.00086028245 -0.0007724663 -0.0012765147 0.00015875474 0.00056271063
-0.00031176477 0.00050873926 0.0012489408 0.0013268262 -0.0016811321 -0.00015913662 0.0 0.000661885
-0.0006557607 0.00016118011 -0.0010211978 1.13929145e-05 -0.0004511124 4.4938934e-05 -0.0009554649 0.0014726985
0.0011862783 0.00071973127 0.00024226276 0.0002888343 5.105519e-05 -0.00094353716 -0.001091523 0.000101245605
-0.00031817402 0.0008645745 0.00025191525 0.00026371863 -0.00045196316 0.00016158479 -0.00061169296 3.2900192e-05
-0.002193247 -0.00046961388 0.0037439237 0.0029018263 0.0033061542 0.0005192751 0.003900334 0.0011593007

exp_avg_sq f4 [10, 50]
00000000: d8b5 8f38 5f92 1638 b70e 6338 7c69 e436
00000010: 101d b338 c9d8 c637 b320 2739 af9c 9937
00000020: 40a7 0038 13a9 a138 d0d2 2a39 f176 8237
00000030: 34d0 9637 6237 a238 4517 4d38 c348 ca36
00000040: c196 1639 160c 7635 0c4a 3d39 8f07 8d38
00000050: 2fb4 1d38 f572 b838 0000 0000 86bc b338
00000060: 139a 8c36 489a 9838 b8bc 8638 9462 1438
00000070: 0d24 8b37 dc6d c538 c985 0939 a8b7 9938
00000080: 5046 2c37 d7e0 1e38 3535 3138 919c 0a37
00000090: c418 6037 83d9 6b36 c982 f237 68d5 c438
000000a0: 7b8d 9a39 40f4 8736 abf1 5536 1fe3 b238
000000b0: dcd8 e938 ea10 5f37 e9be b037 18cc ab36
000000c0: 60ad 2837 7a7e 2537 2790 2e36 0c86 6e38
000000d0: 04a2 5239 3a79 1739 c15c 8137 a194 4d38
000000e0: 5580 3937 a707 a139 3022 bc38 7516 8337
000000f0: cea3 dc38 7746 0338 958a 7435 6bf9 f038
00000100: 1f77 b036 f069 7138 08b3 d637 cdfe 8337
00000110: ba09 7838 6e1c d838 2f02 6139 ebbc a538
00000120: 0000 0000 b80a 4a39 f45d 6138 d216 7838
00000130: fce0 9237 ac27 8b38 8e6e fc36 f2be 8339
00000140: d58b 0139 0bf6 7837 d369 d837 fb5f fe37
00000150: 0d63 4938 175a a336 24c9 c136 ea3e f936
00000160: 508a 7637 3397 9637 d1d4 3f38 2f74 8538
00000170: d847 8e38 eae5 1037 50d4 5b38 d5af bc38
00000180: 3e5d 4c37 df18 a437 58a4 6038 6985 6937
00000190: 71a6 b038 74a4 4238 3998 0b39 5d9b 5738
000001a0: 6d5f ec38 67f1 bf38 8e96 ec38 8853 ef38
000001b0: 6703 3c38 6293 bd38 28d7 5a39 c394 0639
000001c0: 313d 4b37 e04a 3f39 d3f5 d037 7310 4638
000001d0: 92ed 1d39 7d78 0737 3266 1939 9028 6839
000001e0: adca 3d38 98b0 7539 0000 0000 0436 6a39
000001f0: 4371 6938 1d57 1239 c6fa fc38 d5f8 0f39
00000200: cdc9 8f37 2137 7d39 8ada 9339 0d25 9138
00000210: 2933 0a38 afca 8c38 5291 1b39 933e f437
00000220: 65df ec37 0a26 1737 77d2 8437 42ad fc37
00000230: fdb9 9839 ac16 6738 5b8e 0e39 7bed 8238
00000240: 628e d838 05da 2039 ec89 3a38 444e 8538
00000250: 7551 d937 9a08 e737 a31d 9638 b0f5 0639
00000260: 2323 8b39 89f5 4738 2d17 a738 2f85 cc38
00000270: 8388 1d39 5730 6539 36d9 b638 a0e4 8f38
00000280: 4b95 4e39 f8d6 2439 65fc ea37 725d 4339
00000290: 756c 1038 2257 f138 13f0 3d39 a917 bc38
000002a0: 9dcb 9839 c45a 3b39 3f75 7138 b657 6b39
000002b0: 0000 0000 161a d039 2d8c 8a38 addb cb39
000002c0: 972a 7738 6265 1939 6edb 7538 da48 b439
000002d0: ba43 e339 ce29 a639 03cf 0d38 1abf 2338
000002e0: 9318 033a f793 a338 d288 a938 4c3b 1c37
000002f0: 57c0 1c37 a9a6 0f38 69aa d639 8072 cf38
00000300: afca 1539 b7b8 1f39 bbf9 6239 c72f ac39
00000310: ebb9 4838 609d 9038 c528 2538 3702 e337
00000320: 4905 1a39 71cc 1538 e4bc f738 491e 6a38
00000330: 3bb1 9538 0911 ae38 da0d 0338 f2d4 0e39
00000340: acc5 d137 fca0 ae38 7aba 4a39 e882 fa36
00000350: dc9b 4138 114a 8138 7caa d635 2d98 aa37
00000360: e6bd 2c38 dba2 5d38 6ac7 2139 0519 4438
00000370: a475 0839 4c5a 9837 0000 0000 984d 6739
00000380: c5da d936 557f 0c39 02a9 9e38 6b5c 6b36
00000390: ac8f 1f39 57ab 2039 af74 5a39 63c3 1538
000003a0: 6640 f037 7654 9938 bbc5 0637 870c 0a39
000003b0: a47a b336 a692 2038 eb71 0238 0bcc ad37
000003c0: 0a81 0939 665b 1439 35ef 1636 d58a de37
000003d0: f6f7 8538 a407 5a38 5f09 7f36 b6c6 d437
000003e0: 0858 0339 04e8 3337 11d4 4e38 4aeb 0339
000003f0: 33cc 3739 7588 2e38 e966 5e38 2def 7e38
6.8526424e-05 3.5899106e-05 5.413472e-05 6.8072095e-06 8.5407984e-05 2.3704388e-05 0.00015938542 1.8311983e-05
3.0673342e-05 7.708571e-05 0.00016290997 1.5552594e-05 1.7978346e-05 7.735078e-05 4.889748e-05 6.0285397e-06
0.00014361275 9.165973e-07 0.00018052029 6.724812e-05 3.7599526e-05 8.795216e-05 0.0 8.5705e-05
4.1902617e-06 7.276662e-05 6.4247695e-05 3.5377758e-05 1.6586879e-05 9.414155e-05 0.00013115177 7.329817e-05
1.026837e-05 3.7879534e-05 4.224964e-05 8.261894e-06 1.3357207e-05 3.5144337e-06 2.890955e-05 9.385758e-05
0.0002947858 4.051748e-06 3.1880143e-06 8.530006e-05 0.00011150699 1.3295774e-05 2.1069734e-05 5.1199568e-06
1.0053947e-05 9.864214e-06 2.6011928e-06 5.6868463e-05 0.00020087516 0.00014445643 1.542119e-05 4.901423e-05
1.1056739e-05 0.00030714014 8.9709065e-05 1.5626874e-05 0.000105209285 3.129846e-05 9.1098747e-07 0.000114905495
5.2590763e-06 5.755754e-05 2.5594156e-05 1.5735068e-05 5.9136866e-05 0.00010304978 0.00021458486 7.903002e-05
0.0 0.00019268214 5.373168e-05 5.914906e-05 1.7509323e-05 6.635426e-05 7.5230555e-06 0.00025128532
0.0001235449 1.4839238e-05 2.5798485e-05 3.0323854e-05 4.8014383e-05 4.8682664e-06 5.775264e-06 7.4281024e-06
1.4694946e-05 1.7951801e-05 4.573615e-05 6.363575e-05 6.7844696e-05 8.6366e-06 5.24114e-05 8.99729e-05
1.2181057e-05 1.9561905e-05 5.355882e-05 1.3918944e-05 8.423336e-05 4.6406363e-05 0.0001331278 5.1404688e-05
0.000112711314 9.1525544e-05 0.000112814 0.00011411967 4.482586e-05 9.0396745e-05 0.00020870252 0.00012834654
1.211399e-05 0.00018243073 2.4910003e-05 4.72222e-05 0.00015061189 8.07468e-06 0.00014629288 0.00022140355
4.5249868e-05 0.00023430807 0.0 0.00022336101 5.5657012e-05 0.00013956097 0.000120630066 0.0001373024
1.71409e-05 0.00024148497 0.0002820085 6.92104e-05 3.294941e-05 6.713473e-05 0.00014836088 2.9116205e-05
2.8237419e-05 9.009158e-06 1.5833632e-05 3.012142e-05 0.0002913027 5.5095807e-05 0.00013595207 6.243117e-05
0.000103262035 0.00015340008 4.4474305e-05 6.356512e-05 2.5906347e-05 2.7541351e-05 7.158078e-05 0.00012870762
0.00026538325 4.767397e-05 7.9674974e-05 9.7522854e-05 0.00015023541 0.0002185715 8.718895e-05 6.861356e-05
0.00019701307 0.00015720341 2.8012504e-05 0.0001863146 3.4433284e-05 0.00011508005 0.00018113879 8.9689456e-05
0.00029143403 0.00017867523 5.756807e-05 0.00022444021 0.0 0.00039692287 6.6064626e-05 0.00038882848
5.8929054e-05 0.00014628985 5.861691e-05 0.00034386554 0.00043347274 0.00031693134 3.3809814e-05 3.9040206e-05
0.0005000915 7.800006e-05 8.084033e-05 9.312131e-06 9.343107e-06 3.424907e-05 0.00040944226 9.8918565e-05
0.00014285253 0.00015232233 0.00021646071 0.00032841993 4.7856865e-05 6.8957685e-05 3.9377035e-05 2.706154e-05
0.00014688553 3.571477e-05 0.000118130614 5.5818153e-05 7.1378854e-05 8.3001396e-05 3.1245734e-05 0.00013621504
2.500679e-05 8.326952e-05 0.00019333689 7.46582e-06 4.615994e-05 6.164995e-05 1.599386e-06 2.0336442e-05
4.1184852e-05 5.2842177e-05 0.00015428444 4.6753343e-05 0.00013013795 1.816186e-05 0.0 0.00022058783
6.492572e-06 0.00013398875 7.565507e-05 3.5071523e-06 0.00015216944 0.00015322618 0.00020833568 3.5706336e-05
2.8640217e-05 7.3113406e-05 8.03306e-06 0.00013165372 5.348893e-06 3.828355e-05 3.110051e-05 2.0718222e-05
0.00013113409 0.00014148428 2.2490979e-06 2.6529111e-05 6.3881205e-05 5.1982366e-05 3.8003416e-06 2.5364901e-05
0.00012525928 1.0723252e-05 4.931173e-05 0.00012580786 0.0001752831 4.161192e-05 5.3024767e-05 6.078107e-05

exp_avg f4 [10]
00000000: 92a7 8eba 9020 b7b7 b8db 9137 b846 9437
00000010: 0e90 c2b8 f013 a73a 0576 2d3a d975 edb9
00000020: 81c6 d3b9 3834 b938
-0.001088368 -2.1830463e-05 1.7387662e-05 1.7675906e-05 -9.277473e-05 0.0012747031 0.00066170126 -0.00045291966
-0.00040392953 8.831214e-05

exp_avg_sq f4 [10]
00000000: e2d7 b936 738e 0a37 8b0a 3437 cab2 8c37
00000010: 499e 2337 ae6c 4d37 af99 d936 474f 4437
00000020: 4bef 9a37 c66d 9f37
5.5385617e-06 8.2586075e-06 1.0731291e-05 1.6772556e-05 9.752411e-06 1.2244256e-05 6.484995e-06 1.1700969e-05
1.846966e-05 1.9005394e-05
