swastik_web/Learning&Experiments/PytorchTutorials/pytorch lightning/dashboard/mnist_clsfy/version_1.1/checkpoints/epoch=23-step=9000.ckpt (torch, 484079 bytes, 12 tensors)

fc1.weight f4 [50, 784]
000000 00 30 8c b9 b6 f2 9c 3c ac cc f0 bc 93 50 d7 bc
       -0.00026738644 0.019158702 -0.02939447 -0.026283538
000010 ce 5e 61 bc 10 e9 1c 3c 40 7f 39 ba 12 fa e7 3c
       -0.013755513 0.009577051 -0.00070761517 0.028317485
000020 30 b6 4f bb 10 d6 1a 3c 7c d6 30 bc a4 09 e6 bb
       -0.0031694286 0.009450451 -0.010793325 -0.007020192
000030 88 9b 06 be 0d b6 f1 bd 14 e5 36 3d 84 78 09 3c
       -0.13145268 -0.118023016 0.04465206 0.00839055
000040 dc 53 67 3c ae 8c af 3c a0 58 c6 bc d8 ce 7e bc
       0.014119115 0.021429386 -0.024212182 -0.015552245
000050 b0 88 54 3c a2 f2 f2 3c 54 d8 f0 bb 46 ef da 3c
       0.012972042 0.029656712 -0.007350007 0.026725423
000060 70 a1 bc bb 60 aa 77 3b 4f 75 04 3d 76 b4 07 bd
       -0.0057565495 0.003779076 0.032338437 -0.033131085
000070 50 2f b8 bc 4a 23 14 bc b2 16 64 bc 2e c8 fc 3c
       -0.022483498 -0.009041617 -0.013921427 0.030857172
000080 4c ee c0 bd f7 12 cf bd 9b 40 56 be e4 ef 65 be
       -0.094204515 -0.10111039 -0.20923083 -0.22454792
000090 a8 35 8f be 46 fa 63 be 15 f8 49 be 38 df 62 be
       -0.27970624 -0.2226344 -0.19723542 -0.22155464
0000a0 f7 05 a3 be 99 0f b2 be 4e f0 1d 3e da 74 fc bd
       -0.31840488 -0.34777525 0.154237 -0.12326975
0000b0 ef 27 6b be ba 47 ed be 98 16 a3 be 9a 80 86 be
       -0.22964452 -0.46343786 -0.31853175 -0.2626999
0000c0 d3 a2 93 be b9 b8 27 be 95 22 cd bd 78 c4 0e be
       -0.28835163 -0.1637906 -0.100163616 -0.13942134
0000d0 98 3b 68 3c e8 18 9e 3b 48 2a c4 3c 4a 44 ac bc
       0.0141743645 0.0048247464 0.023945943 -0.021028657
0000e0 68 13 da 3b 0e d5 e2 bc f8 c6 ca bc 1e 5c 8c be
       0.0066551454 -0.027689483 -0.024753079 -0.2741403
0000f0 ae 11 18 be 4f 5f aa bd 8d 5c a2 be f4 ba 9a be
       -0.14850494 -0.0831896 -0.31711236 -0.3022076
000100 9b 7b 00 bf 17 22 80 be a2 0e 96 be 96 35 db be
       -0.50188607 -0.25026008 -0.2930804 -0.4281432
000110 58 c9 b1 be b9 b5 09 bd 6c 26 80 bd c7 44 34 be
       -0.34723926 -0.03362057 -0.062573284 -0.17604361
000120 4e d1 55 be 34 f3 21 3c 59 fe 42 3e e5 af ad bc
       -0.20880625 0.009884644 0.19042338 -0.021202037
000130 61 5c 18 be bb 76 03 be 23 11 43 be 70 3b b3 be
       -0.1487899 -0.12838261 -0.19049506 -0.35006285
000140 15 28 53 be 16 dd 8e bc a6 75 de 3c 92 ec 11 bd
       -0.20620759 -0.017439406 0.027155709 -0.035626
000150 78 0b db 3b 78 25 c5 bb 90 ab 6f 3b bb db fb be
       0.006684717 -0.0060164295 0.0036570765 -0.4919108
000160 7a cb df be 7d b4 c1 3d bd 45 a9 bd 8e 68 09 be
       -0.43709928 0.094582535 -0.08265255 -0.1341879
000170 88 3d a4 be 02 bb 2a be 1c 5c ec bd 3c 2f b2 bd
       -0.32078195 -0.166729 -0.11541006 -0.087004155
000180 cd 67 0c be f4 1c c8 bd 66 70 04 be c0 ff a9 bd
       -0.13711472 -0.09771147 -0.12933502 -0.083007336
000190 97 21 6c bd 48 11 ba 3b 98 b8 c6 bd 84 ed 05 be
       -0.05764922 0.0056783296 -0.09703177 -0.13078886
0001a0 27 76 88 be cd 6d 3a 3c 9b f7 65 bd 27 31 14 bf
       -0.26652643 0.011378718 -0.056144338 -0.578875
0001b0 0c a0 1d bf f1 f5 74 3e 3c a2 6f bc f8 9a ad 3c
       -0.6157234 0.23921944 -0.014626082 0.021192059
0001c0 8a 0a b2 bc 6d ae 95 bd 91 69 7d bd 10 6e d2 be
       -0.021733541 -0.0730866 -0.061868254 -0.41099596
0001d0 1e 67 16 be aa 4f 0d 3d a2 56 5f 3e d4 ed a3 3d
       -0.14687774 0.0344998 0.21810392 0.080043465
0001e0 74 79 8b 3c 6e 52 af 3d 42 d2 e6 bd 6e fe c4 bd
       0.017025687 0.08560644 -0.11270572 -0.09618841
0001f0 b8 5c be bd fe 6d c3 3c 6f b2 8b bd db 1e 3d be
       -0.092950284 0.02385616 -0.06821143 -0.18468802
000200 83 c3 62 be 37 bd 0c be 58 c9 cc bd a4 83 2b be
       -0.22144894 -0.13744055 -0.09999341 -0.16749436
000210 18 ce cf bd 1c d6 16 be 60 8f 7a bd 08 66 12 3d
       -0.10146731 -0.14730114 -0.06117189 0.035741836
000220 f2 c1 35 3e bb 7e 7c 3e 30 aa 3a be 79 30 12 bd
       0.17749766 0.24657719 -0.18228984 -0.03569076
000230 8f 91 0a 3d 9a cc b9 3c b5 97 76 be a1 48 91 bd
       0.03383022 0.02268057 -0.24081309 -0.07093931
000240 38 27 61 3b fb 62 c7 3d 43 8a 0b 3e 87 24 e7 bc
       0.0034355652 0.09735676 0.13626961 -0.02821566
000250 a7 8a 4c 3e e9 03 a0 3d 0b ec 05 3d 84 49 ce bd
       0.19974767 0.07813246 0.03269581 -0.10072616
000260 98 80 b6 bd 44 be ba bc 94 50 c8 bd fb b2 97 bd
       -0.08911246 -0.022795804 -0.09780994 -0.07407185
000270 89 d6 54 bd 03 33 ff bd 5e 62 91 bd 78 bb 11 be
       -0.05196241 -0.124609016 -0.0709884 -0.1423167
000280 b9 9c 33 be c8 21 c7 bd 44 af 03 be 58 17 c3 be
       -0.17540254 -0.0972324 -0.12859827 -0.38103747
000290 f9 7d 5b be 14 79 96 3d f3 f1 99 be e7 e5 d0 bc
       -0.21434774 0.073473126 -0.30067405 -0.025500251
0002a0 6b aa 03 bd 1e c8 8e be 92 10 8a 3e 4b d8 a6 3e
       -0.032144945 -0.27887052 0.26965767 0.32586893
0002b0 27 9e a8 3e b2 88 bd 3e b4 ce 4b 3e 5a b5 df bc
       0.3293316 0.37018353 0.1990307 -0.027308155
0002c0 ef 1c 64 3d 88 7d 4b 3d 9e 43 7d 3c fe a6 e9 bc
       0.055691656 0.049680263 0.015458016 -0.02852201
0002d0 45 4c a6 3c 77 fe d3 bd 69 47 97 bd 50 da 58 be
       0.02030004 -0.1035127 -0.07386667 -0.2117703
0002e0 9a 29 89 bd 51 fb 07 3c 5b 07 1a bd 68 f0 51 bd
       -0.06697388 0.008299665 -0.03760467 -0.05125466
0002f0 65 c6 f6 bd 8d 1d 06 3d 42 7b 78 bd 4e 0c b0 bd
       -0.120495595 0.032743026 -0.060664423 -0.08596097
000300 f2 25 04 bf 35 ce a1 be ae ec 6d be cd 7f 05 be
       -0.516204 -0.31602636 -0.23234817 -0.13037033
000310 4e bb da bc 05 7d a3 be 1c 31 6d 3e 36 9b 08 3f
       -0.026700642 -0.3193132 0.23163265 0.53361833
000320 92 f6 8d 3e 54 84 3a 3e 21 bb 7c 3e 7a 22 0b bd
       0.2772718 0.18214542 0.24680759 -0.033968426
000330 03 49 66 bc 77 e3 eb 3d 0f d9 0d be 6f b8 dc bc
       -0.014055493 0.11517995 -0.13852333 -0.026943414
000340 2a 6d 35 3c 0a 0f 84 3d ee fb f3 bd 2c c3 50 bd
       0.01107339 0.06448181 -0.11913286 -0.05096738
000350 dd 87 04 3b 26 67 79 3d 5f 61 41 3d 92 ea 36 bd
       0.0020222582 0.060889386 0.047212 -0.044657297
000360 62 d9 1b bd b9 a5 92 3e 04 14 56 3e f3 0c 2d be
       -0.03804911 0.2864206 0.20906073 -0.16899471
000370 e7 2a 73 bd 0d bc 12 3e 0c e2 0d be e9 e5 bb bd
       -0.059367087 0.14329548 -0.13855761 -0.09174711
000380 1d 57 01 be dd 7c a5 3e 21 23 98 3e b5 68 5b 3e
       -0.12630887 0.32321826 0.297143 0.21426661
000390 df f6 d7 3d 45 c7 1a 3e 7f 34 81 3e 6b 63 bc 3d
       0.10545134 0.15115078 0.25235364 0.0919865
0003a0 8a f1 19 3e 9e 87 82 3d a0 ea 81 bc ef 67 39 be
       0.15033546 0.06373523 -0.015858948 -0.18106054
0003b0 c0 9a 71 be 90 e9 4d be ea 92 13 3d d9 d8 d2 3d
       -0.23594189 -0.20108628 0.03602878 0.10295267
0003c0 62 ee cf 3c c9 aa 21 3d 03 ee 63 3d f1 40 b3 bd
       0.025382224 0.039469514 0.055646908 -0.08752621
0003d0 29 e1 de 3b d1 a1 b1 3d a1 42 cc bd 72 06 a5 bd
       0.0068017435 0.08673442 -0.09973646 -0.0805787
0003e0 93 85 f4 bd 42 1f 8b 3d 4e 76 82 be 53 09 e1 bd
       -0.1193954 0.06793071 -0.25480884 -0.109881066
0003f0 36 9a bc 3d b5 54 6c 3e 63 c8 46 3c f9 80 de 3d
       0.09209101 0.23079188 0.012132737 0.10864443

fc1.bias f4 [50]
000000 66 68 a2 3e a1 65 80 3d 76 3f 33 bd cb bd 76 3e
       0.31720275 0.06269384 -0.043761693 0.24095838
000010 ae bc 1b 3e af 39 85 3e df f9 3d be b5 3d 24 3e
       0.15208694 0.26020572 -0.1855235 0.16039164
000020 26 15 50 3e a5 20 51 3d 2e 9c 5a 3d ca b4 ea bd
       0.20320567 0.051056523 0.0533716 -0.11460264
000030 6a 6e 88 3d 65 75 13 3e dc 44 2a 3d e0 0a 36 be
       0.06661685 0.14400251 0.041569576 -0.17777586
000040 e4 90 d2 be 9f b9 8f 3d e8 50 6d 3e 9b 51 9f bd
       -0.41126168 0.07017826 0.23175395 -0.07779237
000050 0a d1 79 3e 01 a4 55 be 9e 65 be bc 02 31 47 3e
       0.24396148 -0.20863344 -0.023241814 0.19452289
000060 48 08 c0 bd 2f 17 30 3d fe 05 85 3e b8 2e a2 3e
       -0.093765795 0.04299086 0.25981134 0.3167627
000070 b9 dc 88 3e e4 4d 5b bd 62 b9 23 bd 1e 59 45 be
       0.26730898 -0.05354108 -0.039971717 -0.19272277
000080 37 04 8d 3e 46 64 83 3e 0e b6 4a be c1 96 f2 3e
       0.27542278 0.2566244 -0.19796011 0.4738064
000090 31 e9 25 bd 2c 03 62 3e 94 08 f3 bd bd 60 74 3d
       -0.04050559 0.22071522 -0.118668705 0.05966257
0000a0 f0 34 9b 3d 25 62 df 3c 03 13 0b be b5 7c 62 be
       0.075784564 0.027268479 -0.13581471 -0.22117884
0000b0 62 6e f4 bd 02 5c bd bd 0a 69 a1 bd 01 e7 70 3c
       -0.11935116 -0.09246065 -0.07881363 0.014703513
0000c0 4d 5a 34 3d 9e b3 f8 3a
       0.04403143 0.0018974429

fc2.weight f4 [10, 50]
000000 34 6d b9 bd 6a 59 3f bf ee 14 35 3e c8 1c b0 be
       -0.09054032 -0.7474581 0.17683765 -0.34396958
000010 65 e2 63 3d 7c a8 d6 be cb 83 7f 3e 84 ef b3 bc
       0.05563583 -0.41925418 0.24952619 -0.021964796
000020 bf 25 3d 3e 3c 8a a7 3e 6c b3 f1 bc 7f 5d 16 3c
       0.1847143 0.32722652 -0.0295045 0.009177565
000030 99 3c 0b be e8 5b 2b 3c 8a c8 a5 3e de cd 83 bd
       -0.13597335 0.010458924 0.32379562 -0.064357504
000040 2a 7e 51 3e d7 58 00 bf e5 12 9c 3d 01 65 ef bd
       0.20458284 -0.5013556 0.07620791 -0.11689187
000050 99 60 d0 3c 34 5a bd 3e b5 50 c4 bd 57 7d ac be
       0.025436686 0.36982882 -0.09585706 -0.33689377
000060 64 84 0a bf 77 90 32 be 18 33 36 3e 29 8f c4 3e
       -0.5410826 -0.17437921 0.17792928 0.38390473
000070 17 76 7c bf d2 3c ac be 17 1a f2 bd 60 4f d1 3e
       -0.9861769 -0.33640152 -0.118213825 0.4088087
000080 09 e4 bd bd 1f d1 4e bd ff 11 ab bd 29 ea 12 bf
       -0.0927201 -0.050492402 -0.08353042 -0.5738855
000090 46 af a4 3e a3 10 48 bf 24 46 fa 3e 0d fd 16 3e
       0.32164973 -0.78150386 0.48881638 0.14744969
0000a0 15 96 93 3e 48 63 4c 3e 43 fb 6d bf fc 66 87 3e
       0.2882544 0.19959748 -0.9296152 0.26445758
0000b0 f7 3f 70 3e 17 13 e0 be d6 5b 75 be bf 21 e4 3d
       0.234619 -0.43764564 -0.23960814 0.11139249
0000c0 23 ba e6 3e 30 51 06 bf bb d0 70 bd 78 be 13 3f
       0.45063886 -0.5246763 -0.05879281 0.5771251
0000d0 fe d8 bb bf 7e d0 a2 3d 84 b0 33 bf 67 3a 7d 3e
       -1.4675596 0.07949923 -0.70191216 0.2472931
0000e0 41 c5 37 bf a3 c4 9f 3e 15 60 73 3c 50 7e 6f be
       -0.7178536 0.3120471 0.014854451 -0.23388028
0000f0 49 09 03 3e 34 9f 83 bd cd fd 4f bf a9 59 7b 3e
       0.12796511 -0.0642685 -0.81246644 0.24545921
000100 7e 86 15 bd f2 66 4f 3e be e2 78 be 3b ec a0 bd
       -0.036505215 0.20254114 -0.24305245 -0.078575574
000110 8b 8a 5c 3f d0 aa a6 3e ea fd 56 3e 6b 94 5d 3d
       0.861489 0.32552195 0.20995298 0.05409662
000120 dd 01 8d 3d 6f db a5 bd 94 12 b1 3e c4 9e e4 be
       0.06885121 -0.08098494 0.34584486 -0.4465238
000130 7b 70 93 be ea 05 dc 3e e2 3f 21 bf ef e6 c2 bc
       -0.28796753 0.42973262 -0.629881 -0.023791758
000140 c5 c9 b8 be 3b 27 99 be 2d 04 7a 3f 8e a9 34 be
       -0.36091438 -0.29912743 0.9766262 -0.17642805
000150 0f ab c9 bd f1 7f 39 bf c9 39 cf be 9f ae 30 be
       -0.0984708 -0.7246085 -0.40473774 -0.17254113
000160 e0 62 71 be 29 bc 8c 3e b5 81 19 bf f9 d6 be 3e
       -0.23572874 0.27487305 -0.5996354 0.37273386
000170 79 77 af 3e 8a ba 88 be ff 5a 37 bf c9 7f ac bc
       0.34270838 -0.26704818 -0.71623224 -0.021057026
000180 70 9c b7 3e 1e b8 c3 be 6d 0d 1f be be db ed be
       0.3586154 -0.38226408 -0.15532465 -0.46456712
000190 ca 9e d6 3e 31 9a e5 be 80 c2 10 be 3d 84 cb 3d
       0.4191802 -0.448442 -0.14136696 0.09937332
0001a0 2f 41 0b 3b d5 61 37 be 84 48 6a bd db c5 9d 3e
       0.002124857 -0.17908414 -0.057198063 0.30815014
0001b0 b8 0b 89 bf ed 11 5b bd 96 ec 6b 3c 60 1e 3f 3e
       -1.0706701 -0.053483892 0.014399668 0.18663931
0001c0 62 5c 8b be 15 7d 8c 3e 63 01 8e 3e 7a 8c 45 be
       -0.2721892 0.2743918 0.27735433 -0.19291869
0001d0 d9 b1 22 3e 74 e5 99 bf e0 82 0a bf af 6d a6 3e
       0.15888156 -1.2023149 -0.5410595 0.32505557
0001e0 fd 46 31 bf 0a c0 ea 3e 57 b7 cb bd c4 13 8f bc
       -0.69248945 0.4584964 -0.09947079 -0.01746548
0001f0 40 13 53 3e a2 31 a4 be ef 86 ff 3e 9d c0 19 3f
       0.20612812 -0.32069117 0.49907634 0.6005953
000200 17 34 91 be 8d 69 27 3e eb 65 c4 3d 4e f8 a6 be
       -0.28360054 0.16348858 0.09589752 -0.32611316
000210 58 19 63 3d 20 6a d3 3e 37 2b 2a 3e 88 5d e7 bd
       0.05544409 0.41291904 0.16618048 -0.112971365
000220 d5 dd 4f 3e 7d 2b 7d be 97 4f a3 be 22 a8 19 bf
       0.20299466 -0.2472362 -0.3189666 -0.60022175
000230 9c 93 03 3d c3 e7 35 be b8 2a a6 3e 54 f5 90 be
       0.032123193 -0.17764191 0.32454467 -0.2831217
000240 a3 21 b3 bd e2 c4 6e 3e 87 d1 1b 3f e7 66 f6 3e
       -0.0874665 0.23317292 0.6086659 0.48125383
000250 2d 82 b3 3d 1f 3a 23 3e 5b 7a 32 bf 4d c1 f7 3e
       0.087650634 0.1594014 -0.6971795 0.48389664
000260 fd 8d 11 3f 3c 75 72 bf 67 e9 28 3d d4 eb d1 bd
       0.5685728 -0.94710135 0.041238215 -0.10250059
000270 51 c6 a2 3e f8 95 53 bd 80 f2 2b 3d e5 e6 4c be
       0.31791928 -0.051656693 0.041979313 -0.20009954
000280 73 28 c8 3d f0 4b dd 3e 92 9f 3d bf f5 90 cb bd
       0.0977334 0.43221998 -0.7407161 -0.09939758
000290 3e 5b 3a bf 9d 5c 11 3e 64 6d 5e 3e 50 5c 9c 3e
       -0.72795475 0.14195485 0.21721417 0.3053918
0002a0 ca 26 f9 be be a5 2c bd 27 e6 57 bf 10 04 38 be
       -0.48662406 -0.04215025 -0.8433556 -0.179703
0002b0 f4 ff 68 3d 8e 22 19 3d 96 66 97 3e ce 6c 26 3e
       0.05688472 0.03738647 0.29570454 0.16252443
0002c0 eb 2b d1 be 98 0c 85 bd 6f df 87 bd a2 0d c3 bb
       -0.4085382 -0.06496543 -0.066344135 -0.005952553
0002d0 50 d1 3a 3e 8c 0d b5 3e 86 8c d3 3d d3 3a e6 bd
       0.18243909 0.35361898 0.10329537 -0.112416886
0002e0 ee 71 66 3e 18 7e 0d 3e 76 19 07 3f 09 76 37 bf
       0.22504398 0.13817632 0.52773225 -0.7166448
0002f0 9a 0f 9d be f2 4b 62 3c 97 d1 12 bc c1 b6 c4 3d
       -0.30675966 0.013812052 -0.008961103 0.0960517
000300 57 c8 f3 3d b0 45 0f 3e 86 cb 3d be 07 d1 59 3e
       0.11903446 0.13991427 -0.1853467 0.21271144
000310 34 b4 13 3e 6e 58 c0 3c 91 04 4f 3e 7e 3b ee be
       0.14424211 0.023479667 0.20216586 -0.46529764
000320 98 85 43 3e 56 64 f2 3d 1f 25 65 be e5 a2 fe 3e
       0.1909393 0.11835544 -0.22377442 0.49733654
000330 2d bd b5 3d 86 98 95 3e 35 3b a5 3d a4 6d 77 3e
       0.08873973 0.2921793 0.080679335 0.24162918
000340 a5 86 e2 be 54 b8 b8 3e 61 44 c3 3d 7d 7d 2d bf
       -0.4424335 0.3607813 0.095345266 -0.67769605
000350 5f 60 9d 3e 7a 35 a6 bd 02 ae 2b bf a8 e0 df be
       0.30737588 -0.081156686 -0.6706239 -0.43726087
000360 68 34 27 bd 2a e4 f3 3e fd b4 6e 3e 31 e6 bc bd
       -0.040821463 0.47635013 0.23311229 -0.09223593
000370 99 e9 51 3d ce 18 5b bf c0 b1 0a 3c 1e bc e9 3c
       0.051248167 -0.85584724 0.00846523 0.028532084
000380 41 41 05 bf 7d 1d 1a 3e 8e c1 ba 3e a1 53 e4 be
       -0.52052695 0.15050311 0.36475796 -0.44595054
000390 a2 53 ab 3e dd e8 9d be e0 3e ab 3e 7b e5 92 bf
       0.33462244 -0.30841723 0.33446407 -1.1476282
0003a0 b4 01 3d 3f 7c 5a c2 be 52 a9 3c bf 09 92 56 3d
       0.73830724 -0.3795966 -0.7369586 0.052385364
0003b0 87 58 48 bf 75 ba da 3e b5 eb 94 be 4d e0 85 bf
       -0.7826008 0.4272038 -0.2908608 -1.0459076
0003c0 89 e3 5a 3e d0 8b a9 3e cd cc 16 bf 7a fc 9a be
       0.2137586 0.3311448 -0.5890625 -0.3027075
0003d0 50 88 89 3c 5d 51 b3 3c f5 15 3f bf b4 af 35 bf
       0.016788632 0.021889383 -0.7464288 -0.70971227
0003e0 4a 37 b5 bc 5f fc 5f bf e6 7f 10 bf 0a 10 02 3e
       -0.02212109 -0.8749446 -0.5644516 0.12701431
0003f0 d9 89 16 3d dd f7 58 3e 51 26 20 bf 38 e0 8c be
       0.036752556 0.21188302 -0.62558466 -0.27514815

fc2.bias f4 [10]
000000 48 d2 99 be f0 0b fb 3d 68 57 2e 3e 30 22 ff bd
       -0.30043244 0.12258136 0.1702553 -0.124576926
000010 8d cc 8b 3e b1 cc 19 3e 81 34 a2 3d 0c c0 bc bc
       0.27304497 0.1501949 0.079201706 -0.023040794
000020 da fd 0d bb e2 4d 0b bc
       -0.00216662 -0.008502455

exp_avg f4 [50, 784]
000000 00 00 00 00 00 00 00 00 00 00 00 00 00 00 00 00
       0.0 0.0 0.0 0.0
000010 00 00 00 00 00 00 00 00 00 00 00 00 00 00 00 00
       0.0 0.0 0.0 0.0
000020 00 00 00 00 00 00 00 00 00 00 00 00 00 00 00 00
       0.0 0.0 0.0 0.0
000030 db 32 5b 18 d8 92 93 18 0e ac 4d 98 5b 1d 09 96
       2.8330762e-24 3.8146884e-24 -2.6582494e-24 -1.1076035e-25
000040 00 00 00 00 00 00 00 00 00 00 00 00 00 00 00 00
       0.0 0.0 0.0 0.0
000050 00 00 00 00 00 00 00 00 00 00 00 00 00 00 00 00
       0.0 0.0 0.0 0.0
000060 00 00 00 00 00 00 00 00 00 00 00 00 00 00 00 00
       0.0 0.0 0.0 0.0
000070 00 00 00 00 00 00 00 00 00 00 00 00 00 00 00 00
       0.0 0.0 0.0 0.0
000080 c1 39 17 2b 16 24 de 2b 29 9e 8e 27 bb 0d 03 2a
       5.3726126e-13 1.5784065e-12 3.9584395e-15 1.1639901e-13
000090 19 2e 1d 31 d2 2a 75 32 85 e8 3d 31 2b 9a 36 af
       2.287271e-09 1.4270613e-08 2.7635292e-09 -1.6607575e-10
0000a0 85 fd 78 b5 c8 9a 9c b2 23 64 08 34 99 fd 11 35
       -9.275612e-07 -1.8231177e-08 1.2702417e-07 5.438574e-07
0000b0 09 20 ac 31 84 61 0f 31 37 85 c6 ae 87 24 57 ad
       5.009501e-09 2.086467e-09 -9.027661e-11 -1.2229446e-11
0000c0 cd 43 df ad e6 28 9a ac 41 bd b8 22 a0 67 82 22
       -2.5382274e-11 -4.381484e-12 5.007368e-18 3.5346288e-18
0000d0 00 00 00 00 00 00 00 00 00 00 00 00 00 00 00 00
       0.0 0.0 0.0 0.0
0000e0 00 00 00 00 00 00 00 00 00 00 00 00 18 7e 77 17
       0.0 0.0 0.0 7.9969157e-25
0000f0 85 f1 e6 ab e8 6c 84 2b e0 33 c3 a9 f9 d2 05 2f
       -1.6409518e-12 9.409392e-13 -8.6687385e-14 1.2171232e-10
000100 b4 f4 ec 31 c1 da 96 32 4d 5d 91 32 9c a4 ed b3
       6.8963235e-09 1.7561776e-08 1.692265e-08 -1.1066115e-07
000110 83 e3 9c b5 3c 03 5e b2 9d 2d 49 34 25 00 0c 34
       -1.168912e-06 -1.2922836e-08 1.8736178e-07 1.3038569e-07
000120 10 a1 00 b4 84 49 6c b5 58 f4 5b b7 2a 6c 83 b7
       -1.1979523e-07 -8.802383e-07 -1.3110308e-05 -1.5666785e-05
000130 e9 f8 82 b7 5f 10 08 b7 26 7c 06 b5 bf b5 83 34
       -1.5613115e-05 -8.110043e-06 -5.009955e-07 2.453289e-07
000140 2a f5 3b 26 aa 9c 0d 26 00 00 00 00 00 00 00 00
       6.5210917e-16 4.913152e-16 0.0 0.0
000150 00 00 00 00 00 00 00 00 00 00 00 00 c0 fd ff 27
       0.0 0.0 0.0 7.1051834e-15
000160 02 05 b0 ac 5c 47 57 af cc 65 01 b3 da 59 c4 33
       -5.002777e-12 -1.9579488e-10 -3.0127737e-08 9.143305e-08
000170 fb 89 f6 b5 b2 98 7c b6 10 62 d0 b6 64 c2 bb b8
       -1.8368586e-06 -3.7639807e-06 -6.210299e-06 -8.953063e-05
000180 7d 7e 99 b8 72 8d 5c b7 c3 b6 50 b8 ad 52 93 b8
       -7.319169e-05 -1.3145955e-05 -4.9761275e-05 -7.024906e-05
000190 84 4c c9 b8 49 4d d2 b8 ee 53 26 b8 80 15 40 38
       -9.598679e-05 -0.00010027976 -3.965565e-05 4.579639e-05
0001a0 13 ae b4 b6 22 8c 40 b7 96 62 15 35 b2 7b 12 37
       -5.384683e-06 -1.1476719e-05 5.5650287e-07 8.731078e-06
0001b0 ee b5 a3 36 9e 10 91 ae 00 00 00 00 00 00 00 00
       4.878958e-06 -6.5967884e-11 0.0 0.0
0001c0 00 00 00 00 8a e7 74 25 32 3e 3f 2d 00 dc 0c 31
       0.0 2.1242075e-16 1.0870903e-11 2.0497737e-09
0001d0 86 94 08 35 0e 80 ae b4 4f 36 76 b6 1a 3f 1f b7
       5.088008e-07 -3.2503198e-07 -3.6688468e-06 -9.4918305e-06
0001e0 0f b3 8b b7 96 d1 d0 b7 d4 e7 5b b8 f4 9e 48 b9
       -1.6653472e-05 -2.4893128e-05 -5.2429576e-05 -0.00019132701
0001f0 d5 09 1f b9 db 34 9c b8 5e 23 fd b6 fa 0f 8d 36
       -0.00015167084 -7.448505e-05 -7.544105e-06 4.2039874e-06
000200 15 d2 7b b5 26 1b 06 38 aa 04 dc 37 c1 f9 f9 38
       -9.3810496e-07 3.1973374e-05 2.6228216e-05 0.000119197655
000210 9c 5f 11 38 ce ca f4 36 20 fc 07 38 17 69 14 38
       3.4659737e-05 7.2953762e-06 3.2421318e-05 3.5383822e-05
000220 03 4e 2e 37 57 d1 04 35 33 08 2e 2a 00 00 00 00
       1.0389372e-05 4.947846e-07 1.5457149e-13 0.0
000230 00 00 00 00 00 00 00 00 70 0f 82 2c 79 0a 7b 31
       0.0 0.0 3.696536e-12 3.653126e-09
000240 5c 54 1e 36 9e 95 9a 36 36 9d 98 b6 37 af 9a b7
       2.3592938e-06 4.6069754e-06 -4.5482548e-06 -1.8439821e-05
000250 bd 70 21 b8 16 3b 7e b8 6f 39 b7 b8 50 38 f4 b8
       -3.8490387e-05 -6.0613347e-05 -8.736818e-05 -0.00011645316
000260 a6 51 f4 b8 55 25 c2 b8 38 a2 09 39 d3 5e 9a 39
       -0.00011650035 -9.2575945e-05 0.0001312577 0.00029443818
000270 65 37 ae 39 ec 63 c5 39 24 2d a9 39 a3 f9 91 39
       0.00033229138 0.00037649216 0.00032267824 0.0002784255
000280 f5 30 6c 39 80 4e b0 38 39 46 a6 37 b4 fb 2f 37
       0.00022524952 8.406956e-05 1.9821442e-05 1.0489417e-05
000290 8e d1 d1 35 cb 1e b9 34 33 8d f2 2f b3 17 6f 1f
       1.5632702e-06 3.448134e-07 4.4119872e-10 5.0629822e-20
0002a0 00 00 00 00 a5 0b 52 1f cf da 39 ad 39 37 a0 b1
       0.0 4.4478862e-20 -1.0564618e-11 -4.662891e-09
0002b0 c6 44 30 36 23 51 68 b7 16 cf 1e b8 c5 fe 16 b8
       2.6266075e-06 -1.3847169e-05 -3.7863e-05 -3.600006e-05
0002c0 f0 aa 04 b7 37 93 18 b8 e4 05 0d 37 70 a9 87 36
       -7.907613e-06 -3.637673e-05 8.405626e-06 4.0430386e-06
0002d0 2e ad 4e b9 36 f1 44 b9 8c c1 cf b8 c2 9a 07 39
       -0.00019710205 -0.00018781875 -9.90658e-05 0.00012932255
0002e0 95 75 9e 39 e0 7c f2 39 5a d9 e2 39 cf 0a b2 39
       0.00030223714 0.00046250876 0.0004326802 0.0003395886
0002f0 62 2f 86 39 38 ab 42 39 74 0a 65 38 4b 62 47 37
       0.00025593775 0.00018565066 5.460759e-05 1.188421e-05
000300 4e 82 a1 36 ed a6 4f 34 40 13 f3 af 14 b8 33 20
       4.8133434e-06 1.9339105e-07 -4.421512e-10 1.5222796e-19
000310 a2 77 34 9f b4 6d a3 30 86 73 a4 30 60 75 b2 b1
       -3.821544e-20 1.189099e-09 1.1965404e-09 -5.193826e-09
000320 74 63 0f b9 fd a0 42 b9 e9 6f 49 b9 fe 77 10 b9
       -0.00013674592 -0.00018561255 -0.00019210544 -0.00013777611
000330 b0 d9 45 b9 80 d1 76 b9 3a 72 6a b9 5e f0 b4 b9
       -0.00018868479 -0.00023538433 -0.00022358532 -0.00034511363
000340 8b 06 b6 b9 4d e3 bb b9 75 4a ca b9 3b bb 26 b9
       -0.0003471862 -0.00035836772 -0.00038583917 -0.00015900742
000350 ea 3a aa 38 4b 09 0f 39 ae ba 1d 39 5a 11 95 39
       8.117205e-05 0.00013641005 0.0001504223 0.00028432423
000360 de 66 aa 39 78 85 5f 39 34 ed 08 39 e4 fb 26 38
       0.0003250157 0.00021316658 0.00013058336 3.9812076e-05
000370 50 1b ee b5 8a 7d 98 35 22 79 d8 b3 96 74 ab 1c
       -1.7740331e-06 1.1361419e-06 -1.0080318e-07 1.1345968e-21
000380 92 af 00 2d 7c 95 a5 b3 43 5e d6 b3 34 b8 2c b8
       7.314942e-12 -7.710602e-08 -9.982298e-08 -4.1179548e-05
000390 82 f7 4a b9 fc 10 85 b9 dd ba d4 b9 8f c2 01 ba
       -0.00019356425 -0.0002538039 -0.00040575015 -0.0004949951
0003a0 34 91 00 ba be d7 ea b9 db 6c 0d ba 37 db 35 ba
       -0.00049044495 -0.00044792698 -0.0005394944 -0.00069372676
0003b0 b0 b6 1f ba d0 3b 04 ba 32 23 0d ba 3d 77 d7 b9
       -0.0006092591 -0.0005044313 -0.00053839677 -0.00041096835
0003c0 1c 78 81 b9 1e 0c 45 b9 25 9a 20 b9 d6 2e ac 38
       -0.00024694286 -0.00018791898 -0.00015316212 8.210323e-05
0003d0 5e 00 2f 39 fa c2 7a 39 02 cc 35 39 7d 16 d5 38
       0.00016689437 0.00023914492 0.00017337504 0.0001016082
0003e0 09 8d 2b b7 80 17 08 37 33 56 ac b3 2b 35 06 1e
       -1.0225232e-05 8.111703e-06 -8.025054e-08 7.104896e-21
0003f0 af ee 6c 9f b9 8d d7 b1 a1 9b 85 b8 d9 03 f0 b8
       -5.0172378e-20 -6.2734355e-09 -6.370922e-05 -0.000114448085

exp_avg_sq f4 [50, 784]
000000 00 00 00 00 00 00 00 00 00 00 00 00 00 00 00 00
       0.0 0.0 0.0 0.0
000010 00 00 00 00 00 00 00 00 00 00 00 00 00 00 00 00
       0.0 0.0 0.0 0.0
000020 00 00 00 00 00 00 00 00 00 00 00 00 00 00 00 00
       0.0 0.0 0.0 0.0
000030 7d eb e4 28 02 f4 09 2a b8 a0 43 26 39 e4 ad 21
       2.5415212e-14 1.2252702e-13 6.787203e-16 1.1783346e-18
000040 00 00 00 00 00 00 00 00 00 00 00 00 00 00 00 00
       0.0 0.0 0.0 0.0
000050 00 00 00 00 00 00 00 00 00 00 00 00 00 00 00 00
       0.0 0.0 0.0 0.0
000060 00 00 00 00 00 00 00 00 00 00 00 00 00 00 00 00
       0.0 0.0 0.0 0.0
000070 00 00 00 00 00 00 00 00 00 00 00 00 00 00 00 00
       0.0 0.0 0.0 0.0
000080 ee 13 a6 21 2f 28 33 23 7d 02 4c 2b ca 17 f0 2b
       1.1253873e-18 9.712119e-18 7.247881e-13 1.7059628e-12
000090 c2 d0 0e 2c bc c0 03 2b 50 09 f0 2a 0e 34 86 2b
       2.0295298e-12 4.680802e-13 4.2639026e-13 9.535721e-13
0000a0 a5 c7 67 2c dc 4d 1b 2c 51 80 b2 2e 07 2b 5a 2f
       3.29379e-12 2.2070045e-12 8.1172964e-11 1.9842271e-10
0000b0 c0 9b 47 2f c3 2b f2 2d 88 33 31 2c 34 75 36 2c
       1.8154278e-10 2.7531649e-11 2.5181818e-12 2.5928816e-12
0000c0 31 9f 8c 2b 45 3e 1f 2b 3a ba 62 2b e7 1c 03 29
       9.991783e-13 5.6574564e-13 8.054977e-13 2.9112912e-14
0000d0 00 00 00 00 00 00 00 00 00 00 00 00 00 00 00 00
       0.0 0.0 0.0 0.0
0000e0 00 00 00 00 00 00 00 00 00 00 00 00 e9 93 3b 29
       0.0 0.0 0.0 4.1650633e-14
0000f0 81 91 a5 28 c5 8f 9f 26 30 25 a1 2a 03 6b 93 2c
       1.8381782e-14 1.107181e-15 2.862515e-13 4.189872e-12
000100 7b af 9f 2d da c6 f3 2e ad 71 ba 2e f1 ca aa 2f
       1.8154136e-11 1.1085684e-10 8.4784936e-11 3.1067018e-10
000110 42 10 d6 31 8d 29 03 32 32 a5 4e 32 04 60 ab 32
       6.230068e-09 7.634651e-09 1.2028339e-08 1.9950683e-08
000120 d4 1d 3c 32 94 ff 9c 31 44 60 6a 31 97 27 53 30
       1.0949822e-08 4.5692534e-09 3.4106202e-09 7.6817613e-10
000130 1f 9c 5b 30 c5 8c b6 2f f3 2b 92 2e 68 6e 7c 2e
       7.98936e-10 3.320563e-10 6.647118e-11 5.7396227e-11
000140 e7 21 76 2b 14 ec 3b 27 00 00 00 00 00 00 00 00
       8.7443805e-13 2.6079441e-15 0.0 0.0
000150 00 00 00 00 00 00 00 00 1b d8 bd 1e 1d 6f 24 2c
       0.0 0.0 2.0100533e-20 2.3367482e-12
000160 bb d0 de 2f 59 c1 4c 2d ac 1c 87 30 a2 4d c8 30
       4.0529877e-10 1.1638989e-11 9.830692e-10 1.457398e-09
000170 ad ec a2 32 34 bd 63 32 52 f2 38 33 9a b9 b5 33
       1.896691e-08 1.3256159e-08 4.3061227e-08 8.46223e-08
000180 df 9d 01 34 93 57 1e 34 60 7d 12 34 be 25 11 34
       1.2071494e-07 1.4746756e-07 1.3642921e-07 1.3517908e-07
000190 e4 8a 8a 34 2c 73 52 34 52 f1 d9 33 51 d3 84 33
       2.580556e-07 1.9599673e-07 1.0148746e-07 6.185167e-08
0001a0 46 89 2c 33 aa be f3 32 8e c6 0a 32 e5 da 68 31
       4.017172e-08 2.8375627e-08 8.077803e-09 3.388487e-09
0001b0 e6 7f 8b 30 47 05 4d 2a 00 00 00 00 00 00 00 00
       1.0149932e-09 1.8209489e-13 0.0 0.0
0001c0 00 00 00 00 db b2 92 22 ef 13 6b 25 68 22 d8 2c
       0.0 3.976275e-18 2.0389755e-16 6.142909e-12
0001d0 78 d6 97 2f b6 42 01 32 8b 68 f2 32 79 5c 0e 34
       2.761913e-10 7.523957e-09 2.8220049e-08 1.3258422e-07
0001e0 ad e6 30 34 af 96 77 34 ac 28 8d 34 77 24 04 35
       1.6475197e-07 2.3058486e-07 2.629289e-07 4.9226895e-07
0001f0 3c 37 3d 35 3b cd 8a 35 54 8d ba 35 70 6b c6 35
       7.0488363e-07 1.0341531e-06 1.3899212e-06 1.4783418e-06
000200 e5 f0 b0 35 a2 22 86 35 94 12 43 35 be d6 fe 34
       1.3183131e-06 9.993857e-07 7.2670196e-07 4.7467432e-07
000210 4e 54 4c 34 f4 4f d5 33 7a 09 5c 33 4c ee b4 32
       1.902965e-07 9.933129e-08 5.123136e-08 2.1063123e-08
000220 a3 02 b9 32 b3 f5 8b 31 a0 83 b8 2c da ca e3 28
       2.1538034e-08 4.073365e-09 5.244208e-12 2.5290036e-14
000230 00 00 00 00 00 00 00 00 fa 4e c1 28 7c ff df 2f
       0.0 0.0 2.1461555e-14 4.0744996e-10
000240 64 54 18 31 d2 4b 00 33 d3 4d 1f 34 df 41 95 34
       2.2166882e-09 2.987128e-08 1.4836341e-07 2.780134e-07
000250 02 22 be 34 11 da 20 35 aa 51 82 35 4b 0d d1 35
       3.5415002e-07 5.9921973e-07 9.709522e-07 1.5575582e-06
000260 a4 f6 15 36 3f 17 40 36 ca 6a 51 36 fe 7e 4f 36
       2.2346294e-06 2.862376e-06 3.1205586e-06 3.0919323e-06
000270 7d b3 3d 36 62 a8 0d 36 37 8e db 35 1e 36 a1 35
       2.826767e-06 2.110865e-06 1.6358161e-06 1.2011185e-06
000280 ad fa 48 35 b0 20 bb 34 56 b8 2f 34 cc 49 b5 33
       7.487059e-07 3.4855248e-07 1.6365206e-07 8.441893e-08
000290 fe c9 14 33 74 62 83 32 7c 37 c6 2b d9 8e 21 26
       3.4642646e-08 1.5295178e-08 1.4084146e-12 5.605169e-16
0002a0 00 00 00 00 ff 63 4b 28 61 81 ff 31 51 7e 72 32
       0.0 1.1290447e-14 7.4361854e-09 1.4114975e-08
0002b0 18 78 3c 33 d7 e1 f9 33 6c 5a 98 34 8c 54 34 35
       4.3881386e-08 1.1636046e-07 2.8377997e-07 6.717826e-07
0002c0 63 68 68 35 f3 42 b9 35 5b 87 10 36 ee 2f 4a 36
       8.657864e-07 1.3803059e-06 2.153646e-06 3.0128244e-06
0002d0 fa f5 78 36 25 b9 8c 36 b3 b4 94 36 c0 59 92 36
       3.7098057e-06 4.193879e-06 4.43178e-06 4.3615873e-06
0002e0 65 ec 84 36 9a 3b 66 36 ed 2c 37 36 6a 3b 03 36
       3.9614265e-06 3.4307363e-06 2.7295275e-06 1.9555105e-06
0002f0 c3 fe be 35 c7 f9 69 35 00 ff cd 34 ef 68 3b 34
       1.4230249e-06 8.716274e-07 3.8369762e-07 1.7453907e-07
000300 89 19 8b 33 65 64 a6 32 2b b7 00 2e 7b 63 3d 29
       6.477337e-08 1.9370598e-08 2.9266516e-11 4.2052716e-14
000310 01 3b 8e 23 7d 2c ec 2c e0 60 1d 31 9f 0f 41 33
       1.542066e-17 6.7124626e-12 2.2901574e-09 4.495052e-08
000320 41 35 cf 33 b1 15 98 34 77 0d 0e 35 d3 df 66 35
       9.6488755e-08 2.832799e-07 5.2918716e-07 8.6007384e-07
000330 c4 dd c6 35 e7 10 0f 36 ee c1 45 36 72 00 7b 36
       1.4816692e-06 2.13185e-06 2.946817e-06 3.7402174e-06
000340 24 bd 94 36 6f ff 9d 36 c0 cf 99 36 d3 8b 9b 36
       4.4327626e-06 4.708701e-06 4.5839406e-06 4.6356377e-06
000350 d4 ea 96 36 9d ae 94 36 d2 d7 81 36 81 c7 3d 36
       4.497686e-06 4.4310714e-06 3.8696244e-06 2.8279321e-06
000360 99 f3 04 36 af 6c b3 35 8a b2 24 35 6c 65 a7 34
       1.9811325e-06 1.336817e-06 6.135457e-07 3.1179968e-07
000370 fb de d1 33 0c da ae 32 04 42 03 30 cd 81 40 29
       9.772881e-08 2.0355422e-08 4.7751336e-10 4.274515e-14
000380 76 12 c9 2e 96 2b 3c 2b 2a e0 07 30 13 fa 73 32
       9.143701e-11 6.6851505e-13 4.943127e-10 1.4201322e-08
000390 e7 5e 97 33 9b da 9d 34 3c 69 33 35 3f b9 a0 35
       7.048748e-08 2.9402585e-07 6.683583e-07 1.1974843e-06
0003a0 5f db 01 36 8a cb 26 36 e8 41 65 36 0e 55 84 36
       1.9350189e-06 2.4854403e-06 3.4162022e-06 3.943808e-06
0003b0 1f 27 81 36 df 5e 80 36 e7 bd 81 36 4c 19 84 36
       3.849054e-06 3.8257417e-06 3.866607e-06 3.9368515e-06
0003c0 e2 c8 8d 36 9f 1d 98 36 e8 18 8e 36 48 17 5b 36
       4.2255133e-06 4.5334014e-06 4.2348292e-06 3.2647094e-06
0003d0 71 74 1e 36 56 f8 e2 35 db c3 75 35 98 57 e0 34
       2.3611613e-06 1.6910587e-06 9.155462e-07 4.1786984e-07
0003e0 ea 5d f0 33 9f 93 0d 33 1a 6d 4a 2f af 3d 76 2a
       1.1192954e-07 3.296338e-08 1.8410554e-10 2.187059e-13
0003f0 28 8d 87 27 78 8f 0c 2b dc 57 b0 31 e9 ec f4 32
       3.762307e-15 4.9937094e-13 5.1322626e-09 2.8513073e-08

exp_avg f4 [50]
000000 51 f0 32 ba cf e4 70 39 f9 c1 9a 3a 6e 10 8b ba
       -0.0006825971 0.00022973421 0.0011807076 -0.0010609755
000010 27 26 46 b9 da 8e 87 38 67 2b 72 3a ce ac 44 ba
       -0.00018896964 6.46391e-05 0.0009238035 -0.00075025565
000020 24 16 07 ba 78 6c 50 3a 23 d9 cc b9 21 8e 4d ba
       -0.00051531405 0.00079507334 -0.00039071692 -0.0007841308
000030 fd e3 a1 3a 18 ce 50 3a b2 52 36 b9 32 0e 6f 3a
       0.0012351271 0.00079652807 -0.00017387679 0.0009119242
000040 94 19 48 3a ed f2 4e 3a a4 08 4d b8 c3 f6 7b ba
       0.0007633206 0.0007894475 -4.8883856e-05 -0.00096116605
000050 bf 2c 74 b9 c2 e6 37 3a 00 00 00 00 ca 1f eb 39
       -0.00023286323 0.00070152816 0.0 0.00044846378
000060 a2 64 33 3a 9a 53 15 b9 40 c5 c9 37 a0 74 04 ba
       0.00068433036 -0.00014240891 2.4052919e-05 -0.0005052779
000070 14 0e 28 ba 40 52 78 3a 11 6d 9f 39 b2 c8 85 3a
       -0.0006410789 0.00094727054 0.00030408104 0.0010206907
000080 54 71 d8 ba 40 8f 1b 3a d9 01 b1 3a d4 ec 11 38
       -0.0016513267 0.00059341267 0.0013504579 3.4791257e-05
000090 2f fd 98 3a 17 56 7e ba 04 dc e5 b9 58 94 49 3a
       0.0011672134 -0.00097021594 -0.00043842208 0.00076896464
0000a0 3c c6 99 b9 1c 88 4a 39 a6 99 26 bb 57 60 ea 38
       -0.0002933013 0.00019314926 -0.0025421171 0.00011175934
0000b0 ca e1 04 3a b6 6f 1a 38 45 69 5f ba 3e a7 0b ba
       0.00050690456 3.68205e-05 -0.0008522461 -0.000532735
0000c0 a6 59 47 39 91 71 52 3a
       0.00019011516 0.0008027787

exp_avg_sq f4 [50]
000000 b0 a6 1a 37 47 2f c0 37 76 4c 46 37 f7 b2 9d 37
       9.217925e-06 2.2910199e-05 1.1819522e-05 1.8799195e-05
000010 e3 21 08 37 db eb d8 36 23 28 02 37 2c 45 91 37
       8.114122e-06 6.464759e-06 7.757949e-06 1.7317558e-05
000020 55 66 8b 37 7a 60 f9 36 7a 90 27 37 74 a6 78 37
       1.6617743e-05 7.4320096e-06 9.987614e-06 1.4820707e-05
000030 04 d8 51 37 65 77 18 37 67 9a 69 37 12 ef 07 37
       1.2507666e-05 9.087705e-06 1.3923832e-05 8.10229e-06
000040 7b 5d 24 37 06 c4 a4 37 83 f5 ac 37 91 c1 a6 37
       9.796927e-06 1.9641604e-05 2.0618323e-05 1.9878878e-05
000050 83 df 88 37 5d 5a 87 37 80 c6 49 2e ae 37 02 37
       1.6316544e-05 1.6135333e-05 4.5878412e-11 7.761568e-06
000060 b2 62 2f 37 3a ef 0e 37 69 09 5a 37 dc c0 a4 37
       1.0453792e-05 8.519559e-06 1.29960035e-05 1.964013e-05
000070 96 d2 7c 37 7d db 25 37 a5 6f 12 37 a1 dd 83 37
       1.5069401e-05 9.88587e-06 8.728272e-06 1.5719621e-05
000080 d6 88 10 38 80 9e 55 37 8a 3f 7f 37 13 b6 60 37
       3.4459714e-05 1.2732693e-05 1.5213978e-05 1.3393833e-05
000090 ca 7e 96 37 c9 3b 88 37 64 32 4f 37 29 44 6f 37
       1.7940434e-05 1.6240303e-05 1.2349894e-05 1.426138e-05
0000a0 0b 2f f2 36 da 9c 71 37 c0 5c ca 37 5a b6 04 37
       7.2176385e-06 1.4401239e-05 2.4123467e-05 7.91027e-06
0000b0 d0 6f 30 37 f1 64 ef 36 eb 07 2b 37 8c ec 91 37
       1.0516451e-05 7.134506e-06 1.0194238e-05 1.7395498e-05
0000c0 20 69 c4 37 d7 8f bb 37
       2.3413973e-05 2.2359118e-05

exp_avg f4 [10, 50]
000000 b4 6e a1 bb ba c9 df 39 a8 e0 74 39 fe a4 96 3a
       -0.004926527 0.00042684173 0.00023353344 0.0011493263
000010 1e d3 93 bb a6 fb c7 39 ae 95 91 bb 51 1b c2 3a
       -0.004511251 0.0003814373 -0.004442892 0.0014809166
000020 7a dd d0 38 fc c1 d9 ba 6f 93 cb ba f0 eb 08 b9
       9.959466e-05 -0.0016613598 -0.001553161 -0.00013057864
000030 74 74 91 39 2e cf c3 3a 92 ad e1 39 79 f1 4a 3a
       0.0002774332 0.0014939064 0.00043044664 0.00077416707
000040 76 93 fc ba ea 9a a1 38 a0 a6 d8 ba 2e bd 23 3b
       -0.0019270021 7.705933e-05 -0.001652915 0.0024984586
000050 fa a4 19 3b fa 15 bb ba 00 00 00 00 01 9e c3 3a
       0.002344428 -0.0014273517 0.0 0.0014924408
000060 30 a4 b2 39 9f 2e 7d ba 9c 02 23 bb 80 44 af 37
       0.00034073135 -0.0009658131 -0.0024873381 2.0893523e-05
000070 37 27 22 39 08 29 00 3b 8c 8a 06 bb 7a e5 df 3a
       0.00015464133 0.0019555707 -0.0020529358 0.0017081939
000080 d8 03 06 b9 f2 e6 b0 ba 0e 0c 20 3a 73 59 91 39
       -0.00012780668 -0.0013496561 0.0006105312 0.000277232
000090 d9 a2 1b ba 5d ce 50 39 5d b3 dd 39 56 3f 9b 39
       -0.0005937047 0.00019913302 0.0004228604 0.00029611093
0000a0 25 0d 9f bb 24 ed a9 39 15 3e 3a 39 74 9a 12 bb
       -0.004853862 0.00032410875 0.0001776147 -0.0022369893
0000b0 12 23 9b 3a 70 e5 26 39 5e 9c 0e 3a 86 eb 08 b8
       0.0011836013 0.00015916466 0.00054401706 -3.2644275e-05
0000c0 a6 96 03 3a 79 1f 29 bb dd d5 f9 38 3a af 2a 3b
       0.0005019702 -0.0025806113 0.000119130804 0.0026044385
0000d0 bf a0 76 b9 33 e4 10 ba a7 db 0b 3a b0 39 3f 39
       -0.00023520271 -0.00055271684 0.000533516 0.0001823667
0000e0 f3 b2 ae ba 1d 21 95 3b 1c 0b b0 39 c5 7a 5b bb
       -0.0013328478 0.0045510666 0.00033577613 -0.0033489924
0000f0 0d b7 5b 3b ce 5d 14 3b a2 71 f2 b8 18 2b 8e 3a
       0.0033525855 0.002263892 -0.00011560625 0.0010846583
000100 78 74 d5 ba 66 fd 75 3a 0d e8 6a bb e8 70 80 3b
       -0.0016285321 0.00093837676 -0.003584388 0.0039197095
000110 ae 41 6e 3b ca 3f c5 bb 00 f4 90 38 01 67 07 bb
       0.0036355066 -0.006019567 6.9119036e-05 -0.002066076
000120 00 00 00 00 b2 7b 90 3b 36 b6 0b 3b 0a a8 5f 3b
       0.0 0.004409277 0.0021318323 0.0034127259
000130 c2 61 9b 3a d6 b0 06 3a e4 a7 28 3b 45 57 40 3a
       0.0011854696 0.0005138045 0.0025734836 0.0007337223
000140 a8 64 71 3b 55 33 b5 ba 98 0f d9 ba ab 25 47 3a
       0.0036833677 -0.0013824502 -0.0016560433 0.00075968605
000150 58 bf ca 3a 7e 53 d2 3a 1c 13 b8 39 67 3a 91 3a
       0.0015468402 0.0016046611 0.00035109452 0.0011080027
000160 6e 9d dc ba 9d 33 d0 ba ca a5 9d 3a 32 69 7d 3b
       -0.0016831586 -0.0015884523 0.0012027558 0.0038667438
000170 84 23 3f ba ba 0e 6a ba 34 c1 d9 b8 c5 4e d9 3b
       -0.0007291364 -0.0008928586 -0.00010383353 0.0066317045
000180 71 aa 69 b9 eb 4b 0a 3b fe 8f 79 3b e0 0b 31 3a
       -0.00022284106 0.002110238 0.003808021 0.00067537837
000190 2b 81 0f 3b 7f 02 16 3a f2 39 56 b9 48 c2 be 39
       0.0021897058 0.0005722418 -0.00020430217 0.00036384375
0001a0 28 f6 31 3b fe 80 25 3a 3e 04 16 3b c2 4c 89 38
       0.0027154777 0.0006313472 0.0022890712 6.546966e-05
0001b0 b1 81 1d 3b 88 6b fe 3a 92 ab 23 3b f8 72 bb ba
       0.00240336 0.0019410709 0.002497409 -0.0014301231
0001c0 05 20 09 ba 3f 2d e2 3a 99 0d a9 b9 f8 c1 06 ba
       -0.00052309065 0.0017255916 -0.00032244323 -0.0005140598
0001d0 80 f5 a5 b8 70 da b2 b9 0a f8 26 3a 7b 70 15 bb
       -7.913541e-05 -0.00034113554 0.0006369358 -0.002280264
0001e0 be 92 02 3b de c9 9b ba 00 00 00 00 cb d9 3a 3a
       0.001992389 -0.0011885723 0.0 0.00071277906
0001f0 b4 af 21 38 6f 0d 60 3a ab 7b f3 3a 68 22 cd b9
       3.8549028e-05 0.00085469236 0.0018576285 -0.00039126282
000200 34 d8 8d 3a f4 2a 3a b9 fc 90 a7 3a d8 09 90 b9
       0.001082188 -0.00017754344 0.0012784298 -0.00027473154
000210 14 16 1e 3a 32 dc 1b 3b a4 d9 82 ba 15 7e d4 39
       0.00060305116 0.002378237 -0.0009983075 0.0004052973
000220 34 dd 5e b8 5a 56 94 39 7d 7b f0 3a ae d0 1b 3a
       -5.3134936e-05 0.00028293097 0.0018347349 0.00059438765
000230 e0 27 57 3b fd 58 0a 39 7f 77 cd ba 01 28 ac 3a
       0.0032830164 0.00013193856 -0.0015675871 0.0013134481
000240 30 8e 9b b9 59 bd b3 ba 7e 72 8a 39 50 57 5b ba
       -0.00029669842 -0.0013713046 0.00026406714 -0.00083671976
000250 e9 34 4b b9 ed 25 e9 3a b1 0b f7 3a b6 69 ea 3a
       -0.00019379299 0.0017787792 0.0018848089 0.0017884288
000260 47 cd 41 3b b5 18 f7 39 16 e3 2a 39 7a 6d 10 ba
       0.0029571818 0.0004712992 0.0001629706 -0.00055094773
000270 b8 6f 26 3a 14 a7 21 3a e6 06 e0 39 ee 8d d6 3a
       0.0006349045 0.0006166559 0.0004272975 0.0016369203
000280 f3 22 6d 3b ec f2 80 b9 c7 75 3a 39 d1 97 a5 3a
       0.0036184161 -0.00024595053 0.00017782218 0.0012633746
000290 f2 a1 ba 39 a7 1a 0a 3a 98 fb 69 3a 5e 17 16 3a
       0.00035597343 0.0005268254 0.0008925735 0.0005725528
0002a0 a7 83 8d 3b a7 02 fb 3a b0 d1 47 3b 6d 31 83 39
       0.0043186727 0.0019150571 0.0030489974 0.00025023092
0002b0 00 00 00 00 b8 52 88 3b ac 46 bc 39 4e 3f 44 3b
       0.0 0.0041602515 0.0003591081 0.002994496
0002c0 15 57 f3 39 e4 10 a5 3a 33 52 6e 3b 27 e3 f8 3a
       0.00046413453 0.0012593535 0.0036364913 0.0018988595
0002d0 2d 32 48 3b df f5 23 3b 3f 8d 0a b9 cb 21 49 b8
       0.0030547485 0.0025018377 -0.00013213324 -4.7953607e-05
0002e0 41 f9 50 3a 56 f6 6f 3b 79 1e b1 3a 76 cb 18 3a
       0.0007971712 0.0036615334 0.001351311 0.0005828658
0002f0 01 08 59 b9 18 33 a9 3a 9a 57 ec 3a 99 ae 20 3b
       -0.00020697714 0.0012908904 0.0018031478 0.002451813
000300 0c 46 4f b9 e1 ca 98 3a 90 2d 4c ba 64 31 a8 3a
       -0.00019767153 0.0011657142 -0.0007788772 0.0012832102
000310 78 ec 87 3a 3d d0 dd 3a 1a 58 69 3b 0e 81 fc 39
       0.0010370156 0.0016923022 0.003560549 0.0004816134
000320 b6 3e 9b ba 3b 76 7f bb d8 b6 d8 39 23 ce b4 b9
       -0.0011844251 -0.0038980383 0.0004133496 -0.0003448586
000330 78 ba ed 3a b6 0b ce 39 23 21 97 39 d7 18 6e bb
       0.0018137237 0.00039300107 0.00028825653 -0.0036330724
000340 a7 c8 1d bb d6 2e c9 3a 17 21 05 bb 3b 77 47 b9
       -0.0024075897 0.0015349041 -0.0020313913 -0.00019022536
000350 84 14 d2 3a 1e d0 62 bb 1d 58 bd 39 db 45 dd ba
       0.0016027843 -0.003460891 0.0003611454 -0.001688178
000360 b3 01 5a ba 0a 0f 75 bb 20 80 77 bb 52 fd 9b 3a
       -0.0008316293 -0.0037392997 -0.0037765577 0.0011901057
000370 74 ae 42 bb c0 44 41 3a 00 00 00 00 6c cb 4d bb
       -0.0029706033 0.000737261 0.0 -0.0031401766
000380 d6 57 fa ba 55 9e 09 bb fc 59 2c 3a a2 a8 cf b7
       -0.0019099663 -0.0020998914 0.0006574688 -2.4754849e-05
000390 60 ba a0 ba 44 ab fb ba 0a ff 52 bb 16 d0 5f b9
       -0.0012262575 -0.0019200821 -0.0032195472 -0.00021344455
0003a0 64 98 fa 39 d2 b4 fd 3a 48 a2 4b ba 44 ca 95 ba
       0.00047797256 0.0019356257 -0.0007768017 -0.0011428078
0003b0 09 2a a1 ba 1a d2 13 3a ae 90 2d b9 fd cc 01 3a
       -0.0012295853 0.00056389126 -0.00016552463 0.0004951505
0003c0 24 33 0c bb 87 c0 b1 ba d4 f2 c2 3a 9c c5 b2 ba
       -0.0021392787 -0.0013561406 0.0014873394 -0.0013639214
0003d0 38 f3 83 ba 9e 66 4e bb 8c f0 90 3a 09 92 04 b9
       -0.0010066992 -0.003149427 0.0011058017 -0.00012642903
0003e0 5b ad fa ba b8 19 b4 38 fd ea d0 3a 98 16 96 b9
       -0.001912515 8.587859e-05 0.0015939173 -0.00028627063
0003f0 96 9b ff 39 89 a7 e3 ba 9f fa 86 ba 58 44 a0 3a
       0.0004875331 -0.0017368655 -0.001029808 0.0012227399

exp_avg_sq f4 [10, 50]
000000 14 fe 0a 39 54 a0 84 38 63 82 1c 37 9e 05 aa 37
       0.00013255357 6.324114e-05 9.328683e-06 2.0268195e-05
000010 70 a4 03 39 ae 46 7a 38 54 03 63 39 90 b1 33 38
       0.00012554391 5.967047e-05 0.00021649647 4.2842294e-05
000020 a8 2e f1 38 ef 86 13 39 b6 da 4a 39 1c 71 bb 37
       0.00011500466 0.00014069279 0.00019345697 2.2344808e-05
000030 a1 52 03 38 d0 7a 0f 39 b3 87 9b 38 09 24 cf 37
       3.1309788e-05 0.00013683294 7.416252e-05 2.4693103e-05
000040 32 bb 8b 39 f3 14 92 36 6e e8 96 39 bc a0 ba 38
       0.00026651617 4.353578e-06 0.00028783403 8.89911e-05
000050 05 42 c1 38 8d 19 0e 39 0f e7 7c 2c b8 5a 31 39
       9.215254e-05 0.00013551694 3.5939617e-12 0.00016913831
000060 fc b0 0e 37 84 df 79 39 10 dc ee 38 ab a0 8c 38
       8.505067e-06 0.00023829757 0.00011389714 6.705647e-05
000070 43 40 a2 37 a0 78 f5 38 2a 46 62 39 e7 5e 17 39
       1.934183e-05 0.000117049785 0.00021579178 0.00014435836
000080 2a 3e c3 37 79 14 47 38 d4 79 8d 38 d0 1d ad 37
       2.3274759e-05 4.7464364e-05 6.746096e-05 2.063709e-05
000090 3e 0f 04 38 a5 cf ee 36 4e 55 37 38 46 c4 ea 38
       3.1485448e-05 7.1171257e-06 4.3710046e-05 0.00011194548
0000a0 cc 5a e4 39 a3 8c 8e 36 13 63 2f 37 03 9b 2f 39
       0.00043555198 4.248302e-06 1.045388e-05 0.00016747047
0000b0 2d a3 02 39 83 97 dd 37 01 50 0f 38 41 84 6b 37
       0.00012458554 2.6415806e-05 3.4168366e-05 1.4037884e-05
0000c0 c1 d7 37 38 05 09 40 37 c0 85 88 36 31 31 91 38
       4.3831536e-05 1.1446192e-05 4.0686864e-06 6.9233014e-05
0000d0 a0 bb fe 35 b2 17 08 39 26 ee 9c 37 c9 7f 81 38
       1.8979081e-06 0.00012978798 1.8707546e-05 6.175001e-05
0000e0 b9 94 3e 37 72 a4 d8 39 03 49 92 39 c7 94 0d 38
       1.135951e-05 0.00041321252 0.00027901688 3.375558e-05
0000f0 79 34 f6 38 8e d9 e1 37 50 60 f5 35 a2 f8 64 39
       0.00011739968 2.6923397e-05 1.8281953e-06 0.00021836397
000100 c5 3a e0 36 4a a7 6e 38 33 92 85 38 f8 ea 4a 38
       6.682562e-06 5.6899422e-05 6.369166e-05 4.8379385e-05
000110 7f fb c2 38 42 52 22 39 5a 6a 8e 39 b7 ec e8 38
       9.297486e-05 0.00015480167 0.0002716359 0.00011106714
000120 5b 0d 0d 2d 18 d3 9c 39 a3 24 9e 38 60 03 17 39
       8.017888e-12 0.00029911916 7.540851e-05 0.0001440174
000130 6f 35 b0 37 56 2e 27 38 e8 62 4b 37 1f 3d 8c 39
       2.1005717e-05 3.9859056e-05 1.2122771e-05 0.0002674842
000140 11 cc 3d 39 83 38 0e 38 02 6e 25 38 70 0f 11 38
       0.00018100465 3.390807e-05 3.944152e-05 3.458507e-05
000150 b6 3b 7e 38 9b 3e 31 37 0c 26 86 37 fa f7 f9 36
       6.061393e-05 1.0564599e-05 1.5991762e-05 7.4496465e-06
000160 e5 19 d9 37 ac d4 88 37 05 6a 83 38 51 98 84 38
       2.5880474e-05 1.6311496e-05 6.2663144e-05 6.3226216e-05
000170 df 6c 0c 39 de 09 cf 37 c5 f3 11 37 8c 84 2b 39
       0.00013391998 2.4680918e-05 8.6994305e-06 0.00016357208
000180 76 69 8c 37 a7 be 20 38 7b ed 63 38 86 b7 32 37
       1.673841e-05 3.832453e-05 5.434219e-05 1.0652357e-05
000190 b4 3b 23 39 82 6b 8c 38 58 40 cf 37 35 46 b3 38
       0.00015567133 6.695745e-05 2.4706285e-05 8.548462e-05
0001a0 bb c8 20 39 53 4a fd 38 6d ed 06 39 35 0d 51 39
       0.00015333567 0.00012077824 0.00012867684 0.00019936713
0001b0 3f e6 1d 39 6c 5a 00 39 4e e9 82 39 dc 08 0d 39
       0.0001505846 0.00012240716 0.00024969358 0.00013450108
0001c0 40 65 b1 37 0c 13 82 39 4d 44 2b 38 8d 1b ad 38
       2.1147192e-05 0.00024809723 4.0833187e-05 8.2544146e-05
0001d0 70 7c 9a 39 9e 21 bf 37 1d 4e 60 39 14 cc 83 39
       0.00029465882 2.2784629e-05 0.00021391404 0.00025138317
0001e0 14 5c 5c 38 c7 86 94 39 19 ce e1 2d 1c e1 bf 39
       5.2537842e-05 0.00028329177 2.5671064e-11 0.00036598078
0001f0 d2 89 ae 38 2d 2f c7 39 b1 0e 38 39 32 7e ea 38
       8.3226376e-05 0.00037991386 0.0001755308 0.00011181495
000200 74 6f 18 38 a5 4c 96 39 15 29 cd 39 81 f3 e2 38
       3.6343423e-05 0.00028667334 0.00039131255 0.00010821876
000210 ea f5 89 38 3b 61 b2 38 01 aa 3a 39 3a 78 8a 38
       6.578474e-05 8.505812e-05 0.00017801674 6.602747e-05
000220 f8 07 52 38 d4 5e 80 37 26 43 23 38 de 00 3a 38
       5.0075323e-05 1.5302947e-05 3.8924765e-05 4.4346663e-05
000230 e4 92 ce 39 27 a4 99 38 22 a7 6f 39 bf 8d 1d 39
       0.00039400824 7.326184e-05 0.00022855078 0.00015025491
000240 e3 31 96 38 89 29 77 39 34 be 90 38 09 3e fa 38
       7.1618495e-05 0.00023571229 6.901883e-05 0.00011932484
000250 a8 e2 bc 38 5a e4 06 38 cc 23 e5 38 4a 4d 33 39
       9.0067566e-05 3.216076e-05 0.000109262386 0.00017099563
000260 b6 e1 bf 38 6e 44 95 38 36 d3 a6 38 80 57 38 39
       9.149632e-05 7.11762e-05 7.954838e-05 0.00017580204
000270 21 b0 24 39 bf 10 ae 39 6d c4 b4 39 0f 31 ae 38
       0.00015705872 0.00033200343 0.00034478624 8.3061044e-05
000280 6a 41 9c 39 99 e8 19 39 0a d9 31 38 81 27 94 39
       0.00029803376 0.00014677866 4.2402222e-05 0.00028258192
000290 24 8a 54 38 89 39 4a 39 5b 1a b1 39 2b 6e 67 39
       5.0673392e-05 0.00019285655 0.00033779707 0.00022070917
0002a0 22 f8 d4 39 95 35 6c 39 76 ac 16 39 41 2f 8e 39
       0.00040620664 0.00022526675 0.00014369361 0.00027119557
0002b0 be a2 c8 2a 03 c2 2b 3a 25 d8 da 38 cc 96 63 3a
       3.5640062e-13 0.00065520423 0.0001043531 0.0008681833
0002c0 21 6e a8 38 b6 5d d8 38 57 ea c1 38 77 31 d6 39
       8.0313774e-05 0.00010317138 9.246606e-05 0.00040854115
0002d0 eb e6 34 3a 70 f4 e6 39 10 83 8a 38 bd 0b 3f 38
       0.00069008645 0.0004405114 6.604765e-05 4.554888e-05
0002e0 15 5e 1e 3a 1a c4 05 39 a2 d6 fb 38 a1 22 4e 37
       0.0006041241 0.00012756922 0.00012008591 1.22866195e-05
0002f0 37 6d 0d 38 44 c3 91 38 35 43 12 3a 98 c3 03 39
       3.3718734e-05 6.95051e-05 0.00055794726 0.00012565998
000300 64 95 7e 39 6f dd 9e 39 ba b9 36 39 aa ba 09 3a
       0.0002427898 0.0003030109 0.00017426061 0.00052539504
000310 6d 43 ac 38 a7 67 0d 39 2e 20 d6 38 11 6a ec 37
       8.214158e-05 0.00013485421 0.00010210309 2.8182783e-05
000320 1e a9 7c 39 e8 9f 76 38 7d a2 0b 37 93 cc bc 38
       0.00024095594 5.8799895e-05 8.322878e-06 9.0026435e-05
000330 2a 1b 30 39 c6 88 3c 39 52 26 8a 38 9b e2 76 39
       0.00016794787 0.00017980029 6.5874905e-05 0.00023544805
000340 94 4e 2d 39 6c 55 e6 38 48 9a b2 39 f5 5a 7a 37
       0.00016527838 0.00010983166 0.00034065754 1.4922339e-05
000350 82 7b c3 38 ca ef 18 39 f6 45 07 37 94 77 19 38
       9.32133e-05 0.00014585178 8.062916e-06 3.658941e-05
000360 e8 79 e1 38 d7 1d cf 38 52 1f 64 39 9a a8 98 38
       0.00010751543 9.876087e-05 0.00021755442 7.279329e-05
000370 5d 44 80 39 20 12 ed 37 88 91 d5 2a 19 7d e6 39
       0.00024464997 2.8261042e-05 3.7937383e-13 0.00043962224
000380 bc e4 48 37 20 6f cc 39 ec 9c 10 39 0f 23 91 35
       1.1974185e-05 0.00038992707 0.00013791368 1.0813545e-06
000390 eb 71 78 39 ae e4 44 39 fb 18 ac 39 75 e0 04 38
       0.00023693561 0.00018777206 0.00032825008 3.1680294e-05
0003a0 73 a0 49 38 c5 b0 ee 38 04 9c 59 37 8c c8 8b 39
       4.8071564e-05 0.0001138165 1.2970533e-05 0.00026661565
0003b0 e4 ec 3e 37 45 51 31 38 2e e9 66 38 bc 44 04 38
       1.1380038e-05 4.2275777e-05 5.505344e-05 3.1535266e-05
0003c0 d8 1d 93 39 70 79 35 39 7d db de 36 e5 b6 b7 38
       0.0002806026 0.00017306744 6.6416674e-06 8.760187e-05
0003d0 c7 c0 a2 38 9f fa 02 39 78 c7 45 37 83 cd 44 38
       7.7606695e-05 0.0001249113 1.17885575e-05 4.692144e-05
0003e0 73 97 91 39 11 1c 8c 37 51 61 93 38 c5 c3 2d 39
       0.00027769394 1.670237e-05 7.027633e-05 0.00016571496
0003f0 7b b4 70 38 dd de 73 38 94 82 8f 38 85 d7 d5 38
       5.7388545e-05 5.8143272e-05 6.8430934e-05 0.00010196775

exp_avg f4 [10]
000000 c9 7c b6 b9 11 a4 c0 39 5b 8f a2 39 67 f5 3f 3a
       -0.00034806717 0.00036743333 0.00031005856 0.00073226396
000010 58 66 ab b9 3e ed 91 39 36 25 b1 b9 4f ee cc ba
       -0.00032691914 0.00027833314 -0.00033787795 -0.0015634986
000020 e6 f2 01 39 7b 5b 48 3a
       0.00012392885 0.0007643026

exp_avg_sq f4 [10]
000000 5f 52 1b 37 ac 32 37 37 26 f9 84 37 8a 7a ca 37
       9.2578985e-06 1.0919448e-05 1.5851645e-05 2.4137338e-05
000010 77 03 8d 37 4d c8 9e 37 5d 83 2d 37 07 cc 95 37
       1.6810123e-05 1.892834e-05 1.0342189e-05 1.7857192e-05
000020 c4 96 dd 37 25 fc f7 37
       2.6415459e-05 2.9562108e-05
