swastik_web/Learning&Experiments/PytorchTutorials/pytorch lightning/dashboard/mnist_clsfy/version_0.11/checkpoints/epoch=0-step=375.ckpt (torch, 484079 bytes, 12 tensors)

fc1.weight f4 [50, 784]
00000000: 0030 8cb9 b6f2 9c3c accc f0bc 9350 d7bc
00000010: ce5e 61bc 10e9 1c3c 407f 39ba 12fa e73c
00000020: 30b6 4fbb 10d6 1a3c 7cd6 30bc a409 e6bb
00000030: 8d26 63bd e985 1dbd 0620 b43a 5903 2b3c
00000040: dc53 673c ae8c af3c a058 c6bc d8ce 7ebc
00000050: b088 543c a2f2 f23c 54d8 f0bb 46ef da3c
00000060: 70a1 bcbb 60aa 773b 4f75 043d 76b4 07bd
00000070: 502f b8bc 4a23 14bc b216 64bc 2ec8 fc3c
00000080: 38a5 57bd 69a0 83bd 0d4c e5bd aa80 fcbd
00000090: a46b 5abe e89f 36be eb1a 13be 589d 30be
000000a0: 2bb9 30be 7d7b 2bbe 5f8b 34bd a6f5 f8bd
000000b0: 5c6f 69bd 25ac 27be d8be 28be e059 38be
000000c0: dc51 41be da6b fbbd 43f0 5ebd 0c5f 86bc
000000d0: 983b 683c e818 9e3b 482a c43c 4a44 acbc
000000e0: 6813 da3b 0ed5 e2bc 97fe 0dbd 7b97 93bd
000000f0: 02d4 a8bd fcef b5bd 9fc2 31be f44f 36be
00000100: 9182 67be 3660 2dbe 9a07 58be bdd8 84be
00000110: 7609 76be 2cdc 12be 6e9e 41be 3fd7 26be
00000120: 21a0 ccbd f7e3 9fbd 8155 b7bd 0cc9 36be
00000130: 2826 68be d459 63be b661 39be 6d46 6fbe
00000140: ada2 4fbe 5d08 6abd a675 de3c 92ec 11bd
00000150: 780b db3b 7825 c5bb 3825 f0bb e902 0bbe
00000160: abeb f5bd 33cc ecbd b728 e0bd 8fb1 ecbd
00000170: a1e9 f9bd e2d5 d0bd dc72 38be c941 30be
00000180: 11e8 2abe 949c 45be 27fd 56be 9ca0 37be
00000190: 8272 a9bd 6799 9fbd 3b45 38be dcf8 2ebe
000001a0: fea0 2dbe 8da9 efbd a565 18be 092b 5ebe
000001b0: fdd1 25be 87e8 02bd b97c b3bc f89a ad3c
000001c0: 8a0a b2bc d0cb 6e3b d558 dbbb d5cd 91bd
000001d0: 653e a9bc 73ef bbbb 4f1d ddbb 0b47 ddbc
000001e0: da6c 2fbd 9385 46bd 4989 00be 2431 91bd
000001f0: d24f f7bd 883f b2bd e7af f6bd 62b5 28be
00000200: dc8e 30be e15c 11be 0c69 b9bd e24c 85bd
00000210: bf77 60bd 7ad4 79bd 5ba9 9f3b 5eef f3bb
00000220: 78f4 14bc f99a 30bd 5560 8bbd 265e 7ebc
00000230: 8f91 0a3d 9acc b93c e3a3 52bd e06f e1bc
00000240: 82e2 04bc f895 853d b307 8f3d f051 903c
00000250: 8bbb 2c3d 736d 333c 1a83 1cbd 413c b4bb
00000260: 0701 8ebb b872 b43c 4cb0 253c 0d3d 64bd
00000270: 888c e8bb 6645 68bd 300e 1abd 8c45 a3bd
00000280: 11af b7bd bb78 91bd b908 62bd 1308 61bd
00000290: 45f5 acbd d0aa 09be 741d 3abe b6d5 11bd
000002a0: 6baa 03bd c037 13bd 9793 503d 7bfb 5d3d
000002b0: e0eb da3d d174 d83d 7caf 8b3c f077 3b3d
000002c0: b9a8 f33c 7bb1 823c 0fe8 143d 9f66 e5bc
000002d0: cad5 6bba eb83 88ba 7a2a 333d ec87 053d
000002e0: 4f84 763d 10ed 853d 0ea8 0b3d bbcf e6bb
000002f0: 6816 81bd 507d d23c 6802 443d 9c5e 59bc
00000300: d458 3cbe bd7d 16be 477f bcbd bb1c d6bd
00000310: 4140 afbc cb4b 7bbc 4805 da3d 3f22 123e
00000320: 80c6 733d 398c 4f3d 48db aa3c 5cd7 40bd
00000330: c03c 18bd 51b4 0c3d 4e49 86bc df23 013d
00000340: 067c 2d3c 4be7 353d dbf2 d33c 3e80 023d
00000350: 6f64 833d 2fe3 8e3d 8d5b 5f3d 41fc 033d
00000360: 708e a73b 76c5 e23c 3fea b13d b9c0 32bd
00000370: a6ec 9bbd 2eca 1cbc f74c 88bc 9b9b debd
00000380: d739 36bd 9263 1a3d 3bb1 023e b12a 4b3d
00000390: 2b40 7b3b a5ab 933b f365 9a3c 9475 a63c
000003a0: f100 c13b aec0 053d 24df b23c 7f1f d7bc
000003b0: 2181 64bc 4291 e4bc 0952 4f3a a114 223d
000003c0: 2b4d 093d c2fd 473d 525e 103d 29fa 273d
000003d0: e3d1 793d 33ab 9e3c 197c 2c3d b053 8ebb
000003e0: 44a8 1dbd 8263 5cbd 2328 b4bd 3444 8bbd
000003f0: 1926 e03d cea2 823d 2519 da3c 87c7 4c3d
-0.00026738644 0.019158702 -0.02939447 -0.026283538 -0.013755513 0.009577051 -0.00070761517 0.028317485
-0.0031694286 0.009450451 -0.010793325 -0.007020192 -0.055456687 -0.038457785 0.0013742454 0.01043781
0.014119115 0.021429386 -0.024212182 -0.015552245 0.012972042 0.029656712 -0.007350007 0.026725423
-0.0057565495 0.003779076 0.032338437 -0.033131085 -0.022483498 -0.009041617 -0.013921427 0.030857172
-0.0526478 -0.0642708 -0.11196146 -0.12329228 -0.21330124 -0.17834437 -0.14365737 -0.17247522
-0.17258136 -0.16746326 -0.044078227 -0.12156229 -0.056990966 -0.16374262 -0.16479051 -0.18003035
-0.18878883 -0.122764304 -0.05442835 -0.016402744 0.0141743645 0.0048247464 0.023945943 -0.021028657
0.0066551454 -0.027689483 -0.034666624 -0.07206627 -0.08243562 -0.08883664 -0.17359398 -0.17803937
-0.22608401 -0.16931233 -0.2109665 -0.25946608 -0.24027047 -0.14341801 -0.18908092 -0.16293047
-0.0999148 -0.07807153 -0.089518555 -0.17850131 -0.22670805 -0.22202235 -0.1810368 -0.23366709
-0.202769 -0.057136882 0.027155709 -0.035626 0.006684717 -0.0060164295 -0.0073286556 -0.13575329
-0.12007841 -0.115623854 -0.10945266 -0.11557304 -0.12202764 -0.10197045 -0.18012565 -0.17212595
-0.16690089 -0.19298011 -0.20995007 -0.17932361 -0.08273794 -0.07792931 -0.1799516 -0.1708712
-0.16955945 -0.11702261 -0.14882524 -0.21696104 -0.16193385 -0.031960037 -0.021910058 0.021192059
-0.021733541 0.00364374 -0.006693939 -0.071193375 -0.020659635 -0.0057353317 -0.0067478786 -0.027011415
-0.04282842 -0.04846723 -0.1255237 -0.07089451 -0.120757714 -0.08703524 -0.120452695 -0.16475442
-0.17241997 -0.14195587 -0.09053239 -0.06508805 -0.0548017 -0.06099365 0.0048724837 -0.0074443063
-0.009091489 -0.043116543 -0.06805483 -0.015525376 0.03383022 0.02268057 -0.051425826 -0.027519166
-0.008110644 0.06522745 0.069838904 0.017617196 0.042171042 0.010951388 -0.038210966 -0.005500347
-0.0043336186 0.022027358 0.010112833 -0.055722285 -0.0070968308 -0.05670681 -0.037611187 -0.079722494
-0.08968938 -0.07103106 -0.0551841 -0.05493934 -0.08445219 -0.13444066 -0.18175298 -0.0356042
-0.032144945 -0.03594184 0.050922003 0.05419491 0.10689521 0.10569156 0.01705145 0.04576868
0.02974354 0.01595377 0.03635412 -0.028003035 -0.00089963956 -0.0010415291 0.04374168 0.03260033
0.060184773 0.06539357 0.034095816 -0.0070438064 -0.06303102 0.02569452 0.047853857 -0.013267186
-0.1839326 -0.14696403 -0.09203964 -0.10454699 -0.021392943 -0.015337895 0.106455386 0.14270876
0.059515476 0.050670836 0.020856515 -0.047080383 -0.03716731 0.03435165 -0.016392376 0.03152835
0.0105886515 0.04441003 0.025872638 0.031860583 0.064156406 0.069769256 0.05453067 0.03222299
0.0051134154 0.027682047 0.08687257 -0.043640826 -0.076134965 -0.009569688 -0.016638262 -0.10869523
-0.044488754 0.037692614 0.1276292 0.04960126 0.0038337808 0.0045065456 0.018847441 0.020319737
0.005890005 0.032654457 0.021834917 -0.026260136 -0.013946802 -0.027901296 0.00079086475 0.039570455
0.03352086 0.048825987 0.0352462 0.041010056 0.06099118 0.019368744 0.042110536 -0.0043434724
-0.03849055 -0.053805836 -0.08796718 -0.06800118 0.109447666 0.06378709 0.026623318 0.04999497

fc1.bias f4 [50]
00000000: 52e4 f73d ac16 0d3e 2834 83bd bb36 2b3e
00000010: 3439 c33c a2b5 c53d 605b bd3d 0557 fc3d
00000020: b3a4 f33d f76b 0f3d e3f6 56bc 7628 893d
00000030: 256c a43c c321 8e3c 3921 6dbd 455d 193b
00000040: b016 7fbe 45aa 1abc 574c 393e fcef 7b3d
00000050: 21b5 c53d aa55 11be 9e65 bebc f4d0 4a3b
00000060: a3f4 0c3d b8e2 603d f4a3 153e 4e81 733e
00000070: e16b 093e 6ae2 b5bd 9841 eebd 529a 4e3d
00000080: ecef 5a3e cf90 4b3e 78fb 25bd d003 4a3e
00000090: 933e 783d f7a6 d33d 280f 92bd ca8e 283e
000000a0: 8ed9 193d 1a08 003e 030d b33d 3aa7 00bd
000000b0: 1974 9cbd b5bd 313c 4c98 01bd 5ddf 1ebb
000000c0: 6efa 073e 3cfb e3bc
0.121040955 0.1377818 -0.064064324 0.16720097 0.023830988 0.09653784 0.09245944 0.12321285
0.11896648 0.035015073 -0.013120386 0.066971704 0.020071099 0.017350083 -0.05789301 0.002340154
-0.24910998 -0.0094400095 0.18095528 0.061508164 0.09653688 -0.14192834 -0.023241814 0.00309473
0.03441299 0.054903716 0.14613324 0.23779795 0.13420059 -0.08881076 -0.11633605 0.05044014
0.21380585 0.19879459 -0.040523022 0.19728017 0.06060655 0.103345804 -0.07131797 0.1646072
0.037560992 0.1250309 0.08742716 -0.03140948 -0.07639331 0.010848452 -0.031639382 -0.0024242022
0.13279125 -0.027829759

fc2.weight f4 [10, 50]
00000000: 7997 5cbd 021e f8be e85a d13b a410 8bbd
00000010: 97de deba f10e a2be 3b4b 693e 167e 41be
00000020: 651b 1f3e 3a10 573e cf14 56bd 763f b2bd
00000030: 5c46 18be 2ffb 89bd 90c2 993e 9940 c4bd
00000040: 79d7 313e 315e 273b 0e16 323e daf5 a63d
00000050: a412 fabd 3493 713e b550 c4bd d694 8ebe
00000060: b936 17be c8bf febd 7711 dc3d 4b18 883e
00000070: 567d eabe c5f7 90be 55f3 88bd 2664 7d3e
00000080: 653e 9fba 8624 45bd 8980 62bb dd4b 94be
00000090: d267 143e 43c9 c3be 1423 293e 5a3d 493e
000000a0: 0a30 573e db22 8bbd 1abe aebe 6f2a 4d3e
000000b0: 40d6 5b3e e172 75be cf3a 593d c3ce 68be
000000c0: 52b4 d53d a592 27be 480c a7be a5c2 813e
000000d0: 4af9 55be 3983 813d be5a b1be 6c2f 653e
000000e0: 0a4d aabe 6035 773e 1bf8 4d3e 9316 22be
000000f0: f111 103e d462 50be 2965 5cbd acef 4f3e
00000100: e2ae 40be d235 2a3e cfec 62be 8465 b43d
00000110: 68ae b53e 8f25 573e c8ac 473e 460e 8bbd
00000120: dd01 8d3d 024e a139 0f50 423e 13d2 8cbe
00000130: 60f9 51be 2a2c 633e 6704 c5be c65f 993c
00000140: da82 91be e760 1fbe 4e47 aa3e 7c90 60be
00000150: 8c1a 13be ae32 cebe 1ec5 7dbe 8e28 8f3a
00000160: 6795 c4bd 5c29 423e 813c c8be 98cb 5d3e
00000170: 0f85 4d3e 90f3 3bbe 593b bdbe 6fdd 023c
00000180: 8915 6d3e 70c8 99be ac0c 6bbe fd22 8abe
00000190: 5845 e63d 4fb9 27be a3c9 f8be 359c 89bd
000001a0: d2ef 8bbc 3272 bcbd 6a69 f6bc 36da b03d
000001b0: 7182 15bf b6e5 12bd 16e3 303d ddfd 423e
000001c0: 34ad 91be 476b 443e 1074 8b3c 894c 40be
000001d0: 801a 0e3e 5454 ecbe e3ac 94be e8f2 8b3e
000001e0: a00f 0dbf d048 913e 57b7 cbbd 0653 45bd
000001f0: 243c c43d 3e89 7ebe a2ff 8d3e 89d5 ad3e
00000200: d4b7 25be d121 133e 18c6 043e 8a99 58be
00000210: 0cd2 013e ceb2 803e d7e7 d63d af5c b8bd
00000220: 3440 b03c 8516 dabd 9632 8cbe ba4e 8fbe
00000230: 7cf2 b03c 3b05 8abd 6191 883e 4eaa 3abe
00000240: abf0 00be 2140 2d3e c4ac d53c f790 963e
00000250: 6b1a 1bbd 0013 4c3e 54d5 85be e5d5 9e3e
00000260: e1cd 5c3d ef8f e6be 2477 f5bd 813d d7bd
00000270: 692b d83d 7a78 9c3d 84d8 c2bd f882 9ebd
00000280: d37e 683d fe09 933e db4a b4be 3418 05bd
00000290: e3e8 6ebe 80a1 1d3e 7a30 223e 8e17 033e
000002a0: 39b3 9abe a88f 49bd 650c dabe 85a3 2cbe
000002b0: f4ff 683d 4358 483c 9a1c 7c3e 6bf4 193e
000002c0: a632 74be d379 70bd 0291 a7bd 00c2 4bbb
000002d0: c020 213e 18bd 433e b75a 213e b0c9 21be
000002e0: 0f98 653e d229 debd ab37 8f3e 8685 bcbe
000002f0: 6bca 39be 55f1 a5bd f282 6cbd 21e0 293e
00000300: c96e c83d 0ae4 e93d 3a51 49be 7c63 433e
00000310: faf2 80bd dd14 ebbd d787 583d 34ab 51be
00000320: 07e8 003e 5d69 be3d 7d5d a53d 286b 1a3e
00000330: 30cd b33d 2796 6d3e 3632 543d fa82 ce3b
00000340: 65ec 8dbe e05d 883e 1920 b13d 1805 02bd
00000350: 6104 943e 2771 bdbc 115e f6be 2750 9dbe
00000360: 604f afbd 3977 603e 06bf e23d 7a99 62be
00000370: cf65 58b9 571e 95be c0b1 0a3c 80cf 543d
00000380: 4c2a a6be 3d30 b03d 0d77 383e e080 fabe
00000390: 27f8 913e 269b 6dbe 7b38 5d3e e5c1 00bf
000003a0: 7c24 ab3e 9385 a3be fec0 f2be 5ea4 0b3d
000003b0: c5bb c4be 2390 a53e 7539 f2bd ae73 0dbf
000003c0: f92d 043e 7b44 513e 1f3f b0be 1dea a2be
000003d0: e202 33bc 8b20 10bd a99f 89be 097d abbe
000003e0: 35f7 0ebd 92b7 98be 6c7b 85be 8b81 293e
000003f0: 2a5b 123e d753 2b3e 745e 85be 150f 57be
-0.053855393 -0.48460394 0.0063890107 -0.06790283 -0.0017003593 -0.31652024 0.22782604 -0.18895754
0.15537794 0.21002284 -0.05226594 -0.087035105 -0.1487059 -0.067373626 0.30031252 -0.095826335
0.17367353 0.002553832 0.17391226 0.08152361 -0.12210587 0.2359131 -0.09585706 -0.27847928
-0.14766969 -0.12438923 0.10745519 0.26581034 -0.4579875 -0.28314033 -0.06687037 0.24745235
-0.0012149332 -0.048130535 -0.0034561476 -0.2896413 0.1449273 -0.38239488 0.16517287 0.1965231
0.21014419 -0.067937575 -0.3412941 0.20035718 0.21468449 -0.23969604 0.0530346 -0.22735123
0.10434784 -0.16364534 -0.32626557 0.25343814 -0.20895877 0.06323857 -0.34639543 0.22381371
-0.332619 0.24141455 0.20114176 -0.15828924 0.14069344 -0.203502 -0.05380741 0.20306271
-0.18816712 0.16622093 -0.22160648 0.08808425 0.35484624 0.21010421 0.19499505 -0.06789832
0.06885121 0.00030766433 0.18975852 -0.27504024 -0.20505285 0.22184816 -0.3847992 0.018722426
-0.28420144 -0.15564309 0.33257526 -0.21930116 -0.14365596 -0.4027304 -0.24782225 0.001092212
-0.09598809 0.1896109 -0.3910866 0.21659696 0.20070289 -0.1835463 -0.3695934 0.007987364
0.23152746 -0.30035734 -0.22954053 -0.2697982 0.11243695 -0.16379283 -0.48591337 -0.06719247
-0.017082129 -0.092014685 -0.030079562 0.086353704 -0.5840216 -0.0358636 0.043185316 0.19042154
-0.28452456 0.19181548 0.017023116 -0.18779196 0.13877296 -0.46158087 -0.29038152 0.2733376
-0.55101967 0.28375864 -0.09947079 -0.04817488 0.095817834 -0.24857041 0.27734095 0.33951977
-0.16183406 0.14368369 0.12966192 -0.2115232 0.12677783 0.25136417 0.10493439 -0.09002053
0.02151499 -0.106488265 -0.27382344 -0.2798975 0.0216 -0.06739279 0.26673415 -0.18229029
-0.12591808 0.16918994 0.026083358 0.29407474 -0.03786699 0.19929123 -0.2613932 0.31022564
0.05390728 -0.45031688 -0.11985615 -0.10509778 0.10555155 0.076401666 -0.09513953 -0.07739824
0.056761574 0.2871856 -0.3521336 -0.032493785 -0.23331027 0.15393639 0.15838805 0.12801954
-0.3021486 -0.049209267 -0.4258758 -0.16859253 0.05688472 0.0122280745 0.24620286 0.15034644
-0.23847446 -0.05870993 -0.08181955 -0.0031090975 0.1573515 0.19115102 0.15757261 -0.15799594
0.22421287 -0.1084782 0.2797216 -0.3682062 -0.18143623 -0.08102671 -0.057742067 0.16589405
0.097867556 0.11420448 -0.19659892 0.19080919 -0.06296344 -0.11478589 0.052863922 -0.20475465
0.12588511 0.0929744 0.08074472 0.1507994 0.08779371 0.2320181 0.051805697 0.0063022347
-0.27719417 0.2663412 0.086487 -0.03174314 0.2890959 -0.023125244 -0.48118642 -0.30725214
-0.085600615 0.2192048 0.11071591 -0.22128859 -0.00020637292 -0.2912471 0.00846523 0.0519557
-0.32454145 0.08602951 0.18014164 -0.4892645 0.28509638 -0.23203716 0.21603577 -0.5029586
0.33426273 -0.31937847 -0.47412866 0.0340923 -0.38424507 0.3233653 -0.11827365 -0.5525464
0.12908162 0.2043628 -0.34423158 -0.3181924 -0.01092598 -0.035187285 -0.26879624 -0.33493832
-0.034903724 -0.29827553 -0.26070726 0.16553323 0.14292589 0.16731201 -0.26048625 -0.21001847

fc2.bias f4 [10]
00000000: 3f48 13be 5f49 f83d 5562 283e 4574 963c
00000010: e5cb ba3d d4af 313e 20ed 193d 5eae ad3c
00000020: 4701 13be 35b7 263d
-0.14383028 0.121233694 0.1644376 0.018365989 0.09120921 0.1735223 0.037579656 0.021201309
-0.14355956 0.040702064

exp_avg f4 [50, 784]
00000000: 0000 0000 0000 0000 0000 0000 0000 0000
00000010: 0000 0000 0000 0000 0000 0000 0000 0000
00000020: 0000 0000 0000 0000 0000 0000 0000 0000
00000030: 3a8d 87b0 a7fe b6b2 a7fe b6b2 37fe 73b0
00000040: 0000 0000 0000 0000 0000 0000 0000 0000
00000050: 0000 0000 0000 0000 0000 0000 0000 0000
00000060: 0000 0000 0000 0000 0000 0000 0000 0000
00000070: 0000 0000 0000 0000 0000 0000 0000 0000
00000080: fae5 2818 b5b6 9925 7fcd f72f 98b8 9b32
00000090: 92d4 f833 6b7c 0533 a796 da31 ef9a ee34
000000a0: d759 5f35 c40f 3a34 3dd0 8334 c1ca 0f35
000000b0: 92c7 5e34 28c7 4cb6 bcf1 64b5 6de6 8f33
000000c0: 1b80 2733 236f e630 e483 6229 0271 5f1f
000000d0: 0000 0000 0000 0000 0000 0000 0000 0000
000000e0: 0000 0000 0000 0000 0000 0000 9082 ea2c
000000f0: 42c7 132e 5ded 042e e3a2 832f 6be5 e433
00000100: 2a36 d134 26b8 3e36 c99d 4637 e963 d736
00000110: b8b6 7bb7 078c 06b8 b8a4 f535 a814 62b8
00000120: 4222 d5b8 60d7 dab7 a732 a537 3c67 2237
00000130: d5b9 0136 beca 6535 dd26 8334 b46e 8732
00000140: 9f56 6f32 8ae2 f630 0000 0000 0000 0000
00000150: 0000 0000 0000 0000 0000 0000 1806 b32d
00000160: a57f 7daf 8319 1fb3 92f1 7bb3 c8bc ae34
00000170: 060b 7536 8593 a436 e64b 0537 312b 6938
00000180: 245e b837 b672 24b7 ecd4 ad38 03ed 4639
00000190: 63fa 1839 6812 f037 76ec b837 ca85 8038
000001a0: 74c7 f236 2de6 c1b6 da8a ffb6 a56b 8bb7
000001b0: 4053 16b7 7f8d 4bb4 0000 0000 0000 0000
000001c0: 0000 0000 0c13 6b21 04cd 9730 250a 9835
000001d0: 0a7a 0eb6 5873 06b8 762e 37b8 8e94 3db8
000001e0: e639 c0b7 0867 3cb7 4050 5038 14ac c238
000001f0: cef8 4a38 285e 0439 aae1 cd39 6c6a e239
00000200: 33e5 7739 06f8 9538 0626 ad38 248e 2f38
00000210: 454e 05b7 0a0c f5b7 6c3a 90b7 4ac3 7537
00000220: 4462 ac37 308b df36 aec6 c733 0000 0000
00000230: 0000 0000 0000 0000 e19a 85b3 0e76 e036
00000240: f6e7 21b6 4f83 29b9 1914 0fb9 51e9 42b6
00000250: eac2 ae38 3eb2 4d39 2f27 5239 c061 a535
00000260: 84b8 32b9 146b 27b9 00f6 56b6 7873 cc38
00000270: a8b6 0639 ec68 5739 2c49 2039 0c4a 1f39
00000280: e654 f9b7 82c1 ffb8 0066 eeb8 3254 5a37
00000290: 304d 0138 300c b836 bbb3 4f34 4d15 2319
000002a0: 0000 0000 96df 071e e58e 53b0 f3a7 b336
000002b0: ea1c 82b7 b006 df37 e0e8 dd38 21f0 0fb8
000002c0: 4068 0f39 b672 b7b8 3c46 41b9 487a b6b9
000002d0: 7a5c 14ba 774a 0eba b22f 2eba d9a7 13ba
000002e0: 442f 31ba 57b0 e6b9 8e8f c3b9 d39d 8bb9
000002f0: 7638 d5b9 10fe c1b9 9dd7 78b9 b6aa 41b7
00000300: c6f4 8838 c35b 7837 43f6 de35 4ae9 63b4
00000310: 9cb8 df9e 89d6 24af ed2c 87b4 fd1d 33b7
00000320: 6c3d a5b8 78ea a138 bc88 f238 37cb 0939
00000330: 36fd 5eb8 fec8 5bb9 22e9 70b9 32c3 24ba
00000340: 3bfc 19ba 7c0e 41ba 63bb 71ba 90ab a6ba
00000350: 8ca1 81ba c93e 4cba 0702 3aba fd7c 5bba
00000360: 4ea8 74ba 8418 41ba fdca cbb9 e2e3 72b8
00000370: 88ac a236 ba40 0cb8 acfa 88b4 5935 8bb3
00000380: 938a df9f fc0a abb2 8f70 3cb6 df4f 2bb8
00000390: ddf9 c8b8 78be a138 c4ca 6f38 1624 cfb8
000003a0: b1c3 93b9 8d65 97b9 8848 0eba 47a4 3eb9
000003b0: 2a4d 01b9 2af4 23b9 1a80 38ba 0ad3 8cba
000003c0: 867a 87ba c835 67ba 4978 1eba 518d 53ba
000003d0: bc6a 71ba 124c 6fba 8480 f6b9 46f2 05b9
000003e0: ac45 a6b8 518b b1b8 90f2 23b6 9f34 5631
000003f0: 36ec fbab 0b67 cab3 2a00 04b7 b6a9 a8b8
0.0 0.0 0.0 0.0 0.0 0.0 0.0 0.0
0.0 0.0 0.0 0.0 -9.862682e-10 -2.1303391e-08 -2.1303391e-08 -8.8764146e-10
0.0 0.0 0.0 0.0 0.0 0.0 0.0 0.0
0.0 0.0 0.0 0.0 0.0 0.0 0.0 0.0
2.18296e-24 2.6665076e-16 4.5075052e-10 1.8128318e-08 1.1587066e-07 3.1079633e-08 6.3617622e-09 4.4443684e-07
8.320471e-07 1.7328335e-07 2.4552165e-07 5.3566697e-07 2.0747964e-07 -3.0514293e-06 -8.528839e-07 6.7008706e-08
3.899923e-08 1.676629e-09 5.0296478e-14 4.7315565e-20 0.0 0.0 0.0 0.0
0.0 0.0 0.0 6.6651754e-12 3.3600907e-11 3.0224146e-11 2.39445e-10 1.0658808e-07
3.8968693e-07 2.8419395e-06 1.1838457e-05 6.4191304e-06 -1.5003308e-05 -3.20785e-05 1.8301862e-06 -5.3901837e-05
-0.000101630125 -2.6087917e-05 1.969312e-05 9.679989e-06 1.9330666e-06 8.5604177e-07 2.4428928e-07 1.576641e-08
1.3931326e-08 1.7963242e-09 0.0 0.0 0.0 0.0 0.0 2.035265e-11
-2.3055564e-10 -3.7043275e-08 -5.86602e-08 3.2547382e-07 3.6514261e-06 4.9047544e-06 7.945089e-06 5.5591754e-05
2.1978347e-05 -9.80187e-06 8.2889426e-05 0.00018971045 0.00014589126 2.86188e-05 2.204462e-05 6.128436e-05
7.2353814e-06 -5.778644e-06 -7.6157567e-06 -1.6620217e-05 -8.96008e-06 -1.8957324e-07 0.0 0.0
0.0 7.9646305e-19 1.1044965e-09 1.1327835e-06 -2.1230685e-06 -3.2055512e-05 -4.367387e-05 -4.5199464e-05
-2.2915145e-05 -1.1229662e-05 4.9665803e-05 9.282693e-05 4.839227e-05 0.00012623577 0.0003926878 0.0004318537
0.00023641139 7.1510716e-05 8.256365e-05 4.185563e-05 -7.945641e-06 -2.9211882e-05 -1.7193343e-05 1.4648607e-05
2.0549756e-05 6.6621215e-06 9.302799e-08 0.0 0.0 0.0 -6.2214674e-08 6.6894636e-06
-2.4125889e-06 -0.00016166012 -0.0001364503 -2.904406e-06 8.333272e-05 0.00019616724 0.00020041758 1.2321907e-06
-0.0001704414 -0.00015966251 -3.2031676e-06 9.748986e-05 0.0001284728 0.00020543084 0.00015286048 0.00015191006
-2.9722647e-05 -0.00012195391 -0.00011367723 1.3013416e-05 3.0827883e-05 5.485046e-06 1.9343763e-07 8.431204e-24
0.0 7.193077e-21 -7.696442e-10 5.3541676e-06 -1.5510672e-05 2.6586786e-05 0.000105814775 -3.4317494e-05
0.00013676379 -8.7474866e-05 -0.00018432079 -0.00034804852 -0.0005659532 -0.0005427966 -0.00066446804 -0.0005632616
-0.0006759057 -0.00044000402 -0.00037300255 -0.00026629734 -0.00040668593 -0.0003700112 -0.00023731445 -1.1543443e-05
6.530578e-05 1.4803317e-05 1.661196e-06 -2.1225893e-07 -2.3687396e-20 -1.4991931e-10 -2.5178397e-07 -1.0676214e-05
-7.879254e-05 7.7207515e-05 0.00011564928 0.00013141042 -5.3164746e-05 -0.00020960343 -0.00022975032 -0.000628519
-0.0005874072 -0.0007364524 -0.0009221343 -0.0012715925 -0.0009890064 -0.0007791338 -0.0007095639 -0.0008372812
-0.00093329407 -0.0007366019 -0.00038870415 -5.790953e-05 4.8480615e-06 -3.3438882e-05 -2.5514362e-07 -6.482396e-08
-9.4673425e-20 -1.9912015e-08 -2.80797e-06 -4.0843963e-05 -9.583284e-05 7.712556e-05 5.717088e-05 -9.877251e-05
-0.00028183826 -0.00028876626 -0.0005427678 -0.0001818101 -0.00012331145 -0.0001563585 -0.00070381316 -0.0010744047
-0.0010336197 -0.0008819965 -0.00060451456 -0.0008070069 -0.0009209325 -0.0009128462 -0.00047016528 -0.00012774122
-7.928474e-05 -8.4659674e-05 -2.4430083e-06 3.117101e-09 -1.7900184e-12 -9.4251014e-08 -7.867851e-06 -8.0424754e-05

exp_avg_sq f4 [50, 784]
00000000: 0000 0000 0000 0000 0000 0000 0000 0000
00000010: 0000 0000 0000 0000 0000 0000 0000 0000
00000020: 0000 0000 0000 0000 0000 0000 0000 0000
00000030: 1c40 7224 2fc0 dc28 2fc0 dc28 0f39 4424
00000040: 0000 0000 0000 0000 0000 0000 0000 0000
00000050: 0000 0000 0000 0000 0000 0000 0000 0000
00000060: 0000 0000 0000 0000 0000 0000 0000 0000
00000070: 0000 0000 0000 0000 0000 0000 0000 0000
00000080: 587e 4326 d186 dc27 f292 3b2e 983f c02e
00000090: b9a8 5f2b 03e5 912a a362 7e2c ac24 2c2e
000000a0: e7ad 0430 09b6 b72e 3b12 0f31 d3d1 d030
000000b0: 263c 1a31 b613 e02f 1ee8 752f f48c a72f
000000c0: 74d5 f12e 6699 092e 6006 272e 7fb4 8d2a
000000d0: 0000 0000 0000 0000 0000 0000 0000 0000
000000e0: 0000 0000 0000 0000 0000 0000 0211 152a
000000f0: f10c 9328 b3b0 b228 46f1 252d 9f0a 6f2f
00000100: 9e4f 312e ca62 3730 eb3b 3531 f235 2431
00000110: 7791 2832 71b1 6b32 3e43 7d32 81b0 9932
00000120: 5a0f 5e32 5cac 3e32 84df 5332 3771 cb31
00000130: 0e90 9531 8d3b c630 62ea 0730 2fa0 ac2f
00000140: 605e c22d c68b 1a25 0000 0000 0000 0000
00000150: 0000 0000 0000 0000 0000 0000 c2a4 b82c
00000160: bb02 be2f 89fe ae2f 0ad4 8630 c2d0 3c31
00000170: 5d17 2c32 5753 9932 e5a2 8632 20c7 df32
00000180: 814c 1733 9653 8d33 cc7c ab33 c2c0 fa33
00000190: 138b ac33 1eb1 8f33 b3a8 7333 b66e 5b33
000001a0: bbd6 0033 7f80 8632 c3ec 8031 9239 0231
000001b0: ce6e a32f 9ce9 792d 0000 0000 0000 0000
000001c0: 0000 0000 529f c524 4266 9d27 096d 2a2d
000001d0: 6d46 8530 b169 ea31 479d 3432 3ada d032
000001e0: bc71 3233 bfd6 9133 86ed c833 2bc6 0d34
000001f0: 5436 5134 0176 9834 e653 c734 1867 d634
00000200: a493 aa34 af64 8c34 8b3e 5734 be0c 2a34
00000210: b0f1 fe33 660d 9233 8ff0 0b33 21c1 8032
00000220: ec7d e031 bcea ca30 cdc7 782d 0000 0000
00000230: 0000 0000 0000 0000 2541 f92a 747b 0430
00000240: e9db f031 748a 1b33 e548 4233 05bf a633
00000250: a3d4 1234 b1d4 5534 2e3d 9e34 bc4c 0835
00000260: 5fb6 5835 c9e1 9135 2548 9b35 d806 9035
00000270: 0b74 7835 b9bc 5435 04e7 2135 ea83 db34
00000280: cdf9 9534 6342 2834 9950 bb33 77c6 3a33
00000290: 85ab 4332 69c7 e030 4228 5b2e f4bb cf27
000002a0: 0000 0000 ad2d d92a a5fa 3130 3372 a331
000002b0: 729f ae32 8df0 8833 2971 0034 19e6 4134
000002c0: 96d4 9134 91a5 fe34 fd8a 5135 911b 8835
000002d0: ad58 b635 801f e435 f4c7 fc35 c025 ec35
000002e0: 989a dc35 df48 b935 e802 9635 c357 5235
000002f0: 863c 1235 d8d6 a534 7d14 3a34 da90 b233
00000300: 62a9 0c33 9299 2932 6d42 cf30 2d85 a22c
00000310: 7c21 911f 6b34 422f 570f a630 9b09 4332
00000320: 1906 2e33 c9eb be33 2c23 4834 54cd a534
00000330: 5370 0135 8c95 4635 317d 9135 8f02 bb35
00000340: 1ecf db35 88c5 fa35 b5d6 1036 d2ba 1536
00000350: 6a41 0736 742c e835 5271 be35 a441 9335
00000360: 79d8 4435 569b 0535 a8b0 ab34 1d90 2234
00000370: 7137 7733 1d8b 9232 3349 9a31 4b02 802b
00000380: 83ea fe2d 4c4f ff2c 76d8 4430 b2cd 5b32
00000390: bd86 7e33 15db 1234 0a2d a134 0fd4 f134
000003a0: d369 2b35 fa66 7d35 4423 b035 6013 c835
000003b0: 557a d835 9f0d f735 b83b 0236 c529 fe35
000003c0: d8c0 fd35 e194 f035 81a8 cd35 8b48 a535
000003d0: 5910 6f35 2b75 2f35 90ed df34 c1af 4234
000003e0: 8f09 9833 4f3f f332 ec7d 8e31 8264 012c
000003f0: adc1 e227 9bf1 562e ee2d 0b31 1ecd 8032
0.0 0.0 0.0 0.0 0.0 0.0 0.0 0.0
0.0 0.0 0.0 0.0 5.2529688e-17 2.4508253e-14 2.4508253e-14 4.2549056e-17
0.0 0.0 0.0 0.0 0.0 0.0 0.0 0.0
0.0 0.0 0.0 0.0 0.0 0.0 0.0 0.0
6.7825443e-16 6.1208435e-15 4.264939e-11 8.742446e-11 7.9459665e-13 2.5916083e-13 3.6150325e-12 3.9140843e-11
4.826845e-10 8.3542125e-11 2.0819602e-09 1.5193627e-09 2.244414e-09 4.0759368e-10 2.2365085e-10 3.0477276e-10
1.0997328e-10 3.128644e-11 3.7977066e-11 2.5171876e-13 0.0 0.0 0.0 0.0
0.0 0.0 0.0 1.3239759e-13 1.6325891e-14 1.9838601e-14 9.432738e-12 2.1740697e-10
4.0315855e-11 6.67154e-10 2.6373026e-09 2.3895805e-09 9.811962e-09 1.3719146e-08 1.4741827e-08 1.7891809e-08
1.2925591e-08 1.1098646e-08 1.2332638e-08 5.9209486e-09 4.352848e-09 1.4423321e-09 4.944579e-10 3.1400435e-10
2.2097157e-11 1.3404728e-16 0.0 0.0 0.0 0.0 0.0 5.2478863e-12
3.456274e-10 3.1831274e-10 9.810048e-10 2.7476266e-09 1.001703e-08 1.7849443e-08 1.5673729e-08 2.6051168e-08
3.5227007e-08 6.581028e-08 7.9855084e-08 1.16765946e-07 8.0346716e-08 6.691174e-08 5.6731277e-08 5.1090602e-08
2.999762e-08 1.5658086e-08 3.752207e-09 1.8950215e-09 2.972826e-10 1.4205883e-11 0.0 0.0
0.0 8.570503e-17 4.368712e-15 9.687592e-12 9.69704e-10 6.822312e-09 1.051314e-08 2.4313625e-08
4.1547295e-08 6.791151e-08 9.356431e-08 1.3203741e-07 1.9484406e-07 2.8398065e-07 3.7127683e-07 3.9935617e-07
3.177239e-07 2.615029e-07 2.0046188e-07 1.583712e-07 1.18717594e-07 6.801092e-08 3.2582246e-08 1.4988986e-08
6.5335737e-09 1.476415e-09 1.41415326e-11 0.0 0.0 0.0 4.4276488e-13 4.819676e-10
7.00992e-09 3.6214672e-08 4.5235442e-08 7.7647236e-08 1.3674666e-07 1.9914548e-07 2.9474307e-07 5.077561e-07
8.0731655e-07 1.0869054e-06 1.1569397e-06 1.0730828e-06 9.2556064e-07 7.925078e-07 6.0313346e-07 4.088791e-07
2.7935167e-07 1.567037e-07 8.722527e-08 4.3487002e-08 1.1389493e-08 1.6354821e-09 4.983059e-11 5.765782e-15
0.0 3.8578637e-13 6.474841e-10 4.7569073e-09 2.0328773e-08 6.3767494e-08 1.1962096e-07 1.8058235e-07
2.716303e-07 4.7431652e-07 7.806082e-07 1.0140812e-06 1.3585865e-06 1.6996491e-06 1.8833657e-06 1.7594357e-06
1.643627e-06 1.3804782e-06 1.1176717e-06 7.8358806e-07 5.447731e-07 3.0889964e-07 1.7330053e-07 8.315119e-08
3.2750343e-08 9.8720125e-09 1.5080112e-09 4.6191024e-12 6.1465284e-20 1.766282e-10 1.208245e-09 1.1352678e-08
4.0518078e-08 8.8904535e-08 1.8639247e-07 3.088304e-07 4.82197e-07 7.397837e-07 1.0839777e-06 1.393333e-06
1.637705e-06 1.8683941e-06 2.1582648e-06 2.2311474e-06 2.0154644e-06 1.7298285e-06 1.4189084e-06 1.0971457e-06
7.33307e-07 4.9772405e-07 3.1979766e-07 1.5139854e-07 5.7559593e-08 1.7059898e-08 4.4903117e-09 9.095583e-13
2.8980601e-11 7.2563396e-12 7.1611994e-10 1.2794247e-08 5.9261527e-08 1.3677011e-07 3.0021357e-07 4.504404e-07
6.385646e-07 9.4399695e-07 1.3123285e-06 1.49068e-06 1.6128857e-06 1.8406898e-06 1.940627e-06 1.8936631e-06
1.8906094e-06 1.7924723e-06 1.5322731e-06 1.2314571e-06 8.9058227e-07 6.536308e-07 4.1709836e-07 1.8131597e-07
7.07979e-08 2.8317713e-08 4.1470596e-09 1.8387796e-12 6.2937585e-15 4.8872555e-11 2.025327e-09 1.4994438e-08

exp_avg f4 [50]
00000000: d23d bbba b5b0 793a 23bd 9339 2cbf 3f3a
00000010: d04a b8ba d003 8dba 4fb3 bf39 c01c b138
00000020: b0cf cb39 2b44 4f39 a6c5 17ba 3c13 46ba
00000030: 8647 bc39 1ea5 793a d1ea 9cb9 e801 ce39
00000040: f8be 03ba 447a 033a 72a2 cd3a a0bb 9937
00000050: 11b2 22ba ebb5 77b9 0000 0000 2c1c 1b39
00000060: 3557 383a a27a 70ba a8cf 2839 9684 f63a
00000070: 183b d2b8 23bc 12ba afc1 a7b9 1116 0f3a
00000080: cea8 ddb9 b674 9aba 5347 873a 3603 bbba
00000090: a2c6 083b f884 733a 328f 6039 a132 6839
000000a0: 3b19 08b9 ca25 12b9 946d 6939 d8d6 76b8
000000b0: 2959 a0b9 2fe6 ffb9 4822 7d3a 6b0f 3bba
000000c0: 56ec 9eb9 ab1d 91ba
-0.0014285392 0.00095249276 0.00028178943 0.00073145586 -0.0014060382 -0.0010758583 0.00036563954 8.445373e-05
0.00038873916 0.00019766453 -0.0005789645 -0.0007555967 0.00035911443 0.00095232006 -0.0002992959 0.00039292802
-0.000502571 0.00050154724 0.0015688671 1.8326391e-05 -0.00062063435 -0.00023623525 0.0 0.00014792447
0.0007032038 -0.0009173547 0.00016099086 0.0018807824 -0.000100245874 -0.00055974926 -0.00031997028 0.0005458305
-0.00042278174 -0.001178405 0.0010320939 -0.0014267925 0.0020870348 0.0009289528 0.00021415649 0.00022144105
-0.0001297937 -0.00013937723 0.00022261433 -5.885106e-05 -0.00030584008 -0.0004880889 0.00096562924 -0.00071357813
-0.00030312192 -0.0011071464

exp_avg_sq f4 [50]
00000000: ffad 9036 2d4e 1737 e431 7036 1910 0c37
00000010: 3e90 a936 fe70 af36 e261 5136 b895 1037
00000020: b2c2 c836 3364 8836 3089 bf36 a301 fe36
00000030: c372 0837 2b25 c236 5854 ea36 35a3 a036
00000040: 7d44 f436 587b 9c36 b035 1537 f132 ea36
00000050: 8cbb ff36 3b21 2537 0000 0000 b526 c236
00000060: 9827 bd36 8d6b ec36 39d5 b036 18fc 1d37
00000070: 81b8 cd36 b3fd f336 4174 b936 a141 df36
00000080: 057e 4e37 3c09 0037 c66e fd36 fdda b536
00000090: 8ebd fa36 0da6 e336 3ad5 c536 de9e b736
000000a0: 7381 6836 0282 3837 b275 1d37 cdef e436
000000b0: d088 fb36 5263 6236 132c c936 6b06 cc36
000000c0: d66b 1737 885d 1837
4.3117902e-06 9.018503e-06 3.5791827e-06 8.348398e-06 5.0533845e-06 5.2285604e-06 3.1200402e-06 8.617928e-06
5.98313e-06 4.0647806e-06 5.7082143e-06 7.5699804e-06 8.132952e-06 5.7859775e-06 6.9835623e-06 4.7873714e-06
7.2797397e-06 4.6635214e-06 8.893592e-06 6.979674e-06 7.6214255e-06 9.8425035e-06 0.0 5.7861566e-06
5.6372483e-06 7.0458686e-06 5.270031e-06 9.416624e-06 6.130955e-06 7.271499e-06 5.5269634e-06 6.653558e-06
1.2307898e-05 7.631545e-06 7.5528833e-06 5.419714e-06 7.4726477e-06 6.784458e-06 5.8958803e-06 5.4723196e-06
3.4646043e-06 1.0997524e-05 9.385332e-06 6.822846e-06 7.49631e-06 3.3734436e-06 5.9953977e-06 6.080421e-06
9.025409e-06 9.081683e-06

exp_avg f4 [10, 50]
00000000: aac7 113b b6dc 1e3b 6425 a73a 270d 203b
00000010: e2dd 2d3b 5fb0 1e3b de9a 743b f31a cf3a
00000020: b6ef 053b ddb1 063b 1f10 933b 64e4 1a3a
00000030: 32c1 e839 305e c43b 065f 9939 142c 523b
00000040: 3c8e ac3b fa77 b83a c48a ae3b 8c01 353b
00000050: 1500 cd3a c953 863b 0000 0000 827d ae3b
00000060: 0661 483b 90a5 763b a6d0 ea3a d1ce 213b
00000070: ee4d 1239 7c4e b43b 5f96 b43b 269d 173b
00000080: c8dc 2c3b 80df 1436 429e 533b 54e0 4a3a
00000090: e29f db3a 514e 153a 0066 523a 401c 6238
000000a0: ae93 b83b f58f 623a dc7b 013b 373c 4a3b
000000b0: 721a 543b 7d44 6d3b 1c00 153b be51 f539
000000c0: ba50 90ba 2690 8f3a 06be 7b3a 1006 b43a
000000d0: 3813 f63a 3ecc 073b 5e58 093b 8fa3 8f3b
000000e0: 8c84 073a 5267 b73b 3823 9d37 ea65 273a
000000f0: 1eb9 6a3b af6f 9a3a 8152 cd3a b491 933b
00000100: 4830 97ba c82f 7e3b 0983 6c3a 1548 243b
00000110: c1d3 163a b1ad 1939 0051 4339 f93e c839
00000120: 0000 0000 409e a83b 938c 353b 222c 9c3b
00000130: 80e1 8d3a 9058 153b dfdb e03a 0b17 903b
00000140: cd43 813b aead 483a b705 b3b9 0e21 78ba
00000150: 2901 613b 18b6 053b 813a 813a ea2f a43a
00000160: 5471 4fb8 8062 97ba 7426 043b 7268 603b
00000170: e61b cb3a 8e87 e13a 7ed1 c439 a504 d03b
00000180: b36d 473a 7cc5 bb3a c0bc e23a 3fc2 8b3a
00000190: d6c2 533b c46f 1a3b 2236 be3a 40d5 4bbb
000001a0: 0041 14ba b602 a3ba 8d24 a43b 8a8e 39bb
000001b0: 7e87 303a 80fd ddb8 7043 a8ba a3df 233b
000001c0: c4fb 1bba 5cb6 13bb ef59 36bb 9862 f3b9
000001d0: d7ea 493b 2132 a03a 90ed 073b da22 0939
000001e0: 047c c43a 60ee 48ba 0000 0000 ca21 42bb
000001f0: 66d7 37ba e0be 3e39 8859 8db9 d56c 85bb
00000200: 6d53 12bb 0c77 79ba f8d4 963a 62f1 3ab9
00000210: b90f 423b c2b8 9abb 3472 753a b727 c6ba
00000220: 4449 5f3a cfef 53ba 747a 9439 784f bb39
00000230: 2ccc e63a 6375 e5b9 30b1 f9b8 70dc 913a
00000240: 1851 bab9 58dc f1ba b7b2 a4bb b1a4 12bb
00000250: 6e15 d739 56c9 6abb 6a82 603b 4d4e 18bc
00000260: c81b 463b 4154 c83a 20b9 1b39 c614 0b3b
00000270: 2e5e f039 51fc 3bbb b3e3 0f3b d852 4c39
00000280: 6bf4 72bb 3c4a 883a 0d46 883a 61aa 7dbb
00000290: 262e 1c3b 28c2 073b 11b5 0f3b 40b0 2b3b
000002a0: 0aef 8bba 0065 c0ba 80e3 353b 5af9 543b
000002b0: 0000 0000 1ac8 07ba c569 c3bb 53c6 b43b
000002c0: ea92 70bb 79eb 69bb 7c4f dd3a 186b 4fba
000002d0: b2f3 783b 0746 10bb 805f 9dbb f45c 1d3a
000002e0: bc71 873a 6318 47bb ef79 45bb 8278 9e38
000002f0: 0048 1135 ecf6 e3b9 10d8 4f3b f073 8bba
00000300: 5e86 c7ba 9833 973b 3cfb a93b e1e6 1e3b
00000310: 7f99 99ba 5515 25bb 9982 b1ba 802b 5038
00000320: 99f1 d7ba 7c0e 9f3a 2544 d9b9 31e2 e3ba
00000330: 8e8c d7ba 17b4 2f3b 9e76 3eba 4c2a 90b8
00000340: f7ad 47ba 54cb 1439 dd23 29bb 9c84 2dba
00000350: 1e8b 3f3b 6199 3b3b 5762 c638 032c 333b
00000360: 72b9 c7ba f644 2f3b 2cb7 613a 1f74 a6ba
00000370: 5017 02b9 f204 25b8 0000 0000 82e4 873b
00000380: 33be 8eb9 0640 953a c0d5 cbba f6e2 9a3a
00000390: 18c4 3e39 c7d4 443b 86b1 8cba 19c4 4f3b
000003a0: 444d e3bb c0e7 1dbb d751 403b c029 bb39
000003b0: 0e48 963a 1c3d 3c3a 5d33 e63a b8f1 96b9
000003c0: 9f46 96ba 87dc d0ba cde2 59b9 9e4b 88b9
000003d0: 4dbc 813b b598 d03a 73bf 7739 049d 5fba
000003e0: a45d 9439 5b87 333a d39a 093b a29a 253c
000003f0: 9219 98ba 0ac8 07bb f2bd 013a d73f 313b
0.0022244253 0.002424044 0.0012752232 0.0024421902 0.0026529958 0.0024214012 0.0037323753 0.0015800878
0.0020437068 0.0020552792 0.004488006 0.00059086666 0.0004439443 0.0059926733 0.00029253232 0.003206973
0.005265979 0.0014073842 0.0053266007 0.002761933 0.0015640283 0.0040993434 0.0 0.0053250203
0.0030575409 0.0037635304 0.0017914965 0.0024689923 0.00013952676 0.00550252 0.0055110897 0.002313444
0.0026376713 2.2183813e-06 0.0032290374 0.0007739116 0.0016756023 0.0005695569 0.00080260634 5.390891e-05
0.005632839 0.0008642667 0.0019757664 0.0030858645 0.0032364395 0.0036204152 0.002273566 0.00046790944
-0.0011010387 0.0010952994 0.0009603206 0.0013734717 0.0018774038 0.0020721103 0.0020957212 0.0043835114
0.00051695923 0.0055970335 1.8732258e-05 0.0006385731 0.0035815905 0.0011782552 0.0015664847 0.004503453
-0.0011534775 0.0038785804 0.00090222113 0.0025067378 0.00057535997 0.00014655922 0.00018626824 0.0003819389
0.0 0.005145818 0.0027702197 0.004766003 0.001082465 0.0022788383 0.001715537 0.004397278
0.00394485 0.0007655275 -0.00034145798 -0.0009465375 0.0034332967 0.0020402726 0.0009859354 0.0012526487
-4.945819e-05 -0.0011549741 0.0020164521 0.0034241942 0.0015495985 0.0017206536 0.00037540117 0.00634821
0.0007607594 0.0014325823 0.0017298684 0.0010662748 0.0032312176 0.0023565153 0.0014511982 -0.0031102449
-0.00056554377 -0.0012436721 0.00500924 -0.002831372 0.0006734057 -0.00010585319 -0.0012837481 0.0025005124
-0.0005950297 -0.0022539115 -0.00278246 -0.0004642203 0.0030810141 0.0012221971 0.0020740964 0.00013078321
0.0014990573 -0.0007664915 0.0 -0.002962219 -0.0007012993 0.00018190918 -0.00026960322 -0.0040718117
-0.0022327558 -0.00095163356 0.0011507561 -0.00017828264 0.0029611422 -0.004721732 0.0009363026 -0.0015118037
0.00085176923 -0.00080847455 0.00028319994 0.00035726628 0.0017608455 -0.00043765744 -0.00011906249 0.0011128318
-0.00035537104 -0.0018452508 -0.0050261873 -0.0022375996 0.00041023962 -0.0035825572 0.003425742 -0.009296012
0.0030228961 0.0015283899 0.00014850916 0.0021222099 0.00045846537 -0.0028684328 0.0021955788 0.00019485818
-0.0037071954 0.00103981 0.0010396853 -0.003870629 0.0023831218 0.0020715091 0.0021927992 0.0026197582
-0.0010676098 -0.0014678538 0.0027754009 0.0032497258 0.0 -0.0005179659 -0.0059635364 0.005516806
-0.0036708661 -0.003569333 0.001688465 -0.00079123816 0.003798705 -0.0022014396 -0.0048026443 0.0006002926
0.0010333578 -0.0030379526 -0.0030132493 7.5564734e-05 5.4121483e-07 -0.00043480785 0.0031714477 -0.001063941
-0.001522254 0.0046143048 0.00518742 0.0024246501 -0.0011718719 -0.0025189717 -0.001354295 4.9631577e-05
-0.00164752 0.0012135054 -0.00041440237 -0.0017386136 -0.0016445087 0.0026810223 -0.00072656 -6.8743335e-05
-0.00076171703 0.00014190126 -0.002580873 -0.00066191866 0.0029227207 0.0028625356 9.459693e-05 0.0027339465
-0.0015237762 0.0026743985 0.00086103636 -0.0012699402 -0.0001240645 -3.934367e-05 0.0 0.0041471133
-0.0002722606 0.0011386878 -0.0015551373 0.0011816907 0.00018192863 0.0030034052 -0.0010734058 0.0031702577
-0.006936701 -0.0024094433 0.0029345655 0.00035698526 0.0011465566 0.0007180737 0.0017562915 -0.00028790324
-0.0011465139 -0.0015934863 -0.00020779223 -0.0002599628 0.003959215 0.0015914651 0.00023627076 -0.0008530172
0.00028298527 0.00068484776 0.0020996823 0.010107668 -0.00116043 -0.0020718598 0.00049492635 0.0027046108

exp_avg_sq f4 [10, 50]
00000000: f69a d138 9057 3737 a913 9e37 6655 7737
00000010: 4871 0339 2847 6138 379f 2a39 fd22 0f37
00000020: 3e21 1c38 6831 a838 5e6f 3439 8f8c 2337
00000030: 678c 4337 4533 1e39 6694 2c38 7658 9e38
00000040: 9b97 8239 6547 ab36 0585 1c39 a140 4238
00000050: e88c b937 8533 0239 0000 0000 5470 e538
00000060: bf98 a337 bf31 f238 d217 a038 8d7f 3b38
00000070: 0bdf ec36 e38d fe38 3ddf 1639 c86d 8338
00000080: d74f e337 1a09 6738 514d 5a38 082e ad37
00000090: 62cc e937 5088 6f36 34b9 5638 4d30 4638
000000a0: 7ce5 a639 a0ad 4537 5f54 2437 2de9 2239
000000b0: afb9 f538 f14b 1d38 7ed1 1038 cf30 a436
000000c0: f80c 1a38 d9a5 4137 ebc3 8e36 a49d e037
000000d0: 34db 4538 3ed9 6338 8d52 d637 312f de38
000000e0: 3cb8 5137 c4f0 3739 595a c438 3e65 2137
000000f0: be08 3039 5e73 8237 91f6 fe36 f3ec 5b39
00000100: b55a b636 57eb dc38 68ca 8238 9fbf db37
00000110: 3383 a837 ff33 2639 a607 0c39 dea9 4038
00000120: 0000 0000 6abd 2739 742f 0939 2dac 8438
00000130: 70e8 0737 97b9 6338 f71b 9236 35e7 6139
00000140: 6ac0 8d38 aae2 2537 e043 ad37 ef32 1538
00000150: 510e 4238 0b8c 3337 ab92 4a37 d25f c536
00000160: 33bf f236 dcf1 9237 b1ee 0138 c4a6 7238
00000170: 2e3e fd38 21d7 0b38 f7ee 5937 9429 0939
00000180: 16f2 4938 a42d 1b37 1417 5037 780c 9937
00000190: 4d09 2e39 0603 d137 cdf7 e837 7b15 0938
000001a0: b54b 5739 d80a 3d39 bc32 5939 8801 0f39
000001b0: 47c4 0b38 7d2b e738 11dd d039 2287 e638
000001c0: dad0 e337 a899 eb39 22df dd37 da9f 5039
000001d0: 366f 073a a60d 3237 28a2 ee38 3d88 8239
000001e0: b1d2 9037 0cfd 9739 0000 0000 f869 a039
000001f0: c16b 5639 b080 8e39 9dfe 1939 7ec6 2d39
00000200: d0fc 9437 a0d1 e939 7d86 ef39 0ecf 6f38
00000210: a5c1 b138 9807 f538 74ba 6939 c0d8 2c38
00000220: 0b71 7c38 299f 4937 65a2 0238 7ce9 c037
00000230: e527 dc39 c251 b438 dc13 6b39 86c1 5f39
00000240: 150a fd38 4990 b439 1f8a b738 1bc0 ad38
00000250: cd96 6838 eaca 8e38 144e b038 b0e7 bf38
00000260: 4144 8038 db90 f337 893c ce38 75e9 5b39
00000270: 6a09 6639 9a55 7a39 66c9 c338 d5fb 6f38
00000280: 5262 a639 b946 e138 9df3 ae37 6513 cc39
00000290: 648a f637 fd58 ee39 0dc8 e839 afdf 0739
000002a0: 0dab 4839 87a3 4039 7c2d 8738 e1a1 5f39
000002b0: 0000 0000 8c5a ec39 88d9 8739 e6ac 273a
000002c0: e0df 1e38 8ea4 1939 3cf3 3e38 3e46 e139
000002d0: 9c3c 293a 4219 4f39 f9d6 6138 66e9 0b38
000002e0: 6b0e 013a e548 9938 1e0d 0d39 8ee4 3f37
000002f0: 9b4b 0d38 7ad2 e837 cbd8 e239 fb06 0f39
00000300: fb42 3e39 c955 b439 078f 3839 307a 1a3a
00000310: dbfe d738 5676 2638 cf38 1438 3ba6 7138
00000320: 2ad1 7b39 11b6 bf37 b1a7 0538 0993 7438
00000330: 8251 8639 3098 a139 8b70 b838 aaf0 b538
00000340: cad2 1238 8805 0039 8994 a539 acc0 9737
00000350: 40d0 c338 e3de 5639 a5c3 0237 eec2 a838
00000360: bc46 3c39 31bc 6a38 1a31 fd38 8bfe c537
00000370: 8250 ec38 13e7 2f38 0000 0000 4160 9139
00000380: 3f88 4737 9efd a839 89ba cf38 9895 7736
00000390: c7f0 c038 f839 5739 2ce2 9039 2d68 7237
000003a0: 4b44 8538 6b53 e538 5209 fa36 84f3 4039
000003b0: 85f0 3636 6b85 8838 196c 1238 3ccc 8437
000003c0: 9267 8039 03fe 0439 a61e a536 7b47 8e38
000003d0: 8685 b138 2413 d438 db11 8e37 267a 4d37
000003e0: 7830 ef38 200f 7c37 558d 8e38 9c54 da38
000003f0: 71e6 6038 3944 4538 15d7 ac38 9273 0539
9.99476e-05 1.0928037e-05 1.8844223e-05 1.4742231e-05 0.00012535334 5.371045e-05 0.00016271776 8.531611e-06
3.7224258e-05 8.020067e-05 0.00017207625 9.748283e-06 1.1655596e-05 0.00015087154 4.1146202e-05 7.550504e-05
0.00024908487 5.1045085e-06 0.00014926873 4.6313395e-05 2.2119333e-05 0.00012416959 0.0 0.00010940494
1.9502242e-05 0.00011548725 7.6338314e-05 4.4703065e-05 7.0593137e-06 0.00012138092 0.00014388277 6.267015e-05
2.7097687e-05 5.508317e-05 5.2047257e-05 2.0644642e-05 2.7870938e-05 3.569312e-06 5.119406e-05 4.7251862e-05
0.00031832966 1.178254e-05 9.794806e-06 0.00015536389 0.00011717097 3.7502443e-05 3.452738e-05 4.893263e-06
3.672854e-05 1.1542311e-05 4.2547376e-06 2.6776288e-05 4.717261e-05 5.432334e-05 2.5549229e-05 0.00010594575
1.2500266e-05 0.00017541932 9.362837e-05 9.61992e-06 0.00016787925 1.555093e-05 7.598494e-06 0.00020973738
5.4345824e-06 0.00010534253 6.236584e-05 2.6196065e-05 2.0088255e-05 0.00015850364 0.0001335429 4.593457e-05
0.0 0.00015996923 0.00013083016 6.326321e-05 8.100746e-06 5.429386e-05 4.3543946e-06 0.00021543803
6.759244e-05 9.887541e-06 2.0654814e-05 3.5571804e-05 4.6266538e-05 1.0701838e-05 1.2074287e-05 5.8822125e-06
7.2344205e-06 1.751718e-05 3.0978295e-05 5.785261e-05 0.00012075562 3.3340537e-05 1.2989846e-05 0.00013080827
4.8147594e-05 9.2493465e-06 1.2403139e-05 1.8244828e-05 0.00016597398 2.491615e-05 2.7771946e-05 3.268335e-05
0.00020532201 0.00018028484 0.00020713633 0.00013638113 3.332298e-05 0.00011023039 0.0003983756 0.00010992425
2.7157763e-05 0.00044937176 2.6449157e-05 0.00019895975 0.0005166413 1.06128045e-05 0.00011378928 0.00024897038
1.7264249e-05 0.000289895 0.0 0.0003059653 0.00020448772 0.0002718023 0.00014686068 0.0001657251
1.77607e-05 0.00044597406 0.00045685834 5.7174875e-05 8.476087e-05 0.00011683925 0.00022290071 4.120986e-05
6.018676e-05 1.2017591e-05 3.1145657e-05 2.2996908e-05 0.00041991394 8.5982974e-05 0.00022418745 0.0002133903
0.00012065858 0.00034439776 8.751847e-05 8.285065e-05 5.5453555e-05 6.808883e-05 8.406877e-05 9.150745e-05
6.116229e-05 2.9035311e-05 9.834121e-05 0.00020972437 0.00021938016 0.00023873747 9.335838e-05 5.7216577e-05
0.00031735242 0.00010742009 2.0855858e-05 0.00038924362 2.9389928e-05 0.000454612 0.00044399538 0.00012957932
0.00019137208 0.00018371466 6.445774e-05 0.00021327242 0.0 0.0004508089 0.0002591128 0.00063963083
3.7878635e-05 0.00014652518 4.552606e-05 0.0004296768 0.000645587 0.00019750468 5.384439e-05 3.335755e-05
0.0004923108 7.309186e-05 0.00013451694 1.1437702e-05 3.3687433e-05 2.7754566e-05 0.00043267602 0.00013640143
0.00018144764 0.0003439619 0.00017600889 0.0005892841 0.000102994694 3.9687693e-05 3.5338857e-05 5.761369e-05
0.00024015145 2.2853756e-05 3.1865846e-05 5.831107e-05 0.000256192 0.00030821702 8.7947665e-05 8.67558e-05
3.5005425e-05 0.00012209092 0.0003158192 1.8090323e-05 9.337114e-05 0.00020491662 7.794156e-06 8.047173e-05
0.00017955428 5.5965214e-05 0.00012073126 2.360276e-05 0.00011268353 4.1938456e-05 0.0 0.0002772827
1.1893047e-05 0.00032232417 9.905274e-05 3.6892943e-06 9.200122e-05 0.00020525593 0.00027634331 1.4448579e-05
6.354655e-05 0.00010935109 7.4516656e-06 0.00018401264 2.7260114e-06 6.5098364e-05 3.4909786e-05 1.583073e-05
0.00024491228 0.00012683128 4.920951e-06 6.784402e-05 8.4648884e-05 0.00010112513 1.6936034e-05 1.2247392e-05
0.00011405436 1.5023892e-05 6.797413e-05 0.0001041081 5.3620377e-05 4.7031997e-05 8.241661e-05 0.00012726922

exp_avg f4 [10]
00000000: 67f9 be3a aea1 9a3a c6c6 8bb9 38ac 20b9
00000010: 341c 2dba dbb4 193b ba5e 62ba 1027 9cba
00000020: f65d 45b9 e26e d9ba
0.0014570177 0.0011797452 -0.00026660244 -0.00015322946 -0.0006603629 0.0023453746 -0.0008635331 -0.0011913497
-0.00018822387 -0.0016588832

exp_avg_sq f4 [10]
00000000: 097b 2437 1aac 4d37 73a6 d137 68b7 fd37
00000010: 523a a637 2222 d937 b74b 4d37 069f c237
00000020: dac6 0e38 c590 0338
9.803808e-06 1.2259023e-05 2.499225e-05 3.0245355e-05 1.98159e-05 2.588431e-05 1.2236581e-05 2.3200653e-05
3.4040633e-05 3.136766e-05
