swastik_web/Learning&Experiments/PytorchTutorials/pytorch lightning/.scale_batch_size_aa93f24f-e2ce-4cd9-b81c-25225b347394.ckpt (torch, 163223 bytes, 4 tensors)

fc1.weight f4 [50, 784]
000000 00 30 8c b9 b6 f2 9c 3c ac cc f0 bc 93 50 d7 bc
       -0.00026738644 0.019158702 -0.02939447 -0.026283538
000010 ce 5e 61 bc 10 e9 1c 3c 40 7f 39 ba 12 fa e7 3c
       -0.013755513 0.009577051 -0.00070761517 0.028317485
000020 30 b6 4f bb 10 d6 1a 3c 7c d6 30 bc a4 09 e6 bb
       -0.0031694286 0.009450451 -0.010793325 -0.007020192
000030 11 ae 17 bd 08 05 da bc 9c 35 71 bc 00 68 ad 3a
       -0.037031237 -0.026613727 -0.014722254 0.0013229847
000040 dc 53 67 3c ae 8c af 3c a0 58 c6 bc d8 ce 7e bc
       0.014119115 0.021429386 -0.024212182 -0.015552245
000050 b0 88 54 3c a2 f2 f2 3c 54 d8 f0 bb 46 ef da 3c
       0.012972042 0.029656712 -0.007350007 0.026725423
000060 70 a1 bc bb 60 aa 77 3b 4f 75 04 3d 76 b4 07 bd
       -0.0057565495 0.003779076 0.032338437 -0.033131085
000070 50 2f b8 bc 4a 23 14 bc b2 16 64 bc 2e c8 fc 3c
       -0.022483498 -0.009041617 -0.013921427 0.030857172
000080 8c a3 bd bc 25 ae 86 bc 92 c6 e3 bc 1d 34 15 bd
       -0.023149274 -0.01644046 -0.027804647 -0.036426652
000090 33 52 c3 bc df f8 e2 3c 03 79 54 3c 52 94 6a 3c
       -0.023842907 0.027706562 0.012968305 0.014317589
0000a0 3e 5e 93 ba 1e 95 ae bc e2 a0 47 3b 74 b7 03 bd
       -0.0011243296 -0.021311339 0.0030460884 -0.032157376
0000b0 fb 1c bb bc 97 5d af bc 22 21 a0 3c bb 5e 93 3c
       -0.022840967 -0.021406932 0.019547049 0.017989507
0000c0 1a c4 99 bc c2 3d 8a bb b7 02 a3 3c 4f b8 07 3d
       -0.018770266 -0.004218788 0.019898755 0.033134755
0000d0 98 3b 68 3c e8 18 9e 3b 48 2a c4 3c 4a 44 ac bc
       0.0141743645 0.0048247464 0.023945943 -0.021028657
0000e0 68 13 da 3b 0e d5 e2 bc f8 c6 ca bc 3a 23 97 bc
       0.0066551454 -0.027689483 -0.024753079 -0.018449415
0000f0 63 c2 58 3c c9 cb 61 3c ee a7 c3 bc 55 49 00 3c
       0.013229939 0.013781496 -0.023883786 0.007829984
000100 cf 1f 88 3c ce bc ed bb 5f 2d a1 3a 5e 06 b2 3b
       0.01661673 -0.0072551733 0.0012296847 0.005432888
000110 93 f8 9c 3c f2 28 00 3d 0c 11 fa bc d0 ca 83 bc
       0.019161498 0.03128905 -0.030525707 -0.01608792
000120 d3 e5 34 3c d0 f2 d9 3c 64 30 e6 3c 22 d6 e9 3c
       0.0110411225 0.02660504 0.028099246 0.02854449
000130 5e ec 88 3b b0 20 0b bd fe dc a9 39 4f 6e cf bc
       0.004178568 -0.03396672 0.00032398844 -0.025321154
000140 0c 77 08 bd 8d f9 02 3d a6 75 de 3c 92 ec 11 bd
       -0.033316657 0.03197627 0.027155709 -0.035626
000150 78 0b db 3b 78 25 c5 bb d9 c8 0b bc 69 67 9d bc
       0.006684717 -0.0060164295 -0.0085317725 -0.019214349
000160 e2 e5 5c 3c e4 e1 c4 bc c9 04 72 3c b5 b7 a6 3c
       0.013482543 -0.024033494 0.014771649 0.02035127
000170 cd 15 e8 3c 5f 5f 84 3c 32 99 05 bd 7d 0b a9 bc
       0.028330708 0.016158758 -0.0326168 -0.02063536
000180 b8 80 a4 3c ed 23 18 3c 3a 70 e5 bc af d2 c0 bc
       0.02008091 0.009285909 -0.028007615 -0.023537962
000190 5b 9f fa 3c 6e a4 ac 3c 65 ef 97 bc 96 e0 43 bc
       0.030593565 0.0210745 -0.01854677 -0.011955401
0001a0 7a 69 17 bd 74 c3 69 bb 05 2d f4 bc b7 5f f9 bc
       -0.036965825 -0.0035669478 -0.029806623 -0.030441148
0001b0 ec 71 9f bb 6f fe 27 3b e5 47 88 bc f8 9a ad 3c
       -0.0048658755 0.0025633832 -0.016635844 0.021192059
0001c0 8a 0a b2 bc 3b bc 04 3d 7c 69 b2 3c 70 63 06 bd
       -0.021733541 0.032406073 0.021778814 -0.032809675
0001d0 05 56 42 bc f8 e6 a9 ba 9c cf ea 3b 51 c2 32 3c
       -0.011861329 -0.0012962511 0.0071658622 0.010910586
0001e0 10 59 87 3c 3d 25 9c 3b 76 83 7d bc 2c d8 86 3c
       0.01652196 0.0047651813 -0.015473237 0.0164605
0001f0 bd 71 18 bd 72 49 c5 bc 50 99 42 bc 17 8e a6 bc
       -0.037217844 -0.024082873 -0.011877373 -0.020331426
000200 cc 93 7c bc 61 e2 03 bd d9 b5 2c bc eb 44 99 3b
       -0.015416097 -0.032198314 -0.010541403 0.004677405
000210 2e d2 d6 bc 01 9a 9c bb 99 a6 b9 3c b7 4b d3 bb
       -0.026223268 -0.004779101 0.022662448 -0.006448235
000220 72 55 d7 ba 6f 28 be bb 5b 0b 8e 3b a0 eb a1 3c
       -0.0016428663 -0.00580316 0.00433485 0.019765675
000230 8f 91 0a 3d 9a cc b9 3c 3d da fd 3c 30 20 9a bb
       0.03383022 0.02268057 0.030987853 -0.004703544
000240 3b 8a 0e bd a9 14 a2 bc ea 8b b0 3c 9a 81 42 bb
       -0.034799796 -0.019785242 0.021551091 -0.00296793
000250 e5 8e a8 bc fd 63 f7 bc 50 d2 14 bd 53 84 07 bd
       -0.02057595 -0.030199045 -0.036333382 -0.03308518
000260 ba 06 27 bc b5 45 88 3c 3a fd 85 3c 74 2a 19 bd
       -0.010194475 0.016634801 0.0163561 -0.037394002
000270 ed 59 9e 3c f9 08 fd bc 29 e8 2b bc c4 ba 8e bc
       0.01932999 -0.030888068 -0.010492363 -0.017423041
000280 1a d2 20 bc b9 ae 22 bc 19 ee 0e bd a0 81 09 bd
       -0.009815717 -0.009929352 -0.034895036 -0.033570886
000290 71 7c 07 bc fb 99 1d bb d0 0f 9d bc f8 39 2c 3c
       -0.008269415 -0.0024048078 -0.019172579 0.010511868
0002a0 6b aa 03 bd c3 ba 9d bb e0 b7 eb 3c 2f 14 89 bc
       -0.032144945 -0.0048135235 0.028774202 -0.016733257
0002b0 73 de f1 3c ed 07 2a 3c 33 a4 0d bd 60 9b a3 3c
       0.029525017 0.010377866 -0.03458042 0.01997155
0002c0 15 50 e2 bb 15 d4 99 bc 0a 26 d2 3c c1 3d 02 bd
       -0.006906519 -0.018777886 0.025652904 -0.031797174
0002d0 82 4a 6b 3a f9 5b 2a bc 2b 15 b9 3c b4 92 e7 3b
       0.0008975641 -0.010397905 0.022593101 0.007067049
0002e0 84 a4 69 3c 52 05 1f 3c 42 99 3c bc 6f 0b 2b bc
       0.014260415 0.009705858 -0.011511149 -0.010439738
0002f0 40 87 04 bd 85 bd 86 3c 3b e0 d0 3c 78 04 b1 3c
       -0.032355547 0.016447792 0.025497546 0.021608576
000300 29 d0 e5 bc b2 c0 ad ba 4a 69 e6 bc dc 0e b7 bc
       -0.02805336 -0.001325628 -0.028126378 -0.022345953
000310 c6 0b 95 bc 76 42 17 3c 46 e0 95 bc 7a d8 5f ba
       -0.01819409 0.009232154 -0.018295418 -0.00085390324
000320 cb 95 82 b8 06 b6 bc 3c cd 58 de bc c1 8b d6 bc
       -6.226784e-05 0.023036014 -0.027141953 -0.026189687
000330 a6 5f bb bc 03 af bb 3c a6 14 7a bc 75 a0 e1 3c
       -0.022872757 0.0229106 -0.015263712 0.027542332
000340 0e c1 2a 3c 45 26 09 3b 17 8f 2f bb d6 2a 1c bc
       0.010422004 0.0020927351 -0.002678817 -0.009531697
000350 8c bd 00 3b 27 67 30 bc 9c bd 46 bb 72 3b de 3a
       0.0019644229 -0.010766781 -0.0030325418 0.0016954972
000360 e2 75 fc bc 2a e8 b0 bc 21 ca d4 3c 73 7c 02 bd
       -0.03081793 -0.02159508 0.025975289 -0.031856965
000370 ac 37 b3 bb 82 bc 04 3d d2 d5 22 3c 66 cd e4 ba
       -0.005469283 0.032406338 0.009938674 -0.0017456233
000380 f3 d2 e5 bc ee 74 a9 3c 37 cc b7 bc 8d 78 ea bb
       -0.02805469 0.02068564 -0.022436244 -0.007155484
000390 9d 8c 17 bc 4e 00 18 bb 91 02 5c 3b 60 c5 04 3d
       -0.009249833 -0.002319354 0.0033570866 0.032414794
0003a0 a0 81 f3 3b 05 41 0f 3d b2 67 cb 3c 9e ae a0 bc
       0.007431224 0.034974117 0.02482972 -0.019614514
0003b0 ae e2 9a 3c 2e 61 ca bc 5c ef 80 bc 78 83 13 3c
       0.018906917 -0.024704542 -0.015739135 0.009003513
0003c0 22 21 2b 3c 38 ee db 3c 12 3d 3a bc 3f 49 fc ba
       0.010444911 0.02684699 -0.011367099 -0.0019247903
0003d0 1c 19 81 3c e3 e6 18 bd 65 2a bc 3c d0 d5 04 bd
       0.015759043 -0.037329566 0.022969434 -0.03243047
0003e0 08 28 1f bb 56 60 13 bc 13 3b b2 bc 4d 9e 00 3b
       -0.0024285335 -0.008995136 -0.021756684 0.0019625605
0003f0 2f e7 04 3d 71 12 f4 bb 9a 17 95 bc a8 36 27 bc
       0.032447036 -0.0074484874 -0.01819973 -0.010205902

fc1.bias f4 [50]
000000 11 84 0b bd c3 30 ac bc 4e 56 17 bd c6 1a 2a bc
       -0.034061495 -0.021019345 -0.03694754 -0.01038236
000010 7b 69 ca 3c fb 28 2e 3c 68 be 51 3b 56 88 09 bd
       0.0247085 0.010629888 0.003200436 -0.033577286
000020 fb 3f 68 3c b5 47 00 3d 67 61 28 3c d8 a0 c4 3c
       0.01417541 0.031318385 0.010277129 0.024002478
000030 06 94 89 3c 19 6c 2d bc 83 85 b4 bc 36 74 e7 3c
       0.016794216 -0.0105848545 -0.02203632 0.028253656
000040 1f 45 74 bc 5c e2 b7 bc 2f 55 e0 bc 83 f4 09 bc
       -0.014909058 -0.022446804 -0.027384369 -0.008420113
000050 58 f9 6d bc fa ec 6a 3c 73 09 7c bc 03 64 07 3d
       -0.01452478 0.014338726 -0.015383112 0.033054363
000060 e9 f9 3f 3b c5 75 bb 3c 8b f3 f6 bb 73 d0 01 3d
       0.0029293245 0.022883305 -0.007536357 0.031692933
000070 14 79 fe ba 44 f4 50 bc 6a 41 9c bc 6c c3 a2 3c
       -0.0019414746 -0.01275355 -0.01907416 0.019868575
000080 0b 85 61 3c 6e e7 ef 3c 2c a3 b0 bc 84 9e 90 bc
       0.01376463 0.029285159 -0.021562181 -0.017653711
000090 fc 6b b6 bc d8 04 e5 3c c7 06 34 3c 42 d9 ed bc
       -0.022268288 0.027956411 0.010987944 -0.02903426
0000a0 b8 00 92 3c 7b 95 a9 bb 56 83 a2 3b 86 6c 7d 3c
       0.017822608 -0.00517529 0.004959504 0.015467769
0000b0 f7 42 ea bc aa 2d 01 3d eb 30 83 bc 27 77 f0 bc
       -0.028596384 0.03153769 -0.016014537 -0.029353691
0000c0 99 e8 68 ba 7f 7c 08 bc
       -0.00088847574 -0.008330463

fc2.weight f4 [10, 50]
000000 eb de 4f bc 83 66 b9 bd f0 b3 39 3c d2 7f ff 3b
       -0.012687425 -0.09052756 0.011334404 0.00779722
000010 59 2f 31 bd 90 2a ea bd 7e 4b d7 3d 6f e9 c7 bd
       -0.043258045 -0.114338994 0.10512446 -0.09761321
000020 68 08 9f 3d ac 48 05 3e da b0 1d 3c 63 e9 a3 bc
       0.07765275 0.13016003 0.009624684 -0.020008748
000030 5d 43 d1 3c aa d3 bd 3c e0 21 05 3e 20 21 4b 3c
       0.025544817 0.023172218 0.13001204 0.012398034
000040 48 bc 57 3d 56 66 4d 3d 16 86 a8 3d c8 72 91 3d
       0.052669793 0.050146423 0.082287 0.07101971
000050 90 23 aa bd 30 d8 ab 3d ef 99 c9 bd 2c bd a4 bd
       -0.08307564 0.08390844 -0.09843814 -0.08043894
000060 78 3c dc bc f3 73 d3 3b da e1 8a ba ea 07 05 3e
       -0.026884302 0.006453031 -0.0010595873 0.129913
000070 78 06 94 bd 55 0a ff bd 0e 8b 03 bd 24 c6 e4 3d
       -0.07227796 -0.124531426 -0.032115035 0.11170605
000080 40 0b d2 3c 19 5b 2a 3d 5c af ec bc fe d0 65 bd
       0.02564013 0.041590784 -0.028892212 -0.056107514
000090 52 96 65 3d e3 73 e1 bc 58 eb 8a 3d 81 68 fb 3d
       0.05605156 -0.02752108 0.067831695 0.12275792
0000a0 64 f5 9c 3d 19 40 16 bd 28 4c fd 3b 44 f5 b9 3d
       0.07663992 -0.036682222 0.007730026 0.09079984
0000b0 50 4f d6 3d c9 de 63 bd 32 62 00 3e cc cd a4 bd
       0.104643464 -0.055632386 0.12537459 -0.08047065
0000c0 36 8c 8e ba a8 a3 4d bd c3 78 e7 bd 57 0f a6 3d
       -0.0010875526 -0.050204903 -0.1130233 0.081083946
0000d0 13 8c 02 be ff 59 15 3d 6e 1c d4 bd 5b bc 85 3d
       -0.12748747 0.03646278 -0.10356985 0.065300666
0000e0 f5 92 c5 bd b6 21 ca 3d 98 26 9b 3d f7 7e bf 3c
       -0.096471705 0.09869711 0.075757205 0.023375971
0000f0 7d 7b 40 3d bc e6 07 bd fb e1 23 bb 1f d2 bf 3d
       0.046992768 -0.03317903 -0.002500652 0.09366249
000100 50 11 af 3c 72 e5 cf 3d 80 8b 07 bd c9 19 04 3e
       0.02137056 0.10151185 -0.033092022 0.12900461
000110 18 03 2a 3d c1 c7 dd 3d 42 00 e3 3c c2 5f 41 bc
       0.041506857 0.10829116 0.027710084 -0.011802616
000120 13 82 99 3d 7d 82 01 bd ea 1f db 3d 29 d8 61 bd
       0.07495513 -0.031618584 0.106994465 -0.055137787
000130 42 6d e9 bc 21 b3 05 3e 43 6a 0d be 61 7a 1e bd
       -0.028494481 0.13056614 -0.13810067 -0.03869093
000140 c7 d3 d0 bd 52 3e 2b bd 13 df 80 3d 65 86 cd bd
       -0.10196643 -0.04180748 0.06292548 -0.10035399
000150 45 cc 78 bc a6 c8 c6 bd c7 eb 80 bd 5c e1 44 bc
       -0.01518542 -0.097062394 -0.06294971 -0.0120166205
000160 6a 6b a2 3b 19 f7 a2 3d 69 7f 0c be 22 36 c1 3d
       0.0049566524 0.079572864 -0.13720478 0.09434153
000170 b5 f5 cd 3d 35 22 f5 3c 1b bb 05 be f8 00 1e bc
       0.100566305 0.029923538 -0.13059656 -0.009643786
000180 1e 99 da 3d 62 d4 8b bd b8 3f 8a bd 0e 44 a3 bd
       0.10673736 -0.06827618 -0.06750435 -0.07971965
000190 95 a8 2e 3d d3 4b c8 bd 93 d6 0d be 14 4f 37 bd
       0.04264124 -0.09780087 -0.13851385 -0.04475315
0001a0 00 90 20 3c e3 1d 00 3d da e6 d2 bc 11 3b 01 3d
       0.009799957 0.031278502 -0.025744844 0.03155047
0001b0 74 81 05 be b5 e0 3d bd 26 0c 69 3c a1 71 09 3e
       -0.13037664 -0.046356875 0.014224088 0.13422252
0001c0 1e 2e 0d be 9f 82 d0 3d fc 33 ea bd 1a 2d e9 bd
       -0.13787124 0.10181164 -0.114356965 -0.113855556
0001d0 f9 ab 77 3d 63 01 a2 bd 5b f7 a8 bd 36 26 11 3e
       0.06046674 -0.07910421 -0.08250304 0.14174733
0001e0 eb a2 ed bd 96 dc 10 3e c2 a2 dc bd 08 29 1c bd
       -0.1160334 0.14146647 -0.10773231 -0.038125068
0001f0 13 b2 18 bc 1c 4c bd bd a6 7f c3 3d e2 76 02 3e
       -0.0093198 -0.09243032 0.095458314 0.12740663
000200 01 33 55 bd 99 3f 91 3d 03 e9 a8 3d db 2f 0c be
       -0.052050594 0.070922084 0.082475685 -0.1369013
000210 dd 9e 5b 3d de ff 8b 3b 86 6a f3 bc bc b9 e0 bc
       0.0536183 0.004272445 -0.02971388 -0.027432315
000220 30 20 c1 bd e9 65 d1 bc 20 8e 08 be ac 68 d8 bd
       -0.094299674 -0.02556129 -0.13335466 -0.105668396
000230 b1 48 af bb 8a 8d c9 3c 73 86 f2 3d 56 e8 c8 bd
       -0.0053492417 0.024603624 0.118420504 -0.098099396
000240 a4 5b d0 bd b7 5f e7 3d 28 b7 8d bd 3d ae 08 3e
       -0.10173729 0.11297553 -0.069197 0.13347717
000250 c2 00 39 bc ad d2 f3 3d d3 21 ec bd 92 61 eb 3d
       -0.011291685 0.119054176 -0.11529889 0.114932194
000260 f2 9d 04 3e a6 28 bd bd b0 0b 4e bd ac ac 10 bd
       0.12950876 -0.09236269 -0.050304115 -0.035320923
000270 06 15 05 3d 02 1b 8c bc e7 bc 87 bd 39 2d 8a 3c
       0.032490753 -0.017102722 -0.06627827 0.016867267
000280 dc 29 58 3b 02 7d 0c 3e 53 28 09 be 45 4d 43 bd
       0.0032983935 0.13719562 -0.13394289 -0.04768111
000290 54 a4 e4 bd b5 5c 48 3d c0 94 78 3d d1 e5 2c 3d
       -0.111641556 0.048916537 0.060688734 0.042211358
0002a0 3e 9f a2 bd 09 66 4f bd d5 e8 9c bd 75 38 fe bd
       -0.07940529 -0.050634418 -0.07661597 -0.12413112
0002b0 9b 1a 67 3d 44 9c b4 bc 0f 7b 0e 3e 8c 09 68 3d
       0.056421857 -0.02204717 0.1391413 0.05664973
0002c0 ab a1 a7 bd 44 fe 02 bd d5 51 77 bd 15 56 85 bd
       -0.081851326 -0.031980768 -0.060380775 -0.065105595
0002d0 d7 47 90 3d 29 b3 ba 3d 68 fc 6d 3d 37 ab e5 bd
       0.07044952 0.09116203 0.05810204 -0.11214297
0002e0 38 b1 0d 3e 4d 70 0f be fb 87 13 3e 2e 0e f6 bd
       0.13837135 -0.14007683 0.14407341 -0.12014423
0002f0 a1 42 9e bd 94 7d 41 bd 80 5f 4f bd a6 ba c5 3d
       -0.07727552 -0.0472389 -0.050628185 0.09654741
000300 e3 2c da 3d f3 c7 f1 3c 96 b1 fa bd b7 1d c0 3d
       0.10653093 0.029514289 -0.12240903 0.09380668
000310 90 50 72 bc ad 76 c3 bd 4c 15 f6 3b 73 31 da bd
       -0.014789715 -0.0954412 0.007509863 -0.10653963
000320 8d 08 19 3d da 8b 91 3d 27 21 23 3d 03 9e 94 3d
       0.03736167 0.07106753 0.03982654 0.07256701
000330 67 9d f9 3c 82 4a 07 3e 81 1e ad 3c 96 72 18 3d
       0.030470563 0.13212016 0.02113271 0.037218653
000340 11 3a c3 bd 48 e8 fe 3d 4a a8 5f 3d 24 34 b0 3c
       -0.0953256 0.12446648 0.054603852 0.021509238
000350 a7 b3 0e 3e 74 c1 82 3c bd 71 09 be 3c 92 0e be
       0.1393572 0.015961386 -0.13422294 -0.13922971
000360 59 0e e9 bc 1d a8 a6 3d fb ea 45 3d 5d d1 8e bd
       -0.028449224 0.08137534 0.048319798 -0.069735266
000370 a0 39 06 be 71 10 c6 bd ce 22 95 3b 8f 70 f8 3c
       -0.1310792 -0.09671105 0.004551268 0.03032711
000380 0b c7 04 be 7e 5e 4c 3d 64 61 27 3d f8 01 ce bd
       -0.12966554 0.049894802 0.040864363 -0.10058969
000390 43 6e 00 3e 3f f1 0f be 5a 62 00 3e cb 1b df bd
       0.12542062 -0.14056872 0.12537518 -0.10893973
0003a0 8a 66 f5 3d 57 c0 de bd e4 bc 22 bd 91 3b 7c bd
       0.119824484 -0.1087653 -0.03973092 -0.061580244
0003b0 12 92 29 bd 3a 12 0a 3e 41 f6 73 bd f2 66 13 be
       -0.04139907 0.13483515 -0.059561018 -0.1439474
0003c0 2d 3f b4 3d 73 84 ec 3d a8 09 70 bd 56 fe c7 bd
       0.08801112 0.115487 -0.05860296 -0.097653076
0003d0 5a ad 74 bc 7b ba 35 3d b1 4f 90 bd f9 57 39 bd
       -0.014933908 0.044367295 -0.0704645 -0.045249913
0003e0 5a 4f 2f bd f6 50 9f bd 56 7b a5 bd 7e 50 72 3d
       -0.042800285 -0.07779114 -0.08080165 0.059158795
0003f0 09 bb 89 3d d4 67 2c 3d 10 c3 97 bd d0 5d 36 bd
       0.06725127 0.042091206 -0.07410252 -0.04452306

fc2.bias f4 [10]
000000 54 13 e2 bc f6 c3 ec bb b9 d2 0b 3e aa a5 51 3d
       -0.027597107 -0.007225509 0.13654603 0.05118338
000010 27 88 fb 3c b2 59 8c 3d 67 e2 6b 3d 37 6b a9 bd
       0.030704571 0.068530455 0.05758896 -0.08272403
000020 03 0a ff 3c fa ae bf 3d
       0.031132704 0.09359546
