swastik_web/Learning&Experiments/PytorchTutorials/pytorch lightning/dashboard/mnist_clsfy/version_1.0/checkpoints/epoch=16-step=6375.ckpt (torch, 484079 bytes, 12 tensors)

fc1.weight f4 [50, 784]
000000 00 30 8c b9 b6 f2 9c 3c ac cc f0 bc 93 50 d7 bc
       -0.00026738644 0.019158702 -0.02939447 -0.026283538
000010 ce 5e 61 bc 10 e9 1c 3c 40 7f 39 ba 12 fa e7 3c
       -0.013755513 0.009577051 -0.00070761517 0.028317485
000020 30 b6 4f bb 10 d6 1a 3c 7c d6 30 bc a4 09 e6 bb
       -0.0031694286 0.009450451 -0.010793325 -0.007020192
000030 15 4f 35 be bf c4 17 be 13 49 e8 3d 1f 95 1f 3d
       -0.17705949 -0.14821146 0.11342063 0.038960572
000040 dc 53 67 3c ae 8c af 3c a0 58 c6 bc d8 ce 7e bc
       0.014119115 0.021429386 -0.024212182 -0.015552245
000050 b0 88 54 3c a2 f2 f2 3c 54 d8 f0 bb 46 ef da 3c
       0.012972042 0.029656712 -0.007350007 0.026725423
000060 70 a1 bc bb 60 aa 77 3b 4f 75 04 3d 76 b4 07 bd
       -0.0057565495 0.003779076 0.032338437 -0.033131085
000070 50 2f b8 bc 4a 23 14 bc b2 16 64 bc 2e c8 fc 3c
       -0.022483498 -0.009041617 -0.013921427 0.030857172
000080 83 c0 9a bd 1c bd ea bd aa 99 30 be 0b a5 5e be
       -0.0755625 -0.11461851 -0.17246118 -0.21742646
000090 ad 9c a6 be 2b 66 da be cf 69 7e be e1 10 63 be
       -0.3254141 -0.42656073 -0.2484505 -0.22174408
0000a0 f8 2f 5b be c6 bf 48 be 24 44 94 3d 64 e5 0b be
       -0.21405017 -0.19604406 0.07239559 -0.13661724
0000b0 ef 41 16 be 3d b5 ae be 14 c7 93 be ea df 97 be
       -0.14673589 -0.3412265 -0.28862822 -0.2966302
0000c0 10 91 c4 be 1e 7e 9e be 21 53 34 be b3 a9 d5 bd
       -0.38391924 -0.30955595 -0.17609836 -0.10432758
0000d0 98 3b 68 3c e8 18 9e 3b 48 2a c4 3c 4a 44 ac bc
       0.0141743645 0.0048247464 0.023945943 -0.021028657
0000e0 68 13 da 3b 0e d5 e2 bc 29 c7 7b bd 9a 5d 6c be
       0.0066551454 -0.027689483 -0.06146923 -0.23082581
0000f0 0e ee 75 be 11 61 5c be ff 4b d8 be 13 a4 04 bf
       -0.24016592 -0.21521403 -0.4224548 -0.5181286
000100 45 07 1c bf 3a 79 89 be 25 cb 63 be 35 10 ee be
       -0.6094859 -0.268503 -0.22245462 -0.4649674
000110 52 6d af be 38 b2 39 ba c9 a8 14 be 84 47 7c be
       -0.34263092 -0.00070837466 -0.14517511 -0.24636656
000120 3d ed e6 bd c0 b9 9b 3d b5 13 57 3e 70 dd 0e 3a
       -0.11275718 0.076037884 0.21003611 0.0005449867
000130 c7 48 f5 bd c9 00 8e bd ae 62 6d be 1e 57 dd be
       -0.11976772 -0.069337435 -0.23182175 -0.43230528
000140 e9 11 be bd b2 7d 04 be a6 75 de 3c 92 ec 11 bd
       -0.0928076 -0.12938574 0.027155709 -0.035626
000150 78 0b db 3b 78 25 c5 bb 80 44 37 bd 5e fe e1 be
       0.006684717 -0.0060164295 -0.04474306 -0.4413938
000160 f9 2d d4 be d6 f3 2f be 15 23 97 3d e0 90 1f be
       -0.41441324 -0.1718286 0.07379738 -0.15582609
000170 72 fb b6 be 62 cb b7 bd 9f 23 37 be 91 df 52 be
       -0.35738713 -0.08974339 -0.17884682 -0.20593096
000180 00 1e 67 be 5e 65 9a bd dc 42 91 bd 8d d7 d6 bd
       -0.22570038 -0.075388655 -0.070928305 -0.10490332
000190 c4 63 ec bd 22 cd 58 bd 74 07 2d bc 34 02 4c be
       -0.11542466 -0.052930005 -0.010560859 -0.19922715
0001a0 25 59 b9 be 7e c2 b2 bd ad 77 c1 bd e2 a5 e7 be
       -0.36200824 -0.08728503 -0.094466545 -0.45243746
0001b0 cf 09 e7 be de 14 39 3e b9 7c b3 bc f8 9a ad 3c
       -0.4512467 0.18074366 -0.021910058 0.021192059
0001c0 8a 0a b2 bc d0 cb 6e 3b 56 7b b1 bd 53 74 c4 be
       -0.021733541 0.00364374 -0.086661026 -0.38369998
0001d0 9b dc 4e be a8 2d 31 bd e8 17 41 3e 47 d5 f7 3c
       -0.20201342 -0.04325643 0.18856776 0.030253066
0001e0 be 73 de 3c ef c8 cc 3d 4c c1 20 be 50 ef 15 be
       0.0271548 0.099992625 -0.15698737 -0.14642072
0001f0 56 69 c3 bd 2f 49 f7 3d 89 7c 57 bd e9 75 c4 bd
       -0.095415756 0.120745055 -0.052609 -0.09592802
000200 d8 47 0f be a3 ac 4b be 8d e2 ce bd 6f 1a f5 bd
       -0.1399225 -0.19890074 -0.10101805 -0.119679324
000210 07 c4 2f be b5 08 55 be 30 f7 92 bd bf ce 5a 3d
       -0.17164622 -0.20804103 -0.071760535 0.053419825
000220 fa 46 db 3d 0a a6 3b 3e 6b 52 a3 bd 26 5e 7e bc
       0.10706897 0.18325058 -0.07974704 -0.015525376
000230 8f 91 0a 3d 9a cc b9 3c 8c 73 c3 bd 2e 08 27 be
       0.03383022 0.02268057 -0.09543523 -0.16311714
000240 b0 4a 47 3c 13 52 a0 3d 5d 90 31 3e 06 f8 84 bb
       0.012163803 0.078281544 0.17340226 -0.004057887
000250 18 45 40 3e 05 ce ab 3d 69 77 91 3b ef 1b 21 bd
       0.18776357 0.083889045 0.0044392836 -0.03933328
000260 c6 c0 0c 3b c7 d8 38 3d 19 52 d7 bd bf f8 d0 bd
       0.0021477207 0.04512861 -0.10513706 -0.102036946
000270 17 67 cb bc 8d a4 46 be b0 1e 44 be 47 d1 4e be
       -0.02482943 -0.19398709 -0.19152331 -0.2019702
000280 94 21 6f be 83 71 27 be 64 ec 37 be c8 97 43 be
       -0.23352653 -0.16351895 -0.1796127 -0.19100869
000290 34 86 fb bd e1 ae dc 39 6b 79 bd be ba 48 36 bd
       -0.122814566 0.00042091965 -0.37006697 -0.04450295
0002a0 6b aa 03 bd 25 62 76 be e7 d5 9b 3e ab 4a af 3e
       -0.032144945 -0.24060877 0.30436632 0.34236655
0002b0 60 89 9a 3e e0 a6 9b 3e 1b b2 79 3e 38 04 cc 3d
       0.30182934 0.30400753 0.24384348 0.09961742
0002c0 26 85 1d 3e 01 b7 02 3e 28 26 da 3d 90 91 bf 3c
       0.15382823 0.12765123 0.10651809 0.02338484
0002d0 35 e0 b2 3d e2 e0 8c bd e9 4e c2 bd 2d 12 64 be
       0.0873417 -0.068788305 -0.09487707 -0.22272559
0002e0 94 16 79 bd 49 3d 41 3d c3 8d a2 bc 4d 1e 5c bd
       -0.060812548 0.047177587 -0.019842988 -0.053739835
0002f0 d1 c0 2a be d3 4a b7 bc 95 7e a0 ba 9a 9b c5 bd
       -0.16675116 -0.022374546 -0.0012244756 -0.09648819
000300 dd 82 dc be 29 cf 9c be cc 94 0e be d6 45 05 be
       -0.4306859 -0.306268 -0.13923949 -0.13014922
000310 7e eb a7 bc 61 e2 99 be bc 70 b0 3e c8 dc b9 3e
       -0.020498034 -0.30055526 0.3446101 0.36301255
000320 91 0f 80 3e 70 d0 24 3e 88 29 a6 3e b9 f9 20 3d
       0.25011876 0.16095138 0.3245356 0.039300654
000330 0a 0b b2 bc 68 34 aa 3d 91 63 a4 bd 5d 18 37 bd
       -0.02173378 0.08310777 -0.08026803 -0.04470097
000340 48 c1 2a bc 5b d2 6d 3d 27 8d d5 bd e1 dd 6e bd
       -0.010422058 0.05806194 -0.10427313 -0.05831707
000350 5e 8f 8f bc 73 22 a7 3c b5 3e 48 bc 70 2d ac bc
       -0.017524417 0.020402169 -0.012221982 -0.02101776
000360 b6 59 87 bc 7a c7 cb 3d a9 f3 32 3e e1 a9 57 be
       -0.01652227 0.099501565 0.17475761 -0.21060897
000370 10 70 0f be 50 ba 24 3e b2 14 fe bd a7 8c 02 be
       -0.14007592 0.16086698 -0.12406291 -0.12748967
000380 e0 6e 98 be 82 2a 6a 3e 1d dd 9f 3e 73 f0 3a 3e
       -0.2977209 0.22867778 0.31223384 0.18255787
000390 9a 0e c0 3d d6 ec 4e 3d 46 bf 49 3e 57 23 38 3d
       0.09377785 0.050518833 0.19701871 0.044955578
0003a0 48 28 4f 3d 0d e0 fe bb e5 76 77 3c 25 3e e7 bd
       0.050575525 -0.007778174 0.01510403 -0.1129115
0003b0 38 a9 68 be c8 65 17 be fc 2d de bb 37 ce 79 3d
       -0.22720802 -0.1478492 -0.006780384 0.060987677
0003c0 82 7b 87 3c 12 3b 17 3d e1 06 ae 3d 89 c9 d0 ba
       0.016538385 0.03692157 0.08497406 -0.0015929203
0003d0 7e fb 12 3d 16 d6 11 3e e3 88 d5 bd 3d f4 d9 bd
       0.035884373 0.14241824 -0.104265 -0.10642288
0003e0 11 b4 23 3d d1 ca 36 3d 92 bf 90 be 66 90 c6 bd
       0.039966647 0.044627015 -0.28271157 -0.096955106
0003f0 0d 5d 72 3e 81 66 45 3e 7a 58 96 3c 32 c2 ad 3d
       0.23668309 0.19277383 0.018352736 0.084843054

fc1.bias f4 [50]
000000 7b b8 4a 3e 20 ef bb 3d 5d 98 9a 3c 77 8f 48 3e
       0.19796936 0.09176469 0.01887148 0.19585977
000010 5a e0 9d 3d ff ef 7e 3e 11 ff e4 bd a4 3c df 3d
       0.07708807 0.24896239 -0.111814626 0.10900238
000020 66 1c 80 3e d6 3e e6 3d 68 a9 73 3d d1 16 af bd
       0.25021666 0.11242454 0.05948773 -0.08549274
000030 aa 61 e0 3d b4 9e 16 3e 36 9f dc 3c 1d 1c 25 be
       0.10956128 0.14708978 0.026931386 -0.16124006
000040 bc 13 a9 be 88 5e 96 3d f6 1c 23 3e 16 a6 a1 3c
       -0.3302287 0.07342249 0.15929016 0.019732516
000050 c0 b4 64 3e 02 98 6b be 9e 65 be bc da 2d 45 3e
       0.22334576 -0.23007205 -0.023241814 0.19255772
000060 18 2d b4 bc 1f 7b 35 bc 9b 39 76 3e d9 9d 55 3e
       -0.021994159 -0.011076718 0.24045412 0.20860995
000070 b4 8d 6b 3e f6 73 b9 bc 56 23 13 bd 05 b1 43 be
       0.23003274 -0.022638302 -0.03592237 -0.19110496
000080 f0 84 ae 3e 2e 09 61 3e 60 00 e7 bd 93 8b a7 3e
       0.34085798 0.21976158 -0.112793684 0.32723674
000090 aa ff 1f 3c 9a 9d 32 3e a7 ea bf bd 5b 29 e6 3d
       0.009765545 0.17442933 -0.09370928 0.11238357
0000a0 04 1e 7d 3d 0e ff 4c 3d 7f eb 47 bd 9d da 80 be
       0.061796203 0.050047927 -0.04880857 -0.2516679
0000b0 94 51 f9 bd d8 77 d5 bd 4c c5 9c bd f4 74 5e 3d
       -0.12173763 -0.10423249 -0.07654819 0.054310754
0000c0 f7 fe d6 3d 16 33 85 bd
       0.104978494 -0.065038845

fc2.weight f4 [10, 50]
000000 0f be f3 bd c8 56 24 bf 93 5f 1d 3d 1b db a8 be
       -0.11901485 -0.6419492 0.038421225 -0.32979664
000010 38 5d 78 3d 7b 6c 05 bf 47 a1 68 3e 5b 39 82 b9
       0.060635775 -0.52118653 0.22717772 -0.00024838265
000020 75 43 2f 3e ef 59 98 3e 24 8c 1d bd 5c a5 df bb
       0.17115577 0.29756114 -0.038463727 -0.0068251323
000030 8b fb 0c be e2 af 0f 3c de f2 c0 3e 74 87 cf bd
       -0.13767831 0.008769961 0.37685293 -0.101332575
000040 7c 99 4d 3e c6 14 49 bf f4 ca d8 3d ed 3f 47 be
       0.20078081 -0.7854732 0.10585585 -0.1945798
000050 22 4f 3e 3d 59 02 df 3e b5 50 c4 bd a3 d9 b5 be
       0.046462186 0.4355648 -0.09585706 -0.35517606
000060 95 77 0a bf 90 d9 22 be 57 f4 48 3e e6 d9 ae 3e
       -0.5408872 -0.15903306 0.19624458 0.34150618
000070 ac 97 67 bf b4 59 ab be ce 88 d0 bd 51 7c ee 3e
       -0.9046581 -0.33466876 -0.101823434 0.4657922
000080 61 cd 09 be ed 87 43 bc b3 20 4c bd cb 0d 13 bf
       -0.13457252 -0.011934263 -0.049835872 -0.5744292
000090 a2 38 81 3e a8 72 68 bf 55 23 e4 3e d8 db 40 3e
       0.2523852 -0.9079995 0.44558206 0.18833864
0000a0 43 4d 9d 3e 5a 69 89 3e 62 93 64 bf b5 b1 7f 3e
       0.3072301 0.2683819 -0.8928739 0.24970134
0000b0 6d 54 8e 3e ea d8 02 bf c4 b0 93 be 3a b0 9a bd
       0.27798787 -0.51112235 -0.288458 -0.07553144
0000c0 de 25 fe 3e 65 e9 f7 be b7 c9 79 bd 02 77 0f 3f
       0.49638265 -0.48420253 -0.060983386 0.56040967
0000d0 aa 3d b3 be 9d 5d 36 3d 13 3a 2e bf c3 b5 5f 3e
       -0.35007983 0.04452287 -0.68057364 0.2184668
0000e0 21 ce 43 bf 30 74 88 3e 96 8d b1 3d ea c9 dc be
       -0.764864 0.26651144 0.086695835 -0.43122798
0000f0 33 31 0d 3e dc 51 eb bc e0 9e 50 bf 01 f9 79 3e
       0.137883 -0.028725557 -0.81492424 0.24411394
000100 c9 0b 19 be 06 ef 40 3e 79 4f 84 be 96 3a dd bb
       -0.14945902 0.1884118 -0.25841883 -0.0067513688
000110 c6 b8 4d 3f f0 22 ab 3e 7b 60 82 3e 21 0e 81 3d
       0.80360067 0.33425093 0.25464234 0.06301523
000120 dd 01 8d 3d 35 ac 50 bd 41 44 a7 3e f4 c6 d9 be
       0.06885121 -0.05094548 0.3266926 -0.42534602
000130 35 cf 69 be 6e 0e ee 3e c6 88 2f bf 95 4a 27 3c
       -0.2283295 0.46495384 -0.68568075 0.010210653
000140 76 2a a4 be c0 d4 02 bf 5d 51 61 3f f2 56 05 be
       -0.32063645 -0.5110588 0.88014776 -0.13021448
000150 80 95 3e be 58 15 1e bf 1c e5 e1 be a2 64 6c 3c
       -0.18611717 -0.6175132 -0.4412011 0.01442829
000160 a7 f5 91 bd d5 86 96 3e 2d 15 1b bf f6 65 aa 3e
       -0.071269326 0.29399744 -0.60579187 0.33280915
000170 48 b1 a4 3e e6 06 aa be d6 58 f7 be e7 91 ac bc
       0.32166505 -0.33208388 -0.48309964 -0.021065665
000180 b7 90 a7 3e e0 48 e1 be cd 8a 8f bd b8 cb b3 be
       0.32727596 -0.44000912 -0.07008896 -0.35116363
000190 5d 31 cd 3e 1d a6 d0 be 3e e7 77 bf 2d e0 b6 3d
       0.40076724 -0.40751734 -0.9683722 0.08929477
0001a0 a8 9a 95 bb 62 d1 7d bd ed 79 34 bd 9d 2d 92 3e
       -0.0045655556 -0.06196726 -0.04406159 0.28550425
0001b0 3f 07 42 bf f3 fd b1 bd bf 21 21 3b 53 2f 3b 3e
       -0.75792307 -0.08691015 0.0024586765 0.18279772
0001c0 37 5f c3 be 84 cf 7e 3e 0d b6 8c 3e 57 bb 68 be
       -0.3815858 0.24883848 0.27482644 -0.22727714
0001d0 f3 2c fd 3d c5 b4 a3 bf f8 3c e2 be 9c a3 a3 3e
       0.12362089 -1.2789541 -0.4418714 0.31960762
0001e0 d1 aa 2c bf 04 37 e5 3e 57 b7 cb bd 3e ca fe bc
       -0.67448145 0.44768536 -0.09947079 -0.031102296
0001f0 b3 e7 15 3e f2 da 9a be dd 7f ec 3e 71 49 0d 3f
       0.14639167 -0.30245167 0.46191302 0.5519019
000200 ad 6f a3 be 3a 55 0f 3e ce 1a a9 3d 26 83 ba be
       -0.3192114 0.13997355 0.08257066 -0.36428183
000210 36 c4 e2 3b 0c 6a fc 3e 0a f6 36 3e 31 e3 52 be
       0.006920363 0.49299657 0.17867294 -0.20594479
000220 38 de 49 3e 30 f0 26 be 02 e7 be be b2 ee 13 bf
       0.19713676 -0.16302562 -0.3728562 -0.57786095
000230 bf c8 db 3b 28 03 0b be ec 41 9c 3e a3 e9 72 be
       0.0067072804 -0.13575423 0.30519044 -0.23721938
000240 5c ca ff bd 96 8d 4f 3e bc 5d 1a 3f 63 6b ef 3e
       -0.12489769 0.20268854 0.6029928 0.46761617
000250 b5 e2 06 3e 5b 8f 7e 3d 9b 92 39 bf 8c 61 fd 3e
       0.1317242 0.062148433 -0.7248933 0.49488485
000260 b0 9b de 3d 05 85 5b bf ad 26 9c bc f2 e5 19 be
       0.10869539 -0.85749847 -0.01906141 -0.15029123
000270 e2 18 a2 3e a9 6c 1d 3d 6f 7e 74 3d 4e 62 a1 bd
       0.3165961 0.038433705 0.05969089 -0.07880078
000280 8e e3 b9 3d a6 53 dc 3e cd b5 4d bf 5a aa dd bd
       0.09076606 0.4303257 -0.8035553 -0.108235076
000290 2e 12 1e bf e2 1f d3 3d df c8 2d 3e c6 fb b3 3e
       -0.6174649 0.103088155 0.16971157 0.35153025
0002a0 46 f9 e8 be 58 8f 1a bd 30 14 5a bf 34 5d 06 be
       -0.4550268 -0.03773436 -0.85187054 -0.13121492
0002b0 f4 ff 68 3d 27 d0 26 3d 3f ca 9b 3e 67 07 16 3e
       0.05688472 0.040725853 0.3042774 0.14651261
0002c0 c1 d3 b6 be a8 df f2 bd 19 ef fd bd cf 32 da bb
       -0.3570843 -0.11859065 -0.1239912 -0.006658889
0002d0 8d 4f 45 3e 4c 40 c0 3e de bd fc 3d ce 00 0d be
       0.19268627 0.37549055 0.12340902 -0.13769838
0002e0 f8 ae 46 3e 47 2b 41 3e 73 3b 0e 3f 8f 32 29 bf
       0.19402683 0.18864165 0.5555946 -0.6609277
0002f0 fc ff 82 be 27 0e 83 bd 20 a6 9a 3b 85 5c d9 3d
       -0.25585926 -0.06399184 0.0047195107 0.1061335
000300 1a 32 bc 3d e9 d1 ca 3d c9 08 6a be 3f 02 48 3e
       0.091892436 0.099033184 -0.22854914 0.19532107
000310 d4 91 3d 3e dc f9 d6 3b 6b d5 ea 3d 7d de f6 be
       0.1851266 0.0065605473 0.114664875 -0.4821662
000320 55 10 3d 3e 46 53 c0 3d bd 66 05 3e 28 bc d0 3e
       0.18463261 0.09390883 0.13027473 0.40768552
000330 83 12 a3 3d 9c 8b 9a 3e ba 29 10 3e cb 6b 43 3e
       0.07962515 0.30184639 0.14078417 0.19084089
000340 e0 66 2e bf 75 80 c2 3e 71 42 c9 3d 82 3b 27 bf
       -0.68125725 0.3798863 0.09827126 -0.65325177
000350 50 16 c7 3e 0f 95 90 bd 48 8a 6b bf 2f 93 e0 be
       0.3888421 -0.07059681 -0.92007875 -0.43862292
000360 00 5e a5 bc c7 4b db 3e 62 c5 6d 3e d3 b7 09 be
       -0.020186424 0.4283125 0.23219827 -0.1344903
000370 61 49 3c 3d af 47 59 bf c0 b1 0a 3c 6f 8e bf 3c
       0.045968417 -0.84875005 0.00846523 0.023383347
000380 ab 95 8d be 2c 93 e9 3d 32 a7 b3 3e fe 4d 98 bf
       -0.2765325 0.11405024 0.35088497 -1.1898801
000390 bc cd ae 3e 2d a2 92 be 35 ea a2 3e e0 43 88 bf
       0.34141338 -0.28639355 0.3181931 -1.0645714
0003a0 4e 73 38 3f 65 d5 ac be 36 38 40 bf 94 6b 8e 3d
       0.7205094 -0.33756557 -0.7508577 0.06954113
0003b0 83 d6 50 bf 17 64 d7 3e f8 58 b1 be d9 45 79 bf
       -0.8157732 0.4206855 -0.3463819 -0.97372204
0003c0 92 09 73 3e 44 f7 88 3e 30 52 15 bf 71 41 c6 be
       0.2373412 0.2675115 -0.58328533 -0.38721803
0003d0 4d 9a c4 bb 8e 01 b5 3d e8 5a 32 bf d9 53 3b bf
       -0.0059998394 0.08838187 -0.6966996 -0.73174816
0003e0 d9 be c9 bd 44 35 79 bf bb ef 12 bf 08 21 d5 3d
       -0.098508544 -0.973469 -0.5739705 0.10406691
0003f0 7c e4 b6 3e d4 6f 12 3e 35 99 1f bf 2d 59 84 be
       0.35721195 0.14300472 -0.6234315 -0.25849286

fc2.bias f4 [10]
000000 56 df 7e be 0c b7 12 3e 5a 96 2e 3e 71 31 69 bd
       -0.24889883 0.1432764 0.17049542 -0.056931917
000010 b2 7c 8e 3e 54 93 03 3e b8 5c d2 3d 3b e6 83 bd
       0.2782951 0.1284917 0.10271591 -0.06440397
000020 42 07 f5 bc 8c 10 10 bd
       -0.029910687 -0.03517203

exp_avg f4 [50, 784]
000000 00 00 00 00 00 00 00 00 00 00 00 00 00 00 00 00
       0.0 0.0 0.0 0.0
000010 00 00 00 00 00 00 00 00 00 00 00 00 00 00 00 00
       0.0 0.0 0.0 0.0
000020 00 00 00 00 00 00 00 00 00 00 00 00 00 00 00 00
       0.0 0.0 0.0 0.0
000030 3e c0 27 a5 db 76 62 a7 db 76 62 a7 e2 f9 16 a5
       -1.4550075e-16 -3.1428232e-15 -3.1428232e-15 -1.309509e-16
000040 00 00 00 00 00 00 00 00 00 00 00 00 00 00 00 00
       0.0 0.0 0.0 0.0
000050 00 00 00 00 00 00 00 00 00 00 00 00 00 00 00 00
       0.0 0.0 0.0 0.0
000060 00 00 00 00 00 00 00 00 00 00 00 00 00 00 00 00
       0.0 0.0 0.0 0.0
000070 00 00 00 00 00 00 00 00 00 00 00 00 00 00 00 00
       0.0 0.0 0.0 0.0
000080 f1 ed 79 28 28 d0 93 2b 67 44 ae 2d 79 a8 da 2d
       1.3873872e-14 1.0502753e-12 1.9811887e-11 2.4858548e-11
000090 82 50 9b 2c b7 29 fd 2c 15 57 de 30 79 71 1b 33
       4.414303e-12 7.1953238e-12 1.6177376e-09 3.6191953e-08
0000a0 f4 bc 04 30 2f b4 0a 2f b4 f0 00 b0 36 40 e0 b0
       4.828984e-10 1.2615041e-10 -4.690819e-10 -1.6316395e-09
0000b0 a9 be 0a b2 a0 29 18 b3 87 07 f1 b1 9b 54 74 2e
       -8.076008e-09 -3.5428116e-08 -7.014879e-09 5.555432e-11
0000c0 ed 4c 5b 31 d3 13 ce 30 5d b5 22 2d 4b 3a 54 2b
       3.1912422e-09 1.4994107e-09 9.248905e-12 7.539843e-13
0000d0 00 00 00 00 00 00 00 00 00 00 00 00 00 00 00 00
       0.0 0.0 0.0 0.0
0000e0 00 00 00 00 00 00 00 00 00 00 00 00 2d 30 c6 33
       0.0 0.0 0.0 9.2288566e-08
0000f0 cc b0 08 33 52 e2 1b af a8 a3 15 31 72 b6 4b 31
       3.1825763e-08 -1.4177573e-10 2.1775381e-09 2.9644096e-09
000100 f2 fd 80 31 bb 3e 89 33 b8 5c b4 34 65 92 0e b3
       3.7541605e-09 6.39097e-08 3.3595074e-07 -3.3195096e-08
000110 80 75 b8 b6 24 a8 34 b4 1d a3 0d 36 1a 08 2f 35
       -5.497306e-06 -1.6824976e-07 2.1105582e-06 6.520437e-07
000120 17 d2 8d 33 b6 8a 6e b5 16 dd db b5 86 11 22 b4
       6.604039e-08 -8.886376e-07 -1.6381116e-06 -1.50938e-07
000130 7b a5 c1 b1 84 1c a3 b1 3f 91 67 b0 76 94 7a 2e
       -5.6358522e-09 -4.747166e-09 -8.424372e-10 5.697528e-11
000140 b8 6a 63 2d c6 b5 5e 2d 00 00 00 00 00 00 00 00
       1.2927152e-11 1.2659601e-11 0.0 0.0
000150 00 00 00 00 00 00 00 00 00 00 00 00 da 8b 8f 34
       0.0 0.0 0.0 2.673758e-07
000160 2c 9b c2 33 52 4a 45 2f e4 fc bb 30 ca 05 03 b7
       9.0620546e-08 1.794345e-10 1.3677917e-09 -7.809556e-06
000170 6a e6 33 b7 ba 86 22 b8 41 4b 8c b8 9d b8 bc b8
       -1.0722879e-05 -3.8749284e-05 -6.689737e-05 -8.9989255e-05
000180 e4 ad d9 b8 33 2c a7 b8 00 db 5b b8 e2 33 8d b8
       -0.00010379756 -7.971413e-05 -5.241763e-05 -6.733068e-05
000190 c7 69 88 b8 1e 9e ab b7 ef cd 26 b6 56 0a fd 35
       -6.504688e-05 -2.0458418e-05 -2.4855797e-06 1.8852977e-06
0001a0 f0 40 bc 35 ad 74 69 37 c9 f1 20 37 86 06 43 33
       1.4025991e-06 1.3915048e-05 9.593038e-06 4.540791e-08
0001b0 4c 65 b4 32 d6 93 81 2d 00 00 00 00 00 00 00 00
       2.1000822e-08 1.4731254e-11 0.0 0.0
0001c0 00 00 00 00 00 00 00 00 62 c1 b1 21 16 82 dd 2e
       0.0 0.0 1.2045175e-18 1.00730244e-10
0001d0 54 e2 17 b5 83 7d b6 b6 72 5e 0b b8 20 8a c2 b8
       -5.6581234e-07 -5.438634e-06 -3.322814e-05 -9.276369e-05
0001e0 aa c1 b7 b8 48 cb c2 b8 2f d5 a1 38 a9 60 9f 38
       -8.762193e-05 -9.288505e-05 7.716787e-05 7.599715e-05
0001f0 d4 0e 68 38 f7 89 01 39 cd 6a 4d 39 3c 7f 67 39
       5.532692e-05 0.00012353795 0.0001959011 0.00022077275
000200 de 9a 94 39 2b 42 12 39 86 22 80 b7 e4 a7 ab 36
       0.00028344145 0.00013948295 -1.5274865e-05 5.115742e-06
000210 63 91 16 38 4e a0 a6 38 e4 e9 2f 38 d7 22 0e b7
       3.589819e-05 7.945356e-05 4.194108e-05 -8.471971e-06
000220 ae c7 09 b7 76 5f 1e b6 70 0a da 2d 00 00 00 00
       -8.212328e-06 -2.35994e-06 2.4788366e-11 0.0
000230 00 00 00 00 00 00 00 00 50 37 56 af 80 8c b0 33
       0.0 0.0 -1.9482838e-10 8.2211955e-08
000240 56 64 8f b6 c6 10 ea b6 d0 1b 09 b8 2f 49 38 38
       -4.2734127e-06 -6.975696e-06 -3.2689248e-05 4.3937176e-05
000250 b9 04 7b 39 9a 24 af 39 cc 37 b4 39 91 09 cf 39
       0.00023938985 0.0003340587 0.00034373847 0.00039489244
000260 f2 3f c8 39 e4 64 9e 39 c2 14 70 39 29 cd ff 38
       0.00038194616 0.00030211278 0.00022895916 0.000121975616
000270 f6 9a 02 39 7b 6e 64 39 23 d7 8d 39 66 cf b1 38
       0.00012455494 0.00021784932 0.00027053905 8.478649e-05
000280 67 17 73 38 26 5c d0 37 7f 58 e7 b6 7a d8 24 b7
       5.795751e-05 2.4838442e-05 -6.894639e-06 -9.825564e-06
000290 6c 94 5a b7 dc 63 e0 b6 da 56 35 35 00 00 00 00
       -1.302837e-05 -6.6873454e-06 6.755414e-07 0.0
0002a0 00 00 00 00 a6 a2 14 20 17 a5 f0 2b 52 31 d3 35
       0.0 1.2589903e-19 1.7098847e-12 1.5735079e-06
0002b0 de 4b 3a b8 1d 3b a6 b8 52 23 cc b8 1a eb 9f 39
       -4.4416513e-05 -7.9265075e-05 -9.734057e-05 0.00030502008
0002c0 06 f9 ad 39 17 df bc 39 2c 56 f1 39 99 51 14 3a
       0.00033182668 0.0003602437 0.00046031305 0.0005657911
0002d0 94 f2 ec 39 ff 36 70 39 07 9b 8c 39 05 aa 0a 39
       0.00045194163 0.00022908671 0.00026818385 0.00013224043
0002e0 8e 97 44 38 f3 fa bf 38 52 08 07 38 64 83 23 b9
       4.6871188e-05 9.154333e-05 3.2194257e-05 -0.00015593838
0002f0 0d a6 fe b8 08 48 35 37 2f 8c 30 36 88 86 c7 37
       -0.00012142593 1.0805212e-05 2.6307641e-06 2.3785295e-05
000300 6c df 74 37 2f b3 19 37 f4 7e 64 35 55 73 88 30
       1.4595553e-05 9.16123e-06 8.512136e-07 9.928082e-10
000310 7a f9 10 90 c0 72 bd 31 26 e9 b0 b3 03 ca e9 36
       -2.8591182e-29 5.5136695e-09 -8.238048e-08 6.9674584e-06
000320 4b ee a8 b8 cd ee 1c b9 c3 8e 30 b9 de 9a cb b7
       -8.05525e-05 -0.0001496628 -0.00016837851 -2.4271601e-05
000330 3b c9 ed 38 3e f2 27 39 8c 3f 53 b8 7e 2a 20 b9
       0.00011338523 0.00016016603 -5.0365503e-05 -0.00015274619
000340 b2 c4 6e b9 47 86 a8 b8 fc 3e 78 38 00 1d b4 37
       -0.00022770723 -8.035875e-05 5.9186466e-05 2.1471176e-05
000350 9a 49 14 b9 de 8b 1f 38 15 7f 4e 39 88 63 53 b9
       -0.00014141799 3.8038816e-05 0.00019693033 -0.00020159606
000360 f4 1c ae b9 fb 21 b8 b8 0f 62 15 b8 ee 00 c0 37
       -0.00033209438 -8.780133e-05 -3.5615692e-05 2.2888617e-05
000370 fd 37 b3 37 d2 3f 8e 36 7f af 91 33 87 ed 7b 31
       2.1364534e-05 4.2393594e-06 6.784011e-08 3.6660326e-09
000380 e3 08 80 34 fc 8f 3c ad e0 4d 87 b4 20 e1 14 b7
       2.3848324e-07 -1.0718534e-11 -2.520237e-07 -8.873903e-06
000390 26 21 76 b8 85 4e b4 b8 c4 ae 66 b8 68 98 2e b7
       -5.8681842e-05 -8.597694e-05 -5.4999036e-05 -1.0406693e-05
0003a0 ae 69 85 38 0b 9a ba 38 fc 6a 59 b9 8f e8 91 b9
       6.3616186e-05 8.897864e-05 -0.00020734587 -0.00027829825
0003b0 8d 61 79 b9 3c dc 10 b9 ed 0e 20 38 bf 1c 34 39
       -0.00023782831 -0.00013814954 3.8160873e-05 0.00017176846
0003c0 87 e1 18 39 b0 10 87 39 84 cb 90 39 dc 2a 01 b8
       0.00014579865 0.0002576164 0.0002761745 -3.0795913e-05
0003d0 aa b7 c5 b9 53 e5 12 b9 bb e7 c9 b8 6d a8 9b b8
       -0.00037711608 -0.00014009075 -9.62759e-05 -7.422348e-05
0003e0 d3 92 d4 b6 1b 78 0d 35 8b f5 35 34 96 4c 4d 30
       -6.335185e-06 5.270137e-07 1.6946267e-07 7.46874e-10
0003f0 9c 94 9d ab 97 07 01 ad fd 15 43 36 34 c2 15 b8
       -1.1196768e-12 -7.334486e-12 2.9070063e-06 -3.5705234e-05

exp_avg_sq f4 [50, 784]
000000 00 00 00 00 00 00 00 00 00 00 00 00 00 00 00 00
       0.0 0.0 0.0 0.0
000010 00 00 00 00 00 00 00 00 00 00 00 00 00 00 00 00
       0.0 0.0 0.0 0.0
000020 00 00 00 00 00 00 00 00 00 00 00 00 00 00 00 00
       0.0 0.0 0.0 0.0
000030 49 98 a2 27 2e 8d c3 28 93 f6 a9 24 22 14 17 20
       4.512914e-15 2.1710576e-14 7.370978e-17 1.2796859e-19
000040 00 00 00 00 00 00 00 00 00 00 00 00 00 00 00 00
       0.0 0.0 0.0 0.0
000050 00 00 00 00 00 00 00 00 00 00 00 00 00 00 00 00
       0.0 0.0 0.0 0.0
000060 00 00 00 00 00 00 00 00 00 00 00 00 00 00 00 00
       0.0 0.0 0.0 0.0
000070 00 00 00 00 00 00 00 00 00 00 00 00 00 00 00 00
       0.0 0.0 0.0 0.0
000080 3e 37 d4 1f a6 f1 46 22 b4 83 67 26 66 fe 3b 27
       8.987688e-20 2.6961931e-18 8.0322716e-16 2.6089373e-15
000090 d3 f7 77 28 26 3d 23 29 00 c1 37 2b c2 f3 12 2d
       1.3764993e-14 3.624631e-14 6.52825e-13 8.353264e-12
0000a0 83 35 7b 2c f4 46 24 2c 8d 8a ad 2e 3a 86 9e 2e
       3.569895e-12 2.3345189e-12 7.891741e-11 7.2088516e-11
0000b0 79 7e 34 2f c6 08 18 2e 37 cb 25 2c db 31 15 2b
       1.6415837e-10 3.456859e-11 2.3560717e-12 5.300462e-13
0000c0 0f ae ee 2a b8 26 8d 2a e7 d5 9e 2a ed 71 3b 28
       4.239807e-13 2.5073498e-13 2.8214863e-13 1.0405289e-14
0000d0 00 00 00 00 00 00 00 00 00 00 00 00 00 00 00 00
       0.0 0.0 0.0 0.0
0000e0 00 00 00 00 00 00 00 00 69 30 92 20 f3 16 ae 28
       0.0 0.0 2.4765397e-19 1.9327833e-14
0000f0 5d 98 25 27 0d d3 f0 25 58 8e 57 29 f0 bf 12 2a
       2.2980946e-15 4.1776377e-16 4.7863054e-14 1.3033997e-13
000100 9c d7 e9 2b e8 67 a4 2d 8d 2c f8 2e a3 6d e5 2f
       1.6615489e-12 1.8690785e-11 1.1285648e-10 4.173276e-10
000110 62 cf 13 32 6d 7c 6e 32 cc b8 f9 31 ea 8d 23 32
       8.6036795e-09 1.38817144e-08 7.2678628e-09 9.520116e-09
000120 a4 46 d7 31 8e 42 5e 32 81 81 5f 32 5b 88 6b 31
       6.2653545e-09 1.29372335e-08 1.3009754e-08 3.427451e-09
000130 7c 75 35 31 45 ae 49 30 a3 68 55 2d 06 1a 96 2c
       2.6405749e-09 7.3371026e-10 1.2130882e-11 4.2661456e-12
000140 e1 c4 21 29 ee 15 0a 24 00 00 00 00 00 00 00 00
       3.5919947e-14 2.9942555e-17 0.0 0.0
000150 00 00 00 00 00 00 00 00 43 64 b1 21 3a d1 5e 2b
       0.0 0.0 1.2020526e-18 7.9160604e-13
000160 61 6b 13 2f 6d 7c 12 2d 36 4e d1 2d d4 bc bb 30
       1.3407721e-10 8.326767e-12 2.3795282e-11 1.3659709e-09
000170 7f 73 13 32 a8 45 0a 32 a1 4e bd 33 3a 97 ff 33
       8.582787e-09 8.048495e-09 8.815301e-08 1.1901871e-07
000180 68 6b f3 33 5e 36 dd 33 41 6e b4 33 39 d9 da 33
       1.13351064e-07 1.0301004e-07 8.401958e-08 1.01909286e-07
000190 94 2d 20 34 9c 32 14 34 df b2 b8 33 98 69 99 33
       1.4917742e-07 1.3801986e-07 8.600704e-08 7.143825e-08
0001a0 ac 19 7e 33 ed 6a ab 32 6e 54 d2 31 bb 47 0d 31
       5.9162332e-08 1.9955644e-08 6.121403e-09 2.0558975e-09
0001b0 66 8e 25 30 c0 0d 4a 2b 00 00 00 00 00 00 00 00
       6.022901e-10 7.17839e-13 0.0 0.0
0001c0 00 00 00 00 00 00 00 00 71 08 c3 24 f1 eb 08 2d
       0.0 0.0 8.458207e-17 7.7830945e-12
0001d0 71 52 4d 2f f5 c4 90 31 25 eb f1 32 55 f1 2e 34
       1.867393e-10 4.213343e-09 2.8163024e-08 1.6292809e-07
0001e0 c0 f2 62 34 87 57 93 34 b8 df be 34 2f 09 18 35
       2.1136202e-07 2.7444568e-07 3.5553035e-07 5.6637776e-07
0001f0 52 67 46 35 2c 32 81 35 34 75 9f 35 fe 41 aa 35
       7.39111e-07 9.625851e-07 1.1880534e-06 1.2685193e-06
000200 a4 cc 93 35 d9 c9 57 35 03 76 19 35 5a 8c c5 34
       1.1011912e-06 8.038747e-07 5.716867e-07 3.679623e-07
000210 cb 4a 54 34 e2 b5 e7 33 3a b1 3e 33 a7 b1 6d 32
       1.9771248e-07 1.078986e-07 4.439901e-08 1.3835609e-08
000220 cd 4a 21 32 87 46 20 31 b4 25 f3 2b 00 00 00 00
       9.388441e-09 2.3323155e-09 1.7276653e-12 0.0
000230 00 00 00 00 00 00 00 00 88 91 ac 28 85 84 b6 2f
       0.0 0.0 1.915895e-14 3.3199768e-10
000240 c4 79 48 31 c7 06 e6 32 b1 d7 35 34 8e 56 93 34
       2.9173046e-09 2.6778606e-08 1.6935407e-07 2.744386e-07
000250 2a ad e4 34 3d f1 34 35 8d 9f 88 35 58 42 c6 35
       4.2594303e-07 6.7406273e-07 1.0179225e-06 1.4771458e-06
000260 dd 46 07 36 e2 5a 2b 36 51 a7 3c 36 c3 ea 45 36
       2.0157815e-06 2.5533886e-06 2.8111574e-06 2.9491937e-06
000270 d8 76 30 36 52 a6 0e 36 b8 ce e7 35 f9 d2 a5 35
       2.629522e-06 2.125646e-06 1.7271004e-06 1.2354859e-06
000280 08 74 3c 35 2b b3 ab 34 3c 8e 21 34 d0 d1 b1 33
       7.0204305e-07 3.1981594e-07 1.5046038e-07 8.2803695e-08
000290 62 bd aa 32 5e 63 95 31 19 49 43 2c 08 0e 4f 21
       1.9876726e-08 4.3477675e-09 2.7751744e-12 7.01529e-19
0002a0 00 00 00 00 d4 06 fe 28 a2 6b 5a 2d 9c 69 68 31
       0.0 2.8202626e-14 1.2415765e-11 3.3820475e-09
0002b0 18 4f 9a 32 d3 32 8d 33 37 1e a8 34 49 3d 2f 35
       1.7963927e-08 6.575069e-08 3.1314423e-07 6.528176e-07
0002c0 fe e3 67 35 27 58 b7 35 b3 ae 02 36 ca 69 2f 36
       8.638598e-07 1.3660218e-06 1.9473198e-06 2.613861e-06
0002d0 be 9d 5a 36 0d 87 88 36 1c cd 92 36 6c 15 91 36
       3.257635e-06 4.068838e-06 4.375017e-06 4.3238306e-06
0002e0 69 9c 81 36 45 c5 57 36 93 38 31 36 da 16 0b 36
       3.862708e-06 3.2152323e-06 2.6407986e-06 2.0725915e-06
0002f0 44 de ce 35 67 2b 5a 35 9f 0b af 34 97 f9 2c 34
       1.5412884e-06 8.127449e-07 3.2604746e-07 1.6109549e-07
000300 6b 73 0c 33 89 8d dc 31 3d 2f 13 2e 7e 3b 32 28
       3.2701262e-08 6.4189334e-09 3.3465886e-11 9.893885e-15
000310 3a 76 cf 1a b0 42 b1 2d 8f 1e dd 2e c5 db 4d 32
       8.58042e-23 2.0152185e-11 1.0055345e-10 1.198254e-08
000320 6a 41 62 33 7f d1 4e 34 6f c0 1d 35 0e a5 67 35
       5.267922e-08 1.9261459e-07 5.8767085e-07 8.629439e-07
000330 94 64 ae 35 28 a3 01 36 26 bc 34 36 e2 44 6a 36
       1.2993282e-06 1.9317467e-06 2.6931607e-06 3.4908812e-06
000340 45 55 92 36 95 db 9a 36 ef e2 97 36 d9 05 9e 36
       4.3610657e-06 4.6151204e-06 4.5265692e-06 4.7094477e-06
000350 da d5 9b 36 70 a6 8e 36 38 09 6c 36 d0 84 2d 36
       4.6442556e-06 4.2513057e-06 3.5172106e-06 2.5856316e-06
000360 5b c3 04 36 4f 2d ae 35 48 f1 26 35 31 85 98 34
       1.9783245e-06 1.2977197e-06 6.219093e-07 2.8409116e-07
000370 80 6c c2 33 7c 6e a4 32 2c f0 1c 30 a6 b8 c7 28
       9.053565e-08 1.9142355e-08 5.7093774e-10 2.2173517e-14
000380 cd 4e 4f 2e 69 51 1a 2d f9 25 2e 30 87 a9 bc 32
       4.713634e-11 8.771963e-12 6.3354794e-10 2.1963173e-08
000390 c1 08 ca 33 9b 19 a4 34 e9 49 4a 35 ae 42 9e 35
       9.40795e-08 3.056601e-07 7.535842e-07 1.1791324e-06
0003a0 dd f2 d4 35 6a c5 14 36 75 6f 57 36 82 e7 75 36
       1.5865913e-06 2.2168629e-06 3.2102373e-06 3.66426e-06
0003b0 5f a4 79 36 65 1f 7f 36 91 98 79 36 8c 7e 86 36
       3.7199568e-06 3.8016235e-06 3.7192697e-06 4.008243e-06
0003c0 79 45 94 36 b8 be 97 36 b2 9d 88 36 39 7f 3e 36
       4.4188314e-06 4.5223533e-06 4.071474e-06 2.838626e-06
0003d0 a4 47 10 36 61 8c ce 35 45 8d 58 35 a9 95 cd 34
       2.1499372e-06 1.5389052e-06 8.0671845e-07 3.8293118e-07
0003e0 df bc e0 33 13 1b 4b 32 d1 8d 19 30 c1 7b 00 2a
       1.0465168e-07 1.1822311e-08 5.586261e-10 1.141162e-13
0003f0 12 cd 11 25 9d ff 8b 2c ce 9a 04 32 17 71 77 33
       1.2646226e-16 3.9789964e-12 7.71861e-09 5.7612024e-08

exp_avg f4 [50]
000000 a0 dd 6d 39 2b 9e ab ba 78 d2 aa b9 03 e4 18 3a
       0.00022684643 -0.0013093402 -0.00032581738 0.0005832316
000010 bc 0b 0e ba 8b a3 b0 b9 5a 2b 81 38 76 9f 74 3a
       -0.00054186187 -0.00033691185 6.159274e-05 0.0009331623
000020 44 ec 2e 39 56 7f 22 3a ca 3e aa 37 1d 5c 54 ba
       0.00016681949 0.0006198784 2.0294818e-05 -0.0008100884
000030 5f 35 ec b9 8c 9e ea 39 64 ec 1b 39 27 35 14 b9
       -0.00045053192 0.00044750085 0.00014870014 -0.0001413418
000040 a3 a8 71 b8 df 55 50 b9 3a d1 40 39 0a 86 d3 38
       -5.7615933e-05 -0.00019868415 0.0001838849 0.00010086231
000050 7d 90 87 39 91 aa bf b8 00 00 00 00 59 6d e1 b9
       0.0002585686 -9.13936e-05 0.0 -0.00042996815
000060 f6 34 c2 39 53 c3 5a ba 74 c9 a6 3a 4c 48 65 3a
       0.00037042022 -0.00083451456 0.0012724833 0.000874643
000070 86 5e 7e ba a0 80 33 b9 fb ae be b9 50 31 f2 b9
       -0.0009703416 -0.00017118687 -0.00036369995 -0.00046194578
000080 d9 5b b3 3a c6 71 0c 3a b7 11 65 ba e0 01 6c 38
       0.0013683989 0.000535753 -0.00087382965 5.626853e-05
000090 e7 aa 8a ba c0 5a ec b6 6c c5 45 3a 3f ca 24 3a
       -0.0010579497 -7.043913e-06 0.0007544372 0.00062862405
0000a0 e0 c5 86 b9 20 fb bb 37 20 dc c0 39 ea 06 85 b9
       -0.000257059 2.2409076e-05 0.000367851 -0.00025372888
0000b0 04 2e d0 b9 d6 14 ca b9 54 4a 4e 3a d9 9b 4f ba
       -0.00039707136 -0.00038543966 0.0007869352 -0.00079196465
0000c0 0a f8 85 ba 47 f7 44 b8
       -0.0010221016 -4.6960336e-05

exp_avg_sq f4 [50]
000000 8e e0 17 37 53 30 b2 37 4e 41 40 37 ac 8f 6d 37
       9.052585e-06 2.1241756e-05 1.1459297e-05 1.4159752e-05
000010 77 e1 f0 36 33 c1 c4 36 aa 72 09 37 5c aa 7d 37
       7.178805e-06 5.8637465e-06 8.192534e-06 1.511964e-05
000020 22 ce 49 37 43 76 04 37 74 81 ff 36 1c 23 88 37
       1.2028528e-05 7.895348e-06 7.6146625e-06 1.6228812e-05
000030 7e 45 53 37 0b d1 16 37 47 6d 39 37 03 0d ed 36
       1.259276e-05 8.989368e-06 1.1052302e-05 7.064665e-06
000040 17 01 f3 36 85 5b 86 37 5f 9e 94 37 7d 17 84 37
       7.242091e-06 1.6016662e-05 1.7716722e-05 1.5746564e-05
000050 01 c6 65 37 a1 c1 7f 37 00 00 00 00 8c 09 d9 36
       1.3695565e-05 1.5244267e-05 0.0 6.4682154e-06
000060 e6 53 70 37 98 5d 00 37 73 b7 45 37 93 3a b0 37
       1.4324649e-05 7.651186e-06 1.1784828e-05 2.100811e-05
000070 04 7b 64 37 4e ef 0d 37 75 16 ed 36 bf 75 5b 37
       1.3618501e-05 8.459972e-06 7.0657647e-06 1.3080832e-05
000080 be 32 e8 37 8c 56 30 37 d7 1f 80 37 46 b8 4c 37
       2.7680184e-05 1.0510568e-05 1.5273616e-05 1.2202252e-05
000090 54 cb 88 37 3e 23 48 37 15 0d 15 37 06 23 48 37
       1.6307145e-05 1.1929134e-05 8.884138e-06 1.19290835e-05
0000a0 a9 aa e0 36 a2 c1 64 37 05 e4 94 37 bc 0e e9 36
       6.6955877e-06 1.3634943e-05 1.7749155e-05 6.9456564e-06
0000b0 90 f4 2f 37 4a 88 09 37 54 39 0b 37 94 be 7d 37
       1.04877545e-05 8.197569e-06 8.298393e-06 1.5124348e-05
0000c0 7d a0 a0 37 66 42 aa 37
       1.914822e-05 2.0296498e-05

exp_avg f4 [10, 50]
000000 b0 b0 ec 3a 35 ac ce 3a ca 87 01 3a 25 e1 02 39
       0.0018058028 0.0015767874 0.00049411936 0.00012481639
000010 9d ce 7b 3a 6c c6 10 3b 25 2f 0d 3b 09 74 b6 3a
       0.0009605678 0.0022090925 0.0021542993 0.0013920079
000020 3c 87 a4 39 b2 d0 3b 3b 9b 14 78 3b 8d 2a 18 39
       0.00031381275 0.0028658328 0.0037854079 0.00014511701
000030 48 c3 f0 3a 64 bc 59 3b 94 1b 24 39 96 1f 1a 3a
       0.0018368745 0.0033223862 0.00015650532 0.00058793405
000040 aa 66 59 3b 3e d4 05 b8 4b c5 91 3b 26 89 35 3b
       0.0033172765 -3.1907337e-05 0.004448568 0.0027700155
000050 99 53 b3 39 fc c5 88 3a 00 00 00 00 57 b5 98 3b
       0.00034203826 0.001043498 0.0 0.0046602893
000060 ff 87 fa 38 8c 09 70 3b f0 95 6c 3b b6 b7 b0 b8
       0.0001194626 0.0036626784 0.0036100112 -8.426553e-05
000070 1b 16 71 3a 51 f7 93 3b 26 6e 0c 3b ce 47 50 3b
       0.00091967144 0.0045155664 0.0021427958 0.003178108
000080 b5 e0 87 39 f4 d1 51 3a 16 c0 4a b9 5e 43 12 3a
       0.00025916626 0.0008004003 -0.00019335779 0.00055794965
000090 1e ca f3 b7 b7 5b 88 38 ae 18 23 3b e7 4f 12 3a
       -2.9061976e-05 6.5020686e-05 0.0024886536 0.00055813644
0000a0 3e 39 78 3b 92 74 ae 39 73 f3 09 3a 04 56 47 3b
       0.0037875916 0.00033274718 0.0005262412 0.003041626
0000b0 f5 b2 83 3b c1 26 d5 39 29 e7 4d 3a 0b d7 46 39
       0.004019136 0.000406554 0.0007854575 0.00018962861
0000c0 61 91 dd 3a 6b 5f 33 39 cf f8 f5 38 24 7d 96 39
       0.0016904288 0.00017106316 0.000117288546 0.00028703467
0000d0 14 d6 38 3b f0 d0 1f 3b 88 a5 91 3a 00 17 d3 3a
       0.0028203772 0.002438601 0.0011111954 0.0016104877
0000e0 26 5f 68 b9 01 f6 2d 3b 44 12 36 3b 72 68 cf 39
       -0.0002216069 0.0026544335 0.0027781883 0.00039559935
0000f0 01 54 2f 3b 6e 2c 06 3b 64 69 2a 39 aa ba 35 3b
       0.002675295 0.002047326 0.00016251724 0.0027729669
000100 eb b8 a9 39 42 0b 21 3a c8 ea 8e 3a d1 2a fa 3a
       0.00032371967 0.000614334 0.001090371 0.0019086247
000110 ca bd 88 3a 33 09 f5 3a 74 68 0c 3b 4a 28 32 3b
       0.0010432538 0.0018694758 0.0021424564 0.0027184659
000120 00 00 00 00 ac 60 43 3b cb b8 09 38 bb a0 a8 3a
       0.0 0.002981226 3.2835447e-05 0.0012865284
000130 34 9e 31 3a e0 9f 24 39 98 05 77 3a a0 f4 4d 3b
       0.0006775588 0.00015699817 0.0009423136 0.0031426325
000140 43 e1 17 3b 7e 5c 0c 3a e3 50 ef 39 bc 7e de 3a
       0.0023175038 0.00053543586 0.00045645898 0.0016975026
000150 9e ce ad 3a 72 93 cb 39 08 26 91 3a 05 e6 0c 3a
       0.0013260429 0.00038829033 0.0011073956 0.0005374852
000160 d5 95 15 3a 71 56 d9 38 ca 03 e7 3a 66 cf 0a 3b
       0.00057062256 0.00010363467 0.0017625031 0.0021180748
000170 1c de a8 39 b2 e6 51 39 aa e6 84 3a 18 e4 06 3b
       0.0003220894 0.00020017734 0.0010139544 0.0020582732
000180 18 85 40 39 ec e6 b8 b8 7a 97 8e 3a a2 c9 5b 39
       0.00018360128 -8.816816e-05 0.0010878884 0.00020960582
000190 be a5 5a 3b e4 51 86 3a 19 9e 39 39 6a d5 8b ba
       0.003336295 0.0010247794 0.00017701871 -0.0010668461
0001a0 4a ef 31 3b ce 26 1f 3b 91 e4 06 3a 79 65 d0 38
       0.0027150684 0.0024284604 0.00051457534 9.937114e-05
0001b0 f3 94 80 38 23 c8 ff 3a 9f d2 66 3b 60 b1 dc 39
       6.1312596e-05 0.0019514601 0.0035220755 0.00042093825
0001c0 54 08 e2 b8 95 82 7c 3a ce 1c 31 3a 2e 4b e0 3a
       -0.00010778071 0.00096324953 0.00067563064 0.0017112249
0001d0 ad 14 03 3b eb 3a 8d b9 26 57 9a 3a 23 e7 39 3b
       0.0020001337 -0.00026937513 0.001177524 0.0028366528
0001e0 82 ec f0 38 b7 7a 05 3a 00 00 00 00 62 ce c4 3a
       0.00011488145 0.00050918333 0.0 0.001501512
0001f0 ae 87 1f ba ae e6 80 3b fc dd 5c 3b ac 96 b9 39
       -0.00060855865 0.003933749 0.003370165 0.0003539821
000200 fc 41 c2 3a 8a 7e bd 39 75 f3 45 3b 73 60 29 3a
       0.001482069 0.00036143168 0.0030204926 0.00064612104
000210 0f 6c 2f ba 57 4b 0a 3a 10 dc 6e 3a c2 ce 44 3b
       -0.0006691822 0.0005275509 0.00091117714 0.0030030464
000220 1e 5f 5a 39 b8 af 14 ba 70 99 fe 39 29 93 ef 3a
       0.00020825534 -0.0005671936 0.00048560975 0.001827811
000230 eb c7 67 3b f8 08 a2 39 24 73 11 ba 88 5b 20 3b
       0.0035366963 0.0003090573 -0.00055484683 0.002446862
000240 7a ae fd 3a 5d 9a 5c 3a 10 ef b1 3a 23 2e 8a ba
       0.0019354366 0.0008415336 0.0013575274 -0.0010542314
000250 c9 ef 16 3b 4d 79 3a 39 6f a7 0d 3a 08 7f 27 bb
       0.0023031107 0.0001778353 0.00054036727 -0.0025557894
000260 24 94 3e bb 3f 85 c1 ba a6 1c 4c 3a 3e 58 df b9
       -0.0029079998 -0.0014764442 0.00077862514 -0.0004259962
000270 b8 c0 4c b8 98 f7 b9 bb cf a0 a7 ba ee bb 84 ba
       -4.8816873e-05 -0.0056752674 -0.0012789014 -0.0010126808
000280 41 35 1a bb 4e 28 99 b9 e3 05 4d 3a 4d 50 63 bb
       -0.0023530277 -0.00029212463 0.00078210066 -0.0034685314
000290 44 82 ea 39 ba c8 cb ba c3 c7 8e ba 54 27 3a ba
       0.00044729013 -0.0015547492 -0.0010893274 -0.0007101197
0002a0 14 f3 44 39 e7 89 8b bb 44 39 01 bb 2b 7e 56 ba
       0.0001878257 -0.0042583826 -0.001971797 -0.00081822526
0002b0 00 00 00 00 52 1e 77 bb 50 78 0d 39 22 75 2c bb
       0.0 -0.0037707281 0.00013491628 -0.0026314934
0002c0 44 f2 1f bb 11 6d 5a 3a a4 c6 cc b9 90 cc 53 bb
       -0.0024405876 0.0008332292 -0.0003905791 -0.0032317974
0002d0 6c b6 04 bb 10 d4 f8 39 93 c4 3b 3a 00 ba ca ba
       -0.0020250333 0.00047460245 0.0007162776 -0.0015466809
0002e0 b5 5d 0c bb ae b3 65 3a 4a 89 9a ba da 5b 97 b9
       -0.0021418158 0.0008762431 -0.0011790183 -0.000288694
0002f0 42 11 9a ba 1f 84 11 b8 9c 1b 86 b9 7c c5 39 3a
       -0.0011754411 -3.469374e-05 -0.00025579042 0.00070866174
000300 ce a8 d2 3a c6 54 dd ba 6d 53 d3 ba 45 ac 41 ba
       0.0016072036 -0.0016886226 -0.0016122885 -0.0007388036
000310 25 17 16 ba f8 ef ab 3a c2 ce fd ba f8 a6 dc 39
       -0.00057254947 0.0013117781 -0.0019363987 0.0004208607
000320 2c 18 ed 3a 7c c8 33 ba 39 32 72 ba 92 66 96 ba
       0.0018088869 -0.00068581826 -0.0009239051 -0.001147466
000330 84 a0 63 3a 16 fc ad 39 8b eb 73 3a f8 15 df b9
       0.00086832815 0.0003318495 0.0009304813 -0.00042550243
000340 83 92 26 ba 8b da cc 3a 4c a1 2f ba d7 ee 84 3a
       -0.00063542294 0.0015629096 -0.00066997553 0.0010141981
000350 37 d9 a8 3a b9 e6 9f b9 23 14 47 b9 ba c0 5a b9
       0.0012882118 -0.00030498745 -0.0001898562 -0.00020861896
000360 1e 27 9f 3a 89 dc df 38 24 e3 16 39 d0 fe 99 b7
       0.0012142395 0.000106745465 0.00014389731 -1.8357678e-05
000370 6e 29 b6 ba 39 d8 53 3a 00 00 00 00 d2 70 bf ba
       -0.0013897845 0.0008081231 0.0 -0.0014605767
000380 30 b6 fa 38 71 f9 ab 39 e0 0c 92 39 41 63 c9 39
       0.00011954864 0.0003280151 0.00027856883 0.00038411657
000390 93 ce fe 39 03 13 80 ba 26 63 0c ba fc a9 0c 3a
       0.00048600565 -0.0009771291 -0.00053553504 0.0005365906
0003a0 ee 3e de 39 7f 8f d3 b9 74 2b 29 38 c9 2d a5 39
       0.00042390026 -0.0004035197 4.033321e-05 0.00031505365
0003b0 9b 6a 5c b8 a2 df 67 3a 74 66 f8 36 a8 a9 8a b9
       -5.255137e-05 0.00088452746 7.402903e-06 -0.00026447815
0003c0 87 9f 2d ba 4f 08 82 b8 af e5 04 39 73 f2 15 3a
       -0.00066231977 -6.200431e-05 0.00012674065 0.00057200267
0003d0 ab 11 3c 3a 89 3b e2 b9 29 3a cf 38 f2 6f d7 39
       0.00071742636 -0.00043150436 9.881362e-05 0.000410914
0003e0 79 01 a6 ba 7f 9a 29 3a 8e 40 a4 3a 5b 85 c6 ba
       -0.0012665234 0.000646986 0.0012531446 -0.0015145944
0003f0 c4 28 25 ba b4 64 72 39 c4 93 a1 39 8c dd 3b 39
       -0.0006300325 0.00023116433 0.00030818407 0.00017916242

exp_avg_sq f4 [10, 50]
000000 b0 8d f1 38 45 81 3b 38 e4 f4 9e 38 3b b0 54 37
       0.00011518167 4.4704666e-05 7.5796415e-05 1.2677217e-05
000010 a5 e0 f3 38 1c 69 54 38 00 3a 66 39 d9 20 df 37
       0.00011628986 5.064263e-05 0.00021956116 2.6598967e-05
000020 36 c0 74 38 97 44 cb 38 90 25 55 39 1d f0 03 38
       5.8353144e-05 9.69257e-05 0.00020327256 3.1456457e-05
000030 08 37 b3 37 a9 2e f6 38 11 c4 8b 38 d5 43 62 37
       2.1364089e-05 0.00011738885 6.664557e-05 1.3486443e-05
000040 04 49 6c 39 41 95 db 35 60 ea 8e 39 fd 14 ab 38
       0.00022533914 1.636021e-06 0.00027258974 8.157825e-05
000050 87 0d 47 38 fe da ed 38 00 00 00 00 57 ee 25 39
       4.7457896e-05 0.00011341831 0.0 0.00015824415
000060 a5 40 f4 36 43 54 07 39 20 76 da 38 ab bf 47 38
       7.2792923e-06 0.00012905993 0.000104170525 4.7623802e-05
000070 c8 e6 9f 37 3d 3b 09 39 b9 a7 4f 39 f3 72 90 38
       1.9061743e-05 0.00013087406 0.0001980354 6.887866e-05
000080 5e 3c bd 37 75 89 7c 38 ef 54 84 38 c0 29 82 37
       2.2558666e-05 6.02095e-05 6.3100706e-05 1.5516649e-05
000090 8d 6a 84 37 ea ae 90 36 3b 78 25 38 c5 3d 05 39
       1.5785243e-05 4.311897e-06 3.945104e-05 0.0001270688
0000a0 14 09 ea 39 cd 94 41 37 b2 e3 6c 36 46 19 0b 39
       0.00044638722 1.1538342e-05 3.5299277e-06 0.00013265488
0000b0 a7 89 2c 39 4d cf c0 37 ba 2c 01 38 da 5f 11 37
       0.00016454478 2.2984716e-05 3.079765e-05 8.664991e-06
0000c0 7d 7f aa 37 d0 71 34 37 b5 b5 aa 36 16 da 98 38
       2.0324946e-05 1.0755335e-05 5.0875483e-06 7.2885465e-05
0000d0 1b e5 70 39 34 d1 43 39 d8 47 82 37 be 6e 9b 38
       0.00022973532 0.00018674583 1.5530662e-05 7.411603e-05
0000e0 e7 b6 3a 37 22 c5 d7 39 a7 a7 fa 38 9f d0 a3 37
       1.1129049e-05 0.0004115487 0.00011952157 1.9528261e-05
0000f0 63 03 15 39 1e 30 38 38 14 49 fe 35 10 38 42 39
       0.00014211009 4.391383e-05 1.8945743e-06 0.00018522167
000100 81 dc 07 37 76 e7 a6 38 00 bb 68 38 fc 1d bb 37
       8.097967e-06 7.95861e-05 5.5487268e-05 2.23061e-05
000110 3b af bf 38 0c bf 16 39 c5 1d 95 39 3d b7 bf 38
       9.140229e-05 0.00014376285 0.00028441675 9.1417205e-05
000120 00 00 00 00 ad 07 9c 39 d8 ac 9f 38 38 ce b4 38
       0.0 0.00029760358 7.6139055e-05 8.62148e-05
000130 b5 ca b5 37 e9 e9 dd 38 38 72 39 37 ac 82 a3 39
       2.1671274e-05 0.0001058167 1.1053453e-05 0.0003118714
000140 90 de 20 39 42 d9 9d 37 aa 88 1d 38 ec a7 28 38
       0.000153417 1.8817027e-05 3.7558995e-05 4.021071e-05
000150 87 de a4 38 d9 a5 35 37 38 eb 3e 37 e8 2e 2e 37
       7.861578e-05 1.0827055e-05 1.1379649e-05 1.0382129e-05
000160 51 45 a2 37 51 e3 c7 37 69 32 6b 38 ad da b4 38
       1.9344183e-05 2.3828501e-05 5.6075314e-05 8.6238004e-05
000170 eb 17 cf 38 f4 17 69 37 d4 80 7d 38 0a 95 12 39
       9.874984e-05 1.3893459e-05 6.043988e-05 0.00013979166
000180 1c c6 89 37 78 71 e8 37 90 26 94 38 52 0b 74 37
       1.6423925e-05 2.7709393e-05 7.064373e-05 1.4546169e-05
000190 46 5d f5 38 d6 b2 77 38 ba 9c 1d 39 b8 fc a6 38
       0.00011699884 5.9055943e-05 0.00015031072 7.962569e-05
0001a0 0a 31 24 39 00 df 13 39 6e 3f 0d 39 96 46 29 39
       0.00015658527 0.00014102086 0.00013470437 0.00016143391
0001b0 84 cc 93 38 e6 ee ee 38 b2 8f 95 39 39 da 29 39
       7.0476e-05 0.00011393223 0.00028526556 0.0001619839
0001c0 9c a3 82 37 88 9b 75 39 a5 4b 24 38 08 ee 9e 38
       1.5573394e-05 0.0002342296 3.9171096e-05 7.578364e-05
0001d0 06 a6 89 39 99 4d 2d 37 05 5a 46 39 10 4b 84 39
       0.00026254373 1.0329671e-05 0.00018916286 0.00025232928
0001e0 c6 55 5c 38 3c 62 8d 39 00 00 00 00 a1 3a b6 39
       5.253197e-05 0.00026966806 0.0 0.00034757427
0001f0 8e f8 ae 38 47 c5 67 39 81 5d 33 39 93 f5 3b 39
       8.3432635e-05 0.00022103368 0.00017105603 0.00017925193
000200 17 cd d7 37 c3 42 b0 39 81 23 cc 39 7b b4 c3 38
       2.57255e-05 0.00033619077 0.00038936365 9.331942e-05
000210 87 b3 5e 38 60 ac c9 38 7a 60 39 39 72 dd 82 38
       5.3096122e-05 9.616534e-05 0.00017678915 6.2401305e-05
000220 25 b3 17 38 78 f8 89 37 fc 48 a2 37 a7 c8 21 38
       3.6168047e-05 1.6447375e-05 1.934589e-05 3.8572263e-05
000230 bb 78 c4 39 2e 82 ae 38 68 5f 54 39 7b 62 c4 38
       0.00037473984 8.3212144e-05 0.00020253437 9.364352e-05
000240 a1 46 0d 39 ba d0 60 39 a6 fe 95 38 99 94 bf 38
       0.00013473119 0.00021440061 7.1523056e-05 9.135268e-05
000250 8b 67 5d 38 1c 6e ec 37 5c fb ca 38 f1 1f 1d 39
       5.2786938e-05 2.8184666e-05 9.67893e-05 0.00014984586
000260 f9 51 9d 39 f6 63 8e 38 7a d5 90 38 4b 18 1d 39
       0.00030006448 6.789707e-05 6.906218e-05 0.00014981737
000270 08 5c 31 39 3d 93 9b 39 1b e0 0c 39 af ba ae 38
       0.0001691432 0.00029673605 0.00013434926 8.331739e-05
000280 8f 2b 83 39 96 4c 41 39 75 20 0f 38 ad 5a 87 39
       0.0002501872 0.00018434445 3.4124085e-05 0.00025816765
000290 5f bc 5c 38 cb 7f 36 39 2e 4b a1 39 7e d6 17 39
       5.262752e-05 0.00017404479 0.00030764326 0.00014480387
0002a0 9d 9e bb 39 38 dd 6a 39 16 3e c5 38 4a 59 6c 39
       0.00035785596 0.0002239839 9.4052564e-05 0.00022539977
0002b0 00 00 00 00 27 88 28 3a 66 86 e2 38 08 10 17 3a
       0.0 0.00064289797 0.000108015534 0.0005762582
0002c0 79 d4 b7 38 8a 7c 2c 39 6a 9e 9e 38 4c fc ef 39
       8.765696e-05 0.00016449593 7.563534e-05 0.00045773608
0002d0 51 01 1d 3a 83 58 cd 39 f4 54 74 38 12 56 57 38
       0.0005989271 0.00039166593 5.8253252e-05 5.1340154e-05
0002e0 f9 ca 1f 3a ae 1a f7 38 f0 b9 cf 38 0d f0 57 37
       0.0006095614 0.00011782847 9.905163e-05 1.287089e-05
0002f0 c4 4d a7 37 b5 64 36 38 7e 32 07 3a 5b 49 0d 39
       1.9944164e-05 4.3485972e-05 0.0005157365 0.00013474135
000300 1b b4 51 39 84 cb 4e 39 0c 6a a0 39 ff ec e8 39
       0.00019998888 0.00019721506 0.0003059659 0.00044427064
000310 03 80 84 38 47 f4 bb 38 e1 0d 90 38 a5 19 02 38
       6.3180945e-05 8.962355e-05 6.86904e-05 3.10183e-05
000320 5e d2 45 39 34 7c 3f 38 48 d0 07 39 d4 36 97 38
       0.00018865752 4.565362e-05 0.00012952194 7.2104536e-05
000330 43 14 e6 38 c9 87 19 39 4a 8c 69 38 e2 2f 44 39
       0.00010971029 0.00014641801 5.5682183e-05 0.00018709854
000340 d1 28 14 38 e6 21 e0 38 9e 11 88 39 55 6e 7c 37
       3.5323963e-05 0.000106874664 0.00025953067 1.5046059e-05
000350 63 e5 71 38 5c 7f ed 38 99 25 97 36 21 39 0b 38
       5.767251e-05 0.00011324763 4.5045276e-06 3.3193388e-05
000360 27 72 ca 38 4a 88 9d 38 ac ce 43 39 64 af 80 38
       9.653373e-05 7.511729e-05 0.0001867364 6.136185e-05
000370 be 62 44 39 77 72 ed 37 00 00 00 00 53 f2 b4 39
       0.00018728801 2.8305903e-05 0.0 0.0003451282
000380 c0 f5 39 37 11 07 61 39 8b 07 f3 38 0b 16 70 36
       1.1084077e-05 0.00021460305 0.00011588548 3.5775618e-06
000390 61 c0 49 39 06 09 62 39 b4 f1 98 39 82 ba 1c 38
       0.0001924052 0.00021556401 0.00029171782 3.7366997e-05
0003a0 79 8d 17 38 6f 01 e3 38 f1 32 41 37 a2 79 56 39
       3.6132962e-05 0.000108244705 1.1515557e-05 0.00020453942
0003b0 ea c4 f0 36 f1 32 5a 38 27 4b 21 38 d6 88 fe 37
       7.175481e-06 5.2022693e-05 3.8455382e-05 3.0342879e-05
0003c0 86 ab 5b 39 32 bb 28 39 6e 60 88 36 84 d3 28 38
       0.00020949365 0.00016091464 4.0643417e-06 4.025131e-05
0003d0 3b 8a d7 38 b0 e8 8b 38 fd a9 f3 36 96 3b eb 37
       0.00010277746 6.671378e-05 7.2617536e-06 2.804193e-05
0003e0 40 7b 29 39 3f f5 4d 37 fb d1 78 38 af b1 27 39
       0.0001616301 1.2276053e-05 5.9323367e-05 0.00015992553
0003f0 d2 60 63 39 84 77 35 38 47 e4 5e 38 ad ca a2 38
       0.00021684475 4.326507e-05 5.3141524e-05 7.762513e-05

exp_avg f4 [10]
000000 4d 7d 4c 3a 31 6a 35 3a 9a cd 0a 3a a9 a6 0b ba
       0.00078006537 0.0006920426 0.0005294919 -0.00053272635
000010 20 a3 b6 b8 6b c7 21 b9 36 8c 4d b9 44 c0 66 b9
       -8.708821e-05 -0.00015428445 -0.00019602556 -0.00022006134
000020 3e 43 d0 b9 a8 2c d9 b9
       -0.0003972295 -0.00041422737

exp_avg_sq f4 [10]
000000 06 b0 0b 37 7a af 48 37 7c 3d 7f 37 93 d2 c3 37
       8.326029e-06 1.1961785e-05 1.52135e-05 2.3343868e-05
000010 d1 91 6d 37 91 db 90 37 4a 27 10 37 bb 94 91 37
       1.4160251e-05 1.7268381e-05 8.592217e-06 1.7354605e-05
000020 2d 67 c9 37 57 4d de 37
       2.4009112e-05 2.6500476e-05
