swastik_web/Learning&Experiments/PytorchTutorials/pytorch lightning/dashboard/mnist_clsfy/version_1.0/checkpoints/epoch=3-step=1500.ckpt (torch, 484079 bytes, 12 tensors)

fc1.weight f4 [50, 784]
00000000: 0030 8cb9 b6f2 9c3c accc f0bc 9350 d7bc
00000010: ce5e 61bc 10e9 1c3c 407f 39ba 12fa e73c
00000020: 30b6 4fbb 10d6 1a3c 7cd6 30bc a409 e6bb
00000030: e519 4bbe 93fc 33be 2432 f03d 884e 203d
00000040: dc53 673c ae8c af3c a058 c6bc d8ce 7ebc
00000050: b088 543c a2f2 f23c 54d8 f0bb 46ef da3c
00000060: 70a1 bcbb 60aa 773b 4f75 043d 76b4 07bd
00000070: 502f b8bc 4a23 14bc b216 64bc 2ec8 fc3c
00000080: 83c0 9abd 76c8 eabd 18f1 52be 0a34 83be
00000090: cfca bdbe 13ca f2be 82f5 35be c7f3 29be
000000a0: 804b 90be 27ed a6be 0802 133e 6d88 0bbe
000000b0: 2a72 ecbd 08cd c0be efa9 5fbe eb11 cdbe
000000c0: 8ee8 fdbe 7815 c4be 64a3 68be 1a9a fbbd
000000d0: 983b 683c e818 9e3b 482a c43c 4a44 acbc
000000e0: 6813 da3b 0ed5 e2bc 29c7 7bbd f598 9dbe
000000f0: 79e0 a2be b8a2 7cbe 2b5a fbbe a442 2cbf
00000100: 7ccb 3ebf 3709 6bbe d4cb 37be 99ca 07bf
00000110: 2168 adbe e979 7f3c 70e8 f4bd bb59 91be
00000120: 9160 46be b272 6f3d 6e4e aa3e 4ef5 ca3d
00000130: 1264 9dbd c0b9 f43c 36a2 2dbe d3fe 01bf
00000140: 712a e0bc 8e23 09be a675 de3c 92ec 11bd
00000150: 780b db3b 7825 c5bb 8044 37bd ecbe 10bf
00000160: c024 09bf eac8 87bd d96a 66bc 1653 11be
00000170: 4bc6 bbbe 6b6d c1bd 4cc7 46be 5d21 26be
00000180: d0ac 5bbe 6f06 7abc a237 62bd 963b cabd
00000190: 8896 2dbe a516 cabd 0efd 08bc 54ec 73be
000001a0: 3b65 e4be cd84 e4bd d170 00be ec26 f7be
000001b0: 82f5 17bf 13f9 8a3e b97c b3bc f89a ad3c
000001c0: 8a0a b2bc 2360 2a3b 567b b1bd e31b 05bf
000001d0: 3446 80be 7285 c9bd 7fa0 6e3e 5df2 db3d
000001e0: bb15 713d b161 ad3d 3c42 2fbe 6de5 5dbe
000001f0: 6990 12be 3d73 ea3d 4c68 35bd e3af 05be
00000200: 556b 3ebe 0f61 57be 8b95 e6bd 183b 62be
00000210: ba18 6bbe 76f5 8ebe 165b babd 7a21 213e
00000220: 331b 333e 2284 9a3e 9d52 75be 265e 7ebc
00000230: 8f91 0a3d 9acc b93c 9815 25be 7f91 87be
00000240: 5681 d2bd 26b1 8e3c c5ad 313e 42cb 4dbd
00000250: 25ce 463e dd54 8f3d 73dc 31bd 8c1c 14be
00000260: acab 3ebd 3276 043d b505 20be a603 22be
00000270: ee68 16bd 1409 4cbe c171 21be 41a4 7cbe
00000280: 0c4b a4be 9f61 20be b07e f1bd eb31 0fbe
00000290: c56d 74bc 1a0a 383e a0af 07bf 7645 36bd
000002a0: 6baa 03bd 25d1 b2be 7473 aa3e 0032 c13e
000002b0: ffe6 ce3e 95ec cc3e f3e8 903e fea0 7a3d
000002c0: f289 2a3e 3653 b43d 7379 353d 882a 423c
000002d0: defc b53d 3df4 b4bd 40fc 5cbd c65c 87be
000002e0: 1566 d7bd 33ab 9fbb 807b 21bd 9a0f a8bd
000002f0: e953 4fbe 1853 86bd 8816 493c b2b5 41bd
00000300: ed97 e2be c1f9 73be 3346 94be 7bb2 49be
00000310: 57e9 a7bc 79c8 e6be 41ea 963e 6445 e03e
00000320: 6abe b43e d7be 873e e5f3 ce3e ca08 f93c
00000330: e706 70bd bf2c 113d 30fa bebd 09f2 1bbd
00000340: 036c 313c 09ab b03d 0b20 b7bd f9ea 1bbd
00000350: 3db3 87bd 1137 c43c cf2a 02bb ddb3 6abd
00000360: f01c b3bd 14c1 993d 4ddf 473e bb13 54be
00000370: a777 0bbe 1547 7c3e 78c4 98bd 98b5 59be
00000380: 4dbb d4be 3c02 693e f802 983e 6139 1b3e
00000390: b639 0c3e 6626 c93d 432b 4b3e 3b45 50bb
000003a0: b633 573c 30a1 3bbd 57df 133c e3ef cdbd
000003b0: 9229 8cbe 148a 48be c2f0 00bd 0369 1e3c
000003c0: c808 35bd d31f 863b 99cd 8b3d a0a7 60bd
000003d0: 116a 48bc 6173 4a3d ca90 5dbe e824 dabd
000003e0: cba2 363d 3b1d 053d 02b1 66be 374d 2abe
000003f0: aa80 763e e10e 153e eb43 cfbc b19e b33d
-0.00026738644 0.019158702 -0.02939447 -0.026283538 -0.013755513 0.009577051 -0.00070761517 0.028317485
-0.0031694286 0.009450451 -0.010793325 -0.007020192 -0.19834097 -0.17576818 0.117283136 0.039137393
0.014119115 0.021429386 -0.024212182 -0.015552245 0.012972042 0.029656712 -0.007350007 0.026725423
-0.0057565495 0.003779076 0.032338437 -0.033131085 -0.022483498 -0.009041617 -0.013921427 0.030857172
-0.0755625 -0.11464016 -0.20599782 -0.2562564 -0.37068793 -0.47419795 -0.17769435 -0.165969
-0.28182602 -0.32602808 0.14356244 -0.13626261 -0.115452126 -0.37656426 -0.21842168 -0.40052733
-0.49591488 -0.3829763 -0.22718579 -0.12285252 0.0141743645 0.0048247464 0.023945943 -0.021028657
0.0066551454 -0.027689483 -0.06146923 -0.3078076 -0.31811884 -0.24671447 -0.4909223 -0.67289186
-0.7452924 -0.22952734 -0.17948848 -0.53043514 -0.33868507 0.0155930305 -0.119583964 -0.2838877
-0.19372775 0.05845899 0.33262962 0.099100694 -0.076851025 0.029873729 -0.1695641 -0.50779456
-0.027363988 -0.1339247 0.027155709 -0.035626 0.006684717 -0.0060164295 -0.04474306 -0.56541324
-0.535717 -0.06630118 -0.01406356 -0.14191851 -0.36674723 -0.09444698 -0.19411963 -0.16223665
-0.21452641 -0.015260323 -0.055228837 -0.09874646 -0.16951954 -0.098676 -0.008361114 -0.23820621
-0.44608483 -0.11158142 -0.12543036 -0.48271883 -0.5935899 0.27143154 -0.021910058 0.021192059
-0.021733541 0.0025997243 -0.086661026 -0.51995677 -0.2505356 -0.09839906 0.23303412 0.107395865
0.058858614 0.08465899 -0.1711511 -0.2166955 -0.143129 0.11447761 -0.04428892 -0.13055377
-0.18595631 -0.21033119 -0.11258992 -0.22092855 -0.22958651 -0.27921647 -0.090994045 0.15735427
0.17490844 0.30178934 -0.23957296 -0.015525376 0.03383022 0.02268057 -0.16121519 -0.26478192
-0.10278575 0.017418455 0.17351444 -0.05024267 0.19414575 0.06998608 -0.043423127 -0.14464015
-0.046550438 0.032339282 -0.15627177 -0.15821704 -0.036721162 -0.19925338 -0.1576605 -0.24672033
-0.32088506 -0.1566224 -0.11791742 -0.13983886 -0.014918749 0.17972603 -0.5300236 -0.044499837
-0.032144945 -0.3492519 0.3329121 0.3773346 0.4041061 0.40024248 0.28302726 0.06118869
0.16654184 0.08804934 0.044305276 0.011850961 0.08886121 -0.08835647 -0.0539515 -0.26437968
-0.105175175 -0.0048727035 -0.03942442 -0.08206101 -0.20246853 -0.065588176 0.012273438 -0.04729242
-0.44256535 -0.23825742 -0.28959808 -0.19696991 -0.020497007 -0.45074823 0.29475597 0.4380294
0.35301524 0.26512787 0.40420452 0.030399699 -0.058600333 0.035443064 -0.09325063 -0.03807262
0.010828975 0.08626372 -0.089416586 -0.038065884 -0.06625984 0.023952039 -0.0019861942 -0.057300437
-0.08745754 0.0750753 0.19518776 -0.20710652 -0.13619862 0.2463649 -0.074593484 -0.21260679
-0.4154915 0.22754759 0.29689765 0.15158607 0.1369389 0.09821777 0.19840722 -0.0031779546
0.013134887 -0.045808017 0.009025416 -0.100555204 -0.27375466 -0.19583923 -0.031479605 0.009668591
-0.044197828 0.004093149 0.06826324 -0.05484736 -0.012232319 0.04942644 -0.21637264 -0.106515706
0.044588845 0.03249858 -0.2252846 -0.16631018 0.24072519 0.14556457 -0.02530094 0.08770502

fc1.bias f4 [50]
00000000: c987 443e 6f37 603d 9305 873d d95f 633e
00000010: bc9e fe3d 1ad8 993e e05b 39be 2376 ce3d
00000020: 373c 863e d0b1 f23d e2ad b53d fafd d1bd
00000030: debd c83d d3a5 213e bf31 533d eca5 41be
00000040: 135e a2be 4765 9d3d 2d92 d33d 4b94 6d3c
00000050: 0121 7d3e 50f8 8abe 9e65 bebc 7d0e 883e
00000060: 3a40 44bc 5fb5 bf3c 76c9 603e 3c88 2f3e
00000070: c192 6a3e 48ff 4e3c 479c 213c 8daa 5bbe
00000080: 6b15 b83e cc39 463e d369 02be 424a b93e
00000090: fce3 00bd 996a 353e 0539 f5bd 58cb 8d3d
000000a0: 90a0 b23d bd3a 4c3b af4b f0bd 8a05 89be
000000b0: 0ad4 07be 34da 1bbe 8565 0bbe 12dc 4b3d
000000c0: e251 9a3d a554 c1bd
0.19192423 0.054740366 0.0659286 0.22204532 0.1243262 0.30047685 -0.18101454 0.100811265
0.26217815 0.11850321 0.08871056 -0.1025352 0.09801839 0.15785913 0.051561113 -0.1891095
-0.31712398 0.07685333 0.10330615 0.014500688 0.24719621 -0.27142572 -0.023241814 0.26573554
-0.011978203 0.023401914 0.21951851 0.17141813 0.22907545 0.012634106 0.00986392 -0.21451779
0.3595384 0.19357985 -0.12735681 0.36189467 -0.031467423 0.17716445 -0.11973766 0.0692355
0.08722031 0.003116294 -0.117331855 -0.26762038 -0.1326448 -0.15219957 -0.13612945 0.049770422
0.07535149 -0.09439973

fc2.weight f4 [10, 50]
00000000: 7e81 f5bd 68a3 2dbf c209 eeba b499 fabe
00000010: aa74 423d a54b 26bf 5494 693e e887 953c
00000020: d4ca 233e c678 a53e 5574 2abd c113 f3bb
00000030: e271 3dbe 28ae 0b3d 3cfe d13e a94b 0abe
00000040: 4b9c 573e e3fa 81bf fad4 a53d c8fb 72be
00000050: 07d8 493d 14ee fd3e b550 c4bd aebe d6be
00000060: ae7d 1cbf 2261 3ebe 0336 6d3e cd89 aa3e
00000070: 66c0 82bf 4d1d b8be c134 e3bd b7ce 0d3f
00000080: 1108 ecbd b1d8 d9bc 08a6 b2bd b421 2dbf
00000090: ec1e 8e3e 8930 8cbf 7433 f43e a141 483e
000000a0: 75e7 a93e e704 a43e 4fc3 8cbf 9364 863e
000000b0: 5547 993e bb19 26bf 71e8 cdbe b2fe 4dbe
000000c0: 5294 193f aa76 11bf f55c 38bd 3306 153f
000000d0: fd9a c4be 0f38 523d 3b02 53bf 6c84 553e
000000e0: 34c4 5ebf 934b 863e 3c51 4a3d 655f fcbe
000000f0: 9046 193e c032 73bc 63be 96bf 349d 8b3e
00000100: 6159 0fbe 0f19 5b3e d709 7ebe b8f2 c0bd
00000110: a173 5b3f 34c4 c53e fa96 8f3e db91 8a3d
00000120: dd01 8d3d 94fb a9bd f7ab ba3e 04eb debe
00000130: 25a0 59be 3bfd 093f 3fee 56bf 8c85 02bc
00000140: af72 a2be fd11 24bf 4851 7c3f dcd2 e1bd
00000150: 4b2d 5bbe fd88 2dbf ff0d ebbe 9535 1a3d
00000160: ff86 48bd 4927 c43e bf58 1bbf 385e c53e
00000170: 28e0 a93e 9588 cbbe b38e ebbe e03d f8bc
00000180: d796 bf3e dd76 f5be dd38 84bd a98a dfbe
00000190: 3a65 de3e 231e 01bf 170d 89bf 3d84 083e
000001a0: 0409 a83c acfb 2fbd 7427 66bd 9251 aa3e
000001b0: bc52 4bbf 55c5 acbd c0e0 f3bb edaa 4f3e
000001c0: 7d42 c0be 84c0 843e c09e 943e 9946 72be
000001d0: 8a72 043e cbdb bbbf 9c73 01bf 800f b93e
000001e0: 1b4c 2fbf a048 fb3e 57b7 cbbd f49d c5bc
000001f0: 5f8e 163e 4a6f aabe 4acd 053f b196 183f
00000200: 9c63 9bbe 48bb 0e3e f75f 993d a2ed bcbe
00000210: b2bb a8bd 6921 0e3f 541b 4f3e bc29 6fbe
00000220: 5507 563e 3932 62be 9bdb b2be a0ce 1ebf
00000230: 2104 8e3c cd2f 21be 6096 b03e 1122 89be
00000240: 4f56 e7bd 479d 623e d26a 3e3f 3559 033f
00000250: d036 093e b2af 6bbc 6ab1 5ebf e0f2 083f
00000260: 51cf fe3d b001 80bf c903 303c 2f41 02be
00000270: fc7a bb3e ba8d 913c 1b2d f93d 0e58 21be
00000280: 6d7a e83d 76bc e43e 9de1 6dbf ff62 b5bd
00000290: 9a79 3bbf b1cb c63d 16c7 373e 751a c13e
000002a0: 8719 f7be 975b d1bc 83b2 69bf f394 03be
000002b0: f4ff 683d ad52 9c3d 09e9 b53e feb2 2c3e
000002c0: b103 d5be 4f4f 0fbe a69f fabd 91d0 a339
000002d0: 1d8c 603e d13d d23e 6376 eb3d 9699 06be
000002e0: 99ec 443e ad5e 6a3e 091c 163f 1405 35bf
000002f0: 644a acbe 34ac 88bd a683 fb3c cff7 b83d
00000300: aa26 8a3d 8c33 f43d 7ebd 7abe e36f 443e
00000310: b6d5 743e 14ed 783d 6d93 d63d 9c04 0ebf
00000320: 8dc4 683e bd24 b73d a31e 3e3e 654d e63e
00000330: 519d cb3d e95a a53e 56df 2e3e 9305 613e
00000340: 71d5 48bf 9700 c53e 222e bb3d 1c16 59bf
00000350: 0287 d13e 8a3e eebd 90a5 88bf 8143 09bf
00000360: 0a10 80ba c1b8 f73e 231f 773e c687 f6bd
00000370: e61c 623d 1db0 7fbf c0b1 0a3c aa7f 923b
00000380: e154 a9be ccdd 153e f5fe c73e 09ab 9ebf
00000390: dfc7 b13e 8eb7 a3be 2f8c ad3e b7c1 8ebf
000003a0: f22a 5a3f f297 aabe ceb5 64bf c21e ac3d
000003b0: 8f0c 68bf f93d d03e 0c4f d6be c2d1 95bf
000003c0: d880 8a3e 2082 873e 852f 23bf b441 d0be
000003d0: 0745 58bb b25a 303e baf7 53bf efc5 4cbf
000003e0: 357d ccbd 59d5 87bf 417c 21bf 4aad e53d
000003f0: b00b d23e 5676 003e d708 37bf b993 88be
-0.11987589 -0.67827463 -0.0018160867 -0.4894539 0.04747454 -0.64959174 0.22810489 0.018253282
0.15995342 0.32318705 -0.04161485 -0.0074181263 -0.18500474 0.034101635 0.41014278 -0.13505425
0.21055715 -1.015469 0.08097263 -0.2372886 0.049278285 0.49595702 -0.09585706 -0.41942352
-0.6112927 -0.1859174 0.23165135 0.3330826 -1.0214965 -0.35959855 -0.110940464 0.55393547
-0.11524976 -0.026592584 -0.08723074 -0.6762955 0.27757967 -1.0952312 0.47695506 0.19556285
0.331844 0.3203499 -1.0997103 0.26248607 0.29937235 -0.6488301 -0.402164 -0.2011669
0.59991944 -0.5682169 -0.045010526 0.58212584 -0.38399497 0.051322993 -0.8242528 0.20851296
-0.8701813 0.26229534 0.049393877 -0.4929153 0.14968324 -0.014843643 -1.1776851 0.27268374
-0.13998939 0.21396278 -0.24808441 -0.09421295 0.8572331 0.38626254 0.28044873 0.06766101
0.06885121 -0.08299938 0.36459324 -0.43538678 -0.21252497 0.53902024 -0.83957285 -0.00796641
-0.31728122 -0.6408995 0.98561525 -0.11026546 -0.21403997 -0.6778715 -0.45909116 0.037648756
-0.048956867 0.38311222 -0.6068229 0.38548446 0.3317883 -0.3975264 -0.46007308 -0.030302942
0.3741977 -0.47942248 -0.06456158 -0.43660477 0.43436605 -0.5043661 -1.070712 0.13331695
0.020512111 -0.042964622 -0.05618997 0.33265358 -0.7942312 -0.084360756 -0.007442564 0.20280047
-0.37550727 0.25928128 0.29027367 -0.23659743 0.12934318 -1.467645 -0.5056703 0.36144638
-0.684755 0.49078846 -0.09947079 -0.02412317 0.14702748 -0.33288032 0.5226637 0.59604937
-0.30349433 0.1393863 0.07489007 -0.3690005 -0.08238925 0.5551973 0.20225269 -0.23355764
0.20901234 -0.22089471 -0.3493317 -0.62034035 0.017335953 -0.15740891 0.34489727 -0.26783803
-0.11295759 0.22130309 0.74381745 0.51307994 0.13399816 -0.014385151 -0.8698946 0.534956
0.12441886 -1.0000515 0.01074309 -0.12720178 0.36617267 0.017767776 0.12166806 -0.15756246
0.11351476 0.44675034 -0.92922384 -0.08856773 -0.73232424 0.0970682 0.17947039 0.37715498
-0.48261663 -0.025556369 -0.9128801 -0.12849788 0.05688472 0.07632957 0.35529354 0.16865155
-0.4160438 -0.13995098 -0.12237482 0.00031245177 0.21928449 0.41062787 0.1149719 -0.13144526
0.1923088 0.22887678 0.5863653 -0.70710874 -0.33650506 -0.0667347 0.030702423 0.09031641
0.06745656 0.11923894 -0.24486348 0.19183306 0.23909649 0.06077297 0.10477338 -0.55475783
0.22731228 0.08942554 0.18566374 0.44980922 0.09942115 0.3229592 0.17077383 0.21974783
-0.78450686 0.38477013 0.091396585 -0.8479936 0.40923315 -0.11633022 -1.0675526 -0.5361863
-0.0009770405 0.48383144 0.24132971 -0.120376155 0.05520334 -0.998781 0.00846523 0.004470785
-0.3307257 0.1463539 0.39061704 -1.2395946 0.34722802 -0.3197598 0.33896014 -1.1152867
0.8522178 -0.3331905 -0.8933991 0.08404304 -0.9064416 0.4067228 -0.41857183 -1.1704638
0.27051425 0.26466465 -0.63744384 -0.40675128 -0.0033000128 0.17222098 -0.82799876 -0.7998952
-0.09984819 -1.0611984 -0.6308022 0.11214693 0.41024542 0.12545142 -0.71497864 -0.26675203

fc2.bias f4 [10]
00000000: 2676 94be f974 e03d 0043 223e a0e4 36bd
00000010: 98ab a13e 0e51 d83d 188d 113e 5cd9 b3bd
00000020: 854d 1e3c 9dc7 53bd
-0.2899639 0.10959811 0.15845871 -0.044651628 0.31576228 0.10562335 0.14213979 -0.087816924
0.009662037 -0.051704038

exp_avg f4 [50, 784]
00000000: 0000 0000 0000 0000 0000 0000 0000 0000
00000010: 0000 0000 0000 0000 0000 0000 0000 0000
00000020: 0000 0000 0000 0000 0000 0000 0000 0000
00000030: a15d 2c1f 58b1 2d9f 3752 19a0 9f6d cc9d
00000040: 0000 0000 0000 0000 0000 0000 0000 0000
00000050: 0000 0000 0000 0000 0000 0000 0000 0000
00000060: 0000 0000 0000 0000 0000 0000 0000 0000
00000070: 0000 0000 0000 0000 0000 0000 0000 0000
00000080: 0000 0000 f757 cc21 0365 ff23 ac7e c223
00000090: 4f11 1128 a476 b529 68cc 992e 14e3 2232
000000a0: 5c16 9f32 66dc d1b3 3b90 30b5 2399 6830
000000b0: 7788 c631 5853 8030 c075 3b2a ef48 342a
000000c0: 8e15 8b2b f4ff fe2a 6665 0224 ca0e 2a22
000000d0: 0000 0000 0000 0000 0000 0000 0000 0000
000000e0: 0000 0000 0000 0000 0000 0000 ff50 4b28
000000f0: 115e 202d 2062 6a2d aa32 9f2b cb23 a6aa
00000100: 06bf 5230 2a7f 71b5 826e 9fb4 9ec1 9e33
00000110: 24f8 9234 a93f 6ab5 f538 b0b5 dd64 82b5
00000120: e8b1 3eb5 1f84 c3b4 3375 09b5 d2e5 4db4
00000130: d294 4d33 88b8 7c31 d938 0731 88f1 b5a9
00000140: 9c5a c3aa 3e2f 93aa 0000 0000 0000 0000
00000150: 0000 0000 0000 0000 0000 0000 e7f3 c529
00000160: 4166 d42c d52a c42c 7755 ecb6 3db8 73b8
00000170: 4465 6cb8 4e63 5db7 598a bd38 5f29 c538
00000180: 6b2a 3338 8aac 57b7 1594 6cb8 88ed 5bb8
00000190: 1191 88b7 0a6c 8eb7 abf7 8c37 dc15 2638
000001a0: dbbe e2b6 6d46 20b7 0440 04b6 902e 3ab6
000001b0: 5250 c3b3 02e2 aaaa 0000 0000 0000 0000
000001c0: 0000 0000 6887 2a2c 0000 0000 d147 232c
000001d0: b95b d830 2f28 ffb4 0027 15b8 870a 5fb8
000001e0: 0791 68b8 da4d 5ab8 cb9f 1639 d290 bf39
000001f0: d9c3 e139 b66b 043a ab4d d439 acdc eb39
00000200: 5a14 ce39 723d 8439 307b 9339 92d6 bf39
00000210: 2425 7a38 d97e 12b8 9577 8cb8 fd9a 4fb8
00000220: 4d84 2ab7 eb63 38b2 d1d0 c02f 0000 0000
00000230: 0000 0000 0000 0000 80d3 7cac aa02 202d
00000240: 073b 6ab3 09d7 4bb6 a0d3 80b8 4263 c4b8
00000250: bd03 ffb8 ff12 d1b8 5725 1139 8862 063a
00000260: 1e64 013a f425 fa39 5c10 c639 df7e ae39
00000270: 0060 1c39 ac11 0d39 c75c 0039 8dde 8739
00000280: f1b1 cb39 16eb d838 8b7e adb8 72a7 83b8
00000290: 5e27 8cb7 3eab c8b2 5b0f c930 fd4d 23a4
000002a0: 0000 0000 43ef 5a26 e1fb 7aae 49cb 8bb4
000002b0: 8c2a ffb3 eaa7 aeb5 2024 86b8 0c45 04b9
000002c0: 9d29 6db8 9bae 4eb9 9e4a fab8 5eb6 8f38
000002d0: dc13 db39 f6c5 113a 690f d039 6ffb 8d39
000002e0: d807 be38 8897 2738 b0cd 04b8 2856 cab8
000002f0: 13b0 d639 52c2 aa39 faf2 eab8 b457 3fb8
00000300: 00c7 8a37 3de9 b236 a259 9e32 89f3 f4a4
00000310: a2f5 3298 728e 94a9 e9e6 a82f 59c8 2bb4
00000320: 2033 deb2 3d1f 6ab6 00f6 5ab8 763f 87b8
00000330: 7055 52b9 4a64 b5b9 a49b 3ab9 4e4b 1c39
00000340: bef2 dd39 30b8 113a d663 273a 6101 143a
00000350: 053d 073a 27c1 ac39 a10d 9039 d3e4 df38
00000360: 03e2 083a d4af e139 4115 b1b8 aedf 52b7
00000370: b440 1f38 c47d 2c38 eabc 5eb2 c5cc 3f23
00000380: c6ae 2736 cbc9 aab1 3b8b a033 f446 2236
00000390: 514b bc36 deb8 9537 b147 69b8 cfb5 3bb9
000003a0: 4ec9 bdb9 38df 71b9 f293 2839 acbf dd39
000003b0: 6d63 1c3a 9401 2e3a b0da df39 de5e f139
000003c0: ee9a 0b3a a0e3 d739 7d5b 9c39 a820 0839
000003d0: 08d7 533a b032 413a 2cb3 db38 9eb3 b2b7
000003e0: bbe7 2538 cb6d 3d38 a25e bfb3 b78b 5326
000003f0: 42e4 ef9d 5ad3 ddab 1a96 a634 f778 9d38
0.0 0.0 0.0 0.0 0.0 0.0 0.0 0.0
0.0 0.0 0.0 0.0 3.6499865e-20 -3.678087e-20 -1.2986807e-19 -5.4111696e-21
0.0 0.0 0.0 0.0 0.0 0.0 0.0 0.0
0.0 0.0 0.0 0.0 0.0 0.0 0.0 0.0
0.0 1.3846862e-18 2.7689936e-17 2.108717e-17 8.05287e-15 8.0585956e-14 6.993944e-11 9.481273e-09
1.8520204e-08 -9.772411e-08 -6.577499e-07 8.461873e-10 5.7780727e-09 9.336913e-10 1.6649789e-13 1.6012515e-13
9.882527e-13 4.5297067e-13 2.8275144e-17 2.3047125e-18 0.0 0.0 0.0 0.0
0.0 0.0 0.0 1.1286327e-14 9.115834e-12 1.3323148e-11 1.1311692e-12 -2.951236e-13
7.6669016e-10 -8.9964544e-07 -2.9696463e-07 7.392667e-08 2.7375165e-07 -8.726443e-07 -1.3129599e-06 -9.71511e-07
-7.1039403e-07 -3.641771e-07 -5.1207024e-07 -1.9175721e-07 4.7865633e-08 3.677572e-09 1.96774e-09 -8.079914e-14
-3.470183e-13 -2.6145226e-13 0.0 0.0 0.0 0.0 0.0 8.790868e-14
6.036755e-12 5.5754104e-12 -7.0432975e-06 -5.81073e-05 -5.6361096e-05 -1.3195748e-05 9.0379915e-05 9.401398e-05
4.271643e-05 -1.2855171e-05 -5.6404697e-05 -5.2434887e-05 -1.6280015e-05 -1.6978029e-05 1.680463e-05 3.9597842e-05
-6.7575434e-06 -9.55314e-06 -1.9706795e-06 -2.7743263e-06 -9.095005e-08 -3.035489e-13 0.0 0.0
0.0 2.4233619e-12 0.0 2.320356e-12 1.5742138e-09 -4.752669e-07 -3.556069e-05 -5.3177147e-05
-5.5448178e-05 -5.2047755e-05 0.00014364642 0.00036538258 0.00043061262 0.00050514506 0.00040493658 0.00044987106
0.00039306545 0.00025222782 0.00028129807 0.00036590226 5.9639235e-05 -3.492725e-05 -6.697994e-05 -4.949699e-05
-1.0163593e-05 -1.0732928e-08 3.507297e-10 0.0 0.0 0.0 -3.592876e-12 9.0955386e-12
-5.4536056e-08 -3.0374524e-06 -6.142934e-05 -9.3644965e-05 -0.00012160044 -9.969435e-05 0.00013842188 0.00051263766
0.0004935878 0.00047711993 0.00037777692 0.00033282393 0.00014913082 0.00013453391 0.00012241594 0.0002591502
0.00038851754 0.00010343471 -8.272853e-05 -6.277756e-05 -1.6707632e-05 -2.3360936e-08 1.4629039e-09 -3.541105e-17
0.0 7.5958204e-16 -5.7067132e-11 -2.6038677e-07 -1.1882102e-07 -1.301288e-06 -6.396347e-05 -0.00012614223
-5.654396e-05 -0.00019710737 -0.000119348275 6.85274e-05 0.0004178573 0.00055608095 0.00039684333 0.00027080948
9.061367e-05 3.9957027e-05 -3.1662814e-05 -9.6481584e-05 0.00040948446 0.00032569707 -0.000112032474 -4.561963e-05
1.6543549e-05 5.331966e-06 1.8434381e-08 -1.06230697e-16 -2.3129974e-24 -6.5972306e-14 3.0723094e-10 -1.5998502e-07
-2.586745e-08 -3.48869e-06 -5.2204356e-05 -6.449122e-05 -0.00020058989 -0.0003459773 -0.00017796323 0.00014905373
0.00042333262 0.0005558757 0.0006385421 0.00056459574 0.0005158934 0.00032950306 0.00027475975 0.000106760905
0.00052216667 0.00043046346 -8.4439765e-05 -1.2569055e-05 3.7968814e-05 4.1125124e-05 -1.2965055e-08 1.0397492e-17
2.498667e-06 -4.9705924e-09 7.4759065e-08 2.4181181e-06 5.6116046e-06 1.784827e-05 -5.5618297e-05 -0.00017901439
-0.00036198873 -0.00023066706 0.00016076842 0.00042295211 0.00059657433 0.00066378084 0.0004269681 0.00046037784
0.00053255155 0.0004117759 0.00029822803 0.00012982136 0.00080810534 0.0007369919 0.00010476107 -2.1302894e-05
3.955488e-05 4.5163364e-05 -8.911344e-08 7.339468e-16 -6.3498786e-21 -1.5761656e-12 3.1029123e-07 7.508875e-05

exp_avg_sq f4 [50, 784]
00000000: 0000 0000 0000 0000 0000 0000 0000 0000
00000010: 0000 0000 0000 0000 0000 0000 0000 0000
00000020: 0000 0000 0000 0000 0000 0000 0000 0000
00000030: 6e57 0b24 7d44 2725 caa9 7e20 f35d e21b
00000040: 0000 0000 0000 0000 0000 0000 0000 0000
00000050: 0000 0000 0000 0000 0000 0000 0000 0000
00000060: 0000 0000 0000 0000 0000 0000 0000 0000
00000070: 0000 0000 0000 0000 0000 0000 0000 0000
00000080: 0000 0000 33d9 e515 df36 2d1a 6415 961b
00000090: 5215 d622 7765 9025 40f9 e426 e05c bf28
000000a0: e2a5 e327 1585 1c2a 59c7 ce2b fb12 6f2c
000000b0: d987 a82b 62bb 0f2a d5f0 0d28 9005 ba24
000000c0: 6be6 dc24 c853 1b24 3ee0 2024 7dd9 8820
000000d0: 0000 0000 0000 0000 0000 0000 0000 0000
000000e0: 0000 0000 0000 0000 0000 0000 fcdd 6c2a
000000f0: c260 e128 67de 8223 a2bf 2224 e71c 1c28
00000100: 1558 f227 8860 db2d e8ef a72d 181a 872e
00000110: 6bb5 4431 9aef e431 4199 e530 e4ce c830
00000120: 0353 1d32 0832 2b32 ca55 5e31 e192 3c30
00000130: f142 502f 532c 242e 4a3f a02b f469 d427
00000140: a311 9825 8743 5921 0000 0000 0000 0000
00000150: 0000 0000 0000 0000 0000 0000 0c43 f92b
00000160: 4534 5d2a 9892 222b 2486 892f 4473 ee30
00000170: 0af4 a731 39cf 4132 59e0 6a33 b6af 0234
00000180: 1898 c833 6294 0c34 6e68 1734 f83e d733
00000190: f61f 1f34 1a0a 0e34 4aac be33 0c51 2d33
000001a0: 434e 9632 3e9a 2e32 fd2d 4431 45d5 5330
000001b0: 5949 832f 4fda bd2a 0000 0000 0000 0000
000001c0: 0000 0000 234e 6e1c 0000 0000 990b 3429
000001d0: 4a90 a92e 2f26 2931 1e66 2a32 a9f4 4633
000001e0: a2e9 a033 d478 3434 d4d7 9234 722f 0f35
000001f0: 0c46 3c35 b209 4935 6bb4 6535 35ad 7f35
00000200: 29f3 5035 411c 2935 386b 1035 b67d cc34
00000210: c021 3134 cdbd 8c33 bed1 ad32 f889 1e32
00000220: dbfd 5f31 549e 4c2f 5979 7b2c 0000 0000
00000230: 0000 0000 0000 0000 7cf2 5026 957f 152c
00000240: 76f9 1930 95c9 1132 b8dd 7533 2820 1334
00000250: e7ae 5634 645e d934 5b4f 3235 7202 8d35
00000260: f5f4 d035 cd69 0336 d20b 0936 62db 0e36
00000270: 06f0 0536 32e7 d035 03d3 9535 53a6 4f35
00000280: 79ca 0b35 95cf 8334 9aaa 9733 45a4 da32
00000290: b74f 3532 dc34 4330 00de 092a 1881 4115
000002a0: 0000 0000 6434 9627 90ce 732b 87ac 8e2f
000002b0: 47ff 2f32 94b4 4f33 6e73 8d34 9afc b634
000002c0: 9885 fa34 cb32 6035 93fa b935 052d 0136
000002d0: c969 2436 e0cb 4f36 be2f 5d36 e3a5 5c36
000002e0: f0ff 5436 621e 3936 b154 1c36 287e d035
000002f0: ce25 8635 7d2c 1135 f0d8 6134 53e2 d033
00000300: 0d26 4933 80f4 8431 88c9 6e2c c37c 6b28
00000310: 46a9 7514 e16d fa2b 1b9e 202d cf8a 1532
00000320: 2720 dc32 f351 c233 7273 e634 5be5 2035
00000330: 763d 8635 9921 d635 027a 0a36 5c67 2f36
00000340: 1acd 5f36 22fb 7436 5d23 6736 719f 6336
00000350: 6872 6936 5529 7236 69e5 4f36 5df5 2436
00000360: b0b0 f135 7fb5 8735 e342 cf34 74d1 2434
00000370: 02de 1033 e51f 0c32 9a4f 2a30 053d 0827
00000380: cdef de2d cd0e fa2a da0c f32d 83db d831
00000390: da1b 0133 4010 0a34 097c 0e35 abb3 6835
000003a0: 75db ad35 c121 e735 1da1 2136 9d0a 3d36
000003b0: 9901 4936 7881 4636 3867 3436 1d69 4136
000003c0: b0ba 5436 f5b5 6636 19e3 6436 f021 3436
000003d0: a585 1236 f3b9 c135 f0a4 3935 72b6 5d34
000003e0: 5824 0a33 670f 1332 83d0 9830 7a68 aa22
000003f0: 740d a520 6f3a a127 6137 fd30 2729 9932
0.0 0.0 0.0 0.0 0.0 0.0 0.0 0.0
0.0 0.0 0.0 0.0 3.0214876e-17 1.4508146e-16 2.1570815e-19 3.7449277e-22
0.0 0.0 0.0 0.0 0.0 0.0 0.0 0.0
0.0 0.0 0.0 0.0 0.0 0.0 0.0 0.0
0.0 9.2835043e-26 3.5819886e-23 2.4829242e-22 5.802739e-18 2.5048773e-16 1.5888237e-15 2.1245538e-14
6.3185007e-15 1.3901755e-13 1.469251e-12 3.397448e-12 1.1974823e-12 1.2765963e-13 7.8792944e-15 8.0674065e-17
9.5800134e-17 3.3681233e-17 3.488441e-17 2.3183218e-19 0.0 0.0 0.0 0.0
0.0 0.0 0.0 2.1038027e-13 2.502198e-14 1.418882e-17 3.529047e-17 8.666007e-15
6.726399e-15 2.4940286e-11 1.9092242e-11 6.1437244e-11 2.8624878e-09 6.662913e-09 1.67055e-09 1.4610717e-09
9.157477e-09 9.964886e-09 3.2354017e-09 6.860273e-10 1.8941272e-10 3.732865e-11 1.138625e-12 5.8956695e-15
2.6379748e-16 7.361183e-19 0.0 0.0 0.0 0.0 0.0 1.7711123e-12
1.9646878e-13 5.77574e-13 2.5015467e-10 1.734954e-09 4.8880837e-09 1.12811955e-08 5.4686414e-08 1.2171117e-07
9.3408914e-08 1.3092497e-07 1.4100962e-07 1.00231716e-07 1.4819656e-07 1.3228455e-07 8.878904e-08 4.0353413e-08
1.7497888e-08 1.0163204e-08 2.8547895e-09 7.7064427e-10 2.3880878e-10 3.3724626e-13 0.0 0.0
0.0 7.8848584e-22 0.0 3.9978088e-14 7.710861e-11 2.4614442e-09 9.918521e-09 4.6322985e-08
7.493078e-08 1.6807763e-07 2.7351655e-07 5.3340693e-07 7.013739e-07 7.4892444e-07 8.557169e-07 9.524695e-07
7.783988e-07 6.299852e-07 5.3800204e-07 3.8089428e-07 1.6496688e-07 6.5537826e-08 2.023523e-08 9.228181e-09
3.259507e-09 1.8609941e-10 3.5736607e-12 0.0 0.0 0.0 7.2493124e-16 2.1244996e-12
5.601558e-10 8.485945e-09 5.724516e-08 1.370214e-07 1.9993932e-07 4.0488078e-07 6.6425645e-07 1.050603e-06
1.55685e-06 1.9582105e-06 2.0421471e-06 2.1287346e-06 1.9958256e-06 1.5564494e-06 1.1162778e-06 7.735554e-07
5.207617e-07 2.4551687e-07 7.062518e-08 2.5453241e-08 1.0553712e-08 7.1015704e-10 1.2245066e-13 3.9077877e-26
0.0 4.1690165e-15 8.6617605e-13 2.5952238e-10 1.0244384e-08 4.8360178e-08 2.6347283e-07 3.4083934e-07
4.666333e-07 8.3520416e-07 1.3856501e-06 1.9248703e-06 2.449948e-06 3.0964075e-06 3.2959356e-06 3.2879113e-06
3.1739437e-06 2.7584833e-06 2.3295108e-06 1.5533924e-06 9.994781e-07 5.408145e-07 2.103368e-07 9.726923e-08
4.6833566e-08 3.869502e-09 3.3933707e-12 1.3072174e-14 1.2402722e-26 1.7794066e-12 9.1300535e-12 8.704503e-09
2.5625992e-08 9.0487354e-08 4.2924836e-07 5.99384e-07 1.0001665e-06 1.5954021e-06 2.063462e-06 2.6137195e-06
3.3348974e-06 3.6505012e-06 3.4442266e-06 3.3918443e-06 3.4786299e-06 3.6084868e-06 3.0978938e-06 2.4580725e-06
1.8007322e-06 1.0111106e-06 3.860542e-07 1.5349889e-07 3.3729528e-08 8.1563245e-09 6.195876e-10 1.890687e-15
2.5344971e-11 4.441919e-13 2.7631609e-11 6.311383e-09 3.0060484e-08 1.2858163e-07 5.3079617e-07 8.6688186e-07
1.2953375e-06 1.7220665e-06 2.408465e-06 2.8169372e-06 2.9952264e-06 2.957966e-06 2.6882171e-06 2.8820425e-06
3.1699128e-06 3.4378584e-06 3.4106836e-06 2.6841844e-06 2.1833487e-06 1.4433739e-06 6.9157886e-07 2.0648602e-07
3.2163683e-08 8.560028e-09 1.1118718e-09 4.618921e-18 2.796099e-19 4.474983e-15 1.8423912e-09 1.7830258e-08

exp_avg f4 [50]
00000000: 0ee7 563a 6f9a 65ba 854e 8a3a 9608 3139
00000010: 2a47 bb3a 9dd8 b9b9 6c0a 8cb8 3539 57ba
00000020: cb3e 8fba cf75 ebb9 9a08 34ba ab6e 9b39
00000030: 5da0 353a c00a 9dba ba9d b9b9 b0db bfb9
00000040: 7a2c 32ba ac88 b43a 12c2 903a 44f6 e9b9
00000050: c4ee 8d3a 2b6b 25ba 0000 0000 3b05 2bba
00000060: 1ceb f0ba 704a fa39 9590 adb9 ca34 82ba
00000070: 1919 cc39 8462 49ba 6aee dab9 c768 bfba
00000080: 0bf3 cdb9 d079 9538 8b6f 13ba ec76 963a
00000090: e1a3 eb3a 9e6d d9b9 0011 4dba 4a49 ff38
000000a0: 900f 8f37 8e1c b53a 3876 11b9 264f 2b39
000000b0: 7a2a bb39 dadb 93b9 e118 60ba da92 9e38
000000c0: aac7 373b ead8 493a
0.0008197882 -0.0008758669 0.0010551965 0.00016883234 0.0014288176 -0.0003544734 -6.6776614e-05 -0.00082101236
-0.0010928748 -0.00044910467 -0.0006867737 0.00029646358 0.0006928498 -0.0011981353 -0.00035403465 -0.0003659404
-0.00067967887 0.0013773642 0.0011044166 -0.00044624705 0.0010828604 -0.000631022 0.0 -0.0006523912
-0.0018380615 0.00047739176 -0.00033104853 -0.0009933945 0.0003892861 -0.00076822215 -0.00041757833 -0.001460337
-0.00039281728 7.127563e-05 -0.0005624226 0.0011479533 0.0017977917 -0.00041471137 -0.00078226626 0.00012172999
1.7054175e-05 0.0013817714 -0.00013872318 0.00016337316 0.00035699067 -0.00028201827 -0.0008548629 7.56138e-05
0.0028042593 0.0007699864

exp_avg_sq f4 [50]
00000000: 2078 e636 b8fc 6737 602a 0b37 08aa 2c37
00000010: 7316 c036 9a5c 5d36 2682 e536 b958 1d37
00000020: 787e 0137 a334 c836 4115 a336 dff0 2e37
00000030: 0ab5 1237 56a4 d636 874d 1337 9dde bc36
00000040: fb76 7636 043a 5837 703e 4137 a4be 3937
00000050: e67f 0837 c362 1c37 0000 0000 4d5f 7c36
00000060: 2ec4 3a37 1e80 9c36 20ee fb36 0e2a 5737
00000070: b2c8 2737 7d3d 9d36 4fcd 9336 d493 1637
00000080: e2d0 a937 4369 f136 140f 3137 b998 1c37
00000090: 5c4f 6f37 83f1 1437 f97c cf36 c926 0137
000000a0: 8c9e 9536 cd50 0e37 cd24 5237 5630 9a36
000000b0: fbbf c636 251b cc36 0e2b d936 6590 2f37
000000c0: 2876 5637 4f66 8c37
6.8685185e-06 1.3827514e-05 8.294912e-06 1.0291587e-05 5.7246593e-06 3.2985467e-06 6.839883e-06 9.378587e-06
7.718445e-06 5.966592e-06 4.860253e-06 1.042729e-05 8.74443e-06 6.396828e-06 8.7799335e-06 5.628752e-06
3.6726112e-06 1.2888111e-05 1.1518234e-05 1.1071246e-05 8.13601e-06 9.321319e-06 0.0 3.7606399e-06
1.1132141e-05 4.664077e-06 7.5081043e-06 1.282479e-05 1.0000704e-05 4.686123e-06 4.4048425e-06 8.975116e-06
2.0243639e-05 7.1946138e-06 1.0553533e-05 9.333883e-06 1.4263987e-05 8.877719e-06 6.1836295e-06 7.69803e-06
4.4590033e-06 8.4826725e-06 1.2525544e-05 4.5951847e-06 5.9232093e-06 6.082834e-06 6.472116e-06 1.0464432e-05
1.2782904e-05 1.6736942e-05

exp_avg f4 [10, 50]
00000000: 8ffa 183b 33bd b73a d922 7b3a aacb 8938
00000010: b0d8 473b a8ed 043a e03e a33a 3e47 54ba
00000020: 5b6a 5c3b 4546 01b9 b45b 483b f149 9b39
00000030: d6ef 2339 d644 543b ba1f f93a 88fd 0cba
00000040: e61f f13a af18 ab38 9630 18bb a898 5f3b
00000050: 0ada 8739 e51d 6d3a 0000 0000 04dd e83a
00000060: 340e f8b6 6c3a ce3a 1366 d53a 9d3d b2ba
00000070: 814b a2b9 7ddf fb3a 92f2 483b 0201 b2ba
00000080: f5d5 c63a 52ab e3b8 8e37 6bb7 96db 0ab7
00000090: 3ad9 9a3a aad4 adb8 74c4 b939 484c 053b
000000a0: 742f 783b 6eba b7b8 4802 af38 50cf f739
000000b0: e042 96ba 6805 0a3a d1af 01b9 171f 4fb9
000000c0: 76f5 7639 ee60 acb8 d177 e0b8 0941 1fba
000000d0: 6a9a 17bb 70ff e139 64b0 eeba 1254 eeba
000000e0: 4667 8139 4054 caba 586b 11bb 8c4e 0dba
000000f0: edbd 2abb 4b39 a9ba 9161 82b7 c66f 2dbb
00000100: 8d03 4fb9 8e55 9aba 3cac 0eb9 cdb6 d0ba
00000110: 624d b9b9 3c87 2ebb 3147 49bb eb42 00bb
00000120: 0000 0000 2124 e6ba 467b adba 5410 eab9
00000130: 715a 91b9 e405 88ba 295b b7ba fa1b 20bb
00000140: 9818 f3ba d66f 603a 0f95 00bb c815 00bb
00000150: a4d5 5b3a ed97 4aba c995 f7b8 3811 32ba
00000160: f2da 7fb9 b3ce 42ba fbd7 60ba c6d1 b8ba
00000170: 24d1 2cba e4fd ab38 20da 6a39 2063 b739
00000180: 8f0e 35ba ba3f efb9 408d d3ba af03 5eba
00000190: bea4 6fbb 8432 1dbb bb74 3cba 5b78 9dbb
000001a0: 30ce 04bb 730a a038 7c24 5ab9 2fd1 6dbb
000001b0: 3003 ceba 26ab 15bb 0792 00bb 68ef c33a
000001c0: 189b e538 e763 3639 7f59 02bb cb1b b339
000001d0: 0c42 1139 4245 f339 0168 c63a 0cc6 863a
000001e0: 016f 06bb 8ecf 6a38 0000 0000 12da 8bb9
000001f0: e2a5 333a cf88 07bb af1a 00bb 5f9d 413a
00000200: 0db5 79ba 971a 76b9 a6c0 71bb 7463 9ab9
00000210: 8e93 abb9 f2cb acba ae46 deba ac04 ea38
00000220: 1be4 0038 8dc2 c5ba e40c dcba 7dea f7ba
00000230: 7ae7 86bb a27d 17bb 59d1 c83a 2798 11ba
00000240: e1c6 d4b9 620a a6ba 71fc 86ba 5c3c eeba
00000250: b8f1 f4ba e50d a1b9 4df1 b2b9 1725 95bb
00000260: fe2e be3a b82b 7e3a b184 9fba b24b 19bb
00000270: 5049 97bb 3c23 adba d5b1 c63a c440 0db9
00000280: 2795 96bb 0cf3 baba 6f66 d2ba 7d6d c7bb
00000290: a3b3 80b9 6b54 0bbb 1554 c8bb 0c68 cd3a
000002a0: b2ce fabb dd9a bbbb c299 e2b9 b45b 1fbb
000002b0: 0000 0000 9d56 04bc 5f50 a0ba 7e2c ecbb
000002c0: 5050 4eba bdf6 52ba ce6c a239 02e0 cfbb
000002d0: 5c51 84bb e991 f6bb cd47 8c3a 0dc3 973a
000002e0: 2a3e 14bc dbca aaba b19a 03bb f7c4 093a
000002f0: 406d 8f39 97c1 8d3a 25b7 46bb 24bc fa3a
00000300: 66c8 a5ba c637 74bb 8485 6ebb 9ede f4bb
00000310: 60d5 d738 7a44 0d3a c824 48b8 e035 10b8
00000320: 8ad9 14bb 9171 473b b973 9c3b b191 9f3a
00000330: 0454 55ba 12eb 8e3a 1114 0fbb db1b 9c3b
00000340: 8ff0 2e3b a8ba 35bb 2ecb 673a e06a fa39
00000350: 92be 1f39 10a9 143b 5571 4b39 8169 a43a
00000360: be3c 15bb 3e26 803b c864 9cba 1de8 f53a
00000370: d311 d33b 92c7 773a 0000 0000 fba6 9c3b
00000380: 001c 4b34 bc06 153b 2049 20ba d0b4 2d39
00000390: 12af 553b 8489 7d3b e3fe 7a3b c206 233a
000003a0: 74b6 2639 7d67 843b b2df 173a 9e77 613a
000003b0: 9c29 c839 f242 d23a 7751 7a39 554f 093a
000003c0: f025 af3a adc4 433b 9c9b 6c38 f108 42ba
000003d0: 56a0 8a3a 01df d83a 06a2 e739 2cc9 2f3a
000003e0: 1e7c a23b 1f51 933a d927 f4b9 c4c1 3b3b
000003f0: 8ed3 68bb 30fb dab9 8c06 bbba 2e1f 9a3a
0.0023342704 0.0014018178 0.0009580083 6.5706045e-05 0.0030494146 0.0005070814 0.0012454651 -0.0008097774
0.0033632729 -0.00012328576 0.0030572237 0.00029618994 0.00015634237 0.0032389662 0.0019006648 -0.0005378355
0.0018396347 8.158513e-05 -0.002322232 0.003411809 0.00025911658 0.0009045287 0.0 0.0017766063
-7.3926294e-06 0.0015733964 0.0016281031 -0.0013598684 -0.00030955303 0.0019216385 0.0030662161 -0.0013580623
0.0015169965 -0.000108561144 -1.4020026e-05 -8.276567e-06 0.0011814006 -8.2888946e-05 0.0003543232 0.0020339657
0.003787008 -8.760845e-05 8.345075e-05 0.0004726597 -0.0011464022 0.0005265088 -0.00012367895 -0.0001975264
0.0002355183 -8.219654e-05 -0.0001070347 -0.00060750596 -0.002313281 0.0004310566 -0.0018210527 -0.0018183014
0.00024681742 -0.0015436485 -0.0022189226 -0.00053904275 -0.0026053146 -0.0012910751 -1.554264e-05 -0.0026464327
-0.00019742381 -0.0011774765 -0.00013606338 -0.001592362 -0.00035343604 -0.00266309 -0.00307126 -0.0019571136
0.0 -0.0017558375 -0.0013235591 -0.00044644123 -0.0002772394 -0.0010377732 -0.001398896 -0.0024430738
-0.0018546758 0.0008561587 -0.0019620096 -0.0019544233 0.0008386022 -0.0007728327 -0.000118057775 -0.0006792727
-0.00024400259 -0.0007431313 -0.00085771055 -0.0014100603 -0.00065924437 8.201206e-05 0.00022397237 0.00034978334
-0.00069067715 -0.00045633112 -0.0016140118 -0.0008469177 -0.00365667 -0.0023986408 -0.0007189025 -0.0048056073
-0.00202645 7.631341e-05 -0.00020803692 -0.0036288013 -0.0015717503 -0.0022837608 -0.001961829 0.0014948668
0.000109484594 0.00017394089 -0.001988977 0.00034162248 0.00013852882 0.00046400173 0.0015137197 0.0010282411
-0.002051294 5.5983248e-05 0.0 -0.0002667462 0.00068530266 -0.002068091 -0.0019547155 0.0007385816
-0.0009525575 -0.00023470294 -0.003688851 -0.00029447267 -0.00032725598 -0.0013183339 -0.001695832 0.0001115886
3.0730018e-05 -0.0015087888 -0.001678851 -0.0018914487 -0.0041169496 -0.0023115654 0.001532118 -0.00055539835
-0.00040583967 -0.0012667889 -0.0010298622 -0.0018175947 -0.001868776 -0.00030718665 -0.0003413059 -0.0045515406
0.0014509854 0.00096958457 -0.0012170282 -0.0023391065 -0.004616894 -0.0013209353 0.0015159199 -0.00013470935
-0.004595417 -0.0014263107 -0.0016052256 -0.00608605 -0.00024547902 -0.0021260034 -0.006113539 0.0015671267
-0.0076540345 -0.0057252483 -0.00043220638 -0.0024316134 0.0 -0.008077291 -0.0012230984 -0.0072074523
-0.0007870244 -0.0008047631 0.00030980114 -0.0063438425 -0.004038019 -0.007524718 0.0010702551 0.0011578515
-0.009048024 -0.0013030426 -0.0020081217 0.00052554853 0.00027356483 0.001081514 -0.0030321565 0.0019129557
-0.0012648224 -0.003726469 -0.00363955 -0.007472827 0.00010291743 0.0005388927 -4.771797e-05 -3.438245e-05
-0.0022712671 0.003043268 0.0047745374 0.0012174157 -0.00081378245 0.0010903797 -0.002183203 0.004764063
0.0026693677 -0.0027729664 0.0008842227 0.00047763344 0.00015234415 0.0022683777 0.00019401808 0.001254365
-0.00227718 0.003910809 -0.0011931891 0.0018761192 0.006441334 0.00094520405 0.0 0.004780648
1.8916035e-07 0.002273961 -0.0006114412 0.00016565924 0.003260557 0.0038686702 0.0038298897 0.00062189635
0.00015898963 0.004040657 0.0005793526 0.0008600893 0.00038177974 0.001604168 0.00023872206 0.00052379566
0.0013362747 0.0029871867 5.6411707e-05 -0.0007401845 0.0010576348 0.0016545953 0.0004418047 0.0006705697
0.0049586436 0.0011239386 -0.00046568995 0.002864943 -0.0035526487 -0.0004176735 -0.0014268919 0.001175856

exp_avg_sq f4 [10, 50]
00000000: 6a0c 5638 b0a9 0838 2d82 2538 1728 9c36
00000010: ec6f 8e38 e95d 9f37 4abf d838 1aa7 5c37
00000020: 6b14 f737 2ea8 5338 86ab 0839 de2c 3e37
00000030: 8249 4337 8dd7 a238 ae6c 1538 a05e 9536
00000040: f016 bb38 b099 8a35 7bfd e438 4f55 6238
00000050: 587f f737 9c3b 6338 0000 0000 bde8 4638
00000060: 2499 2f36 6bc8 6d38 58e7 6a38 ba23 ee37
00000070: 2db5 0637 bea5 8138 4cf9 db38 6ae1 3238
00000080: b140 f536 c1a0 1338 bae0 0c38 a9ab db36
00000090: 973b 1f37 94f9 2436 e317 9d37 b86f a338
000000a0: 9672 5839 70e1 ac36 06ed 0736 2f90 6638
000000b0: cd00 8438 49e5 0837 22e1 0b37 4d45 2136
000000c0: e63d e936 4e52 ff36 edfa 9935 e475 3038
000000d0: a8e2 2b39 d5ac dc38 05f7 4c37 db83 2038
000000e0: a5db f336 c5d4 8939 4576 8738 8d3c 4637
000000f0: af98 ad38 fd8f c037 f1e2 e534 b2a2 ca38
00000100: 1985 8b36 f15d 4c38 d064 a637 66e2 7037
00000110: 34f3 3d38 88d5 8c38 a3f9 1c39 07a0 8838
00000120: 0000 0000 97c7 0b39 43ad 3d38 bf76 3d38
00000130: 17d4 5437 fdb1 5f38 49e8 fb36 9701 5039
00000140: 0f66 c438 2737 4c37 b32b a137 aa44 ae37
00000150: 3828 2538 1524 c236 33af 8f36 22be af36
00000160: a555 6637 8403 7437 143f 1238 6c4a 4638
00000170: 29ef 6938 7182 e736 00ec 2538 ef89 9538
00000180: bd11 3b37 7dc9 8537 8e77 2638 9a94 2737
00000190: b761 9138 7c32 2038 4559 c138 5692 3d38
000001a0: f740 eb38 063c 8238 fedc 6f38 b6bb cd38
000001b0: 1658 1938 60c2 9238 92bc 3839 e0fe b038
000001c0: 60c3 6a37 32fb 0b39 71ca d037 a31c 0538
000001d0: 2b3c ca38 583e da36 f2e4 dc38 0186 2339
000001e0: 3ce9 fc37 c508 2a39 0000 0000 113b 0239
000001f0: 422f 0838 177e e438 2876 b638 cbea e738
00000200: a847 c437 95b7 1c39 0884 4c39 cba2 7038
00000210: 5be5 9037 f43c 8938 53e7 e838 445a f037
00000220: c1d6 b637 f8f7 2b37 4f4c 8637 22fa cc37
00000230: 6cb1 5f39 2cd5 4e38 118e ab38 2909 3b38
00000240: 4aca 7138 a79a d838 2354 0a38 a994 5d38
00000250: 2112 ca37 84b8 8937 3e04 6e38 6c10 c638
00000260: 908a 5739 55c6 2338 5136 9738 1789 9738
00000270: 06a8 ee38 a031 3539 5b8e a338 1533 4e38
00000280: 3320 3039 79d9 e738 8187 d937 fd09 2739
00000290: 2ea5 0438 68c2 c638 2633 1d39 ba85 9d38
000002a0: 804b 6a39 5994 1039 447b 4838 6ca9 3039
000002b0: 0000 0000 c1fd 8739 bfdf 6838 6d2f ad39
000002c0: bbfb 3c38 f47a f038 36a5 7538 701f 8d39
000002d0: de43 a339 2b79 9339 66e0 d037 92e2 c937
000002e0: c1b8 bd39 cb8d 7c38 b7f7 8138 989c 2737
000002f0: cae4 3037 201b 1238 6e16 a139 d8ce a538
00000300: 9d7c e238 1f7f 0e39 c6b7 4139 9922 7b39
00000310: 4fca 2738 ccf0 5838 7c10 eb37 a5fc 8837
00000320: 5730 0539 8bb4 0a38 1830 c738 72d1 4438
00000330: 9383 b938 495f 8538 40a3 b737 0595 f038
00000340: 7501 b537 e390 a238 8a53 1c39 5006 2b37
00000350: 9cf4 3738 d73d 6938 391d fc35 023f 5f37
00000360: 0ca1 2838 dfd7 4438 8211 ff38 62e5 0d38
00000370: 1c02 d738 b14b 9137 0000 0000 9511 0b39
00000380: f38d 8d36 c6cb d838 ab50 8138 ae2a 8036
00000390: f6d8 1739 354d ed38 fb54 1339 8a23 f837
000003a0: 01f2 9437 34cd 7b38 b0ee a936 cdef df38
000003b0: 20ef e436 460b 0738 6e36 e737 338f 6537
000003c0: 97d2 d138 3c8b e338 6eff 7735 7d47 ec37
000003d0: 5269 5638 cd3a 0038 b9b7 ae36 3e81 e237
000003e0: fde8 d638 2930 2a37 97cc 0c38 56a3 c938
000003f0: 178d 0c39 e246 f337 167c 3c38 fff3 5738
5.1033137e-05 3.258296e-05 3.94603e-05 4.6538294e-06 6.791935e-05 1.8998007e-05 0.00010335313 1.3151928e-05
2.9454202e-05 5.046295e-05 0.00013033868 1.1335329e-05 1.1640021e-05 7.7649114e-05 3.5625584e-05 4.451562e-06
8.921127e-05 1.032653e-06 0.000109191016 5.396205e-05 2.9503994e-05 5.4176533e-05 0.0 4.7423633e-05
2.6166172e-06 5.6691857e-05 5.6005403e-05 2.8388447e-05 8.029206e-06 6.182071e-05 0.00010489169 4.264844e-05
7.3091e-06 3.5197245e-05 3.3587894e-05 6.5466925e-06 9.491013e-06 2.4583178e-06 1.8726982e-05 7.793255e-05
0.00020642052 5.152244e-06 2.0254533e-06 5.4970555e-05 6.2944e-05 8.159616e-06 8.337463e-06 2.4031208e-06
6.951147e-06 7.6091737e-06 1.1472417e-06 4.2071464e-05 0.00016392267 0.0001052261 1.2216861e-05 3.8269773e-05
7.2675343e-06 0.00026289202 6.459331e-05 1.1815818e-05 8.2777224e-05 2.2955233e-05 4.2819696e-07 9.662415e-05
4.1580174e-06 4.872488e-05 1.9835687e-05 1.4357827e-05 4.5287612e-05 6.7154935e-05 0.00014970316 6.514793e-05
0.0 0.00013330426 4.5222474e-05 4.5171702e-05 1.2685566e-05 5.3333108e-05 7.5074245e-06 0.00019837018
9.365018e-05 1.2172189e-05 1.9213045e-05 2.077439e-05 3.9376522e-05 5.785851e-06 4.282128e-06 5.237541e-06
1.3729009e-05 1.4544352e-05 3.486786e-05 4.727619e-05 5.5774264e-05 6.899522e-06 3.9558858e-05 7.130566e-05
1.1150199e-05 1.594866e-05 3.9688828e-05 9.988575e-06 6.9323396e-05 3.819399e-05 9.219585e-05 4.5197397e-05
0.00011217774 6.210063e-05 5.7187855e-05 9.8101256e-05 3.656008e-05 6.998028e-05 0.00017617855 8.439808e-05
1.3992976e-05 0.0001334965 2.4889801e-05 3.173634e-05 9.643318e-05 6.504164e-06 0.00010533062 0.00015594812
3.014935e-05 0.0001621573 0.0 0.0001241977 3.246894e-05 0.00010895373 8.7004446e-05 0.00011058672
2.3398388e-05 0.00014945709 0.00019504142 5.737207e-05 1.727294e-05 6.5440225e-05 0.000111057096 2.8652263e-05
2.1796093e-05 1.0250129e-05 1.6009579e-05 2.4435172e-05 0.00021333032 4.931276e-05 8.180377e-05 4.4592805e-05
5.7647274e-05 0.00010328489 3.2980122e-05 5.2828957e-05 2.4088718e-05 1.6417594e-05 5.6747573e-05 9.4444345e-05
0.00020555616 3.904694e-05 7.210358e-05 7.225776e-05 0.00011380021 0.00017279992 7.7989615e-05 4.91618e-05
0.00016796663 0.00011055446 2.5931515e-05 0.00015930082 3.1625088e-05 9.477587e-05 0.00014991741 7.511252e-05
0.00022344105 0.00013788174 4.7798516e-05 0.00016847783 0.0 0.00025938268 5.552149e-05 0.00033032466
4.5057135e-05 0.000114669936 5.8566417e-05 0.00026917038 0.00031140348 0.00028128302 2.4900026e-05 2.4066572e-05
0.00036186542 6.0213537e-05 6.19734e-05 9.9904355e-06 1.0543687e-05 3.4834375e-05 0.00030725024 7.906341e-05
0.00010799731 0.00013589532 0.00018474375 0.00023950114 4.0004317e-05 5.1722673e-05 2.802186e-05 1.633011e-05
0.00012701876 3.3069908e-05 9.4980176e-05 4.6925103e-05 8.845995e-05 6.3596824e-05 2.189132e-05 0.00011471849
2.157756e-05 7.751749e-05 0.0001490844 1.0193864e-05 4.385841e-05 5.560912e-05 1.8783968e-06 1.3306506e-05
4.0204308e-05 4.6931087e-05 0.000121626086 3.383065e-05 0.00010252392 1.7320594e-05 0.0 0.00013262623
4.2186525e-06 0.000103376384 6.166225e-05 3.819666e-06 0.00014481306 0.000113154216 0.0001405067 2.9580453e-05
1.7755667e-05 6.0034174e-05 5.0643794e-06 0.00010678135 6.8227673e-06 3.2197007e-05 2.7562692e-05 1.3682805e-05
0.00010005122 0.00010850138 9.238637e-07 2.8166682e-05 5.1119663e-05 3.057234e-05 5.2069922e-06 2.7001483e-05
0.000102477126 1.0144003e-05 3.356914e-05 9.6148506e-05 0.00013404 2.9000865e-05 4.4938257e-05 5.1487234e-05

exp_avg f4 [10]
00000000: dc70 8538 d06e fdb9 ca21 23ba df05 8aba
00000010: c034 0a3a d9a4 273a fefd cf39 1457 5d3a
00000020: 31a1 96ba e446 5b3a
6.362956e-05 -0.00048338482 -0.00062229915 -0.0010530314 0.00052721426 0.00063951086 0.00039671356 0.00084434566
-0.001149213 0.00083647505

exp_avg_sq f4 [10]
00000000: 3ec3 6c36 cfd0 cc36 78ad 0337 33cf 4b37
00000010: 21d1 f536 cdfc 0c37 09dd 9336 3ed3 1037
00000020: 279b 7137 f643 5537
3.5280386e-06 6.1039823e-06 7.848597e-06 1.2147985e-05 7.325915e-06 8.40351e-06 4.4066733e-06 8.6322525e-06
1.4400844e-05 1.2711613e-05
