swastik_web/Learning&Experiments/PytorchTutorials/model_checkpoints/cnn-checkpoint.pth.tar (torch, 116155 bytes, 18 tensors)

conv1.weight f4 [8, 1, 3, 3]
00000000: a464 c1be b17e 3abe 331c a7be 23a5 f3bd
00000010: 6483 40bd cd3b 39be 013a 9b3e 751a adbe
00000020: 0eb3 f9bb 0c17 99be 309b 09bf d69f c5be
00000030: f0dc 6dbe 7f34 dfbd ed42 c93e b679 08bf
00000040: 9630 96bd 5fdb 943e cd2c 033e e774 603e
00000050: 0181 7c3e 06a5 003d 5bb3 b93e 268b d43e
00000060: 662c a23e 7466 b03e d005 f13e e6de d2bd
00000070: 3d7f 1dbd be1a 81be 460d 88be 9ff9 d33c
00000080: 566c 21be ab81 13be a413 213e 9b27 5abe
00000090: 5abd eb3e df04 efbc 5ec0 4f3e 2b2f 243e
000000a0: 3d33 dd3e e5b8 72bd 299f 5a3e fbce 8e3e
000000b0: 3fb9 b53e 66ae 393d 0ccb 67be d89c e1be
000000c0: d2aa 053f 5f99 d5bd 5356 ccbe c2d7 ba3e
000000d0: 3781 bc3e b86d 833e 88a5 d03e ef4c 063e
000000e0: 2b20 033f eb65 3dbe 4b75 753e a136 503e
000000f0: e7f3 12bf f95f 65be c970 703d 0890 8b3e
00000100: ebcd f03e a28b 9e3e 73bc c43e 4555 863e
00000110: 5292 903e 981a 93be 0895 c0be 49d9 3dbe
-0.37772095 -0.18212391 -0.32638702 -0.11896732 -0.047000304 -0.18089218 0.3031769 -0.33809248
-0.007620222 -0.29900396 -0.5375242 -0.38598508 -0.23228812 -0.10898685 0.39308873 -0.53310716
-0.07333486 0.29073617 0.12810059 0.21919595 0.24658586 0.03140738 0.3626965 0.41512412
0.31674498 0.34453166 0.47074747 -0.10296421 -0.038451422 -0.25215715 -0.26572627 0.025875865
-0.15763983 -0.14404933 0.15730149 -0.21304171 0.460429 -0.029177127 0.20288226 0.16033618
0.43203154 -0.05925836 0.21349777 0.2789229 0.35492894 0.045332335 -0.2263605 -0.44064975
0.52213776 -0.10429644 -0.3990961 0.36492735 0.36817333 0.25669646 0.4075129 0.13115285
0.5122096 -0.1849591 0.23970525 0.2033334 -0.57403415 -0.22399892 0.05870131 0.27258325
0.47032103 0.30965906 0.38425025 0.2623693 0.28236634 -0.28731227 -0.37613702 -0.18539919

conv1.bias f4 [8]
00000000: 24d1 973e 2d74 303e 4e41 dd3b fb3f 2dbe
00000010: 4efb 933b f161 783e 81d9 e03d f8df ed3b
0.2965175 0.17231818 0.0067521697 -0.16918938 0.004516042 0.24256112 0.109789856 0.007259365

conv2.weight f4 [16, 8, 3, 3]
00000000: 8897 073d 9ce0 0d3b 5004 e43d 3430 1a3d
00000010: 143a a73d f26e 123e 3295 cdbd 0631 063d
00000020: 2a4f d6bc 173d 06be 4981 413d 8b3d fb3d
00000030: ab22 4fbe 0203 65bc 9cd5 463b 9076 56bc
00000040: 7981 22be 6cc9 23be 011f c13d 0ae6 44be
00000050: 85a9 66be 0d48 2d3d 28e0 e9bd 0da8 1cbe
00000060: 65ae 153e 9183 3b3e aef7 0a3e 2551 b4bd
00000070: dffa a93c e0cf 453b ec12 53bc 5c41 673a
00000080: 4118 87bc 9066 f13b 43d7 47bd a210 3bbc
00000090: 5a30 09bc 07de 5bbb ca01 92be 4ef3 443e
000000a0: da53 003e 0cd1 a3bd d5b8 b63d 7e6c 3b3d
000000b0: 124a 7b3d 9c50 2c3e e816 663d 7c3b b6bd
000000c0: f424 0d3e 4506 6b3e 32d3 923d e0fa f4bc
000000d0: 7737 763e 6092 643e dc56 4bbe b3e1 22be
000000e0: 278b b4bd 58aa 32bc 5481 d2bd b525 80be
000000f0: 1be8 e63d 325b 96bd 0f63 b5bd a421 a739
00000100: 6161 2fbe 19a7 68be 5f80 c6bd 2e72 1abe
00000110: df2c 2cbe 6c10 433e f38a 6bbd 6609 68bd
00000120: b277 1fbc 236b adbd 5316 b8bd 96c6 253d
00000130: 2047 0bbd 5293 51bd 1c06 9d3c 410e 10bd
00000140: 19d7 1abe df7a 02be aadb 64be 465b d3bd
00000150: e0e4 1f3b d0fd b9bd 96af ddbd 0e3b f93c
00000160: 41de 2dbd a664 fbbc d7e8 453d 6266 553e
00000170: 5a2e 493e cc9f b7be cd88 93bd 152e 293e
00000180: 5f3c 09be a7b8 7c3c 9102 793e 581d b7bc
00000190: a0f1 a3bd a386 05bd aa44 a4bc 6b54 b73d
000001a0: c1de dabd 5c76 aebd 93e5 8b3d 99d9 803d
000001b0: 0443 2c3e 4ac4 3b3d b0ba b83d 54b6 abbe
000001c0: dc28 3bbe d95b c63d 6f26 88bd ff0a 5fbe
000001d0: 3019 d23d 6a9d 26be 9d3d 2c3c b18e 3a3d
000001e0: da12 8cbe 1f0f cbbd cdaf 74bd 2c23 f0bd
000001f0: 3493 ebbd 1593 0cbe cebe a33e 53c5 973e
00000200: aedd 103e b62f ea3d 725c 693e a7e4 053e
00000210: f167 18be 61cd 9d3d 579e 523e 93d7 a43e
00000220: c3be c43e 2154 9b3d aad1 a3bd c879 823d
00000230: 7210 833d d4a9 52be e16d 1bbe 2061 3d3d
00000240: b293 bd3a c66a 84bc de93 1bbd 9f4a 363c
00000250: 4f4e b9bd 6563 08be d7ce 1ebd 983c d83b
00000260: ba0f e5bd 2ca5 413c 1376 673e 610e 273d
00000270: 3fbb 283d 2453 0d3e 3236 8bbd 0978 93bc
00000280: 9b23 383c d642 36bd 243b 6cbe 458a c4bc
00000290: 57fb c23c 3a75 45bd 42d0 5e3e ff9f 2e3e
000002a0: 0120 41bd 72f9 163e e23c f93d 5f0d 2f3b
000002b0: d813 3cbd 15df 85bd 9d07 e23d 8e01 88bd
000002c0: fc4e 92bd b688 2f3d 0814 8a3d 14fe 603d
000002d0: 9e23 26be 9b55 b6bd 7aa8 4c3e 8c23 d13d
000002e0: ad83 1b3d 5e7f 5f3e 58c7 ef3d bc26 593e
000002f0: 5267 283e d90c 213d c179 04bd d1f8 e23d
00000300: 7ff7 1e3e bbe6 83bd ff17 cf3c 972f e5bd
00000310: f988 993c 612b 513e 46a7 2bbe 3e1c d83c
00000320: 48a0 ecbd 1ad7 babd 235e 013e c28f 353d
00000330: 637c cb3d b60a 2d3e 7657 f8bd ab70 aebd
00000340: 392e 16be e291 b6bd 4569 19be 991a 99bc
00000350: 2f35 583d a3f7 2f3e c677 1d3e 21b2 ef3c
00000360: 1428 5b3e 66a0 413e ca14 f5bc 18d2 673e
00000370: b7aa 143e 4315 513e 2d1e 163e f7dd 863c
00000380: c8da 323e e797 d93d 1ead d33d fbee 70bd
00000390: 8282 b2bb 243d 563d e940 2c3e 591f 163d
000003a0: 75cb 5d3e 0276 a23d 9eb2 41be cc32 64bb
000003b0: 74c4 38be 08cc f3bd 85a8 9a3c 506b 0ebe
000003c0: bbd1 0cbb c936 31bd 088a 543e fe2d d1bd
000003d0: a338 d5bd bcc9 c7bc 1a8a 00bd 8f16 7cbd
000003e0: 1911 bdbd 9dc7 983c 4a24 ab3d d782 f03d
000003f0: ef2a 22be e321 23bd 8eaf c0bc f35a 203e
0.033103496 0.002164877 0.11133635 0.037643626 0.081653744 0.14300135 -0.100382224 0.032761596
-0.026160795 -0.13109241 0.047242437 0.12267598 -0.20228069 -0.013977768 0.0030339723 -0.013089791
-0.15869702 -0.15994805 0.09429742 -0.19228378 -0.22525604 0.04230504 -0.114197075 -0.15298481
0.14617307 0.18311907 0.13571045 -0.088045396 0.020749507 0.0030183718 -0.012882929 0.000882169
-0.016491057 0.0073669627 -0.048789274 -0.01141754 -0.008373344 -0.0033549087 -0.2851699 0.19233438
0.12531987 -0.07998857 0.08921973 0.045757763 0.061349936 0.16827625 0.05617419 -0.088980645
0.13783628 0.2295161 0.071691886 -0.029904783 0.24044596 0.22321463 -0.19857353 -0.1590641
-0.08815604 -0.010904871 -0.10278574 -0.25028768 0.11274739 -0.07341613 -0.088567846 0.00031877786
-0.17126991 -0.22719993 -0.096924536 -0.15082619 -0.16813992 0.19049233 -0.05750556 -0.056649588
-0.009733127 -0.084677 -0.08988633 0.04047259 -0.034003377 -0.051165886 0.019167952 -0.035169844
-0.15121116 -0.12742184 -0.2234942 -0.103201434 0.0024397895 -0.09081614 -0.10824506 0.030423667
-0.042448286 -0.030687641 0.048317757 0.20839837 0.19646588 -0.35864103 -0.07203827 0.16521485
-0.13401936 0.015424884 0.24317385 -0.02235286 -0.08005071 -0.032599103 -0.020052273 0.08951648
-0.10687018 -0.08518669 0.06830897 0.062915035 0.1682244 0.045841493 0.09019983 -0.33537543
-0.18277305 0.09685487 -0.066479556 -0.21781538 0.102587104 -0.16270986 0.010512737 0.045546237
-0.27358133 -0.099149935 -0.05973797 -0.117254585 -0.11502686 -0.13727982 0.3198151 0.29642734
0.14147064 0.114348814 0.22789171 0.13075505 -0.148834 0.077051885 0.20568214 0.3219572
0.3842679 0.07584406 -0.079989746 0.06370884 0.06399621 -0.20572597 -0.15178634 0.046235204
0.0014463572 -0.016164195 -0.037982814 0.0111261895 -0.09048139 -0.13319166 -0.038771477 0.00659902
-0.1118464 0.011819165 0.22603635 0.040785197 0.041194197 0.13801247 -0.06797446 -0.018001573
0.011238958 -0.044497333 -0.23069435 -0.023991713 0.023801489 -0.0482075 0.21759132 0.17053221
-0.047149662 0.14743593 0.121698156 0.002671085 -0.045917362 -0.0653669 0.11036608 -0.066409215
-0.07143971 0.042854987 0.06742102 0.054929808 -0.16224524 -0.08903047 0.19986144 0.10211858
0.037967373 0.2182593 0.11707944 0.21206182 0.16445664 0.039318893 -0.032342676 0.11082614
0.155241 -0.06440493 0.025279997 -0.11190718 0.018742071 0.20426704 -0.16763029 0.026380654
-0.11554009 -0.091230586 0.12633567 0.04432655 0.09935834 0.16898617 -0.12126057 -0.085175835
-0.1466607 -0.08914544 -0.14981563 -0.01868944 0.052785095 0.1718431 0.15377721 0.029259743
0.21402007 0.18908843 -0.02991714 0.22638738 0.14518248 0.20418267 0.14659949 0.016463263
0.17466271 0.10624676 0.10335754 -0.05882166 -0.0054476866 0.052304402 0.16821636 0.03665099
0.21659644 0.079326645 -0.18915793 -0.0034820316 -0.18043691 -0.1190415 0.018879184 -0.13908124
-0.0021487314 -0.043265138 0.2075578 -0.102138504 -0.10411193 -0.024388187 -0.031381704 -0.06154495
-0.09231777 0.01864987 0.08356531 0.11743706 -0.1583669 -0.03982724 -0.023521211 0.15659694

conv2.bias f4 [16]
00000000: 77d3 1c3d 59ef 2c3c fd9c 00bd ca86 a43d
00000010: 1940 1d3c ebed e1bd c3b9 89bb 67f1 fdbc
00000020: 6757 15bd aa0a d53d 019c 133e 2aa6 013e
00000030: 8f13 8e3c 7797 933c 1a7d 7b3d 5350 b43d
0.038287606 0.010555112 -0.031399716 0.080335215 0.009597802 -0.110317074 -0.0042030527 -0.030998899
-0.036460306 0.10402425 0.1441498 0.12661043 0.01734331 0.01801656 0.061398603 0.08804383

fc1.weight f4 [10, 784]
00000000: 5d84 8c3a e49c 4abc 6079 e0bc ce49 94bc
00000010: b088 84bc 2477 92bc ab50 fa3c c25c 883c
00000020: a29c 3d3a 8f41 74bc 4f73 873d e2d4 2d3d
00000030: 9d82 803d afd9 4d3d 88b8 a33c f4e7 033d
00000040: df51 103d ae84 6cbc 3008 9c3c 6fb0 923d
00000050: 51ce 023d 520c a7bc cb3b dcbd 4366 98bd
00000060: 3095 3c3d 88f3 afbd a62a 30bd 135a 173d
00000070: 1f5e 103c eeff 0ebe 06b8 8a3d 545b 0a3e
00000080: d33d 83bd 6e66 5cbd 42f2 bf3c c34c 4f3c
00000090: d05b b4bb 36a4 ba3d 4c35 f73b 4a21 3bbd
000000a0: 043c 30bd 513c 323c c201 323d 557e 1a3d
000000b0: 8233 82bc 0ba3 07bd ad46 b73b f784 0cbc
000000c0: a755 4d3c 85d7 89bc 60b6 5bbd d0c6 cb3b
000000d0: d595 613c 6bf0 e9bc f7da 28bd a64d 89bc
000000e0: 8d3e 72bc f98d 7abd 6add 263c 2532 f23c
000000f0: ae3d 8f3c aae3 4c3d 23cd 12bd 4fa0 06bc
00000100: 8d72 2cbc db3a 0cbd db61 46bd 5cd1 a63d
00000110: 0dc9 cb3d c80f 00be b442 893c 44a7 b13d
00000120: d9e7 c5bd 0bf1 08be 827d cf3d fbe1 8f3d
00000130: ec5d 19be fe33 543d 09d9 703d e1b4 0bbd
00000140: df98 18be 0bc2 28bd 3b59 d53b 5771 b4bc
00000150: fa92 803c 915e 5ebb 9dd9 ce3c 60e8 21bd
00000160: 6bc4 95bd 620c dbbb 9693 37bb f6c6 553c
00000170: 5db1 cd3c 8452 3d3d 6973 333d c241 0abd
00000180: c0bb 25bd 5f01 e63c 062a 993c 25fa 95bc
00000190: 3c6a 89bb ea13 dfbc 8343 393d ac67 483c
000001a0: 22f3 f4bc e68a 8ebd d53a a9bc 7a70 643c
000001b0: afaf 673d ad67 423d ddb4 483d a75c f9bb
000001c0: 0a14 26bd de4f aabb 1126 a23d 7ad0 64bd
000001d0: 785a 143a 80d8 de3a bcaa 2abc acca c43c
000001e0: 6771 b23d 8c33 88b9 bbec 31be 072f f3bb
000001f0: bc92 693d b2d2 963c a359 bd3b ebc5 e03c
00000200: 3e1b d23c 6adc 7cbc 75bf b43d b683 c73b
00000210: 47da 50bd 9ecc 963c 19ea 61bc 72d3 083c
00000220: 1aaa 653d 9788 cebb bed1 f9bc 66b0 20bd
00000230: a433 e2bd fa11 24be 85cb 00be e068 2fbe
00000240: 5367 26be fa4d 06be 6d19 2fbd d398 143d
00000250: 3fcb b93c 17e4 f4bb 8cae 883c 922f f93c
00000260: 5ffe 6cbb 0ecf 423d efd4 d73c 9904 253d
00000270: 059b 313d 4c35 babb 5250 913c c7c1 e13c
00000280: a4f9 883c 0609 023b 1314 853d e79d 9b3c
00000290: baa8 d8bd 4dbc d4bd 1a19 343d a2d3 903d
000002a0: 9f2c f1bc e2ec 193c 15be 12be f5d4 033e
000002b0: 4d14 4a3d b940 ffbc 4a36 153d 33eb 56bd
000002c0: e681 a4bd 13a1 ebbd 86a4 0b3e 8dd8 8dbd
000002d0: 88e9 a3bd e889 e0bc 24f0 7cbc 5d0c dabc
000002e0: 5a1a dbbc d5cc 1c3d 4973 dfbc 5816 5dbd
000002f0: 8f1a 07bd ccb9 f5b8 3a1b db3b a33e af3c
00000300: 9ccd 3b3d bf9b ca3c 5ecb a0bc 1510 1a3d
00000310: 9c93 41bc 016f c03c 2cea 92bd 2033 8ebd
00000320: 972a ff3b 65ec c5bb 7ecd 9fbb 71d3 b23c
00000330: f24d c7bd 6f3b efbd ed57 013c 0f2f 1bbd
00000340: 9fba a03d ea89 523d f4bc 29bd 72e4 07be
00000350: 019d 8dba ecf4 fa3d 89b7 213d 698c d7bd
00000360: 9e83 b23c 37e2 a1bd f920 9fbd 0b8c 5bbd
00000370: a730 1cbb b5fe ffbd 4157 af3c 00ef 8d3b
00000380: 979b 8bbc 74e4 84bb 4d53 2dbd e97e 9ebd
00000390: f24e 75ba 7613 553d 8715 e0bb 8f35 023d
000003a0: 1ccd 8ebc 3bf4 0e3d a788 2c3d 9f5c 8abc
000003b0: 1e03 84bb 15cd 9abc c1d6 643c 2f3f 44bb
000003c0: 51e8 7f3c 6c7a f03b 0a39 0abd 6052 33bc
000003d0: 2f31 063d f909 063d 8519 c4bc 9d9d f4bc
000003e0: cc22 04bd 9e40 e93c 3ed0 d8bc 74a0 91bc
000003f0: ea53 48bc 75b4 cdbd 3030 9bbc a931 443d
0.00107206 -0.012366507 -0.027401626 -0.018101599 -0.016178459 -0.017879076 0.030556044 0.016645793
0.0007233118 -0.0149082085 0.0661379 0.04243935 0.062749125 0.050256427 0.019985452 0.03220363
0.03523433 -0.01443593 0.019046873 0.07162558 0.03193504 -0.020391617 -0.10753592 -0.0744138
0.046040714 -0.08591372 -0.043009423 0.036951136 0.008811503 -0.13964817 0.06773381 0.13511401
-0.064082764 -0.053808622 0.023430947 0.012652579 -0.005504109 0.09113352 0.0075441953 -0.045686044
-0.043025985 0.010878638 0.043458708 0.037718136 -0.015893701 -0.033114474 0.005593142 -0.008576623
0.012532628 -0.0168264 -0.053640723 0.0062187687 0.013768633 -0.028557023 -0.041224446 -0.016760658
-0.014785421 -0.061170552 0.010184625 0.029564926 0.017485466 0.050021805 -0.035840165 -0.0082169315
-0.010525358 -0.034235816 -0.048433166 0.08145401 0.09950457 -0.1250602 0.01675544 0.086744815
-0.09663362 -0.133732 0.101313606 0.07025524 -0.14977235 0.051807396 0.05880073 -0.034108046
-0.14902066 -0.04120068 0.0065108812 -0.0220267 0.015695084 -0.0033930878 0.02525025 -0.03952825
-0.073128544 -0.0066848258 -0.0028011552 0.013047924 0.025108987 0.04622127 0.043811236 -0.033754118
-0.040462255 0.028076826 0.018696796 -0.018307755 -0.0041935723 -0.027231175 0.0452304 0.012231749
-0.029901091 -0.069600865 -0.020657936 0.013942832 0.05656403 0.047462154 0.04900061 -0.007609922
-0.040546454 -0.005197509 0.07917417 -0.05586288 0.0005659233 0.0017001778 -0.010416683 0.024022423
0.08713036 -0.00025978347 -0.17375462 -0.0074213776 0.057024702 0.018411014 0.005778508 0.027438125
0.025647756 -0.01543341 0.0882558 0.006088699 -0.050989415 0.018408116 -0.013788723 0.008351194
0.056070425 -0.006302904 -0.03049552 -0.039230727 -0.11045006 -0.16022483 -0.12577637 -0.1712985
-0.16250353 -0.13115683 -0.042748857 0.036278557 0.022679923 -0.0074734795 0.016684793 0.030418191
-0.003616236 0.047560744 0.026346652 0.040287588 0.04336073 -0.005682623 0.017738495 0.02755822
0.0167206 0.0019841804 0.064979695 0.018996192 -0.10579057 -0.10387478 0.04396925 0.07071616
-0.029440222 0.009394856 -0.14330323 0.12874205 0.049335767 -0.031158792 0.036428727 -0.052470397
-0.08032589 -0.11505332 0.1363698 -0.069260694 -0.08003527 -0.027409509 -0.015438113 -0.026617223
-0.026745964 0.03828128 -0.027276652 -0.053976387 -0.032984313 -0.00011717118 0.0066865953 0.021392172
0.04585038 0.024732469 -0.019628223 0.037612993 -0.011814978 0.02349043 -0.07173571 -0.06943345
0.0077870595 -0.0060401433 -0.0048767915 0.021829339 -0.09731664 -0.11681258 0.007894498 -0.037886675
0.07848095 0.051401056 -0.041439965 -0.13270739 -0.0010804237 0.122537464 0.039481673 -0.10524828
0.021791276 -0.07904475 -0.07769961 -0.053600352 -0.002383271 -0.124997534 0.02140391 0.0043314695
-0.017041964 -0.004055554 -0.04231577 -0.0773905 -0.0009357772 0.052020513 -0.0068385038 0.03178936
-0.017431788 0.034900885 0.04212251 -0.016889868 -0.004028692 -0.018896619 0.013967217 -0.0029944887
0.015619353 0.0073388126 -0.033745803 -0.010944933 0.03276175 0.032724354 -0.02393795 -0.029860312
-0.032259747 0.028473195 -0.026466485 -0.017776705 -0.012227038 -0.10044185 -0.018943876 0.047898922

fc1.bias f4 [10]
00000000: 8e80 0dbb 71b1 803c 46f3 a2bb 4751 16bd
00000010: ccd7 a5bb 3125 a4bb 32c5 f33a bcc0 7a3c
00000020: 9aec 573c dadf df3c
-0.0021591517 0.01570961 -0.004972848 -0.036698606 -0.0050611254 -0.0050093164 0.0018598197 0.0153047405
0.013178969 0.02732842

exp_avg f4 [8, 1, 3, 3]
00000000: 6008 4c3a 4e96 a5b9 0c56 01ba 558a 663a
00000010: 08bb dbb8 f8bc fbb9 a101 e7ba 311c cbba
00000020: 6ae7 0fbb 1ab7 9238 5ab1 e3b9 b9ca 3abb
00000030: 1b4a aa3a 5fb9 80ba a245 19bc ade0 62ba
00000040: 0045 13bc 9f8a 82bc 8118 a5ba f939 feba
00000050: 387c 38b9 52c6 8aba e5cc c9ba 20cc 9cb8
00000060: fe8f 30ba 073f 88ba 5241 5bba 0000 0000
00000070: 0000 0000 0000 0000 0000 0000 b04c 1f2f
00000080: 0000 0000 0000 0000 250c 902f 0000 0000
00000090: fc81 acba a216 70ba c01f 1d3b 4e62 23bb
000000a0: ba5f deba 30e3 3a3b fa3f 0bbb d9dc 1dbb
000000b0: 5d76 593a 94a0 97ba 9260 2f3b faf7 803b
000000c0: 546f 0dbb f824 103b 25f4 be3b 3c61 a5ba
000000d0: 406a 15b9 721d 913b 4935 c93b 24a0 d73b
000000e0: 0db7 0a3c a170 ef3a 7caf 1a3b c1d8 113b
000000f0: 92b2 353b 4d29 543b d7cb 883b ea9f 373c
00000100: 10c9 6d3c 77fe 6e3c ec6d d73b 427f c83b
00000110: a6ec cb3b 437e b33b 0b7c c33b 8643 003c
0.00077832304 -0.00031583238 -0.00049337815 0.0008794417 -0.00010477571 -0.00048015243 -0.0017624387 -0.0015496073
-0.0021958002 6.995928e-05 -0.0004342895 -0.002850218 0.0012992056 -0.000982087 -0.009354981 -0.0008654695
-0.008988619 -0.01593524 -0.0012595804 -0.0019395939 -0.00017593883 -0.0010587669 -0.0015396146 -7.476681e-05
-0.00067353237 -0.001039476 -0.00083639205 0.0 0.0 0.0 0.0 1.448821e-10
0.0 0.0 2.6202077e-10 0.0 -0.0013161297 -0.0009158646 0.0023975223 -0.002493042
-0.0016965785 0.0028516762 -0.002124785 -0.0024087934 0.00082955306 -0.0011568242 0.0026760441 0.003935811
-0.002158125 0.0021994691 0.005827444 -0.0012617479 -0.00014249329 0.004428559 0.0061403853 0.0065803695
0.008466494 0.0018267819 0.0023603132 0.002225444 0.0027724844 0.003237325 0.00417469 0.01120756
0.014513269 0.014587036 0.006574383 0.006118686 0.006223279 0.005477698 0.005965715 0.007828599

exp_avg_sq f4 [8, 1, 3, 3]
00000000: f277 1937 8371 0536 6aec 7636 1e01 8b37
00000010: 3d76 d136 1c99 1837 8f27 b338 db12 d737
00000020: 96fc 0a38 df3c 1236 9b2c f435 8b8c 2538
00000030: 5dd5 b736 cfca 6937 44b5 3539 7290 2f37
00000040: bebb b738 637c cd39 5e6b d439 d22a 193a
00000050: 09fb 223a da50 f739 c535 6e3a 5b1d 813a
00000060: f163 183a da91 763a e0e4 803a 0000 0000
00000070: 6661 fd2c 0000 0000 0000 0000 0976 282d
00000080: 0000 0000 0000 0000 3072 292d 0000 0000
00000090: eb6f fb39 b27e cc39 b985 a239 fd5a 123a
000000a0: ec53 273a 001c e939 b1af 053a 27b8 303a
000000b0: 429a 233a ea12 8139 57fc 1d39 0a32 d738
000000c0: 5b36 cf39 14ad 4939 959b 0f39 8cc1 023a
000000d0: cbf6 c039 daa1 9139 aad4 023a c0ac 143a
000000e0: 294b 383a 899e 8a39 774d a439 0fdc e839
000000f0: ff43 0339 ddef 3639 3d31 8f39 d233 233a
00000100: 8232 4a3a 90a7 483a 7186 2e3a 9f8f 253a
00000110: 83ac 0d3a cc9c b739 eac7 9439 b893 9339
9.147438e-06 1.9884617e-06 3.6794468e-06 1.6570611e-05 6.24245e-06 9.095555e-06 8.5427535e-05 2.5638778e-05
3.3137003e-05 2.1791127e-06 1.8192399e-06 3.9469956e-05 5.4786638e-06 1.3935102e-05 0.00017329032 1.0464444e-05
8.76109e-05 0.00039193322 0.00040515786 0.00058428675 0.0006217217 0.0004717175 0.0009086992 0.0009850668
0.0005813232 0.0009405889 0.0009833835 0.0 7.201506e-12 0.0 0.0 9.5759034e-12
0.0 0.0 9.6318925e-12 0.0 0.00047957836 0.00039004307 0.0003099868 0.00055830163
0.000638305 0.00044462085 0.00050997274 0.0006741308 0.0006240943 0.0002461889 0.0001506669 0.000102613194
0.00039522615 0.0001923333 0.00013695502 0.0004987947 0.0003680497 0.00027777144 0.0004990796 0.0005671494
0.00070302427 0.0002643953 0.00031338233 0.00044414445 0.00012518464 0.00017446229 0.0002731177 0.00062256784
0.0007713215 0.0007654363 0.00066576066 0.00063156517 0.00054044294 0.00035021303 0.00028377707 0.00028148084

exp_avg f4 [8]
00000000: 7f0f 6abc 820b 28bd 975f 8c3b 250c 902f
00000010: 5134 a4ba df33 58bc 9791 e83c aeb6 293d
-0.014285921 -0.0410266 0.004283856 2.6202077e-10 -0.0012527799 -0.013195961 0.028389735 0.041433983

exp_avg_sq f4 [8]
00000000: 16d7 6b3b e418 953b 7771 183b 658b 292d
00000010: 46b6 a43a 36c7 e43a 9ad1 aa3a 2288 3d3b
0.0035986356 0.0045500863 0.002326099 9.63749e-12 0.0012566529 0.0017454389 0.0013032437 0.0028920253

exp_avg f4 [16, 8, 3, 3]
00000000: 2d05 b2ba 7f0c d1ba eac0 c5ba 101c 8fba
00000010: 4880 e4ba 5438 05bb b43e 89ba 257c afba
00000020: d0e0 e2ba 25e0 c8b9 16fd 11ba 77ac 20ba
00000030: 8edf 98b9 7e30 b8b9 9ad2 79ba 7a19 ceb9
00000040: 284c 1bba de3e 6dba f29b 38bb b801 13ba
00000050: 9a83 d13a 7257 53bb 58a2 dfb9 4c50 0e3b
00000060: ab26 6cbb 526c caba c092 71b9 984a 97ad
00000070: 0000 0000 0000 0000 2921 c317 de30 2898
00000080: ed56 28ac c9ba b498 b558 1b98 0000 0000
00000090: 60e4 33bb 9225 33ba 6475 873a b479 5dbb
000000a0: b483 99ba e7e4 b13a 1058 41bb d73e ddba
000000b0: 269d b4b9 f694 51bb 31a1 dcba a3ac 1dba
000000c0: 8c86 5abb 0268 48bb 34d9 f9ba 1da4 33bb
000000d0: a859 7bbb 1339 4dbb a48f c5b9 f32f 1cba
000000e0: 3663 41ba d278 d1ba 8b7e acb9 b870 56b9
000000f0: 63a9 e8ba 0e29 78ba 6c0c f3b9 d584 49ba
00000100: 3ea2 77b9 f1e0 b6b9 a8ca 13bb 7037 bab8
00000110: 0946 c03a 4755 ccba 1277 64ba 4409 6739
00000120: 2bcf 473a 2b7d 7b3a 08b2 be38 1192 ae39
00000130: 902f 333a 24db 0b3a 2052 0339 6b8b da39
00000140: 800d 3c39 c7cf 023a 8e7e 5b3a 5897 063a
00000150: b6cb 03b9 a8ca 9239 737e 283a c5f7 95b9
00000160: 78be 8138 280e 2f39 c198 4dba 9108 56ba
00000170: 5ad3 8b3a 6957 8e3a 5c99 98b8 bc18 983a
00000180: ded2 d63a 3394 c73a 974d 0a3b 0000 0000
00000190: 0000 0000 fcd1 43ad 97e5 532d 0000 0000
000001a0: 0000 0000 9c91 c32c 0000 0000 d206 5c99
000001b0: 9493 23b9 fff3 8eba ca52 8c39 187f ad3a
000001c0: 68e5 0738 6a5a 483a fb9d fb3a da14 9d3a
000001d0: 86d6 d53a d005 a83a 8954 d9b9 bcad efba
000001e0: a87f c43a cf72 663a c292 123a 69c8 613a
000001f0: 7c3c e239 77af d539 a8d5 04ba 6256 13ba
00000200: 313d 2f3a 1019 6bba d124 69ba ba10 f7b9
00000210: a0f1 a73a a04a 9b3a ac1c 953a 7609 aeb9
00000220: 7452 a6ba c933 8d39 3663 aeb9 5a84 7eba
00000230: b2d4 bab9 06c8 003b 0e99 9b3a dafd 043b
00000240: f1c0 22ba fc57 82b9 5cc1 7ab8 1235 65ba
00000250: c4d0 dd38 7fb8 bd39 ccb9 50b9 30ba b038
00000260: 9881 aab9 8e05 e6b9 7e11 7bba 70a5 00ba
00000270: c2e3 4cba 1fcc 1eba 5a40 ac39 54e7 8fba
00000280: e1d3 5039 6412 a438 9bc0 2b3b a612 3b3a
00000290: 5ca2 d2ba ae49 f23a d04f e638 4c1a 0a3a
000002a0: 46dd 83b8 2cc8 aa3a 65fb 9c3b 0000 0000
000002b0: 9474 252c 01f1 102e af40 c418 0000 0000
000002c0: 3f00 b895 619f dc98 220b 8b98 8874 59ad
000002d0: 3433 0f3b 0644 513a 5cb1 05ba c15d f23a
000002e0: 157e 723a c08e 7139 f95b d739 6cf6 7d3a
000002f0: ce70 3c3b 1a03 593a 7c97 11b8 a001 fc38
00000300: 6013 88b8 1d0c 5a3a 2539 9d3a 0ef6 f239
00000310: 0453 203a 9e63 a33a 7a3e df38 1888 01b8
00000320: c76b 31ba 7cbc 893a 8011 69b7 106b d539
00000330: 8cf7 4f3a 2022 803a 586b 233b f84c 6a3a
00000340: 9c11 503a 0012 6f36 5ad3 103b 360a d039
00000350: 463a 39ba 714c 923a 30a0 543a f8bd fd3a
00000360: 8fbf 03bb c962 deba 8803 deba a563 25bb
00000370: b978 26bb 0ade 01bb 26e1 fbba b4be 0fbb
00000380: 863d dbba 34c5 a3ba 7a31 1bba 79f0 87ba
00000390: b5e8 9fba b835 95ba 8e68 1ebb 250d b5ba
000003a0: b200 fdba 293f 06bb 1869 173a df8c 3cb8
000003b0: 9abd f2ba be7a a1ba 811b 5d3a 78a4 0ebb
000003c0: 2587 7bbb d4ad d5ba 2a0f 9abb 0000 0000
000003d0: 0000 0000 0000 0000 e5a1 5aae ed3f 4f14
000003e0: aaa6 afad fa23 9e96 d638 df2d b318 da98
000003f0: e4c2 8e39 b028 3db8 fa8f 97ba 621d 9cba
-0.0013581865 -0.0015949159 -0.00150874 -0.0010918397 -0.001743325 -0.0020327764 -0.0010470957 -0.0013388438
-0.0017309431 -0.00038313973 -0.0005569024 -0.0006129215 -0.0002915826 -0.00035131344 -0.0009529978 -0.00039310363
-0.0005924129 -0.00090502005 -0.0028169123 -0.0005607861 0.0015984655 -0.0032248166 -0.0004265483 0.002171534
-0.003603379 -0.0015443659 -0.0002303822 -1.7199839e-11 0.0 0.0 1.260995e-24 -2.1738163e-24
-2.392249e-12 -4.6717514e-24 -2.0078066e-24 0.0 -0.0027449355 -0.00068339065 0.0010334668 -0.0033794465
-0.0011712224 0.0013572247 -0.0029501952 -0.001687969 -0.0003444936 -0.0031979657 -0.0016832707 -0.00060147996
-0.0033344356 -0.0030579572 -0.0019061924 -0.0027411052 -0.0038353 -0.0031314536 -0.0003768179 -0.0005958073
-0.00073771493 -0.0015981442 -0.00032900678 -0.00020450621 -0.0017750676 -0.0009466567 -0.00046357827 -0.0007687335
-0.00023616196 -0.0003488134 -0.0022551212 -8.879497e-05 0.001466931 -0.001558938 -0.00087152526 0.00022033328
0.0007622118 0.00095935416 9.093067e-05 0.00033296694 0.00068353955 0.00053350837 0.00012523727 0.00041684075
0.00017934106 0.00049900677 0.0008373045 0.00051342463 -0.00012569022 0.0002799828 0.0006427534 -0.00028604097
6.186677e-05 0.00016694574 -0.00078428915 -0.00081647286 0.0010667846 0.001085979 -7.27649e-05 0.0011604051
0.0016389748 0.0015226662 0.0021103376 0.0 0.0 -1.1131093e-11 1.20449406e-11 0.0
0.0 5.5583992e-12 0.0 -1.1375111e-23 -0.00015599868 -0.0010906457 0.00026764564 0.001323673
3.240016e-05 0.0007642867 0.0019196862 0.0011984364 0.0016314543 0.0012819115 -0.0004145245 -0.001828603
0.0014991658 0.00087909115 0.00055913266 0.0008612932 0.00043151143 0.00040757257 -0.00050672377 -0.0005620477
0.00066848384 -0.0008968273 -0.00088937307 -0.00047123973 0.0012813099 0.0011847802 0.0011376343 -0.00033194915
-0.0012689368 0.000269322 -0.00033261784 -0.0009709053 -0.00035635155 0.0019650473 0.0011871175 0.002029291
-0.000620856 -0.00024861086 -5.9784725e-05 -0.0008743565 0.00010576987 0.0003618635 -0.0001990564 8.427014e-05
-0.00032521482 -0.00043873157 -0.00095774967 -0.00049074646 -0.0007815921 -0.0006057638 0.00032854342 -0.0010978975
0.00019915357 7.823555e-05 0.002620733 0.0007136263 -0.0016070115 0.0018485093 0.00010982121 0.0005268201
-6.287782e-05 0.0013029627 0.0047907108 0.0 2.3512624e-12 3.2955864e-11 5.0730126e-24 0.0
-7.4317396e-26 -5.70296e-24 -3.59419e-24 -1.2360897e-11 0.0021850588 0.00079828536 -0.0005099976 0.0018491076
0.0009250355 0.0002303673 0.0004107652 0.0009687904 0.002875376 0.0008278355 -3.4711775e-05 0.00012016599
-6.488594e-05 0.0008317845 0.001199518 0.00046341162 0.0006115886 0.0012465601 0.00010645106 -3.0882744e-05
-0.0006768074 0.0010508443 -1.3891957e-05 0.00040706294 0.00079333107 0.0009775795 0.0024935808 0.0008937861
0.00079371943 3.5624253e-06 0.0022098632 0.0003968046 -0.00070658734 0.0011161697 0.0008111028 0.0019358983
-0.0020103191 -0.0016966696 -0.0016938308 -0.0025236395 -0.0025401546 -0.0019816183 -0.001921688 -0.0021933736
-0.001672671 -0.0012494684 -0.00059201533 -0.0010371349 -0.0012200089 -0.0011383807 -0.0024171206 -0.0013813121
-0.0019302575 -0.0020484424 0.0005775853 -4.495389e-05 -0.001851964 -0.0012319905 0.00084345794 -0.0021765511
-0.0038380113 -0.0016302415 -0.0047015147 0.0 0.0 0.0 -4.9711252e-11 1.04634364e-26
-1.996921e-11 -2.554898e-25 2.5377405e-11 -5.637662e-24 0.00027229555 -4.5099005e-05 -0.0011563294 -0.0011910612

exp_avg_sq f4 [16, 8, 3, 3]
00000000: c59d 0c37 7cd4 4937 0189 5c37 c5e5 0737
00000010: 6666 4a37 a044 5837 b38f ce36 4a29 0637
00000020: b29b 1737 2971 3436 bf54 3936 0349 8536
00000030: a8c1 3436 ce51 5236 3ea2 9f36 539b 3c36
00000040: 6d83 5336 c36e 5c36 6b1e e438 5a3e 6738
00000050: 5474 1338 0531 1c39 ea1a d038 7044 b738
00000060: ae0e 3839 afc1 3039 0caa 1939 50eb ca25
00000070: 8bf8 b828 0000 0000 860e 6821 816f 0b23
00000080: c344 4c26 dd7d 6024 74f4 9d26 8f64 d224
00000090: 536a 8d38 a8ea 2c38 5991 aa37 6c02 c738
000000a0: c896 9038 6f06 4438 df96 dc38 ae9e e238
000000b0: 3340 b938 3f08 3f38 0654 3138 2762 c537
000000c0: d41e 8838 ef11 9538 583b 4238 23a2 4338
000000d0: bba7 8a38 5455 6938 6037 9937 5221 3237
000000e0: b486 2f37 2355 bb37 ac53 1837 80a4 ef36
000000f0: e22b 3038 490d 0038 6b88 ba37 a7ac e437
00000100: d032 ab37 1355 3337 a8f9 0338 dacd 8937
00000110: 7494 1637 29b1 6a38 15d4 4f38 2996 2f38
00000120: 68ac b836 2491 bf36 577c c636 74de c036
00000130: dbec aa36 5f60 ea36 693c e036 bd50 ac36
00000140: b20d ca36 2d15 2736 b569 4e36 bf33 4036
00000150: 0f57 0c36 e2d3 6636 38a5 6636 d231 3d36
00000160: d20f 8c36 ea74 2736 f8ee b438 2a7e 0439
00000170: 1f2b 7b39 1a6e 5138 c5f1 a938 10f2 7b39
00000180: eac0 8138 ff84 b738 578a 6b39 0000 0000
00000190: 0000 0000 01ca 4027 f538 cb27 0000 0000
000001a0: ccae 6922 7141 8b1f 0000 0000 a886 9324
000001b0: 88f5 4738 0dad 8838 6e48 e738 c349 f537
000001c0: 93b3 1e38 7c37 ce38 48ec 0f38 fbd6 2438
000001d0: ee87 b938 466a 8d37 1768 b437 3e2d 1438
000001e0: c099 6237 bee9 8837 20b7 da37 09ad 8337
000001f0: ad65 8937 52f3 c537 2be6 d837 2bca 1138
00000200: 71d3 2038 8e30 8d37 f284 0d38 4947 5638
00000210: 3995 0f37 8497 a337 7b62 1438 0b35 3138
00000220: a6c7 4838 1fcd 4438 d0a6 d237 573e ed37
00000230: 3d92 2a38 6ba2 4a37 cbd2 9337 b322 1438
00000240: cd6b 3f37 1804 5037 4868 4b37 96b3 2e37
00000250: 77e5 4937 9264 4637 5f5c 1237 f6d1 4a37
00000260: c119 3f37 3b5a 4136 3ef9 8536 6ab9 8f36
00000270: 2fff 4e36 f10e 8b36 648a 8636 cd0d 5136
00000280: 31b5 6d36 51e5 5836 e118 4d38 6785 9c38
00000290: eeee ec38 cb51 d138 736c 3539 8eea 4e39
000002a0: 6ec7 2639 e136 7f39 2c7e 6a39 6936 b027
000002b0: 73a6 0f24 7a24 eb26 b7fb 6d23 0000 0000
000002c0: 8986 2522 11b0 bf23 16a8 eb22 3d39 8627
000002d0: 3680 fa37 5713 1538 0e14 6b38 f302 6b38
000002e0: ad00 9438 ace2 c538 0c18 ab38 6ed6 e638
000002f0: 8d45 0439 1aaf 1238 520a 0438 80c9 2338
00000300: 275d 5a38 26a9 4638 f7a9 6d38 96c9 4f38
00000310: b32f 6838 0837 8c38 ea9f 1e37 01e2 4637
00000320: f3de 7337 0d66 7337 eb02 9d37 83c5 db37
00000330: ef1e fa37 626c 1338 d46e 0438 c005 2637
00000340: 892b 5b37 bfbb a037 c430 9b37 4115 da37
00000350: a0eb 2038 a458 1638 198e 2b38 ab78 3238
00000360: cd4c 0138 8d69 0538 8b43 0038 143e 0a38
00000370: 83da 1c38 6cd7 0a38 03f5 c937 2a35 e837
00000380: 0b8a c537 4fd7 f936 2667 1237 9296 3837
00000390: 6fb7 0037 3d77 3c37 0b96 8837 e20e e736
000003a0: 730d 4337 39b1 3b37 7488 ae38 6e68 5038
000003b0: 3fb8 a238 2768 d538 228e 6938 7360 0239
000003c0: 1ef8 4c39 6935 5539 c38c b139 0000 0000
000003d0: 0000 0000 0000 0000 5805 2429 d24b da22
000003e0: 35e5 6224 5392 fa23 4bb8 5727 2769 b324
000003f0: 3b31 8038 e064 0c38 a7c4 4038 756a a638
8.381384e-06 1.20300065e-05 1.3144921e-05 8.100124e-06 1.206398e-05 1.2890581e-05 6.156007e-06 7.996636e-06
9.036552e-06 2.6887958e-06 2.7616477e-06 3.9722086e-06 2.6934813e-06 3.1340055e-06 4.7574567e-06 2.8104594e-06
3.151795e-06 3.2847026e-06 0.00010877553 5.513276e-05 3.515587e-05 0.0001489558 9.923226e-05 8.7388675e-05
0.00017553076 0.00016856821 0.00014654564 3.5200868e-16 2.0535892e-14 0.0 7.862388e-19 7.558817e-18
7.0869907e-16 4.8678868e-17 1.0960323e-15 9.1243335e-17 6.743208e-05 4.1226536e-05 2.0333262e-05 9.4895106e-05
6.89454e-05 4.6736033e-05 0.000105185194 0.00010806076 8.8334455e-05 4.554563e-05 4.227834e-05 2.3529936e-05
6.4907275e-05 7.108214e-05 4.6308473e-05 4.6642625e-05 6.611595e-05 5.5630997e-05 1.8264807e-05 1.0617385e-05
1.0462176e-05 2.2331782e-05 9.079387e-06 7.1419054e-06 4.200254e-05 3.052995e-05 2.2236452e-05 2.7260116e-05
2.040845e-05 1.0689039e-05 3.1465344e-05 1.642753e-05 8.975261e-06 5.595494e-05 4.9550163e-05 4.18631e-05
5.503698e-06 5.70914e-06 5.915335e-06 5.747943e-06 5.0939684e-06 6.9849625e-06 6.682753e-06 5.1353986e-06
6.0216635e-06 2.4897265e-06 3.0757922e-06 2.864035e-06 2.09123e-06 3.4396003e-06 3.436884e-06 2.8192194e-06
4.174167e-06 2.4952992e-06 8.62758e-05 0.00012635501 0.00023953289 4.9932023e-05 8.103581e-05 0.000240274
6.1871324e-05 8.7508924e-05 0.00022462882 0.0 0.0 2.675486e-15 5.640557e-15 0.0
3.1669925e-18 5.8977054e-20 0.0 6.3979204e-17 4.7673966e-05 6.5172186e-05 0.000110284294 2.9240624e-05
3.7837377e-05 9.83318e-05 3.431391e-05 3.9300863e-05 8.846806e-05 1.6857997e-05 2.1506143e-05 3.5328085e-05
1.3506447e-05 1.6321308e-05 2.60729e-05 1.5696993e-05 1.637902e-05 2.3597535e-05 2.5856387e-05 3.4758978e-05
3.8343893e-05 1.683112e-05 3.3740835e-05 5.1087965e-05 8.558208e-06 1.950167e-05 3.5377667e-05 4.224949e-05
4.7869653e-05 4.6921075e-05 2.5111629e-05 2.828163e-05 4.0667353e-05 1.2077954e-05 1.7621924e-05 3.5318266e-05
1.14095865e-05 1.2398719e-05 1.2124023e-05 1.0413021e-05 1.203396e-05 1.18251355e-05 8.723785e-06 1.2089024e-05
1.1390483e-05 2.8811762e-06 3.9927245e-06 4.283317e-06 3.0844928e-06 4.144262e-06 4.009622e-06 3.115146e-06
3.542122e-06 3.2319988e-06 4.889898e-05 7.463508e-05 0.00011297861 9.981132e-05 0.00017301906 0.0001973307
0.00015905287 0.00024339139 0.00022362982 4.8908805e-15 3.114917e-17 1.6316288e-15 1.29010984e-17 0.0
2.2432892e-18 2.0782829e-17 6.3874846e-18 3.725453e-15 2.9862025e-05 3.554238e-05 5.6047043e-05 5.6031113e-05
7.057316e-05 9.435913e-05 8.1583945e-05 0.00011007195 0.0001261441 3.497219e-05 3.1480864e-05 3.904989e-05
5.2062005e-05 4.736441e-05 5.6663495e-05 4.9540387e-05 5.5357534e-05 6.6859706e-05 9.454767e-06 1.185434e-05
1.4535838e-05 1.4507689e-05 1.8717217e-05 2.6198808e-05 2.9816727e-05 3.514847e-05 3.157447e-05 9.89571e-06
1.30635535e-05 1.9160912e-05 1.8500148e-05 2.5997522e-05 3.8366416e-05 3.584534e-05 4.0901916e-05 4.2550888e-05
3.0827523e-05 3.1807973e-05 3.0580482e-05 3.295958e-05 3.7396803e-05 3.310239e-05 2.407516e-05 2.7681312e-05
2.3548511e-05 7.4458435e-06 8.726294e-06 1.1002312e-05 7.6721035e-06 1.12334355e-05 1.6282333e-05 6.886069e-06
1.1626037e-05 1.1187331e-05 8.322383e-05 4.9688322e-05 7.7590805e-05 0.00010176031 5.56839e-05 0.00012433696
0.00019547387 0.0002033316 0.00033864946 0.0 0.0 0.0 3.641995e-14 5.9169296e-18
4.9200084e-17 2.7167025e-17 2.993715e-15 7.780701e-17 6.1126855e-05 3.347255e-05 4.5959514e-05 7.935326e-05

exp_avg f4 [16]
00000000: d2f2 9dbb 03e1 b03a f244 42ba 6fa4 d2bb
00000010: ac13 c43b b792 dab9 1578 ad3a 09fa 793b
00000020: 5153 473b 8cc0 583a e283 4fbb b01f a3bb
00000030: c00f 8e3b 17b7 94bb 8285 193c a454 e83b
-0.004820206 0.0013494793 -0.00074107863 -0.0064282934 0.0059837904 -0.0004168951 0.001323464 0.0038143417
0.003041465 0.0008268438 -0.0031664302 -0.0049781427 0.0043353736 -0.0045384276 0.00937021 0.007090168

exp_avg_sq f4 [16]
00000000: d69d 2b39 0b31 9e38 4c81 2a39 ae29 f139
00000010: cf86 4939 d45d f538 f6f7 ab38 006e 4639
00000020: 2131 9238 2b16 8039 f984 9839 f676 ff39
00000030: 35bb 2b39 f198 dc38 1f4c 8c39 b10d e638
0.0001636663 7.543162e-05 0.0001626063 0.00045998156 0.00019219074 0.00011699987 8.200102e-05 0.0001892373
6.9709735e-05 0.0002443058 0.00029090772 0.00048726023 0.00016377571 0.00010518905 0.00026759595 0.00010969805

exp_avg f4 [10, 784]
00000000: 6fa6 08ba 84db 5aba 4e6a b2ba 7b01 acba
00000010: 6082 0c39 f8f5 78ba 0ab8 3bba cc1a cfb9
00000020: e378 28ba 58cd 3cbb a7e3 b3bb 0e81 70bb
00000030: f65d 0fba 53a9 a6ba fa2f 47ba 41d9 6aba
00000040: f85c 2fbb 48f7 d1bb 759e 04bc 8770 c1bb
00000050: 38c8 26bb 53fe fdb9 fec2 a638 727b 0fbb
00000060: 0e85 d0ba 69a1 f3ba 0771 aabb 274c 82bb
00000070: 4edf fab9 1011 1b3a 21b9 b9bb b4c5 edbb
00000080: 3cbd 57bb 7a17 7fba 7cf6 e8ba b795 0cba
00000090: f275 8ab9 da8c 6aba de47 8bba 84cc 28b7
000000a0: 7ee6 1539 940d 06ba f04f 0dba 987e 1fba
000000b0: 838a ddb9 a241 cfb9 2430 d4b9 d8a5 f7b9
000000c0: 1263 fab9 6957 bc35 5bee 76b6 61f9 c9b6
000000d0: d0c9 9c39 b27b 76b6 38da 8e34 f6c5 1a01
000000e0: 9c17 e038 e071 73ba ba7e 03ba 67a7 463a
000000f0: dd91 f0b7 05ed 5eba c92b 8434 4648 75b9
00000100: ef97 f3ba 72fe 7238 da6b a839 6a62 f738
00000110: b174 2bba a1d0 e2b9 647b 08bb 2cc3 b7bb
00000120: c82f 57bb a45e 0dbc 04a0 28bc 2882 babb
00000130: 39e5 24b8 803d a3ba 8185 15bc 23db d8bb
00000140: bfb5 7c3a 9f7c 4a3a 4672 18bb fe7f 34ba
00000150: 9136 3b3a 0f21 b4bb fd4a 2dbc f9c8 e0bb
00000160: 2a45 dfbb 720a a4bb bf31 d1ba ee87 0e39
00000170: 9e65 db3a ddf6 d53a 45e6 9d3a b0c2 703a
00000180: daa0 03ba fbb1 0c38 dc2c 98b6 b2d6 d6b9
00000190: 1de7 45ba 434d 8739 0bd8 d039 4c8f 13ba
000001a0: c973 eab8 2024 6d39 5a8e 01bb d5f8 72bb
000001b0: eb15 39bb 800d dcba 0138 7639 69e4 14ba
000001c0: 9358 e9b9 01ca 9fbb bd0f 18bc 6de3 01bc
000001d0: 5c0f e0bb 2609 8fbb d9f5 bbba 5b29 9cba
000001e0: 431a d4bb 7e97 abbb a679 8339 f002 48bb
000001f0: 759c 4fbb 0297 08bb 2c1b 3eba 52bf b4bb
00000200: 8428 d5bb 88b3 d9bb 116d 15bc 59e0 90bb
00000210: 5609 cbb9 de59 073a dd64 aa3a 660f fa3a
00000220: 1d0f c73a 4ac4 2c3a 5487 6cba 990c 94b7
00000230: b468 f838 1892 8139 8997 d536 1a80 6438
00000240: 2790 7437 29ce d235 cec3 74b8 83e5 03bb
00000250: 2334 18bb 69e7 33bb 2e48 10bb acf8 0bbb
00000260: ab45 0abb 398e 11bb 50eb f4ba 92fd 2cbb
00000270: ee92 69bb 39b2 83bb fa10 73bb cb8d 30bb
00000280: ab25 feba d919 2ebb cee8 73bb ae49 21bb
00000290: dfbf f4ba 4861 9abb 0432 95bb d10a 24bb
000002a0: a87b 12bb c776 07bb 4303 91ba 5a22 35bb
000002b0: 6864 cbba 62f0 edba cd8f 38bb 830d 9bba
000002c0: 8ed6 6839 ec00 5aba 4d8b 53bb 4535 0fbb
000002d0: 0543 a6ba 251c c1ba 5598 06bb f658 32bb
000002e0: 591c 4abb fc17 22bb 2697 0cbb fb4b d9ba
000002f0: 73dd dfba c9a6 02bb 72b2 f5ba af05 02bb
00000300: c227 18bb 7f1b f7ba ff7e f5ba 4980 01bb
00000310: 5140 0db8 03fd 10b8 a1fd 09b8 9a96 bf37
00000320: 3dd2 d6b8 87a3 2138 9b43 88b9 22cd 12b8
00000330: 3de3 8a38 b8e9 64b8 d323 be38 4525 a7ba
00000340: 70a2 88ba 8b9d 55b9 ee53 ac37 e539 52ba
00000350: a187 01bb 0181 8dbb 49a7 01bb 2208 60ba
00000360: 7b4c 44ba 669a 44ba 64b0 84ba 6d82 0bbb
00000370: 614d 85bb e8ae 99bb f15a 16bb e755 52ba
00000380: 6121 9aba b664 e2bb fba5 fcbb 2f34 99bb
00000390: e442 4cbb f480 3dbb cabf 86ba bc98 2e3a
000003a0: 0068 28ba 948c d5bb f27d 8cbb cfa4 3abb
000003b0: c37b 03bb 7235 8dba 1340 8f38 a06a f139
000003c0: 50e6 f2b9 dc94 23ba 1afe 6339 d750 59b8
000003d0: e96d 65b9 cae5 d6b8 ccbf d4b9 5fe4 4eba
000003e0: d09a 00ba c3d9 2d3a 5e6d 21ba 53d9 e3b8
000003f0: 3b3f 9236 ee66 a6b9 ffb7 53bb 8165 b5bb
-0.0005212789 -0.00083487504 -0.0013612004 -0.0013123 0.00013400009 -0.00094971014 -0.0007160908 -0.00039502082
-0.0006426705 -0.0028808918 -0.0054897848 -0.0036698016 -0.00054690184 -0.0012715257 -0.00075983966 -0.0008958765
-0.0026758295 -0.006407652 -0.00809442 -0.005903307 -0.002544893 -0.00048445407 7.951817e-05 -0.0021893647
-0.0015908794 -0.0018587533 -0.005201462 -0.003976363 -0.0004785009 0.0005915323 -0.005667821 -0.007256234
-0.003291919 -0.00097309763 -0.0017773653 -0.00053628854 -0.00026409287 -0.000894738 -0.0010626276 -1.0061198e-05
0.00014295612 -0.00051137176 -0.0005390635 -0.00060842326 -0.00042255604 -0.00039531017 -0.0004047166 -0.00047235074
-0.0004775753 1.4032531e-06 -3.6795598e-06 -6.0192983e-06 0.00029905 -3.6728857e-06 2.6608336e-07 2.8427363e-38
0.0001068555 -0.0009286683 -0.0005016137 0.00075780455 -2.8678152e-05 -0.00085039466 2.4618774e-07 -0.00023391945
-0.0018584708 5.7934267e-05 0.00032123813 0.00011796209 -0.00065405207 -0.0004326152 -0.00208255 -0.005607983
-0.0032834876 -0.008628521 -0.010292057 -0.0056917854 -3.9314127e-05 -0.0012454242 -0.009126068 -0.00661792
0.00096401194 0.00077242585 -0.0023261472 -0.00068855274 0.0007141615 -0.005497105 -0.010576961 -0.0068598953
-0.006813665 -0.005006128 -0.001596026 0.00013592813 0.0016738658 0.0016324181 0.0012046775 0.0009184284
-0.0005021222 3.354436e-05 -4.5351753e-06 -0.0004097722 -0.0007549392 0.0002580677 0.00039833816 -0.0005628958
-0.00011179556 0.00022615539 -0.0019768686 -0.0037074585 -0.0028241824 -0.0016788691 0.00023481251 -0.0005679788
-0.00044507216 -0.0048763757 -0.009281096 -0.007927758 -0.0068377685 -0.0043651043 -0.0014340236 -0.001191418
-0.006472857 -0.005236565 0.00025076902 -0.003051933 -0.003167895 -0.002084196 -0.0007251974 -0.005515971
-0.006505074 -0.0066437162 -0.009120242 -0.0044212756 -0.00038726133 0.00051632326 0.001300003 0.0019078075
0.0015186999 0.00065905286 -0.0009022851 -1.7648841e-05 0.00011845064 0.00024713646 6.3655357e-06 5.447874e-05
1.4577096e-05 1.570622e-06 -5.835649e-05 -0.0020125813 -0.0023224435 -0.0027451164 -0.0022015679 -0.0021357937
-0.0021098654 -0.0022210015 -0.0018685851 -0.0026396257 -0.0035640555 -0.0040190485 -0.0037088976 -0.0026939984
-0.0019389888 -0.00265657 -0.003721762 -0.0024610567 -0.0018672905 -0.004711304 -0.0045530815 -0.002503086
-0.0022351537 -0.0020670162 -0.0011063594 -0.0027638883 -0.0015517594 -0.0018153305 -0.0028161884 -0.0011829588
0.00022205172 -0.00083161774 -0.0032279075 -0.002185182 -0.0012684768 -0.0014733119 -0.0020537574 -0.002721367
-0.003083965 -0.0024733534 -0.0021452396 -0.001657843 -0.0017079547 -0.0019935837 -0.0018745197 -0.0019839813
-0.0023217057 -0.0018852799 -0.0018729864 -0.0019760302 -3.367692e-05 -3.456791e-05 -3.2899556e-05 2.2839104e-05
-0.00010243475 3.8537688e-05 -0.0002599031 -3.5000157e-05 6.622679e-05 -5.4577104e-05 9.066579e-05 -0.0012752196
-0.0010424387 -0.00020371952 2.054308e-05 -0.0008019491 -0.001976468 -0.004318357 -0.0019783548 -0.0008546134
-0.0007488203 -0.0007499814 -0.0010123369 -0.0021287457 -0.004068062 -0.00469004 -0.002294239 -0.00080236647
-0.0011759215 -0.0069089783 -0.007710216 -0.00467541 -0.00311678 -0.0028915973 -0.0010280546 0.00066603324
-0.00064241886 -0.0065170024 -0.004287475 -0.0028479581 -0.0020062781 -0.0010773374 6.830706e-05 0.00046046544
-0.00046329433 -0.00062401383 0.00021743067 -5.181212e-05 -0.00021880087 -0.00010247117 -0.0004057869 -0.00078923063
-0.00049058814 0.00066318753 -0.00061579596 -0.00010864683 4.3585e-06 -0.00031738676 -0.0032305715 -0.005535782

exp_avg_sq f4 [10, 784]
00000000: 6ddf fd36 2b36 2937 faf4 e937 2727 8f38
00000010: c8da ae38 bfe8 3b38 feb1 3837 294c 0437
00000020: 9347 7837 bc27 2d38 ff1e c238 3e02 2c39
00000030: 315e 1039 cce7 0638 6293 0e37 616f 6137
00000040: bd72 8237 aa01 ab37 d82f b738 1672 2039
00000050: 46f0 5138 3421 0e37 5eee 9737 9697 3338
00000060: f30b 2d38 db9d eb37 d692 d238 4ddf 4238
00000070: 1ad1 ed36 7170 a837 30ec f838 db06 f338
00000080: ac74 f437 cbcc 5838 f9f2 ca37 9c53 d336
00000090: 416c aa36 d130 d337 70a7 e637 5cfc 8737
000000a0: 0faa b937 a4c9 3637 7cf9 e636 74f2 b936
000000b0: ad50 5c36 8252 7e36 4833 e436 3343 0a37
000000c0: 2a4c 0037 27a7 9a33 e7ee 5135 15f9 3436
000000d0: 77aa 2836 8b00 2935 9952 1a33 74db e233
000000e0: 4b0e 4a35 4084 8237 d92c 1538 65aa 2538
000000f0: 7e1a 1538 0f11 f436 e3be 2934 f15d da36
00000100: 2be7 6a38 f4f3 b738 9ca2 1639 7ae8 8239
00000110: 2228 7438 5a0e 7b35 47fa cb37 306d f938
00000120: 95b5 c638 a9ea 1a39 2966 9539 3caf 9638
00000130: 2096 a335 50e8 2f38 107b 5d39 3be9 1939
00000140: 606a 7938 75b8 9438 b4c6 c937 06ec c435
00000150: 1986 d137 5305 6939 bd0e b139 9eb1 5939
00000160: a431 d438 19e8 0038 87ed 2536 7a1e 1636
00000170: 4671 5e38 d6fb 3039 9e60 4239 f52e aa38
00000180: 8deb 5837 4394 2735 50f8 9133 1afd 8f36
00000190: a39b 0d38 8c4c b438 61e4 b038 80fa d637
000001a0: f40a 8135 b1ff 8635 d39b 6138 c885 8539
000001b0: 018d d039 63c2 b439 7a66 0939 e909 da36
000001c0: 3216 1e37 c0df 2439 2131 bb39 f7cc 9f39
000001d0: cba8 8e39 1051 1139 11f4 0a37 8eb2 d937
000001e0: 3beb 8239 4fd5 9439 b636 3a39 f8e7 9339
000001f0: 369e ff38 bdbb bd36 0d33 1638 5e39 8e39
00000200: 1d50 a639 f803 b539 e5f3 b239 123a ad38
00000210: 8918 fd35 7cba 5a37 ac1a e938 0c96 5939
00000220: 06c5 8c39 3d19 1239 ed08 8c37 3e1b 5034
00000230: 679e 8134 44c3 e035 ed94 a936 95de 8336
00000240: fe15 c435 326c ff33 dc47 1833 b26b dd37
00000250: 6337 0338 86f9 3f38 9acd 6b38 bdb8 7438
00000260: ae6f 4e38 416b 0938 3332 ef37 d7cf 3938
00000270: 9062 6338 17da 2f38 1045 5138 7314 8b38
00000280: be5d 4538 5e75 0a38 e189 3c38 0768 c837
00000290: aeee db36 c472 3a37 375f 5138 d92e 5438
000002a0: a9cf 0938 1d2b 0638 e090 8c37 6fc6 fe37
000002b0: 75ae 5837 4bae f637 8c48 2d38 c3ef d137
000002c0: 7043 9737 cb69 cb37 adca 4538 6e03 7c37
000002d0: f4bf a637 871f f237 6002 b737 44c5 8137
000002e0: f119 ef36 ceee d036 3f7f 1737 f90f b837
000002f0: 9499 d837 a267 ca37 9160 bd37 5c01 9637
00000300: 5a01 7f37 9f98 9437 0147 cb37 da8f d937
00000310: 0314 3433 f681 5033 1666 8c33 8b73 b234
00000320: 1b3f 8835 5241 ab35 c103 8335 b3d7 6634
00000330: bb29 4f36 a932 be37 0f90 9538 2330 6638
00000340: e934 8237 0ff1 3436 e46a b635 8743 7537
00000350: eef1 a138 e170 3139 48c0 1139 22ec 4638
00000360: ae6a e136 6aa1 dc36 cb3a 0b38 5486 ab38
00000370: b498 db38 a72b dc38 6bd2 7d38 36a4 0937
00000380: c779 9137 49fb c438 3baf d938 faa4 9338
00000390: 4478 bc38 01b5 7038 48b6 db36 fab3 8837
000003a0: 73c7 2539 f9a1 9339 9cd1 5839 aef1 de38
000003b0: c32c 0038 c315 3a36 5404 7935 f325 bd37
000003c0: 7631 9d38 1caa b038 8135 1138 936c d636
000003d0: 1c23 6b35 167d 0935 842e 1436 baa1 9d37
000003e0: fd89 8938 7f86 b138 584f 1838 139c 0436
000003f0: dd09 2635 2b10 f836 f882 5238 0e9c 1d39
7.5659977e-06 1.0085797e-05 2.788984e-05 6.826064e-05 8.337718e-05 4.4801036e-05 1.1008697e-05 7.8855455e-06
1.4798617e-05 4.128342e-05 9.256414e-05 0.00016404034 0.00013767999 3.2163967e-05 8.498175e-06 1.34369775e-05
1.5550637e-05 2.0385563e-05 8.7350316e-05 0.0001530129 5.0053255e-05 8.47159e-06 1.8111601e-05 4.28181e-05
4.1257543e-05 2.808769e-05 0.00010040931 4.646117e-05 7.087493e-06 2.007952e-05 0.00011869555 0.0001158842
2.9141396e-05 5.168914e-05 2.419342e-05 6.2980234e-06 5.078997e-06 2.5175892e-05 2.7496106e-05 1.6210768e-05
2.2132908e-05 1.08949935e-05 6.883578e-06 5.541655e-06 3.2829514e-06 3.7896975e-06 6.8008994e-06 8.241087e-06
7.647128e-06 7.201589e-08 7.8206216e-07 2.6967075e-06 2.5133174e-06 6.2958196e-07 3.593104e-08 1.05638634e-07
7.5271663e-07 1.5558791e-05 3.5566136e-05 3.9497758e-05 3.554904e-05 7.2737525e-06 1.5808796e-07 6.5078425e-06
5.600524e-05 8.77156e-05 0.00014365691 0.0002496874 5.821151e-05 9.352567e-07 2.431603e-05 0.00011893583
9.475198e-05 0.00014774002 0.0002849561 7.185197e-05 1.2188138e-06 4.193961e-05 0.00021122047 0.00014678102
5.9465296e-05 7.091548e-05 2.4053596e-05 1.467183e-06 2.4977186e-05 0.00022222595 0.00033771052 0.000207609
0.00010118194 3.0733736e-05 2.4725175e-06 2.2369481e-06 5.303442e-05 0.00016878484 0.00018537274 8.114978e-05
1.2929447e-05 6.24281e-07 6.7972564e-08 4.291197e-06 3.3761968e-05 8.597327e-05 8.434873e-05 2.5627436e-05
9.614437e-07 1.0058194e-06 5.3789303e-05 0.00025467412 0.00039777908 0.00034477105 0.00013103514 6.49806e-06
9.422702e-06 0.00015723612 0.00035704023 0.00030479554 0.0002721011 0.00013858476 8.282267e-06 2.5951562e-05
0.00024970793 0.00028387687 0.00017758724 0.00028210855 0.000121888166 5.6544945e-06 3.581033e-05 0.00027127092
0.00031721676 0.00034525967 0.0003413252 8.260099e-05 1.885711e-06 1.3037232e-05 0.00011115274 0.0002075063
0.00026849675 0.00013933047 1.6693457e-05 1.938142e-07 2.4143375e-07 1.674613e-06 5.0539297e-06 3.930016e-06
1.4609539e-06 1.18940434e-07 3.5455614e-08 2.6395403e-05 3.1284417e-05 4.5770335e-05 5.6219847e-05 5.8346184e-05
4.9218237e-05 3.2763233e-05 2.8514396e-05 4.4301003e-05 5.421281e-05 4.1926363e-05 4.9893802e-05 6.6318455e-05
4.7055764e-05 3.301107e-05 4.4951103e-05 2.38903e-05 6.5544946e-06 1.1113185e-05 4.991816e-05 5.058837e-05
3.2856744e-05 3.1988242e-05 1.6756763e-05 3.0371562e-05 1.2915222e-05 2.9406647e-05 4.131398e-05 2.502639e-05
1.8032006e-05 2.424875e-05 4.7157217e-05 1.5021169e-05 1.9878127e-05 2.886333e-05 2.1816406e-05 1.5469857e-05
7.125775e-06 6.2266836e-06 9.029928e-06 2.1941947e-05 2.5820722e-05 2.4128534e-05 2.2575523e-05 1.7882026e-05
1.5199499e-05 1.7714045e-05 2.423255e-05 2.5935402e-05 4.1927716e-08 4.8546973e-08 6.537827e-08 3.3239152e-07
1.0151156e-06 1.2759504e-06 9.761353e-07 2.149889e-07 3.0869694e-06 2.2673355e-05 7.131707e-05 5.4881104e-05
1.5521846e-05 2.6962405e-06 1.3591166e-06 1.461886e-05 7.722141e-05 0.00016922086 0.00013899908 4.7426794e-05
6.7179417e-06 6.575302e-06 3.3194938e-05 8.178936e-05 0.00010471177 0.00010498548 6.0515868e-05 8.20407e-06
1.7342054e-05 9.392814e-05 0.000103800056 7.0402355e-05 8.98694e-05 5.7389032e-05 6.547929e-06 1.6296271e-05
0.00015809927 0.00028158704 0.00020677451 0.00010630801 3.0559266e-05 2.7728827e-06 9.2766027e-07 2.2548227e-05
7.495556e-05 8.424019e-05 3.4620523e-05 6.3903367e-06 8.7595413e-07 5.12185e-07 2.2080794e-06 1.8791168e-05
6.5583714e-05 8.4650695e-05 3.631352e-05 1.976038e-06 6.185417e-07 7.392858e-06 5.0189876e-05 0.00015030822

exp_avg f4 [10]
00000000: 7c1a 39bb 3011 9bba 9c39 423b 92da 003b
00000010: ffe9 2ebb 546c 66ba b32a 2a3a 9a36 84ba
00000020: daf6 663b 774c 0dba
-0.0028244546 -0.0011830684 0.0029636389 0.0019661528 -0.0026689766 -0.0008789946 0.0006491348 -0.0010087073
0.003524235 -0.00053901173

exp_avg_sq f4 [10]
00000000: f45c a538 70de dc38 7044 3739 5c31 3c39
00000010: de45 0339 2a11 4139 7c40 b838 d22a 1839
00000020: 2456 7d39 7adc 4c39
7.885127e-05 0.0001053185 0.00017477735 0.00017947465 0.00012519161 0.00018412308 8.785815e-05 0.00014511801
0.0002416005 0.0001953709
