swastik_web/Learning&Experiments/PytorchTutorials/pytorch lightning/dashboard/mnist_clsfy/version_0.1/checkpoints/epoch=0-step=375-v2.ckpt (torch, 484079 bytes, 12 tensors)

fc1.weight f4 [50, 784]
-0.00026738644 0.019158702 -0.02939447 -0.026283538 -0.013755513 0.009577051 -0.00070761517 0.028317485
-0.0031694286 0.009450451 -0.010793325 -0.007020192 -0.06500358 -0.054554276 -0.014722254 0.0013229847
0.014119115 0.021429386 -0.024212182 -0.015552245 0.012972042 0.029656712 -0.007350007 0.026725423
-0.0057565495 0.003779076 0.032338437 -0.033131085 -0.022483498 -0.009041617 -0.013921427 0.030857172
-0.04768434 -0.056453645 -0.09521434 -0.10583238 -0.1562397 -0.13638818 -0.107192084 -0.14796987
-0.15064985 -0.15728669 -0.045075174 -0.106724896 -0.0523952 -0.124974295 -0.1248944 -0.13384064
-0.14101695 -0.0977958 -0.041057464 -0.0072867484 0.0141743645 0.0048247464 0.023945943 -0.021028657
0.0066551454 -0.027689483 -0.034666624 -0.056830555 -0.05704675 -0.06789495 -0.14337774 -0.13988504
-0.17812276 -0.16771898 -0.20049761 -0.24689326 -0.21855867 -0.14229555 -0.18502617 -0.15795395
-0.101761535 -0.08509723 -0.08307524 -0.14943615 -0.18309186 -0.19483325 -0.13532278 -0.19156235
-0.14488845 -0.047124505 0.027155709 -0.035626 0.006684717 -0.0060164295 -0.0073286556 -0.10336462
-0.08948833 -0.07595598 -0.07482798 -0.07926019 -0.09120126 -0.09450165 -0.17225751 -0.17082782
-0.15713458 -0.18669976 -0.1990144 -0.1654933 -0.08034121 -0.08699927 -0.17153195 -0.16256592
-0.1671271 -0.12083017 -0.14733359 -0.19160286 -0.14635193 -0.045451425 -0.021910058 0.021192059
-0.021733541 0.012393768 0.008916973 -0.060679175 -0.013653507 -0.0026257013 -0.004693122 -0.016539237
-0.032672495 -0.047653053 -0.11139938 -0.069906645 -0.13523693 -0.1072848 -0.1357294 -0.17525272
-0.17214474 -0.14509909 -0.10150627 -0.067137204 -0.057135932 -0.069354914 -0.0057532717 -0.020255797
-0.029012349 -0.058370236 -0.058290735 -0.015525376 0.03383022 0.02268057 -0.045579266 -0.018019674
0.0019280767 0.047835443 0.052179463 0.0053770496 0.012851235 -0.011490626 -0.056317475 -0.038327057
-0.03217326 0.0043240143 -0.0009194682 -0.06917236 -0.023784952 -0.07412643 -0.051747676 -0.074447356
-0.08060269 -0.07404992 -0.06651689 -0.056330882 -0.091647014 -0.13286442 -0.14545445 -0.030409755
-0.032144945 -0.027889557 0.0541837 0.05282293 0.098946266 0.082236156 -0.0030064085 0.03611566
0.01230254 -0.0021688857 0.021114202 -0.045470383 -0.012316105 -0.008221648 0.036898796 0.02329815
0.043368455 0.042445548 0.008513625 -0.016719509 -0.06608257 0.006190816 0.028271876 -0.01687225
-0.16501082 -0.13174348 -0.079390734 -0.09444222 -0.022212612 -0.011518633 0.09483639 0.12250871
0.052590635 0.040399868 -0.0046065357 -0.05063281 -0.041424476 0.027137337 -0.017469576 0.033520795
0.018741814 0.044923004 0.032711685 0.037912358 0.063557915 0.057619277 0.03954349 0.019082123
-0.0100474125 0.006514317 0.06905425 -0.0517706 -0.08158195 -0.027615124 -0.0150543405 -0.088183336
-0.038646564 0.031138903 0.098945916 0.028897973 0.005392211 -0.0099440655 0.008015176 0.02283984
0.006035335 0.031405438 0.029887728 -0.00951601 0.015461348 -0.00092974433 0.019914413 0.046818227
0.041001506 0.05737349 0.033429153 0.037602942 0.054212887 0.01239317 0.048184693 -0.019437991
-0.05468654 -0.07975145 -0.09104066 -0.060397312 0.088182054 0.03548599 0.027443118 0.022854535
00000000: 0030 8cb9 b6f2 9c3c accc f0bc 9350 d7bc
00000010: ce5e 61bc 10e9 1c3c 407f 39ba 12fa e73c
00000020: 30b6 4fbb 10d6 1a3c 7cd6 30bc a409 e6bb
00000030: 9920 85bd 4e74 5fbd 9c35 71bc 0068 ad3a
00000040: dc53 673c ae8c af3c a058 c6bc d8ce 7ebc
00000050: b088 543c a2f2 f23c 54d8 f0bb 46ef da3c
00000060: 70a1 bcbb 60aa 773b 4f75 043d 76b4 07bd
00000070: 502f b8bc 4a23 14bc b216 64bc 2ec8 fc3c
00000080: a850 43bd f03b 67bd bcff c2bd a6be d8bd
00000090: 4dfd 1fbe 58a9 0bbe 8687 dbbd 6a85 17be
000000a0: f443 1abe c30f 21be bfa0 38bd 9592 dabd
000000b0: 599c 56bd 86f2 ffbd a3c8 ffbd 850d 09be
000000c0: bf66 10be 2a49 c8bd df2b 28bd adc5 eebb
000000d0: 983b 683c e818 9e3b 482a c43c 4a44 acbc
000000e0: 6813 da3b 0ed5 e2bc 97fe 0dbd 28c7 68bd
000000f0: daa9 69bd 820c 8bbd 9dd1 12be 063e 0fbe
00000100: d065 36be 86be 2bbe 3f4f 4dbe 96d1 7cbe
00000110: d8cd 5fbe edb5 11be 8077 3dbe aebe 21be
00000120: 5a68 d0bd 7547 aebd 5a23 aabd ca05 19be
00000130: 6f7c 3bbe 5e82 47be 0e92 0abe ec28 44be
00000140: a35d 14be a005 41bd a675 de3c 92ec 11bd
00000150: 780b db3b 7825 c5bb 3825 f0bb d4b0 d3bd
00000160: a845 b7bd cf8e 9bbd 693f 99bd 2b53 a2bd
00000170: bac7 babd 158a c1bd 4664 30be 7ded 2ebe
00000180: e3e7 20be 392e 3fbe 6eca 4bbe 1377 29be
00000190: ef89 a4bd ac2c b2bd 12a6 2fbe ae77 26be
000001a0: 5e23 2bbe cf75 f7bd 9ede 16be 8a33 44be
000001b0: 48dd 15be 462b 3abd b97c b3bc f89a ad3c
000001c0: 8a0a b2bc 3b0f 4b3c 7f18 123c ba8a 78bd
000001d0: f6b2 5fbc f513 2cbb c3c8 99bb 4b7d 87bc
000001e0: 98d3 05bd d92f 43bd 5c25 e4bd 372b 8fbd
000001f0: 8d7b 0abe 22b8 dbbd a6fc 0abe 7375 33be
00000200: b646 30be db94 14be 85e2 cfbd 3b7f 89bd
00000210: 5e07 6abd f309 8ebd f185 bcbb 7cef a5bc
00000220: 4eab edbc a115 6fbd 44c2 6ebd 265e 7ebc
00000230: 8f91 0a3d 9acc b93c 53b1 3abd ff9d 93bc
00000240: 85b7 fc3a 19ef 433d 22ba 553d f631 b03b
00000250: fd8d 523c 2e43 3cbc 27ad 66bd d5fc 1cbd
00000260: 1cc8 03bd 76b0 8d3b 7708 71ba 3daa 8dbd
00000270: a9d8 c2bc 99cf 97bd 5ff5 53bd db77 98bd
00000280: 0613 a5bd 7ca7 97bd 023a 88bd 36bb 66bd
00000290: 6eb1 bbbd 9c0d 08be 03f2 14be e11d f9bc
000002a0: 6baa 03bd a478 e4bc baef 5d3d db5c 583d
000002b0: 57a4 ca3d 6e6b a83d 2a07 45bb 04ee 133d
000002c0: 9890 493c dd23 0ebb b1f7 ac3c 273f 3abd
000002d0: 7dc9 49bc 17b4 06bc 3123 173d c3db be3c
000002e0: 1fa3 313d 62db 2d3d bb7c 0b3c 5af7 88bc
000002f0: 4c56 87bd 54dc ca3b 6c9a e73c ac37 8abc
00000300: 99f8 28be c3e7 06be 9c97 a2bd ec6a c1bd
00000310: 39f7 b5bc a6b8 3cbc 9539 c23d d9e5 fa3d
00000320: 4769 573d 557a 253d 6cf2 96bb 5964 4fbd
00000330: b6ac 29bd 1f4f de3c 5b1c 8fbc 1a4d 093d
00000340: 6f88 993c 2f01 383d b0fc 053d fd49 1b3d
00000350: a72a 823d 3102 6c3d 5bf8 213d 1d52 9c3c
00000360: e79d 24bc 0d76 d53b 516c 8d3d 690d 54bd
00000370: 7014 a7bd 1d39 e2bc 7ba6 76bc 7799 b4bd
00000380: dc4b 1ebd 0317 ff3c 28a4 ca3d 71bb ec3c
00000390: 25b1 b03b 6fec 22bc 1652 033c 9e1a bb3c
000003a0: 0fc4 c53b fda2 003d 1cd7 f43c 0ae9 1bbc
000003b0: 9851 7d3c 16ba 73ba 8d23 a33c 78c4 3f3d
000003c0: 32f1 273d 7700 6b3d 02ed 083d 8b05 1a3d
000003d0: 550e 5e3d b90c 4b3c 505d 453d 6c3c 9fbc
000003e0: fefe 5fbd ba54 a3bd 8773 babd 2c63 77bd
000003f0: cb98 b43d c259 113d 64d0 e03c 6f39 bb3c

fc1.bias f4 [50]
0.09450609 0.12744328 -0.067753136 0.14073046 0.017757067 0.08890405 0.104679175 0.112858966
0.11368187 0.047296643 -0.017199775 0.07215759 0.022955073 0.009207593 -0.06875565 0.025096169
-0.22606976 -0.0077634733 0.16539317 0.0627835 0.08381993 -0.1252694 -0.023241814 0.00067449384
0.042190347 0.06815338 0.12607303 0.21686079 0.112825684 -0.0894741 -0.109737515 0.060031306
0.19693004 0.17224327 -0.02328882 0.17288612 0.056126278 0.09129371 -0.053604357 0.15562865
0.042595614 0.11925315 0.08607318 -0.009673656 -0.052248754 0.022383207 -0.022107646 -0.011275545
0.11435709 -0.022704562
00000000: 698c c13d 7e80 023e 28c2 8abd a51b 103e
00000010: 4577 913c 5413 b63d 0962 d63d 9a22 e73d
00000020: 0ad2 e83d 20ba 413d 8be6 8cbc 5cc7 933d
00000030: 470c bc3c 72db 163c c3cf 8cbd 7b96 cd3c
00000040: d57e 67be bc64 febb d45c 293e a394 803d
00000050: c9a9 ab3d 9f46 00be 9e65 bebc 84d0 303a
00000060: c9cf 2c3d 0094 8b3d 4a19 013e c110 5e3e
00000070: 2711 e73d 323e b7bd 10be e0bd 63e3 753d
00000080: 07a8 493e 8a60 303e 32c8 bebc 0f09 313e
00000090: abe4 653d 32f8 ba3d 3e90 5bbd 1e5d 1f3e
000000a0: bd78 2e3d ff3a f43d 2347 b03d 417e 1ebc
000000b0: ca02 56bd fd5c b73c 181b b5bc 10bd 38bc
000000c0: 0d34 ea3d ebfe b9bc

fc2.weight f4 [10, 50]
-0.046018288 -0.41447386 -0.0038715976 -0.037577655 -0.00415997 -0.3155462 0.22649738 -0.21789782
0.13979733 0.20153494 -0.0538562 -0.07891612 -0.1442815 -0.06801137 0.30000943 -0.091342375
0.17148687 0.020405753 0.1812827 0.09164993 -0.16436827 0.23426697 -0.09585706 -0.2763141
-0.14615878 -0.12517062 0.102855004 0.2548474 -0.3781098 -0.27725723 -0.07019425 0.23047632
-0.0038106432 -0.038807526 -0.0024570534 -0.25706193 0.13825577 -0.31183058 0.1584009 0.20053472
0.20734069 -0.102810785 -0.27569127 0.20095599 0.21207483 -0.23669128 0.05891767 -0.19743538
0.071319826 -0.16165198 -0.31693637 0.1975226 -0.18771392 0.06302762 -0.32871348 0.22051562
-0.31149116 0.23547041 0.20289865 -0.14493337 0.14382926 -0.19503099 -0.046025783 0.20148805
-0.17001343 0.16709234 -0.21237573 0.09450479 0.23135167 0.20948857 0.1920015 -0.0807732
0.06885121 0.0056468016 0.19137107 -0.2556357 -0.18139514 0.19589181 -0.3490683 0.022918645
-0.27732855 -0.1614559 0.26391923 -0.22442447 -0.14512154 -0.35395768 -0.24753371 -0.005729314
-0.08704236 0.18177935 -0.37133184 0.21512133 0.20012322 -0.1709695 -0.35029864 0.011504803
0.21995649 -0.27457038 -0.21016192 -0.26572394 0.08491402 -0.15903266 -0.39357144 -0.08922537
-0.018811136 -0.08855462 -0.03551464 0.054049674 -0.5244497 -0.038056754 0.045192786 0.18757714
-0.27492097 0.18892607 -0.023109421 -0.18069713 0.14305933 -0.34260494 -0.26664647 0.27109474
-0.49790302 0.28226072 -0.09947079 -0.05100052 0.08696652 -0.242458 0.24601212 0.30825877
-0.15073556 0.14300837 0.13513109 -0.1913381 0.121160425 0.23089199 0.09738415 -0.07978734
-0.005155064 -0.099656954 -0.26091123 -0.24321112 0.020619703 -0.06854648 0.2533836 -0.17585614
-0.124439806 0.1678504 -0.00091043493 0.27362382 -0.057422172 0.1881973 -0.22376871 0.2677059
0.04764685 -0.37430695 -0.12381631 -0.09769894 0.10064083 0.075497046 -0.091450796 -0.07254766
0.04924339 0.2773352 -0.33435822 -0.03686778 -0.19385986 0.14611827 0.1553207 0.10839025
-0.28021082 -0.054313794 -0.35530636 -0.17121334 0.05688472 0.0059616873 0.23765893 0.14308056
-0.217878 -0.060534224 -0.091604106 -0.007089654 0.15377502 0.16882952 0.13643874 -0.15768808
0.2184963 -0.14555223 0.2564918 -0.3305237 -0.20190427 -0.08902513 -0.058228347 0.1741923
0.08520919 0.10398601 -0.1925912 0.184341 -0.065409325 -0.116101205 0.04140903 -0.1961389
0.12324884 0.08966084 0.05993963 0.12940446 0.09402369 0.22809123 0.05649215 -0.029309878
-0.2482119 0.26094517 0.08736118 -0.00622035 0.2927611 -0.016314112 -0.41480297 -0.30765358
-0.086625814 0.18688314 0.109898046 -0.23122112 -0.029546332 -0.2733684 0.00846523 0.05623355
-0.31096977 0.081169695 0.16927156 -0.37108463 0.27304602 -0.22475441 0.2072328 -0.43387288
0.32135442 -0.31120148 -0.39757302 0.017556433 -0.28935945 0.3146255 -0.104452126 -0.47674274
0.12682196 0.19234048 -0.31900412 -0.30707493 -0.008210184 -0.03695872 -0.25856373 -0.2557874
-0.025180949 -0.23126681 -0.23503123 0.16801101 0.11458007 0.14438452 -0.24179433 -0.20013033
00000000: ac7d 3cbd eb35 d4be a1ba 7dbb 07eb 19bd
00000010: 5c50 88bb 468f a1be eeee 673e 9b20 5fbe
00000020: 0827 0f3e 2d5f 4e3e 5298 5cbd c69e a1bd
00000030: 88be 13be 8c49 8bbd d69a 993e b611 bbbd
00000040: 419a 2f3e f729 a73c 2ca2 393e f5b2 bb3d
00000050: 2850 28be aee3 6f3e b550 c4bd 0b79 8dbe
00000060: a6aa 15be ba2c 00be a5a5 d23d 5c7b 823e
00000070: 9c97 c1be a9f4 8dbe 01c2 8fbd fc01 6c3e
00000080: fcbb 79bb a4f4 1ebd 8406 21bb 9f9d 83be
00000090: ec92 0d3e 42a8 9fbe d833 223e f958 4d3e
000000a0: 1e51 543e 768e d2bd 6827 8dbe 68c7 4d3e
000000b0: 252a 593e 335f 72be a853 713d 802c 4abe
000000c0: 2110 923d 1988 25be 7c45 a2be 5d43 4a3e
000000d0: 1438 40be a014 813d 224d a8be d9ce 613e
000000e0: c57b 9fbe 281f 713e aac4 4f3e 6a69 14be
000000f0: fa47 133e 34b6 47be 8885 3cbd e252 4e3e
00000100: 0018 2ebe 411a 2b3e 0679 59be ba8b c13d
00000110: 74e7 6c3e 2c84 563e 0b9c 443e 6b6c a5bd
00000120: dd01 8d3d ce08 b93b c7f6 433e afe2 82be
00000130: a6bf 39be dd97 483e 15b9 b2be e2bf bb3c
00000140: 02fe 8dbe b254 25be 6c20 873e 87cf 65be
00000150: be9a 14be f139 b5be 7a79 7dbe f8bc bbbb
00000160: 4443 b2bd 5e24 3a3e 351f bebe c448 5c3e
00000170: 1aed 4c3e a112 2fbe 585a b3be a47e 3c3c
00000180: 463c 613e 7d94 8cbe b034 57be f80c 88be
00000190: 67e7 ad3d 75d9 22be 3282 c9be cabb b6bd
000001a0: d019 9abc 205c b5bd cd77 11bd 3163 5d3d
000001b0: 5642 06bf 66e1 1bbd 121c 393d 3914 403e
000001c0: 71c2 8cbe d675 413e f84f bdbc ab08 39be
000001d0: 257e 123e ea69 afbe e385 88be eecc 8a3e
000001e0: 25ed febe 7a84 903e 57b7 cbbd ece5 50bd
000001f0: 811b b23d e946 78be 9aea 7b3e 18d4 9d3e
00000200: 6c5a 1abe c970 123e ce5f 0a3e 23ee 43be
00000210: f522 f83d f36e 6c3e 5771 c73d 8b67 a3bd
00000220: d0eb a8bb f218 ccbd 2896 85be 560c 79be
00000230: a7ea a83c 1962 8cbd 7fbb 813e a213 34be
00000240: 4cda febd fae0 2b3e 41aa 6eba 6c18 8c3e
00000250: 8333 6bbd cbb6 403e a023 65be bf10 893e
00000260: 5829 433d 29a5 bfbe 6893 fdbd 6216 c8bd
00000270: c81c ce3d 329e 9a3d 8e4a bbbd de93 94bd
00000280: 70b3 493d e1fe 8d3e 0031 abbe ab02 17bd
00000290: 3383 46be 07a0 153e 640c 1f3e b5fb dd3d
000002a0: cb77 8fbe 2478 5ebd b7ea b5be 8d52 2fbe
000002b0: f4ff 683d 425a c33b dd5c 733e b683 123e
000002c0: 691b 5fbe bcf2 77bd ef9a bbbd 5450 e8bb
000002d0: 3377 1d3e a5e1 2c3e 99b6 0b3e fc78 21be
000002e0: 7ebd 5f3e a50b 15be e552 833e 673a a9be
000002f0: febf 4ebe cf52 b6bd d980 6ebd 775f 323e
00000300: 2882 ae3d 9ef6 d43d a136 45be e3c3 3c3e
00000310: 53f5 85bd 78c6 edbd 849c 293d a3d8 48be
00000320: e369 fc3d 1aa0 b73d 4283 753d 9a82 043e
00000330: 7e8f c03d bf90 693e 5064 673d 451b f0bc
00000340: 432b 7ebe 9b9a 853e 6bea b23d 14d4 cbbb
00000350: c8e4 953e 2ca5 85bc 0e61 d4be c584 9dbe
00000360: e068 b1bd 4b5e 3f3e 3a12 e13d 3bc5 6cbe
00000370: 260b f2bc f1f6 8bbe c0b1 0a3c 2755 663d
00000380: 6e37 9fbe 4c3c a63d 8655 2d3e cefe bdbe
00000390: b0cc 8b3e 0526 66be d634 543e 9624 debe
000003a0: 9188 a43e cd55 9fbe b18e cbbe 82d2 8f3c
000003b0: ec26 94be 9816 a13e ffea d5bd a017 f4be
000003c0: 9edd 013e e7f4 443e 8254 a3be ed38 9dbe
000003d0: 0284 06bc 0762 17bd 7762 84be 91f6 82be
000003e0: 4748 cebc 35d1 6cbe 07ac 70be 140b 2c3e
000003f0: f5a8 ea3d 89d9 133e ef98 77be f7ee 4cbe

fc2.bias f4 [10]
-0.12112799 0.11189436 0.15086417 0.029287638 0.077214524 0.17419915 0.030711904 0.01221378
-0.13500592 0.04631944
00000000: f411 f8bd df28 e53d 237c 1a3e a1ec ef3c
00000010: a622 9e3d 4361 323e 8897 fb3c 4e1c 483c
00000020: fe3e 0abe 74b9 3d3d

exp_avg f4 [50, 784]
0.0 0.0 0.0 0.0 0.0 0.0 0.0 0.0
0.0 0.0 0.0 0.0 1.4400251e-22 3.1531603e-22 0.0 0.0
0.0 0.0 0.0 0.0 0.0 0.0 0.0 0.0
0.0 0.0 0.0 0.0 0.0 0.0 0.0 0.0
0.0 3.7280594e-07 7.3279966e-06 9.237344e-06 1.7798975e-06 8.5402085e-08 5.129431e-07 1.2024424e-06
8.7720866e-07 1.9131633e-06 3.3418582e-06 3.2339763e-06 7.998577e-08 4.4183187e-07 5.560123e-07 4.604796e-08
3.9033257e-08 1.199752e-07 1.5106097e-05 2.1091373e-05 0.0 0.0 0.0 0.0
0.0 0.0 2.0496911e-18 4.2200207e-17 3.293405e-11 1.351595e-06 1.076774e-05 1.1156194e-05
3.206631e-06 1.750932e-06 7.544945e-06 -2.1816682e-05 -4.4547716e-05 3.7303685e-06 2.0034679e-05 2.2060754e-05
1.7512923e-05 5.8561377e-06 1.5336202e-05 2.4367771e-05 1.2266171e-05 9.144733e-06 1.5542026e-05 1.627794e-05
2.3816503e-14 2.912339e-17 0.0 0.0 0.0 0.0 4.5157245e-18 -1.3298924e-10
-4.928252e-10 4.5198267e-06 7.3915435e-06 5.3704744e-06 -2.3461125e-05 -6.189724e-05 -2.139003e-05 -6.6956265e-05
-5.7849236e-05 -3.4791447e-05 5.877089e-05 5.8966936e-05 5.8551628e-05 -0.00015846292 -0.00012175225 -2.1969612e-05
1.6752718e-05 1.1759661e-05 2.501638e-06 -2.7285291e-06 -3.7024785e-07 1.1810338e-08 0.0 0.0
0.0 1.7578017e-14 1.6738185e-20 -6.7944156e-10 -1.4606495e-07 7.5525196e-07 1.6546717e-05 4.083349e-05
-5.1326015e-07 -7.340756e-05 -8.5721345e-05 -0.00017460776 -0.00023111461 -0.0001324312 -9.879499e-05 -0.00030056393
-0.0002164257 -0.00026809267 -0.00012438583 -1.3809593e-05 -5.099276e-05 -3.8236754e-05 -5.0369832e-05 -6.052689e-05
-2.6898435e-05 -7.961529e-08 1.8675344e-08 2.5125486e-14 0.0 0.0 4.307321e-11 3.766615e-08
-3.31021e-07 -1.4028211e-05 3.2052478e-05 6.8077075e-05 -2.2298284e-05 -0.00017186138 -0.0003285368 -0.00039330835
-0.0004055288 -0.0003313445 -0.00028758997 -0.0005312366 -0.000633323 -0.00014670886 -4.8298098e-05 1.1267738e-05
-0.00010326748 -0.00018671318 -0.00010714309 -5.3463922e-05 -2.3544271e-05 7.6900807e-07 8.574686e-07 0.0
0.0 2.1231748e-16 -4.7247406e-07 -2.266687e-06 -5.1133457e-06 -4.3387423e-05 3.5641628e-05 -8.712897e-06
-0.00012788891 -0.00016861061 -0.0001716053 -0.00018965054 -8.513461e-05 7.681056e-06 9.5473326e-05 -5.7724435e-05
-0.00019621014 0.00020655885 0.000351099 0.0004872385 0.00025837836 -0.00011988095 -6.320101e-05 7.184169e-05
0.00015378307 0.00012554934 -3.3616775e-06 -3.6470948e-12 -2.0347493e-23 -5.2512143e-14 -1.690432e-06 -6.3959196e-06
-1.6852713e-05 -7.2135426e-06 6.5063985e-05 -4.379645e-05 -0.00016882521 9.27054e-05 0.0001402701 0.000382552
0.00039811106 0.0002247036 0.00020033504 0.00040278598 0.0005513403 0.00023933282 0.00016866485 0.00043971825
0.00020657443 -4.5326782e-05 -8.0790705e-05 6.791304e-05 0.00014542864 5.4721484e-05 -7.3572464e-06 1.9680506e-08
4.0579633e-15 -1.5052438e-10 -5.909602e-07 -1.269964e-05 -4.0594732e-05 5.380195e-06 0.00015339073 -2.9095681e-06
-0.00022258128 0.00010813953 0.00036637613 0.0008416585 0.00068695284 0.00046462967 0.00029103548 0.00047482195
0.0003951875 3.562511e-05 -6.983838e-05 0.00019213343 8.971471e-05 -3.0406954e-05 1.4983692e-05 2.2813601e-06
3.703602e-05 1.9336729e-05 3.3965363e-05 3.8518266e-08 -1.4812809e-16 -1.5014838e-07 -5.391496e-07 -4.1215517e-06
00000000: 0000 0000 0000 0000 0000 0000 0000 0000
00000010: 0000 0000 0000 0000 0000 0000 0000 0000
00000020: 0000 0000 0000 0000 0000 0000 0000 0000
00000030: 9e16 2e1b cb98 be1b 0000 0000 0000 0000
00000040: 0000 0000 0000 0000 0000 0000 0000 0000
00000050: 0000 0000 0000 0000 0000 0000 0000 0000
00000060: 0000 0000 0000 0000 0000 0000 0000 0000
00000070: 0000 0000 0000 0000 0000 0000 0000 0000
00000080: 0000 0000 0f26 c834 03e3 f536 17fa 1a37
00000090: d0e4 ee35 4b66 b733 2eb1 0935 9b63 a135
000000a0: 5279 6b35 e563 0036 b044 6036 4a07 5936
000000b0: a4c4 ab33 e934 ed34 e040 1535 44c6 4533
000000c0: 85a5 2733 88d2 0034 3170 7d37 61ed b037
000000d0: 0000 0000 0000 0000 0000 0000 0000 0000
000000e0: 0000 0000 0000 0000 923d 1722 369d 4224
000000f0: 72d8 102e 7368 b535 17a7 3437 7d2b 3b37
00000100: 8031 5736 9101 eb35 962a fd36 f802 b7b7
00000110: bfd8 3ab8 3e57 7a36 2510 a837 1c0f b937
00000120: b7e8 9237 d77f c436 3ea6 8037 6469 cc37
00000130: ceca 4d37 546c 1937 3f60 8237 9c8c 8837
00000140: 1e85 d628 d54e 0624 0000 0000 0000 0000
00000150: 0000 0000 0000 0000 d099 a622 2539 12af
00000160: 7e77 07b0 04a9 9736 e004 f836 0634 b436
00000170: 62ce c4b7 d4ce 81b8 bd6e b3b7 df6a 8cb8
00000180: 25a3 72b8 08ed 11b8 c380 7638 4453 7738
00000190: 5595 7538 1129 26b9 3e55 ffb8 624b b8b7
000001a0: 3088 8c37 5c4b 4537 d0e1 2736 c61b 37b6
000001b0: 7ac6 c6b4 6ae6 4a32 0000 0000 0000 0000
000001c0: 0000 0000 2654 9e28 7316 9e1e 73c3 3ab0
000001d0: 07d6 1cb4 85bc 4a35 cecd 8a37 a044 2b38
000001e0: f8c6 09b5 62f2 99b8 4cc5 b3b8 ea16 37b9
000001f0: 5b57 72b9 3bdd 0ab9 2830 cfb8 0295 9db9
00000200: 55f0 62b9 ca8e 8cb9 916d 02b9 c0af 67b7
00000210: 0fe1 55b8 6760 20b8 3244 53b8 41de 7db8
00000220: f3a3 e1b7 f8f8 aab3 846b a032 6d4f e228
00000230: 0000 0000 0000 0000 2070 3d2e 5fc6 2133
00000240: 2eb7 b1b4 b55a 6bb7 1670 0638 9ac4 8e38
00000250: 330d bbb7 b035 34b9 763f acb9 f434 ceb9
00000260: 279d d4b9 4eb8 adb9 acc7 96b9 af42 0bba
00000270: 9605 26ba dcd5 19b9 b093 4ab8 910a 3d37
00000280: 4e91 d8b8 70c8 43b9 02b2 e0b8 733e 60b8
00000290: f080 c5b7 d56d 4e35 cb2c 6635 0000 0000
000002a0: 0000 0000 0fc9 7425 57a8 fdb4 631d 18b6
000002b0: 4e93 abb6 e4fa 35b8 e87d 1538 9c2d 12b7
000002c0: eb19 06b9 11cd 30b9 f2f0 33b9 eedc 46b9
000002d0: 4c8a b2b8 e2dd 0037 da38 c838 241d 72b8
000002e0: c2bd 4db9 b897 5839 b613 b839 0b74 ff39
000002f0: f576 8739 9868 fbb8 c98a 84b8 b7a9 9638
00000300: d440 2139 e5a5 0339 2e99 61b6 1c52 80ac
00000310: f4c9 c499 617e 6ca9 cde2 e2b5 889c d6b6
00000320: ed5e 8db7 dc0b f2b6 f672 8838 15b2 37b8
00000330: ac06 31b9 d56a c238 7815 1339 4391 c839
00000340: 90b9 d039 6a9e 6b39 0711 5239 052d d339
00000350: d287 103a 6af5 7a39 a0db 3039 fc89 e639
00000360: e79b 5839 431d 3eb8 2e6e a9b8 896c 8e38
00000370: 347e 1839 bf84 6538 44de f6b6 e40d a932
00000380: 1b34 9227 d980 25af 7aa2 1eb5 8a10 55b7
00000390: 4344 2ab8 8687 b436 83d7 2039 0042 43b6
000003a0: b564 69b9 f8c8 e238 2c16 c039 bfa2 5c3a
000003b0: a014 343a 8a99 f339 1f96 9839 86f1 f839
000003c0: 2b31 cf39 2c6c 1538 3276 92b8 6d77 4939
000003d0: 3825 bc38 7012 ffb7 7862 7b37 7819 1936
000003e0: 2057 1b38 4f35 a237 0876 0e38 486f 2533
000003f0: b2c7 2aa5 7938 21b4 14ba 10b5 dc4b 8ab6

exp_avg_sq f4 [50, 784]
0.0 0.0 0.0 0.0 0.0 0.0 0.0 0.0
0.0 0.0 0.0 0.0 1.0387825e-11 4.980537e-11 0.0 0.0
0.0 0.0 0.0 0.0 0.0 0.0 0.0 0.0
0.0 0.0 0.0 0.0 0.0 0.0 0.0 0.0
0.0 4.891574e-14 4.994941e-11 1.5497464e-10 4.9309944e-12 3.2637144e-12 1.5698522e-10 3.101128e-10
4.5648627e-10 1.5027327e-10 2.3167783e-09 1.4352856e-09 8.703597e-10 8.133293e-11 3.6773293e-11 8.377283e-12
3.4162652e-11 3.2149036e-10 5.172138e-10 8.660688e-11 0.0 0.0 0.0 0.0
0.0 0.0 2.4531842e-16 8.468125e-13 6.2121223e-13 6.473387e-13 6.734852e-11 2.6516134e-10
1.2658906e-10 8.162333e-10 5.308342e-09 4.799095e-09 7.1087216e-09 1.5729938e-08 1.3804902e-08 1.5286671e-08
1.9214129e-08 1.33355496e-08 9.729433e-09 2.0362523e-09 7.5235224e-10 1.1532094e-09 1.1917125e-09 2.676378e-10
5.259531e-11 7.5376604e-16 0.0 0.0 0.0 0.0 1.1907153e-15 7.1710814e-12
3.144889e-10 4.4009357e-10 3.4265473e-09 1.2179552e-08 1.8958918e-08 1.6280387e-08 2.7313142e-08 3.9999467e-08
5.6766105e-08 7.4333414e-08 9.225058e-08 1.1346206e-07 1.0112718e-07 7.446931e-08 5.5632448e-08 4.46277e-08
3.386013e-08 1.3736961e-08 2.8501277e-09 8.636949e-10 1.4320002e-10 3.546997e-12 0.0 0.0
0.0 6.1332745e-16 1.671852e-15 1.8543585e-12 1.0192713e-09 4.329721e-09 1.2067269e-08 3.0730853e-08
5.095237e-08 8.9117854e-08 1.3221417e-07 1.6367804e-07 2.2347854e-07 2.782112e-07 3.5283577e-07 3.5736338e-07
3.051824e-07 2.538598e-07 1.913945e-07 1.4841979e-07 1.1406655e-07 5.3810318e-08 2.6617597e-08 1.6329366e-08
6.6619124e-09 4.4249346e-09 5.1953e-10 1.5725476e-11 0.0 0.0 1.500831e-12 3.4788536e-10
6.7933144e-09 2.265153e-08 4.7054677e-08 7.9721836e-08 1.510284e-07 2.1974424e-07 3.1821165e-07 4.6652167e-07
6.539891e-07 7.991113e-07 9.05669e-07 1.0483199e-06 9.2977103e-07 7.146742e-07 5.191944e-07 3.3670113e-07
2.2601884e-07 1.1974763e-07 7.355929e-08 3.912871e-08 1.5156393e-08 3.6674628e-09 1.4875154e-10 0.0
0.0 8.211382e-14 4.2494216e-10 3.4950793e-09 1.7775942e-08 5.222044e-08 1.2702083e-07 2.1792964e-07
3.3424814e-07 4.706688e-07 6.2429496e-07 8.462236e-07 1.1231725e-06 1.3463952e-06 1.6009485e-06 1.7447215e-06
1.5746989e-06 1.3366281e-06 1.0556946e-06 7.250873e-07 4.6614812e-07 2.6172708e-07 1.4507835e-07 8.239161e-08
3.6427373e-08 8.094563e-09 6.2453615e-10 4.0753693e-13 3.0736457e-19 3.7588634e-11 8.109602e-10 4.4595514e-09
3.2808053e-08 8.378373e-08 2.0202837e-07 3.3356702e-07 5.102021e-07 6.542142e-07 9.4702193e-07 1.2895184e-06
1.545279e-06 1.7284187e-06 1.84467e-06 1.8361204e-06 1.7583221e-06 1.5150455e-06 1.4296107e-06 9.84938e-07
6.5092013e-07 4.4129274e-07 2.2225015e-07 1.1926821e-07 5.1995602e-08 1.8787153e-08 4.150729e-09 3.0495819e-12
4.137728e-11 1.9294605e-12 1.199126e-09 5.706691e-09 4.204073e-08 1.1360321e-07 2.5964957e-07 4.353441e-07
6.9197915e-07 8.7220224e-07 1.2713415e-06 1.5039718e-06 1.5402937e-06 1.5661508e-06 1.5387752e-06 1.4495929e-06
1.5418104e-06 1.4352311e-06 1.4118336e-06 1.1748014e-06 7.872764e-07 4.9354907e-07 3.177527e-07 1.5551258e-07
7.025447e-08 2.7205775e-08 4.0417776e-09 1.8103721e-10 5.589316e-15 1.7520665e-11 9.318862e-10 4.225425e-09
00000000: 0000 0000 0000 0000 0000 0000 0000 0000
00000010: 0000 0000 0000 0000 0000 0000 0000 0000
00000020: 0000 0000 0000 0000 0000 0000 0000 0000
00000030: 9bbe 362d dd0b 5b2e 0000 0000 0000 0000
00000040: 0000 0000 0000 0000 0000 0000 0000 0000
00000050: 0000 0000 0000 0000 0000 0000 0000 0000
00000060: 0000 0000 0000 0000 0000 0000 0000 0000
00000070: 0000 0000 0000 0000 0000 0000 0000 0000
00000080: 0000 0000 024c 5c29 09ae 5b2e 7c65 2a2f
00000090: 737e ad2c daa9 652c 699b 2c2f 7f7c aa2f
000000a0: bbf4 fa2f 2a3a 252f 3235 1f31 9f43 c530
000000b0: 1e3e 6f30 5fda b22e 0cbb 212e ee5f 132d
000000c0: ba3f 162e bfbd b02f b02b 0e30 5773 be2e
000000d0: 0000 0000 0000 0000 0000 0000 0000 0000
000000e0: 0000 0000 0000 0000 9c6a 8d25 455b 6e2b
000000f0: 0fdb 2e2b ab35 362b d919 942e 24c6 912f
00000100: a72f 0b2f 505d 6030 ac64 b631 49e5 a431
00000110: fa40 f431 801e 8732 9a2a 6d32 bf4f 8332
00000120: 510c a532 5e1a 6532 8026 2732 21ee 0b31
00000130: 15ce 4e30 f37e 9e30 a8c9 a330 ac22 932f
00000140: 0e51 672e 1e42 5926 0000 0000 0000 0000
00000150: 0000 0000 0000 0000 a499 ab26 5c4f fc2c
00000160: 61e4 ac2f aaf1 f12f 7578 6b31 3c3e 5132
00000170: 1adb a232 f3d8 8b32 3c9e ea32 e1cb 2b33
00000180: fece 7333 3aa1 9f33 4b1b c633 6da8 f333
00000190: 412b d933 f0eb 9f33 86f0 6e33 adac 3f33
000001a0: 9b6d 1133 cbff 6b32 fadb 4331 2069 6d30
000001b0: 3973 1d2f 0499 792c 0000 0000 0000 0000
000001c0: 0000 0000 94c7 3026 74f0 f026 277d 022c
000001d0: 6c16 8c30 a1c4 9431 6950 4f32 eefc 0333
000001e0: b9d6 5a33 0f61 bf33 c1f6 0d34 7abf 2f34
000001f0: 50f5 6f34 0e5d 9534 616d bd34 a6db bf34
00000200: f3d7 a334 3a4a 8834 1f82 4d34 525d 1f34
00000210: c0f4 f433 121d 6733 b7a4 e432 a844 8c32
00000220: cde6 e431 230a 9831 acce 0e30 a052 8a2d
00000230: 0000 0000 0000 0000 2339 d32b 8340 bf2f
00000240: a06a e931 3e93 c232 2a19 4a33 8b33 ab33
00000250: 5f2a 2234 d6f2 6b34 add6 aa34 4076 fa34
00000260: ca8d 2f35 8382 5635 1a1d 7335 ffb3 8c35
00000270: 6195 7935 09d8 3f35 c45e 0b35 dac3 b434
00000280: 96af 7234 fa93 0034 a6f7 9d33 790e 2833
00000290: 4331 8232 b006 7c31 d68d 232f 0000 0000
000002a0: 0000 0000 65e7 b829 4b9d e92f 162e 7031
000002b0: b6b1 9832 fb48 6033 3863 0834 0b00 6a34
000002c0: b772 b334 3ab0 fc34 3995 2735 0b28 6335
000002d0: eabf 9635 c9b5 b435 2ce0 d635 2d2c ea35
000002e0: 3e5a d335 3166 b335 64b1 8d35 9fa3 4235
000002f0: e942 fa34 7f83 8c34 d5c6 1b34 44ef b033
00000300: 5274 1c33 4410 0b32 d3ab 2b30 436c e52a
00000310: 9f6f b520 0a51 252e 40ea 5e30 a13a 9931
00000320: d6e8 0c33 98ec b333 23ed 5834 1a15 b334
00000330: d2f4 0835 429d 2f35 da36 7e35 8413 ad35
00000340: 6267 cf35 04fc e735 6196 f735 9e70 f635
00000350: 7dff eb35 9158 cb35 0de1 bf35 3632 8435
00000360: e4ba 2e35 d0ea ec34 a8a3 6e34 3210 0034
00000370: c551 5f33 6361 a132 339e 8e31 6298 562c
00000380: adfa 352e 12c6 072c 7fce a430 9614 c431
00000390: 4590 3433 06f6 f333 f765 8b34 3db9 e934
000003a0: 72c0 3935 4821 6a35 f6a2 aa35 14dc c935
000003b0: 17bc ce35 8834 d235 ea87 ce35 a28f c235
000003c0: 34f0 ce35 2aa2 c035 3c7e bd35 dead 9d35
000003d0: 3955 5335 6f7c 0435 9997 aa34 f9fa 2634
000003e0: cede 9633 22b2 e932 dadf 8a31 720d 472f
000003f0: 5760 c927 081d 9a2d d513 8030 3b2f 9131

exp_avg f4 [50]
-0.00013073515 -0.00042142297 -0.00042975956 -0.0026474146 0.00031088525 0.0012508946 0.00090059557 0.00037616453
0.0006600686 -0.0003288614 -2.6588328e-05 0.0012304343 -0.0016959526 0.00018958823 -0.0010451947 0.0005669834
0.0021849575 -3.467014e-05 -0.0005969519 0.0007119328 0.001424091 0.0017892496 0.0 -0.0011641306
-2.8662529e-05 -0.0014002423 -0.0006629205 0.00022430895 -0.0030081617 0.0020741925 -0.0012474274 0.00046329913
-0.0020365121 -0.00077975664 0.000572426 -0.00020195328 -0.00038687314 -0.0017103881 -0.00040534604 0.0002150558
-0.0017316807 0.0005515292 -0.00094419415 2.9130268e-05 0.00046758802 -0.0006263818 -0.001199985 5.1937997e-05
0.0005558698 -0.00062442943
00000000: f315 09b9 6ff2 dcb9 5a51 e1b9 3f80 2dbb
00000010: 50fe a239 0ff5 a33a f215 6c3a f337 c539
00000020: 7408 2d3a 086b acb9 000a dfb7 8646 a13a
00000030: ba4a deba 34cc 4639 eafe 88ba 9da1 143a
00000040: 8131 0f3b c86a 11b8 c47c 1cba 00a1 3a3a
00000050: 91a8 ba3a 4185 ea3a 0000 0000 be95 98ba
00000060: 5070 f0b7 5688 b7ba d7c7 2dba 7a34 6b39
00000070: 9424 45bb 2def 073b b880 a3ba f5e6 f239
00000080: 0177 05bb 9568 4cba dc0e 163a 6cc3 53b9
00000090: 3cd5 cab9 1a2f e0ba a084 d4b9 9a80 6139
000000a0: 90f9 e2ba 8094 103a cc83 77ba c65c f437
000000b0: 9a26 f539 c533 24ba d148 9dba 00d8 5938
000000c0: cab7 113a c0b0 23ba

exp_avg_sq f4 [50]
3.629985e-06 7.185772e-06 2.3296238e-06 8.814608e-06 4.9640603e-06 5.9314502e-06 4.2354673e-06 6.806809e-06
5.4490893e-06 4.4439835e-06 6.4340106e-06 1.0696816e-05 1.2628107e-05 5.842258e-06 7.713209e-06 6.147143e-06
8.356487e-06 4.9093783e-06 9.900828e-06 7.1270365e-06 7.2018797e-06 9.85042e-06 0.0 6.68954e-06
4.9427344e-06 8.174653e-06 6.688824e-06 8.71355e-06 6.6822113e-06 8.135826e-06 7.996788e-06 7.736302e-06
1.6816475e-05 8.917153e-06 6.634731e-06 4.960011e-06 8.319125e-06 7.4766012e-06 7.748782e-06 5.4183397e-06
3.8251496e-06 1.2118648e-05 7.6208826e-06 7.427445e-06 7.3747615e-06 4.1718617e-06 6.4977053e-06 5.3202707e-06
7.937879e-06 9.522484e-06
00000000: ab9a 7336 501d f136 a256 1c36 74e2 1337
00000010: f490 a636 c506 c736 631e 8e36 0b66 e436
00000020: 52d7 b636 871d 9536 bbe3 d736 7a76 3337
00000030: 4edd 5337 9d08 c436 fb67 0137 8e43 ce36
00000040: d732 0c37 3dbb a436 bc1b 2637 c724 ef36
00000050: ada7 f136 3b43 2537 0000 0000 b676 e036
00000060: c4d9 a536 de25 0937 9070 e036 6a30 1237
00000070: c237 e036 1b7f 0837 f129 0637 2acb 0137
00000080: 1b11 8d37 e19a 1537 e89f de36 2c6e a636
00000090: 5f92 0b37 84df fa36 c400 0237 2fcf b536
000000a0: c959 8036 3251 4b37 e2b6 ff36 4439 f936
000000b0: b874 f736 05fc 8b36 dd06 da36 c784 b236
000000c0: ee2c 0537 c2c2 1f37

exp_avg f4 [10, 50]
0.0034518624 0.00019231532 -0.0013434241 0.0042716954 0.0017904418 0.00040506874 -0.0018761293 -0.0003400165
-0.0015810631 -0.00243107 0.00012515881 -8.474861e-05 0.0014936317 -0.0050246157 0.0030308613 -0.0006276199
-0.003654046 6.891956e-05 0.0020261186 -0.0016300484 -0.003767821 -0.0015048776 0.0 -0.0031869297
-0.0019828263 0.0013734871 -0.002875625 0.001575488 0.0048979316 -0.004225064 -0.0030829944 0.0010965557
0.00095781893 0.0016159293 -0.0021337764 0.00459096 -0.00075593335 0.001571569 0.00042805285 0.002553022
0.0004969612 0.0008874157 -0.0006442748 0.0022265557 -0.0005021561 -0.00089091924 0.0020651505 0.0018752266
0.0012950562 0.000980698 0.00066475064 0.0004802075 0.0018441266 0.0033495035 0.0027074928 0.004754596
0.0020363955 0.004218492 0.0026228146 0.0018169814 0.0060200524 0.00083565625 0.0013975833 0.0059885704
0.0015177368 0.0056339265 0.0044031786 0.0026065225 -0.00034674237 0.0029461712 0.0039436365 0.0031967745
0.0 0.006776283 0.0043929634 0.0058704317 0.00070028566 5.41719e-05 0.0011479993 0.0062410817
0.0057218256 0.00044440973 -0.00040699926 0.0005283428 0.0027484284 0.001824897 0.00022586393 0.0009281636
0.0010765117 0.0012836354 0.0036487838 0.0031110113 0.0022157764 0.003783138 0.0023437163 0.0066449437
0.0034269637 0.0005312297 0.00038495107 0.0020113576 -0.00091722736 0.00095044204 0.0034114616 0.0002916725
0.003346973 0.0014684434 0.004197063 -0.00017634535 0.0043001166 0.0018628143 0.004058438 0.0043983543
-0.0001635368 0.0028773416 -0.0031527746 0.0029502234 0.0069116275 0.0011816926 -0.002046293 0.0053362637
0.0030346033 0.0046538115 0.0 0.0018910808 0.0050063767 0.0008253816 0.0026634235 0.00075182505
-0.0005732739 0.0057588005 0.00300766 -0.00025527945 0.0005594568 -0.00024704603 -0.0029121523 -0.00096454215
-0.00233061 0.00056878786 0.0015060044 0.00074024964 0.0013538182 0.0017585098 0.0074418946 0.0021973173
0.0003744011 0.0025606945 -0.00086575677 0.003805104 -0.0014820631 0.0021425472 -0.0011801317 0.0013559042
0.00045723416 0.0027105284 -0.0032250222 -0.0010482278 0.00039924448 -0.00093547197 -0.000301357 0.0016128258
-0.0035005899 -0.0027492333 0.0019549946 -0.000968901 0.0023786766 0.0012579137 -0.001354509 0.003544526
0.0041192695 -0.0024283174 0.0054879985 0.00042474025 0.0 0.0036968167 4.453631e-05 0.0043573715
-0.0018529581 4.8936345e-05 0.00036285393 -0.0025397316 0.0053424397 0.0026764716 -0.0012884078 -0.001595711
0.011450759 -0.003798085 0.0053858957 0.0009431617 0.000301891 -0.0016868518 0.0051382645 -0.0019820717
-0.0006798245 0.0008388923 0.0046645966 0.004344837 5.953689e-05 -0.0023747513 -0.0034945933 0.00219961
-0.0068350267 -0.003245382 -0.00037943514 -0.0036430918 -0.00492417 -0.008435304 -0.00585693 -0.0059672524
-0.0013722929 -0.0068375906 -0.009740428 -0.0009129096 -0.0011212413 -0.008113462 0.00013304877 -0.0032639068
-0.007359924 -0.0041520335 -0.0029334717 -0.0040538805 -0.0056057503 -0.0016074049 0.0 -0.0067564007
-0.0018432124 -0.0048018787 -0.006960834 0.0004749767 -0.0010551603 -0.0065020444 -0.008184508 -7.114699e-05
-0.0038394316 -0.004741645 0.0003186644 -0.0058420077 0.00062194123 -0.0012265936 -0.00095590454 -0.00092265924
-0.0076105725 -0.005218182 -0.0005396873 -0.0028091609 -0.0022606908 -0.0031486598 -0.0027935754 0.0008637099
-0.0024505355 0.00074236374 -0.00039417174 -0.0055476762 -0.0028754428 -0.0025622249 -0.0025013867 -0.00074602826
00000000: a438 623b 40a8 4939 d515 b0ba 94f9 8b3b
00000010: 42ad ea3a 685f d439 74e8 f5ba 3e44 b2b9
00000020: ad3b cfba 9652 1fbb 103d 0339 10bb b1b8
00000030: f7c5 c33a 88a5 a4bb 6aa1 463b dc86 24ba
00000040: b878 6fbb e888 9038 a1c8 043b 59a7 d5ba
00000050: 8ced 76bb 503f c5ba 0000 0000 cfdb 50bb
00000060: 4ef2 01bb 9406 b43a fb74 3cbb 9b80 ce3a
00000070: d47e a03b 6872 8abb 100c 4abb 4eba 8f3a
00000080: 2416 7b3a 97cd d33a d4d6 0bbb c46f 963b
00000090: d429 46ba 1bfd cd3a 486c e039 9a50 273b
000000a0: 8046 023a 76a1 683a 8de4 28ba 68eb 113b
000000b0: 20a3 03ba 948c 69ba 7a57 073b 2aca f53a
000000c0: e0be a93a c48a 803a a942 2e3a 5cc4 fb39
000000d0: 9fb6 f13a 5883 5b3b 3170 313b 71cc 9b3b
000000e0: 0c75 053b 473b 8a3b 87e3 2b3b c727 ee3a
000000f0: dc43 c53b f10f 5b3a 1d2f b73a c53b c43b
00000100: ccee c63a cd9c b83b 8a48 903b 31d2 2a3b
00000110: f9ca b5b9 8d14 413b 9f39 813b fa80 513b
00000120: 0000 0000 950b de3b d9f2 8f3b c05c c03b
00000130: 6093 373a a236 6338 7778 963a fd81 cc3b
00000140: 277e bb3b aaff e839 8462 d5b9 7c80 0a3a
00000150: fa1e 343b 6231 ef3a e3d5 6c39 0150 733a
00000160: bd19 8d3a a83f a83a 6f20 6f3b 1ce2 4b3b
00000170: 8f36 113b 86ee 773b 0999 193b d4bd d93b
00000180: e996 603b 3942 0b3a 42d3 c939 fbd0 033b
00000190: 1672 70ba 1627 793a d492 5f3b 9feb 9839
000001a0: e458 5b3b c978 c03a 8487 893b 58e9 38b9
000001b0: fee7 8c3b ad29 f43a a5fc 843b 1220 903b
000001c0: 137b 2bb9 c891 3c3b c89e 4ebb 8958 413b
000001d0: ef7a e23b 06e3 9a3a 1a1b 06bb d3db ae3b
000001e0: 32e0 463b 007f 983b 0000 0000 24de f73a
000001f0: 880c a43b 6c5e 583a d58c 2e3b 2016 453a
00000200: c347 16ba 52b4 bc3b 291c 453b 07d7 85b9
00000210: 83a8 123a f585 81b9 cfd9 3ebb 54d9 7cba
00000220: 26bd 18bb b51a 153a 1f65 c53a 500d 423a
00000230: 9a72 b13a cc7d e63a 23db f33b de00 103b
00000240: 444b c439 53d1 273b f4f3 62ba 0d5f 793b
00000250: c941 c2ba fa69 0c3b a6ae 9aba 98b8 b13a
00000260: eeb8 ef39 1fa3 313b e55a 53bb b064 89ba
00000270: b051 d139 763a 75ba 74ff 9db9 7465 d33a
00000280: 276a 65bb 7b2c 34bb 5e1f 003b d8fd 7dba
00000290: 92e3 1b3b 94e0 a43a c889 b1ba 474b 683b
000002a0: f0fa 863b 6824 1fbb abd4 b33b acaf de39
000002b0: 0000 0000 4b46 723b 80cc 3a38 48c8 8e3b
000002c0: f5de f2ba 0041 4d38 6e3d be39 a071 26bb
000002d0: a20f af3b be67 2f3b cbdf a8ba 2d27 d1ba
000002e0: f79b 3b3c 4be9 78bb 2b7c b03b 833e 773a
000002f0: 2047 9e39 5b19 ddba e35e a83b a5e5 01bb
00000300: 4036 32ba 1ce9 5b3a 79d9 983b 225f 8e3b
00000310: 40b7 7938 b7a1 1bbb 8c05 65bb 5527 103b
00000320: 5cf8 dfbb 7ab0 54bb ecee c6b9 f0c0 6ebb
00000330: ef5a a1bb 3b34 0abc 7deb bfbb f188 c3bb
00000340: 82de b3ba de0d e0bb 5196 1fbc 5450 6fba
00000350: 9df6 92ba 53ee 04bc 0283 0b39 45e7 55bb
00000360: 842b f1bb c80d 88bb 7d3f 40bb 6ad6 84bb
00000370: 71b0 b7bb 8faf d2ba 0000 0000 cc64 ddbb
00000380: f297 f1ba 1459 9dbb b517 e4bb 4b06 f939
00000390: 4e4d 8aba 1a0f d5bb 5118 06bc c034 95b8
000003a0: f99e 7bbb cd5f 9bbb 6912 a739 506e bfbb
000003b0: c509 233a a7c5 a0ba ab95 7aba 9dde 71ba
000003c0: 1c62 f9bb 49fd aabb cd79 0dba e619 38bb
000003d0: 1928 14bb bf59 4ebb 6b14 37bb 976a 623a
000003e0: 2a99 20bb 309b 423a d6a8 ceb9 48c9 b5bb
000003f0: ed71 3cbb 00eb 27bb 4eee 23bb 1c91 43ba

exp_avg_sq f4 [10, 50]
0.00011323313 1.2044045e-05 5.3221456e-06 2.1423923e-05 0.00014210938 7.205924e-05 0.00023398247 5.0852295e-06
2.7569884e-05 0.00011981115 0.00017367455 2.1125854e-05 2.7611604e-05 0.00017803759 5.5734992e-05 0.00010181424
0.00027662533 9.539665e-06 0.00014126959 6.180095e-05 1.6768443e-05 0.00016790556 0.0 0.00010022452
4.125838e-05 0.000138799 9.292342e-05 5.5474116e-05 7.6085435e-06 0.00013573079 0.0001507855 7.876931e-05
2.9208048e-05 6.328785e-05 6.803897e-05 2.3793704e-05 4.2632866e-05 3.268599e-06 7.073204e-05 4.6822202e-05
0.0003810134 1.93729e-05 1.4186723e-05 0.00020717223 0.0001663298 6.2927495e-05 4.4598204e-05 5.2703344e-06
5.2572923e-05 1.9510118e-05 5.1522047e-06 4.28509e-05 1.4429629e-05 5.299047e-05 2.5488325e-05 0.00013929671
2.4442148e-05 0.00014698044 8.154123e-05 2.2343354e-05 0.00017948767 2.0809719e-05 2.1470643e-05 0.0002518178
6.9814178e-06 0.00014543651 6.270299e-05 4.2406802e-05 1.9008567e-05 0.00015064477 0.00013347027 4.729224e-05
0.0 0.0001823144 0.00018316852 8.77225e-05 1.1215249e-05 5.46775e-05 6.3308935e-06 0.00022924024
8.19265e-05 1.5391352e-05 2.1961943e-05 3.2531854e-05 5.7236743e-05 1.1511887e-05 1.24587e-05 8.649002e-06
1.1428762e-05 2.0049554e-05 3.4795525e-05 7.608292e-05 0.0001245937 4.7553258e-05 2.0393447e-05 0.00016964551
6.741395e-05 9.677152e-06 9.637425e-06 2.433723e-05 0.00015419492 4.663525e-05 7.275779e-06 3.5730947e-05
0.0001870599 0.00020454587 0.00029054607 0.00013234268 3.3388584e-05 0.00017988066 0.0003781701 0.00013179384
5.2891242e-05 0.0005681199 3.0167139e-05 0.00023312501 0.000510895 1.9082932e-05 8.883287e-05 0.0002868712
2.2900913e-05 0.00032807293 0.0 0.00032227294 0.00032530812 0.0002584327 0.00018663704 0.0001729268
2.0022535e-05 0.0005060795 0.00046457213 6.9530855e-05 7.9946476e-05 0.000106996195 0.00026559856 4.1146734e-05
8.397121e-05 1.7738897e-05 4.3978613e-05 2.05074e-05 0.00041240396 0.000103597034 0.0002417185 0.00019524815
0.0001575542 0.00039675474 0.0001041086 7.21408e-05 5.1485436e-05 9.901033e-05 8.292868e-05 0.00011051372
1.4990983e-05 3.2727286e-05 0.000113194445 0.00021458809 0.00036039617 0.00018772627 8.844176e-05 0.00011698385
0.0003417775 0.00017354995 4.3601412e-05 0.0004811896 3.9925148e-05 0.00054266804 0.00051937555 0.00015169788
0.00014932809 0.00022065296 7.5642056e-05 0.00026675942 0.0 0.00043710164 0.00040936476 0.0007130913
5.7637903e-05 0.00015064186 4.4308697e-05 0.00048218513 0.000679546 0.00020994229 5.2124353e-05 3.1783664e-05
0.00056040694 6.230447e-05 0.00018903211 1.1964737e-05 4.6813893e-05 2.6762356e-05 0.0004820199 0.00016381041
0.00019401322 0.00041902595 0.0002099987 0.0007432651 0.000120984376 3.98658e-05 4.038558e-05 8.416488e-05
0.00030912345 3.210394e-05 9.9305325e-06 7.716298e-05 0.00032561662 0.00044780757 0.00015966513 8.665118e-05
3.5260073e-05 0.00020229934 0.0003384481 5.3153817e-05 0.00020055803 0.00027501117 1.2321625e-05 0.00012262963
0.00020279617 8.354261e-05 0.00013802148 2.7181799e-05 0.00012400922 6.551828e-05 0.0 0.00030912823
1.8507693e-05 0.00043651322 0.00012794517 4.5879146e-06 0.00012111264 0.00025473605 0.00030922078 1.47765795e-05
6.713727e-05 0.000117136486 1.00832285e-05 0.00021800782 3.669252e-06 9.444157e-05 5.34015e-05 1.7189375e-05
0.00028513052 0.00018540544 7.554102e-06 9.6971744e-05 0.00014499966 0.0001677144 2.4812813e-05 1.3151884e-05
0.00013586662 3.2826578e-05 8.322943e-05 0.00010168603 1.8196304e-05 5.9527167e-05 8.7219145e-05 0.00015369766
00000000: 9377 ed38 c810 4a37 e294 b236 86b7 b337
00000010: 3203 1539 831e 9738 3159 7539 caa1 aa36
00000020: e045 e737 1f43 fb38 681c 3639 6d37 b137
00000030: 789f e737 9aaf 3a39 fec4 6938 1b85 d538
00000040: 0608 9139 8d0c 2037 c421 1439 229b 8138
00000050: f5a9 8c37 ce0f 3039 0000 0000 a12f d238
00000060: d90c 2d38 938a 1139 e2df c238 e1ac 6838
00000070: e44c ff36 f552 0e39 2d1c 1e39 f430 a538
00000080: ce03 f537 68b9 8438 25b0 8e38 9798 c737
00000090: b1d0 3238 1a5a 5b36 fa55 9438 f562 4438
000000a0: c1c2 c739 fc82 a237 8303 6e37 5f3c 5939
000000b0: d168 2e39 f1f7 8338 f50e 3b38 d4d7 b036
000000c0: bf81 5c38 a9a9 a337 1ae1 ac36 ceba 3338
000000d0: c916 7237 1542 5e38 c3cf d537 2d10 1239
000000e0: 1d09 cd37 c31e 1a39 1d01 ab38 fd6d bb37
000000f0: db34 3c39 8890 ae37 db1b b437 6a06 8439
00000100: ec41 ea36 5180 1839 697f 8338 f5dd 3138
00000110: 9674 9f37 66f6 1d39 27f4 0b39 a85b 4638
00000120: 0000 0000 a62b 3f39 ed10 4039 a9f7 b738
00000130: 2129 3c37 8555 6538 f66d d436 3560 7039
00000140: f4cf ab38 ad1c 8137 ea3a b837 d072 0838
00000150: 7c11 7038 2e23 4137 b605 5137 2e1b 1137
00000160: 29be 3f37 1730 a837 69f1 1138 b58e 9f38
00000170: 5ea5 0239 ec73 4738 9812 ab37 dfe2 3139
00000180: 9760 8d38 0d5b 2237 6db0 2137 ce27 cc37
00000190: 62af 2139 389a 4338 7722 f436 d0dd 1538
000001a0: 8225 4439 5d7b 5639 6f54 9839 78c5 0a39
000001b0: b80a 0c38 599e 3c39 2245 c639 2432 0a39
000001c0: 8ad7 5d38 e2ed 143a 700f fd37 0573 7439
000001d0: 95ed 053a 4914 a037 c94b ba38 3367 9639
000001e0: 561b c037 3401 ac39 0000 0000 bef6 a839
000001f0: 1e8e aa39 407e 8739 00b4 4339 af53 3539
00000200: 11f6 a737 6caa 043a d191 f339 18d1 9138
00000210: f0a8 a738 2563 e038 0940 8b39 f894 2c38
00000220: b319 b038 fecd 9437 ad75 3838 4e07 ac37
00000230: ec37 d839 3c42 d938 d175 7d39 87bb 4c39
00000240: 2235 2539 8503 d039 e154 da38 4c4a 9738
00000250: 11f2 5738 c4a3 cf38 ffe9 ad38 9ac3 e738
00000260: c881 7b37 a844 0938 ce62 ed38 0d03 6139
00000270: 8ef3 bc39 63d8 4439 cf79 b938 3a55 f538
00000280: 9930 b339 f6fa 3539 a9e0 3638 2d48 fc39
00000290: 4d75 2738 d641 0e3a b426 083a 1711 1f39
000002a0: f494 1c39 145f 6739 05a2 9e38 d8db 8b39
000002b0: 0000 0000 ca2a e539 02a0 d639 bfee 3a3a
000002c0: 3ac0 7138 9ef5 1d39 1ad8 3938 cbcd fc39
000002d0: 8f23 323a f423 5c39 19a0 5a38 734f 0538
000002e0: 46e8 123a 75a9 8238 ec36 4639 27bc 4837
000002f0: 095a 4438 b97f e037 9eb7 fc39 86c4 2b39
00000300: 0770 4b39 b6b0 db39 1933 5c39 add7 423a
00000310: feb8 fd38 9435 2738 b063 2938 ad81 b038
00000320: d911 a239 58a7 0638 509b 2637 8fd2 a138
00000330: 86b7 aa39 b7c7 ea39 c86b 2739 7fb8 b538
00000340: 37e4 1338 5120 5439 bc71 b139 7af1 5e38
00000350: e34c 5239 602f 9039 fab8 4e37 2496 0039
00000360: afa5 5439 9933 af38 dcb9 1039 7804 e437
00000370: 7908 0239 dc66 8938 0000 0000 7d12 a239
00000380: f840 9b37 d0db e439 0529 0639 e3f1 9936
00000390: dafd fd38 188e 8539 e91e a239 ede8 7737
000003a0: 0ccc 8c38 2ca7 f538 232b 2937 0799 6439
000003b0: 453d 7636 ef0e c638 6dfb 5f38 e731 9037
000003c0: 927d 9539 6569 4239 3e79 fd36 4f5d cb38
000003d0: 0d0b 1839 7edc 2f39 1c25 d037 e9a6 5c37
000003e0: 6b77 0e39 45af 0938 768b ae38 4640 d538
000003f0: 44a4 9837 cfac 7938 6ce9 b638 e729 2139

exp_avg f4 [10]
0.0009903589 0.0013233467 0.00080345356 0.0014852709 -0.0026645206 -0.0031631566 0.0016136508 -0.002839414
-0.0023260112 0.0047769765
00000000: eece 813a 2674 ad3a db9e 523a 6cad c23a
00000010: 3d9f 2ebb f64c 4fbb 2381 d33a 7615 3abb
00000020: fe6f 18bb 2f88 9c3b

exp_avg_sq f4 [10]
1.2220715e-05 1.5675778e-05 2.903533e-05 3.8868937e-05 2.716444e-05 2.9008748e-05 1.5545631e-05 2.3847926e-05
4.5547054e-05 3.513405e-05
00000000: 9207 4d37 7a7f 8337 e590 f337 3407 2338
00000010: 31df e337 d057 f337 fd67 8237 080d c837
00000020: c709 3f38 e65c 1338
