swastik_web/Learning&Experiments/PytorchTutorials/pytorch lightning/dashboard/mnist_clsfy/version_0.1/checkpoints/epoch=18-step=7125.ckpt (torch, 484079 bytes, 12 tensors)

fc1.weight f4 [50, 784]
0	0x3d11a74d	0.03555994
1	0x3c759e18	0.014991306
2	0xbc8e7fbc	-0.017394893
3	0x3901a300	0.00012363121
4	0xbcf8cd93	-0.030371463
5	0x3a9c5100	0.0011925995
6	0x39835b00	0.00025054067
7	0xbcd2673a	-0.025683988
8	0xbb9c0554	-0.0047613773
9	0xbc902c00	-0.017599106
10	0xbd08f5af	-0.033437427
11	0xbd045c3d	-0.032314528
12	0xbd057dcb	-0.03259067
13	0xbc301615	-0.010747452
14	0xbd045ea7	-0.03231683
15	0xbafc4ef8	-0.0019249609
16	0x3ba34590	0.0049826577
17	0x3c52e1e0	0.012871236
18	0xbcc8ec43	-0.02452672
19	0xbc4faca6	-0.01267544
20	0xbc06d7e0	-0.00823018
21	0xbc00d018	-0.007862113
22	0xbb4fb8f0	-0.0031695925
23	0x3cd9263e	0.026507493
24	0x3cffbf52	0.031219158
25	0xbca3d98c	-0.020001195
26	0x3c0b03b4	0.00848477
27	0xbd0f0077	-0.034912553
28	0xbaf34bc0	-0.0018562004
29	0xbc918b80	-0.017766714
30	0xbd03433c	-0.03204654
31	0xbc7bbd54	-0.015364964
32	0xbc34f62e	-0.011045022
33	0xbd293bcb	-0.04131679
34	0xbda84f2e	-0.08218227
35	0xbdf30e96	-0.118680164
36	0xbd9f1e32	-0.07769431
37	0xbd89f0f5	-0.06735412
38	0xbc280a78	-0.010256402
39	0x3d1ea54c	0.038731858
40	0x3d9fce1b	0.078029834
41	0x3e82b15d	0.25525942
42	0x3e377156	0.17914328
43	0xbe28d6b5	-0.16488154
44	0xbe35fc84	-0.17772108
45	0xbcebc954	-0.028782524
46	0x3e11149f	0.14168023
47	0x3db5e73c	0.08881995
48	0x3d459c67	0.04824486
49	0xbcc34a43	-0.023839122
50	0xbd736631	-0.05942363
51	0xbdfec000	-0.12438965
52	0xbaa339e0	-0.0012453161
53	0xbcc62caa	-0.02419122
54	0x3b5cae30	0.003367316
55	0x3cf8e526	0.030382704
56	0x3c7f7024	0.015590701
57	0xbcd5e8aa	-0.02611192
58	0xbc8c1ca2	-0.017103497
59	0x3e9296e4	0.28630745
60	0x3e855cab	0.26047263
61	0xbd9d3d8e	-0.07677756
62	0xbdd01eea	-0.101621464
63	0xbe3504d8	-0.17677629
64	0xbe786481	-0.24257089
65	0xbe6b9b4e	-0.23008463
66	0xbd70c6a0	-0.058783174
67	0x3cf32449	0.029680388
68	0xbe5dc816	-0.21658358
69	0x3e6df8d9	0.23239459
70	0x3dc361ad	0.095401146
71	0xbed3fb3e	-0.4140262
72	0xbe74a9ed	-0.23892947
73	0xbea7721d	-0.3270425
74	0xbef44b04	-0.47713482
75	0xbdf58494	-0.11988178
76	0xbd91ec4c	-0.07125148
77	0xbc6efbad	-0.014586371
78	0xbd3915c1	-0.04518676
79	0xbe642942	-0.22281364
80	0xbe37322f	-0.17890237
81	0x3cab41a4	0.020905323
82	0x3c7af89c	0.015318062
83	0xbc7b89c6	-0.015352672
84	0xbce95668	-0.028483585
85	0x3c097b30	0.008391187
86	0xbe1e88e9	-0.15481915
87	0x3e1f3620	0.15547991
88	0xbe8621ae	-0.2619757
89	0xbd752895	-0.059853155
90	0xbe76c7c0	-0.24099636
91	0xbdd76eda	-0.1051919
92	0xbb04fa9c	-0.0020290976
93	0xbdb74f65	-0.0895069
94	0x3e3cdfd7	0.18444763
95	0x3d357b4c	0.04430704
96	0x3c926f40	0.017875314
97	0xbca98b44	-0.02069629
98	0xbd7d1d4c	-0.061795518
99	0xbdf8cdca	-0.12148626
100	0x3d3bd851	0.045860592
101	0x3d93d527	0.0721839
102	0xbe52ed9a	-0.2059845
103	0xbdfc159f	-0.123088114
104	0x3e13b1f3	0.14423351
105	0xbe39edb6	-0.18157086
106	0xbe36ee47	-0.17864333
107	0xbd2306fc	-0.039801583
108	0x3a07f29d	0.00051859935
109	0x3def8698	0.116955936
110	0xbdedb08c	-0.11605939
111	0xbcddd453	-0.027078783
112	0x3cb58406	0.02215768
113	0x3d598fd3	0.053115677
114	0x3d47f3a1	0.048816327
115	0xbdabbdc4	-0.08385804
116	0x3c81c3dc	0.015840463
117	0xbc667220	-0.014065295
118	0xbe67d348	-0.22639191
119	0xbe33cd39	-0.17558755
120	0xbe5cb829	-0.21554627
121	0xbdd8ba96	-0.105824634
122	0xbd2809c4	-0.04102494
123	0x3d428f2b	0.047499817
124	0xbd5b3afe	-0.053523056
125	0xbd9f3d47	-0.077753596
126	0xbe196feb	-0.149841
127	0xbd56961e	-0.052389257
128	0x3dd725e9	0.10505278
129	0xbcff9a36	-0.031201463
130	0xbc8a4873	-0.01688025
131	0x3df4f03b	0.11959883
132	0x3db8a3c0	0.09015608
133	0x3dd90f09	0.10598571
134	0x3e99ca43	0.30037126
135	0x3e01db90	0.12681413
136	0xbe8a2089	-0.26977947
137	0xbeb02703	-0.34404764
138	0xbeae08d1	-0.339911
139	0xbe85aeaa	-0.2610982
140	0x3d0b07df	0.033943053
141	0x3c5006bc	0.012696918
142	0xbe04ad7b	-0.12956803
143	0xbe05be53	-0.13060884
144	0xbe8175a0	-0.25285053
145	0x3e30954f	0.17244457
146	0xbcd0fb45	-0.02551044
147	0xbdbfaa1e	-0.09358619
148	0xbe0a23c0	-0.134902
149	0x3de558a5	0.11198548
150	0x3c45a4af	0.012063189
151	0xbe19b214	-0.15009338
152	0xbe914a9c	-0.28377235
153	0xbe70a44b	-0.23500173
154	0xbd681764	-0.056662932
155	0xbb088da4	-0.0020836378
156	0xbd17c277	-0.03705069
157	0xbd82d393	-0.06388011
158	0xbd38f204	-0.04515268
159	0x3e00478e	0.12527296
160	0xbd3c1037	-0.0459139
161	0xbd9b674a	-0.0758806
162	0x3d3aea12	0.045633383
163	0x3e08ad85	0.13347442
164	0xbde0fc69	-0.109856434
165	0xbed9e1e5	-0.42555156
166	0xbe9fa674	-0.3118168
167	0xbe658487	-0.22413836
168	0xbccadcca	-0.024763484
169	0x3d0b9579	0.034078095
170	0x3e1474e9	0.14497723
171	0xbd097cb4	-0.03356619
172	0xbd9b43b1	-0.075812705
173	0xbc4c92c5	-0.012486164
174	0xbd3fce76	-0.046827756
175	0xbba41df2	-0.0050084526
176	0x3d5d90c3	0.054093134
177	0xbd96417c	-0.07336709
178	0xbd1324ef	-0.035923894
179	0xbe3fab55	-0.18717702
180	0xbe2bcd9f	-0.16777657
181	0xbddbae82	-0.10726644
182	0xbd64c3b9	-0.05585072
183	0xbd48b9b7	-0.049005236
184	0x3dcc169b	0.09965249
185	0x3dc46c31	0.095909484
186	0x3dcf03f2	0.101081744
187	0x3d6afaad	0.05736797
188	0x3e0da5b2	0.13832739
189	0x3dff7832	0.12474097
190	0x3d020fa7	0.03175321
191	0x3d860021	0.06542993
192	0xbd9af035	-0.07565347
193	0xbe851776	-0.25994462
194	0xbe2f66f3	-0.17129116
195	0xbe7c1514	-0.24617416
196	0x3cb4b82f	0.022060482
197	0x3c633f35	0.01387005
198	0x3d991899	0.07475395
199	0x3d664a45	0.056223173
200	0xbe33e48c	-0.17567652
201	0x3cd1b99b	0.025601199
202	0xbbf167c2	-0.007367105
203	0xbd4c1fb9	-0.04983494
204	0xbc953df2	-0.018218014
205	0x3c60fe66	0.013732528
206	0xbdacb328	-0.08432609
207	0xbe3b7b6d	-0.18308802
208	0xbda4300b	-0.08016976
209	0xbd828319	-0.06372661
210	0xbcbedd13	-0.023298776
211	0x39e7c35e	0.00044205313
212	0x3ddbc68f	0.107312314
213	0x3e4e8d6d	0.20171137
214	0x3dde116a	0.10843165
215	0x3e2e9cd0	0.17052007
216	0x3e19c070	0.15014815
217	0x3a96f032	0.0011515676
218	0x3d6ef2a4	0.05833687
219	0x3e7711f0	0.24127936
220	0xbba3646c	-0.0049863365
221	0xbed0571a	-0.40691453
222	0x3dbbc4e4	0.09168413
223	0xbe98670f	-0.29766127
224	0x3be773d6	0.0070633693
225	0xbe3e8a01	-0.18607332
226	0x3d676861	0.056496028
227	0x3e7bdae1	0.24595214
228	0xbd8e26af	-0.06940972
229	0xbc67f347	-0.014157123
230	0x3d0449f3	0.032297086
231	0xbd9b5300	-0.0758419
232	0x3cd5471f	0.02603489
233	0x3d870bad	0.06594024
234	0xbe317adc	-0.17332023
235	0xbdd70e0a	-0.105007246
236	0x3d9eb6da	0.0774972
237	0xbd99796c	-0.074938625
238	0x3d90d714	0.07072273
239	0x3e6bb37c	0.23017687
240	0x3e7f6c17	0.24943577
241	0x3e43b57b	0.19112198
242	0x3e3b218a	0.18274513
243	0x3e57292e	0.21011803
244	0x3d87ed59	0.06637067
245	0x3e09b548	0.1344806
246	0x3e05c533	0.13063507
247	0xbd9850f8	-0.074373186
248	0x3d1dd8b8	0.038536757
249	0xbdd76c84	-0.105187446
250	0xbe103208	-0.14081585
251	0xbe63052d	-0.22169943
252	0x3c5ad236	0.013355782
253	0xbb226bae	-0.002478342
254	0x3d9994ce	0.07499085
255	0x3e16517d	0.14679523

fc1.bias f4 [50]
0	0x3c80915e	0.015694316
1	0x3ebb3ef1	0.36571458
2	0x3d44bb24	0.048030034
3	0x3ea3b85a	0.31976587
4	0xbe3e6e9e	-0.18596885
5	0xbdd2382f	-0.102646224
6	0xbe3ffa46	-0.18747815
7	0xbe2e6195	-0.17029412
8	0xb885c1b4	-6.378014e-05
9	0x3d11889a	0.035530664
10	0x3e86dda1	0.26340964
11	0x3e3854d7	0.18001114
12	0xbb9f7e4d	-0.004867351
13	0x3e979c07	0.29611227
14	0xbe2035ef	-0.15645574
15	0x3eaf1fd9	0.34203985
16	0xbd82920e	-0.06375514
17	0xbd73c334	-0.059512332
18	0x3eb814b8	0.35953307
19	0xbce8e52d	-0.028429592
20	0xbe0473b3	-0.12934761
21	0xba122b3e	-0.00055759016
22	0xbe91a3c4	-0.28445256
23	0xbdafd496	-0.085854694
24	0x3e804458	0.25052142
25	0x3e72c696	0.23708567
26	0xbd922029	-0.0713504
27	0x3e68ab0f	0.22721504
28	0xbd7ebd95	-0.06219252
29	0xbd5c5e7f	-0.053801056
30	0x3e286d5d	0.16447969
31	0xbde89c9c	-0.11357996
32	0x3d83c793	0.0643455
33	0xbe125960	-0.14291906
34	0x3e54a9d6	0.20767912
35	0x3e57b837	0.21066366
36	0xbddca5ff	-0.10773849
37	0x3d236821	0.039894227
38	0xbb5b2384	-0.0033437917
39	0xbdebf209	-0.11520774
40	0xbdd4dff6	-0.1039428
41	0x3e6fc7f8	0.23416126
42	0xbd5d0b8c	-0.05396609
43	0x3dd081df	0.10181021
44	0xbda2437f	-0.0792303
45	0x3be73806	0.007056239
46	0x3d6d6404	0.05795671
47	0x3e434bae	0.19071838
48	0x3d70db89	0.058803115
49	0x3d125315	0.035723764

fc2.weight f4 [10, 50]
0	0x3e784e52	0.24248627
1	0xbe968f99	-0.2940643
2	0xbec0de17	-0.3766944
3	0x3db5df15	0.0888044
4	0xbe8cfd1f	-0.27536866
5	0xbeac6047	-0.33667204
6	0x3e2b5cd2	0.16734627
7	0xbf930816	-1.1486843
8	0x3ddd0482	0.107918754
9	0x3e1f7b1e	0.15574309
10	0x3dc73c1e	0.09728263
11	0x3e7adfda	0.24499455
12	0x3d960119	0.07324428
13	0xbd025c1e	-0.03182613
14	0xbd6f8433	-0.058475684
15	0xbf0bc139	-0.5459171
16	0x3e37ecca	0.17961422
17	0xbec386a3	-0.38188657
18	0xbf76ae4c	-0.96359706
19	0xbf43e89a	-0.76526797
20	0x3e8c9ff2	0.2746578
21	0x3e526656	0.2054685
22	0x3e26d2bc	0.16291326
23	0x3e0f9432	0.14021376
24	0x3a48ae2e	0.00076553493
25	0x3e81534c	0.25258863
26	0xbeb7f303	-0.3592759
27	0xbef85348	-0.4850104
28	0xbe9f83a8	-0.31155133
29	0x3e8e63e0	0.27810574
30	0x3dce1aa3	0.10063674
31	0xbf319962	-0.6937467
32	0xbf281943	-0.65663546
33	0x3e51ac49	0.20475878
34	0xbe417dc8	-0.18895638
35	0x3dceb8bf	0.10093831
36	0x3ee91176	0.45521134
37	0xbeaf8df2	-0.34287983
38	0xbe8f68e4	-0.28009713
39	0x3e3fdda7	0.18736897
40	0xbf818976	-1.0120075
41	0x3d96e198	0.07367247
42	0x3e55f1be	0.20892999
43	0x3e5cc0ec	0.21557969
44	0x3e5b5067	0.2141739
45	0xbecf86da	-0.4053257
46	0x3e82bd42	0.25535017
47	0xbe1063a7	-0.14100514
48	0xbe9aa606	-0.3020479
49	0x3de26592	0.11054529
50	0x3f2b35bf	0.66878885
51	0xbe868ed3	-0.2628084
52	0xbe828717	-0.2549369
53	0xbec28d10	-0.37998247
54	0x3dd77ac6	0.10521464
55	0x3d1bcca8	0.038036972
56	0xbeb77668	-0.35832524
57	0xbf1c968e	-0.6116723
58	0x3e6b5f4a	0.22985569
59	0xbf0dc4ff	-0.5537872
60	0x3e07d9a8	0.13266623
61	0x3e5cbde6	0.21556816
62	0x3ecc5dc6	0.39915293
63	0x3f176fc1	0.591549
64	0xbed08975	-0.4072987
65	0xbd00bc0a	-0.031429328
66	0x3e011f4d	0.12609597
67	0x3dd44859	0.10365362
68	0x3e4ea17b	0.20178787
69	0x3e951649	0.29118565
70	0x3d9e0dc2	0.07717468
71	0xbc6a1c13	-0.01428892
72	0xbebd412a	-0.3696378
73	0x3e39adb8	0.18132675
74	0x3e3ad50d	0.18245335
75	0xbea90a10	-0.3301549
76	0x3d712f8c	0.058883235
77	0xbecdd642	-0.40202528
78	0x3f432e8e	0.7624291
79	0xbd7657d7	-0.060142364
80	0xbeea71fc	-0.45790088
81	0x3dbc35d5	0.09189955
82	0x3ea84251	0.32863095
83	0xbf090ccb	-0.53535146
84	0xbf366c8e	-0.7125939
85	0xbe9751ca	-0.29554588
86	0xbe8112b5	-0.25209585
87	0xbf0079f3	-0.5018608
88	0xbe6d6b62	-0.23185495
89	0xbf281431	-0.6565581
90	0x3e910d4b	0.28330454
91	0x3e3ccc46	0.18437299
92	0xbeda9904	-0.42694867
93	0xbe2f9128	-0.17145216
94	0x3f217ce1	0.63081175
95	0x3d3f30dc	0.046677455
96	0xbe955bc9	-0.2917159
97	0x3d39b3da	0.045337535
98	0xbe3f320d	-0.18671437
99	0x3e44e37c	0.19227403
100	0xbf0dfafb	-0.5546109
101	0x3e340362	0.17579415
102	0xbe530146	-0.20605955
103	0xbe95f252	-0.29286438
104	0x3eba6a42	0.36409193
105	0xbe6f39f6	-0.23361954
106	0x3dddcb60	0.10829806
107	0xbef89961	-0.4855452
108	0x3e882449	0.26590183
109	0x3dd7aff1	0.10531605
110	0xbf96f191	-1.179247
111	0xbca816ff	-0.020518778
112	0x3eb4ac6e	0.35287803
113	0x3da7c1b9	0.081912465
114	0xbf8f650f	-1.1202716
115	0xbf24b8da	-0.6434456
116	0x3ee97074	0.45593607
117	0x3e3668aa	0.17813364
118	0x3e9d8526	0.30765647
119	0x3e477c42	0.19480994
120	0x3c98de73	0.01866076
121	0x3e658288	0.22413075
122	0x3e595cf2	0.21226862
123	0xbe0b4eb7	-0.13604246
124	0x3dfd7213	0.123752736
125	0xbdfbb9aa	-0.12291272
126	0x3e5985fe	0.2124252
127	0x3e334401	0.1750641
128	0xbcd25e4e	-0.025679734
129	0x3ead1a48	0.33809114
130	0xbcecd48e	-0.028909948
131	0x3ee2f194	0.44324934
132	0xbaf84948	-0.0018942738
133	0x3e6615fa	0.22469321
134	0xbe48895d	-0.1958365
135	0xbe4d847c	-0.2007007
136	0x3ea29a94	0.3175856
137	0xbe050848	-0.1299144
138	0x3e8d4b1f	0.27596375
139	0xbe71c0b4	-0.23608667
140	0xbf2755aa	-0.6536509
141	0x3e668434	0.22511369
142	0x3f00d7de	0.5032939
143	0x3b8406fb	0.0040291524
144	0x3e963ed8	0.2934482
145	0x3d988fe1	0.07449318
146	0x3eb8cbc6	0.36092967
147	0xbea5fcec	-0.32419527
148	0xbef959a4	-0.48701203
149	0x3e7c827f	0.24659155
150	0x3db85697	0.09000891
151	0xbdc79336	-0.09744875
152	0x3e383a0f	0.17990898
153	0xbe149c1d	-0.14512677
154	0x3dfc0f85	0.123076476
155	0x3e243a53	0.16037874
156	0x3cc7042c	0.024293981
157	0x3eeaba11	0.45845082
158	0x3dacdf03	0.084409736
159	0x3e93dc10	0.28878832
160	0x3b96da6c	0.0046036746
161	0xbea903a9	-0.33010605
162	0xbe9f5738	-0.3112123
163	0xbf33cc1b	-0.70233315
164	0x3e9e2b40	0.30892372
165	0xbf3c4863	-0.73547953
166	0xbe37f4d4	-0.17964488
167	0x3e158e49	0.14605059
168	0xbdf6dfa2	-0.12054373
169	0x3e5387a9	0.20657219
170	0x3e4dbd19	0.20091666
171	0xbf17f650	-0.5936022
172	0x3e663634	0.22481614
173	0x3ebaf46c	0.36514604
174	0xbe36d953	-0.1785634
175	0xbdb63bac	-0.088981
176	0xbeea107f	-0.4571571
177	0x3cf05920	0.029339373
178	0x3dbb916d	0.09158597
179	0x3f0a39ee	0.53994644
180	0xbe994c95	-0.2994124
181	0x3e987140	0.29773903
182	0xbe20a4ff	-0.15687941
183	0x3e102787	0.14077578
184	0xbf5933a1	-0.84844404
185	0xbe7693a4	-0.24079758
186	0x3d5d81aa	0.054078735
187	0x3e741d9d	0.23839422
188	0x3e605062	0.21905664
189	0x3e191533	0.14949493
190	0x3eec5d26	0.46164817
191	0xbd9459a7	-0.07243662
192	0xbe600280	-0.21875954
193	0xbd25aebf	-0.040449854
194	0x3e833cd5	0.2563235
195	0x3daa59cd	0.083179094
196	0xbcc17359	-0.023614572
197	0xbc7e3830	-0.015516326
198	0x3e174bb8	0.14774978
199	0xbf50d6e8	-0.8157792
200	0x3dd8902a	0.10574372
201	0x3e8901b7	0.2675912
202	0xbd4cca10	-0.04999739
203	0x3eb74fed	0.35803166
204	0xbe5f7cec	-0.21824998
205	0xbea0a1e4	-0.31373513
206	0xbed0c731	-0.4077697
207	0x3e9595b0	0.29215765
208	0xbfc305ef	-1.5236186
209	0x3eae4491	0.34036687
210	0xbdafe3fd	-0.08588407
211	0xbe8c21a2	-0.2736941
212	0xbc3b64b0	-0.01143758
213	0x3ea9aeb2	0.33141094
214	0x3e08b5ae	0.13350555
215	0x3ec034c0	0.37540245
216	0x3d7e0716	0.062018476
217	0xbe99a3e9	-0.30007866
218	0x3e227e6b	0.15868537
219	0x3ed0241f	0.40652558
220	0xbecb36d4	-0.39690268
221	0xbe913d15	-0.28366914
222	0x3e3f278a	0.18667427
223	0x3d619a53	0.055078816
224	0x3d0640ef	0.03277677
225	0xbf71a6ad	-0.9439495
226	0x3dc3fff8	0.095703065
227	0x3dd43a0d	0.10362635
228	0xbf64ddef	-0.89401144
229	0xbe689986	-0.22714815
230	0xbce2aebc	-0.02767121
231	0xbdc2fdaf	-0.095210426
232	0xbf886609	-1.0656139
233	0xbe3eddb5	-0.18639262
234	0x3ec39ce5	0.3820564
235	0x3b950538	0.0045477413
236	0xbfa413a9	-1.28185
237	0xbee3c69d	-0.44487467
238	0xbee77e4b	-0.4521354
239	0xbe01f35a	-0.12690488
240	0x3e9cfe91	0.3066297
241	0xbe8099e2	-0.25117403
242	0xbbb6b92e	-0.0055762744
243	0x3e115527	0.1419264
244	0x3f03e438	0.5152011
245	0x3bbf4265	0.0058367723
246	0x3d9fafec	0.07797226
247	0x3dcec1af	0.10095536
248	0x3eb38b6a	0.35067302
249	0x3eb08b8d	0.3448147
250	0xbe0d0753	-0.13772325
251	0x3e87d26d	0.2652773
252	0x3e84907f	0.25891492
253	0x3dbf92be	0.09354161
254	0x3a37b289	0.00070075
255	0x3d4f5bf8	0.050624818

fc2.bias f4 [10]
0	0xbc8d8a2a	-0.017277796
1	0x3d937a13	0.07201018
2	0x3d78a648	0.060705453
3	0xbddce2d5	-0.10785452
4	0x3e07b41e	0.13252303
5	0x3e77b472	0.24189928
6	0x3c65f6ec	0.014035922
7	0x3e041aaf	0.12900804
8	0xbdea390e	-0.114366636
9	0xbe501f7e	-0.20324513

exp_avg f4 [50, 784]
0	0x00000000	0.0
1	0x00000000	0.0
2	0x00000000	0.0
3	0x00000000	0.0
4	0x00000000	0.0
5	0x00000000	0.0
6	0x00000000	0.0
7	0x00000000	0.0
8	0x00000000	0.0
9	0x00000000	0.0
10	0x00000000	0.0
11	0x00000000	0.0
12	0xac739eb9	-3.4620486e-12
13	0xad055c64	-7.5806895e-12
14	0x16c6a929	3.209538e-25
15	0x148470c4	1.3373072e-26
16	0x00000000	0.0
17	0x00000000	0.0
18	0x00000000	0.0
19	0x00000000	0.0
20	0x00000000	0.0
21	0x00000000	0.0
22	0x00000000	0.0
23	0x00000000	0.0
24	0x00000000	0.0
25	0x00000000	0.0
26	0x00000000	0.0
27	0x00000000	0.0
28	0x00000000	0.0
29	0x00000000	0.0
30	0x00000000	0.0
31	0x00000000	0.0
32	0x90b385a3	-7.080895e-29
33	0x19b8b010	1.9096265e-23
34	0x2a296740	1.5046037e-13
35	0x2b20a2c9	5.706933e-13
36	0xaf4ce8a5	-1.8636344e-10
37	0xb130e510	-2.5741578e-09
38	0xb2550424	-1.2399173e-08
39	0xb1ac702d	-5.0186117e-09
40	0xb0858629	-9.715154e-10
41	0xb6804a59	-3.8233525e-06
42	0xb7c79ebb	-2.3796563e-05
43	0x35bbfc22	1.4005966e-06
44	0x3699a36c	4.57878e-06
45	0x351f27a0	5.928978e-07
46	0xb1147d4d	-2.160806e-09
47	0x3053bbd9	7.70283e-10
48	0x30baa336	1.3579669e-09
49	0x2f51eeee	1.9093324e-10
50	0x2da64dae	1.8906512e-11
51	0xad2a8375	-9.6925705e-12
52	0x00000000	0.0
53	0x00000000	0.0
54	0x00000000	0.0
55	0x00000000	0.0
56	0x00000000	0.0
57	0x00000000	0.0
58	0x17aabd3a	1.103376e-24
59	0xa95241e0	-4.6686504e-14
60	0xb053e936	-7.7092766e-10
61	0x31c6202b	5.7662155e-09
62	0x33010d76	3.0047396e-08
63	0x32df5a81	2.6001773e-08
64	0xb3fe7973	-1.1849888e-07
65	0xb489b8a4	-2.5652582e-07
66	0x3538c353	6.8829576e-07
67	0x35edfdf9	1.7731792e-06
68	0x34748462	2.2772431e-07
69	0xb7b2aad4	-2.1298802e-05
70	0xb802bfeb	-3.1173153e-05
71	0x37d38cf8	2.5218804e-05
72	0xb726a3d0	-9.932512e-06
73	0xb7a8c15e	-2.0117204e-05
74	0x353756dd	6.8299215e-07
75	0x330f9e02	3.343849e-08
76	0xb392320a	-6.807757e-08
77	0xb49b7aef	-2.8960446e-07
78	0xb49b6413	-2.8943813e-07
79	0x3167d6e3	3.3737073e-09
80	0x31183b08	2.2152467e-09
81	0xa7db4a29	-6.0865115e-15
82	0x00000000	0.0
83	0x00000000	0.0
84	0x00000000	0.0
85	0x00000000	0.0
86	0x2ee5cf2c	1.04505155e-10
87	0x34150245	1.3877532e-07
88	0x36076d38	2.0180141e-06
89	0x32ad44a5	2.0171067e-08
90	0x33166271	3.501413e-08
91	0x328660a8	1.5643607e-08
92	0x364e68e8	3.0757456e-06
93	0x33c18ef1	9.013264e-08
94	0xb6023d27	-1.9407105e-06
95	0x36c63d48	5.907994e-06
96	0x38582322	5.1531133e-05
97	0x380d0a7e	3.362679e-05
98	0xb9581e27	-0.00020610598
99	0xb9833b78	-0.00025030575
100	0xb862f42c	-5.411e-05
101	0xb82bd61d	-4.0968986e-05
102	0xb8a35133	-7.78757e-05
103	0xb8d8b98c	-0.000103342434
104	0xb7efd782	-2.8591374e-05
105	0x371c5450	9.317955e-06
106	0x35879cb7	1.0103894e-06
107	0x3614251c	2.207532e-06
108	0xb4831ce1	-2.4421664e-07
109	0x2f0be638	1.2723766e-10
110	0x2ce50312	6.5089123e-12
111	0x00000000	0.0
112	0x00000000	0.0
113	0x916d2fe2	-1.8710758e-28
114	0x2fdd1caa	4.0220033e-10
115	0x347a7cad	2.3328421e-07
116	0xb6be4b5e	-5.671215e-06
117	0xb71e621c	-9.440377e-06
118	0xb71f680f	-9.501367e-06
119	0xb738ac58	-1.10073815e-05
120	0xb7a2a71c	-1.9389721e-05
121	0x3724beb9	9.819568e-06
122	0x38161623	3.5783403e-05
123	0x38592b8e	5.1777395e-05
124	0x38f9f5ef	0.00011919054
125	0xba03dee8	-0.0005030469
126	0xba80acd4	-0.0009817132
127	0xba8ef3fb	-0.0010906452
128	0xba86f660	-0.0010296814
129	0xba4a5d8f	-0.000771963
130	0xb9fa2fce	-0.00047719333
131	0xb9e6fc52	-0.00044057012
132	0xb9b9cba0	-0.00035437662
133	0xb88a570b	-6.596566e-05
134	0xb82094a9	-3.8285423e-05
135	0xb7a31fb6	-1.944588e-05
136	0xb7485793	-1.1941319e-05
137	0xb53d9c61	-7.063555e-07
138	0xae944fe7	-6.744454e-11
139	0x248c41f5	6.082706e-17
140	0x00000000	0.0
141	0x00000000	0.0
142	0x33ddaa45	1.0322086e-07
143	0xb6782a73	-3.6979588e-06
144	0xb8408b1b	-4.590592e-05
145	0xb86b2402	-5.60619e-05
146	0xb82969ad	-4.0391158e-05
147	0xb86c85a1	-5.6391236e-05
148	0xb86e2fff	-5.678832e-05
149	0xb83e9b23	-4.5444012e-05
150	0x382e0270	4.1487103e-05
151	0x390a8ffc	0.00013214344
152	0x373404a0	1.0729913e-05
153	0xba355c25	-0.00069183327
154	0xba8ce680	-0.0010749847
155	0xbababe71	-0.001424743
156	0xbac29d5e	-0.0014847924
157	0xbad07ad6	-0.0015905749
158	0xbaa154f0	-0.0012308639
159	0xba611280	-0.00085858256
160	0xba3f994b	-0.0007308914
161	0xb9b10ec8	-0.00033771084
162	0xb933204c	-0.00017082802
163	0xb8d613cd	-0.000102080034
164	0xb88dd48f	-6.762996e-05
165	0xb7b7b9b3	-2.1901773e-05
166	0xb4dba7e1	-4.0914077e-07
167	0x32cb76c4	2.3686319e-08
168	0x00000000	0.0
169	0x1d7b2052	3.3236283e-21
170	0xb2fc8203	-2.9395784e-08
171	0xb7a61b99	-1.9801593e-05
172	0xb7c6faa9	-2.3720162e-05
173	0xb784cd43	-1.5831209e-05
174	0xb7b3651b	-2.1385544e-05
175	0xb9282bc0	-0.00016038027
176	0xb94d0c27	-0.0001955485
177	0xb8bd769e	-9.0343165e-05
178	0xb91dc252	-0.00015045077
179	0xb90e0bff	-0.00013546644
180	0xba18d741	-0.0005830415
181	0xba92df25	-0.0011205418
182	0xbae44a5f	-0.0017417184
183	0xbb023976	-0.0019870675
184	0xbaf4f0bb	-0.0018687466
185	0xbaf3de8e	-0.0018605755
186	0xbae3dbc8	-0.0017384226
187	0xba804680	-0.0009786636
188	0xba77b768	-0.0009449632
189	0xba2e760a	-0.00066551624
190	0xba005ab4	-0.00048963283
191	0xb99ed666	-0.00030295848
192	0xb8865e3a	-6.407169e-05
193	0xb74f2428	-1.234658e-05
194	0xb5186a62	-5.677922e-07
195	0x336afb02	5.471066e-08
196	0x9ae200e8	-9.3472873e-23
197	0xabcdf006	-1.4632746e-12
198	0xb40cafa6	-1.3102417e-07
199	0xb6730e29	-3.6218064e-06
200	0xb7558ea6	-1.2729002e-05
201	0xb7d54cef	-2.5427404e-05
202	0xb88986ad	-6.5577544e-05
203	0xb938877e	-0.00017598082
204	0xb8e08f16	-0.00010707804
205	0xb8975308	-7.215707e-05
206	0xb9952320	-0.00028445665
207	0xb9e49dfe	-0.00043605262
208	0xbaabc84d	-0.0013105959
209	0xbade321e	-0.0016952192
210	0xbb08906a	-0.002083803
211	0xbb02cb97	-0.0019957775
212	0xbad689ed	-0.0016368009
213	0xbad39c23	-0.0016144555
214	0xbaf165a6	-0.0018417134
215	0xba952159	-0.0011377736
216	0xba65dbba	-0.00087683985
217	0xba0ae286	-0.0005298037
218	0xba1e4aae	-0.000603835
219	0xb9999f73	-0.00029301233
220	0x389ddb82	7.52723e-05
221	0x38f1f40b	0.00011537232
222	0x363a2e96	2.7743276e-06
223	0xb1fe2130	-7.396146e-09
224	0x9be59c1c	-3.7985755e-22
225	0xacd4616e	-6.0362193e-12
226	0xb5015cd8	-4.819135e-07
227	0xb782db5e	-1.5599358e-05
228	0xb7ddc357	-2.6436215e-05
229	0xb8554b24	-5.0853138e-05
230	0xb919a70a	-0.00014653444
231	0xb96b98fc	-0.00022468338
232	0xb931a39a	-0.00016940982
233	0xb995e805	-0.00028592363
234	0xb97478f9	-0.00023314719
235	0xb9e08081	-0.00042820352
236	0xbabf0723	-0.001457427
237	0xbad8fc91	-0.0016554763
238	0xbaede72e	-0.0018150562
239	0xbac16ce7	-0.0014757187
240	0xba9d46cf	-0.0011999252
241	0xbabf968b	-0.0014617009
242	0xbb03b00a	-0.002009394
243	0xbaaa0a49	-0.0012973036
244	0xba3e2a55	-0.0007254233
245	0xba212ed2	-0.00061486394
246	0xba044880	-0.0005046204
247	0xb823ed41	-3.908319e-05
248	0x38fdc4d4	0.00012100642
249	0x389ccf40	7.477263e-05
250	0x35b3396c	1.3353251e-06
251	0x2c9af030	4.4036094e-12
252	0x3195ddc4	4.3616826e-09
253	0x317b92dc	3.6608787e-09
254	0xb5dc41b3	-1.6410398e-06
255	0xb775bd65	-1.4647235e-05

exp_avg_sq f4 [50, 784]
0	0x00000000	0.0
1	0x00000000	0.0
2	0x00000000	0.0
3	0x00000000	0.0
4	0x00000000	0.0
5	0x00000000	0.0
6	0x00000000	0.0
7	0x00000000	0.0
8	0x00000000	0.0
9	0x00000000	0.0
10	0x00000000	0.0
11	0x00000000	0.0
12	0x28830bed	1.4549094e-14
13	0x2b43e0c6	6.958985e-13
14	0x2b321295	6.326409e-13
15	0x269e4953	1.0983327e-15
16	0x00000000	0.0
17	0x00000000	0.0
18	0x00000000	0.0
19	0x00000000	0.0
20	0x00000000	0.0
21	0x00000000	0.0
22	0x00000000	0.0
23	0x00000000	0.0
24	0x00000000	0.0
25	0x00000000	0.0
26	0x00000000	0.0
27	0x00000000	0.0
28	0x00000000	0.0
29	0x00000000	0.0
30	0x00000000	0.0
31	0x00000000	0.0
32	0x20d60961	3.6259217e-19
33	0x25e8ceb5	4.0385655e-16
34	0x2b63b775	8.09012e-13
35	0x2c1d2120	2.232943e-12
36	0x2beba33c	1.6743061e-12
37	0x2ba2226b	1.1520345e-12
38	0x2c036366	1.8671397e-12
39	0x2d0bafcb	7.940269e-12
40	0x2df5c6fe	2.7941646e-11
41	0x2f0e9f04	1.2971318e-10
42	0x31a6a402	4.8498814e-09
43	0x2f02d046	1.1897425e-10
44	0x307ac7fe	9.1233676e-10
45	0x2e2fe4e6	3.9993696e-11
46	0x2e876237	6.156536e-11
47	0x2d8286aa	1.4839092e-11
48	0x2c3ae4d8	2.6559224e-12
49	0x2c1c57b8	2.2217627e-12
50	0x2c5de7e8	3.1534723e-12
51	0x2a971004	2.68341e-13
52	0x00000000	0.0
53	0x00000000	0.0
54	0x00000000	0.0
55	0x00000000	0.0
56	0x00000000	0.0
57	0x00000000	0.0
58	0x21e7d175	1.5708612e-18
59	0x2c30add5	2.51076e-12
60	0x2aa83f9f	2.988694e-13
61	0x2819d757	8.5399005e-15
62	0x2b99dc8e	1.093252e-12
63	0x2cedfb17	6.7638217e-12
64	0x2d21a563	9.188514e-12
65	0x2df64c30	2.8000796e-11
66	0x31052bbd	1.937891e-09
67	0x31d53ed6	6.2062595e-09
68	0x310bbd7c	2.0334872e-09
69	0x34248a8e	1.5324096e-07
70	0x327d5ada	1.47471955e-08
71	0x32e5d502	2.6755973e-08
72	0x32aeb0bb	2.0336634e-08
73	0x31e5d5bd	6.6890764e-09
74	0x321a9efc	9.000129e-09
75	0x30932cea	1.0708423e-09
76	0x30790f40	9.0607344e-10
77	0x2fadfefa	3.1649688e-10
78	0x2da997bf	1.9280464e-11
79	0x2c7322a6	3.455161e-12
80	0x2be50726	1.6273413e-12
81	0x29b15176	7.87451e-14
82	0x00000000	0.0
83	0x00000000	0.0
84	0x00000000	0.0
85	0x00000000	0.0
86	0x25beb877	3.3084744e-16
87	0x2dbb4f7a	2.1294733e-11
88	0x2e3ae624	4.249591e-11
89	0x2d827f1b	1.4835735e-11
90	0x2f3b380c	1.7027463e-10
91	0x312060f5	2.3338178e-09
92	0x3294faea	1.734357e-08
93	0x328afe2a	1.6180895e-08
94	0x33a01a84	7.455404e-08
95	0x3446578f	1.847204e-07
96	0x348a8c60	2.580664e-07
97	0x34fd4572	4.717545e-07
98	0x34e2871c	4.2194085e-07
99	0x34d3f294	3.9478311e-07
100	0x34b90770	3.4464347e-07
101	0x34bd5253	3.5263892e-07
102	0x34853596	2.481217e-07
103	0x343f3005	1.780573e-07
104	0x34180761	1.4158788e-07
105	0x33a359f6	7.606643e-08
106	0x328c835f	1.6357886e-08
107	0x30e33ef5	1.6534317e-09
108	0x2f1cae77	1.42501e-10
109	0x2e90bd59	6.581997e-11
110	0x2d240d58	9.325284e-12
111	0x00000000	0.0
112	0x00000000	0.0
113	0x22c9b455	5.4672093e-18
114	0x28b66569	2.0250039e-14
115	0x2ba6fc1e	1.1864986e-12
116	0x2e33ec0c	4.090954e-11
117	0x30f52e0e	1.7839186e-09
118	0x327cb704	1.47099435e-08
119	0x33b61016	8.4779614e-08
120	0x33ee4b3e	1.1096425e-07
121	0x344ff1c5	1.9366333e-07
122	0x349e5b1e	2.949609e-07
123	0x352575aa	6.1638514e-07
124	0x35801efe	9.545763e-07
125	0x35bce0da	1.4072532e-06
126	0x35f9252f	1.8562768e-06
127	0x36165599	2.2401566e-06
128	0x361a2e86	2.2974868e-06
129	0x36033e9b	1.9556962e-06
130	0x35c1cd10	1.4439302e-06
131	0x357861da	9.252959e-07
132	0x352575d9	6.163878e-07
133	0x34ca5aa1	3.7691373e-07
134	0x340bd6bd	1.3023505e-07
135	0x333f7423	4.457628e-08
136	0x333ad3c2	4.3499092e-08
137	0x31a47b3f	4.7870397e-09
138	0x2f83da98	2.398408e-10
139	0x2d04b2de	7.543048e-12
140	0x00000000	0.0
141	0x00000000	0.0
142	0x29bbf15d	8.346338e-14
143	0x2fcba0a7	3.7039635e-10
144	0x31bb251c	5.446635e-09
145	0x32bc1643	2.1896204e-08
146	0x33f9fb04	1.16406255e-07
147	0x34632766	2.1155356e-07
148	0x349975a9	2.858408e-07
149	0x351976e7	5.716997e-07
150	0x359ad9b3	1.1537253e-06
151	0x35cfbe75	1.5478132e-06
152	0x3610d360	2.1580709e-06
153	0x365dfc88	3.3078559e-06
154	0x3686a7d0	4.013047e-06
155	0x36962468	4.4745866e-06
156	0x36a588dd	4.933316e-06
157	0x36986c22	4.5425413e-06
158	0x36638cf6	3.3907686e-06
159	0x36372f1b	2.7296544e-06
160	0x35eb4589	1.7529102e-06
161	0x356df613	8.8647465e-07
162	0x34f1319b	4.492584e-07
163	0x34623eb5	2.1070703e-07
164	0x333dfb12	4.423334e-08
165	0x318e2eb7	4.138055e-09
166	0x2fd935ce	3.95103e-10
167	0x2d87487b	1.5379911e-11
168	0x00000000	0.0
169	0x25da27e2	3.7843997e-16
170	0x2ef9a48c	1.13524384e-10
171	0x32306dbe	1.0269501e-08
172	0x32cc87dd	2.381051e-08
173	0x3388019f	6.3332884e-08
174	0x349062da	2.6894014e-07
175	0x350f3e1e	5.3362044e-07
176	0x355179cd	7.803581e-07
177	0x35af790c	1.3073745e-06
178	0x3609a3ba	2.0509892e-06
179	0x3634949b	2.690859e-06
180	0x367c68af	3.761186e-06
181	0x36aad4c8	5.091166e-06
182	0x36ca22e3	6.0241305e-06
183	0x36dcfe14	6.5860895e-06
184	0x36e4fb8e	6.8242143e-06
185	0x36ce7acf	6.153575e-06
186	0x36aa4160	5.0740055e-06
187	0x368ac906	4.1361227e-06
188	0x363b3289	2.7894587e-06
189	0x35c4171a	1.4609861e-06
190	0x351cce1b	5.841445e-07
191	0x34812dfc	2.406158e-07
192	0x33aa1041	7.9191985e-08
193	0x328857a0	1.5872331e-08
194	0x2e76966c	5.6067526e-11
195	0x2d2bc33b	9.7635745e-12
196	0x1faaabca	7.2282e-20
197	0x2bf7ba81	1.7602171e-12
198	0x30c30198	1.418857e-09
199	0x3258f980	1.26295845e-08
200	0x3333122c	4.1693212e-08
201	0x344452d6	1.8284058e-07
202	0x35077db7	5.047436e-07
203	0x353af676	6.964905e-07
204	0x359ec55e	1.1829359e-06
205	0x35fa74ac	1.8660407e-06
206	0x36352762	2.6994026e-06
207	0x366e377b	3.5497058e-06
208	0x36a2ccb4	4.851807e-06
209	0x36c044c6	5.730052e-06
210	0x36e2807b	6.750282e-06
211	0x36fea900	7.589464e-06
212	0x37044a3e	7.885099e-06
213	0x36e80196	6.9143234e-06
214	0x36ce5af9	6.149869e-06
215	0x36a942bc	5.0443614e-06
216	0x3666a434	3.436825e-06
217	0x36069fe2	2.006062e-06
218	0x35757b8b	9.144939e-07
219	0x350ae231	5.173816e-07
220	0x342370d3	1.5221603e-07
221	0x3389c703	6.41576e-08
222	0x30bb454b	1.3625735e-09
223	0x2ca3dd19	4.6572854e-12
224	0x21b0294a	1.1937153e-18
225	0x2da22ea4	1.843798e-11
226	0x3025b707	6.028675e-10
227	0x31f73515	7.194681e-09
228	0x33c3f03e	9.124095e-08
229	0x348c7a3c	2.616597e-07
230	0x352eb617	6.5085027e-07
231	0x3580e04c	9.602022e-07
232	0x35c63fc8	1.4770712e-06
233	0x3612d6eb	2.1880794e-06
234	0x36498aad	3.0032054e-06
235	0x3682e1c9	3.9005868e-06
236	0x36a38bec	4.8740676e-06
237	0x36c107d4	5.7527595e-06
238	0x36d7054d	6.4081164e-06
239	0x36e8fb50	6.9433954e-06
240	0x36feb11e	7.590409e-06
241	0x36deaea4	6.6364464e-06
242	0x36d40900	6.31914e-06
243	0x36a514e1	4.919814e-06
244	0x366fdb35	3.574137e-06
245	0x361d4386	2.3434127e-06
246	0x35afc34b	1.3095354e-06
247	0x354fc993	7.740684e-07
248	0x346243e2	2.1072586e-07
249	0x330fe4e5	3.350296e-08
250	0x31b77cba	5.3401807e-09
251	0x2e0e7e10	3.2399028e-11
252	0x28a34f51	1.8131033e-14
253	0x2ee0c7a4	1.0221804e-10
254	0x303107bb	6.440321e-10
255	0x321c3dbf	9.0944345e-09

exp_avg f4 [50]
0	0xbb167c26	-0.0022962182
1	0x3a8d5f29	0.0010785806
2	0x3a4254df	0.00074131595
3	0x3a397312	0.0007074337
4	0x384d9a13	4.90193e-05
5	0xb8c2e380	-9.293016e-05
6	0x3a09dfe7	0.00052594993
7	0xb901418f	-0.00012326821
8	0xbb10de2c	-0.002210508
9	0x3a0b9049	0.00053239294
10	0xba90d91c	-0.0011051032
11	0xb89ee5c2	-7.576823e-05
12	0x3a02ac2d	0.00049847626
13	0xba516236	-0.0007987352
14	0x39c742d2	0.00038006023
15	0xb88da4f0	-6.754126e-05
16	0x3a28bf16	0.00064371654
17	0x3aad54a6	0.001322408
18	0x3a07cd53	0.0005180437
19	0x3a42d476	0.0007432172
20	0x3a1c3eb0	0.0005960269
21	0xb8c06770	-9.17454e-05
22	0x39aa4edc	0.00032483682
23	0xbaa7bd70	-0.0012797546
24	0xbaf455e4	-0.001864132
25	0xba908391	-0.0011025538
26	0x3a72ca45	0.0009261708
27	0x3ab045c2	0.0013448524
28	0xba0d205f	-0.0005383547
29	0xbaaa0074	-0.0012970106
30	0x3a2c16c2	0.00065646705
31	0x3ab3c865	0.0013716338
32	0xba42ff62	-0.00074385677
33	0xba8a8528	-0.0010568248
34	0x39d1fa0a	0.0004004988
35	0x3997ad25	0.00028929967
36	0xb8f70408	-0.00011778629
37	0xba8325e1	-0.0010005796
38	0xb86e2f68	-5.6787772e-05
39	0x3a183962	0.00058068905
40	0xb89435fb	-7.0672446e-05
41	0x3a704094	0.00091648963
42	0xba9d7a97	-0.0012014684
43	0x3a316906	0.0006767664
44	0xbad5301f	-0.0016264952
45	0x3a8640ba	0.0010242679
46	0xba6723d8	-0.0008817292
47	0x3b31d09f	0.0027132405
48	0x3a9fbaf6	0.0012186456
49	0xb8c020ba	-9.161369e-05

exp_avg_sq f4 [50]
0	0x376c92e2	1.4100895e-05
1	0x375a77e4	1.3021727e-05
2	0x36f7b6e0	7.382463e-06
3	0x370450e0	7.886643e-06
4	0x37044291	7.883312e-06
5	0x37245157	9.7941e-06
6	0x3702a514	7.787039e-06
7	0x37603644	1.3364075e-05
8	0x37f31490	2.8977433e-05
9	0x37358234	1.0818756e-05
10	0x379bb3f6	1.856124e-05
11	0x3743f70e	1.1680428e-05
12	0x376822b3	1.3836357e-05
13	0x379658ef	1.7922806e-05
14	0x376b3b42	1.4020889e-05
15	0x37731419	1.4488608e-05
16	0x376dab71	1.4166218e-05
17	0x370c5a0a	8.365614e-06
18	0x37503bc9	1.2411686e-05
19	0x379429d1	1.7662447e-05
20	0x3713205c	8.769417e-06
21	0x37611030	1.3414814e-05
22	0x37424fea	1.15819075e-05
23	0x37b21cda	2.1232689e-05
24	0x36f76ed3	7.3740753e-06
25	0x37229987	9.691698e-06
26	0x3708713d	8.132597e-06
27	0x37196bab	9.144579e-06
28	0x3759af25	1.2974987e-05
29	0x37c60516	2.3605808e-05
30	0x36e1bd54	6.7275632e-06
31	0x37794fe6	1.4860159e-05
32	0x37953a49	1.7789325e-05
33	0x37097e39	8.195225e-06
34	0x3791accf	1.7365817e-05
35	0x36e6206d	6.858309e-06
36	0x37749bb5	1.4579787e-05
37	0x3708beb8	8.150637e-06
38	0x37880078	1.6212682e-05
39	0x36e9de56	6.9698244e-06
40	0x37e154fa	2.686166e-05
41	0x37ad9ee3	2.0697194e-05
42	0x37a057d5	1.9114386e-05
43	0x372103f8	9.597272e-06
44	0x378a8c24	1.651614e-05
45	0x36c34c9c	5.8203714e-06
46	0x3704b0c2	7.908968e-06
47	0x37714bf5	1.43824045e-05
48	0x3752eae9	1.257167e-05
49	0x3763f05a	1.3586216e-05

exp_avg f4 [10, 50]
0	0xbb7af32b	-0.0038291912
1	0x385f901b	5.330155e-05
2	0xbab98f10	-0.0014157016
3	0xbc124b5d	-0.008929101
4	0x382c2646	4.104364e-05
5	0xbbafc716	-0.005364309
6	0xbc0bd35e	-0.008534281
7	0xb518ac80	-5.6875433e-07
8	0xbb3fada1	-0.0029247778
9	0xbb62d52f	-0.003461193
10	0xbbfe1aaa	-0.0077546434
11	0xbbfdec32	-0.007749104
12	0xbc13d76e	-0.00902353
13	0xba94e894	-0.0011360818
14	0xbae049c4	-0.0017111828
15	0xba6ddd62	-0.0009073821
16	0xb9ab578d	-0.00032680892
17	0xbb8bb952	-0.0042640353
18	0xb8bb2fb2	-8.925739e-05
19	0xbb2c6a5e	-0.0026308517
20	0xbc06cac2	-0.008227052
21	0xbb5f8846	-0.0034108325
22	0xbbf04882	-0.0073328624
23	0x3a076589	0.0005164971
24	0xbab6d5a1	-0.0013949164
25	0xbb3c20a4	-0.0028705979
26	0xbb4d4015	-0.0031318713
27	0xbaff12d0	-0.0019460563
28	0xb7f393da	-2.9036706e-05
29	0xba83faf3	-0.0010069296
30	0xbbf30b00	-0.007417083
31	0xbb592056	-0.0033130846
32	0xbb1607a7	-0.0022892745
33	0xbb8a9653	-0.004229346
34	0xba452bc8	-0.00075214775
35	0xbc03bc18	-0.0080404505
36	0xbc3170a8	-0.010830082
37	0xb8e50d25	-0.00010922019
38	0xba0902c1	-0.00052265456
39	0xbc0124ca	-0.007882306
40	0x392fca74	0.0001676472
41	0xbb8764de	-0.0041318974
42	0xbb7cfa94	-0.0038601505
43	0xbc840d77	-0.016119702
44	0xbbd6dfbe	-0.006557434
45	0xbbe71068	-0.0070515163
46	0xbb42aa0e	-0.0029703411
47	0xbb061d1a	-0.0020464123
48	0xbb4a79ce	-0.0030895355
49	0x385207a8	5.0075032e-05
50	0xb9bb0843	-0.00035673575
51	0xb9c91bb6	-0.00038358354
52	0xbb30a69e	-0.002695478
53	0xbba840ea	-0.0051346915
54	0xbbb9efc7	-0.0056743356
55	0xbbb37183	-0.005476178
56	0xbbe1629c	-0.00687821
57	0x393bc732	0.00017907916
58	0xbbb3984f	-0.005480803
59	0xbb33bbc2	-0.0027425145
60	0xbc393267	-0.011303521
61	0xbb567098	-0.003272092
62	0xbb6f7c6f	-0.0036542674
63	0xbab8f6ef	-0.0014111678
64	0xba70b603	-0.00091823953
65	0xbbc6d6b9	-0.0060680774
66	0xbc09883a	-0.008394295
67	0xbc23b277	-0.00999128
68	0xba9d10d3	-0.0011983163
69	0xbb68bad5	-0.0035511751
70	0xbc0fc080	-0.008773923
71	0xba095294	-0.00052384404
72	0xbb47267c	-0.0030387929
73	0xbbc6d0d0	-0.006067373
74	0xbb0267e1	-0.0019898342
75	0x3a153f3f	0.00056933233
76	0x39b3813d	0.0003423783
77	0xbad8652c	-0.0016509644
78	0xbb38536f	-0.0028125902
79	0xba1e2bc8	-0.00060337456
80	0xbb814940	-0.0039454997
81	0xbb377c3a	-0.0027997629
82	0xbb5e09fb	-0.003388046
83	0xb9ae16cd	-0.00033204854
84	0xb9117d15	-0.00013874874
85	0xbbc1a06d	-0.005909017
86	0xbb4b21b9	-0.0030995442
87	0xb9a2d57c	-0.00031058106
88	0xbac83a23	-0.0015276115
89	0xbb2cac3f	-0.0026347784
90	0xbaca78fc	-0.0015447433
91	0xbbe01769	-0.006838728
92	0xbb234682	-0.0024913852
93	0xbc3e9229	-0.011631527
94	0xbaa42787	-0.0012523987
95	0xbc35fc7b	-0.011107559
96	0xbb7b566f	-0.003835108
97	0xbbbbc620	-0.0057304054
98	0xbbb476f6	-0.0055073453
99	0xbc385920	-0.011251718
100	0x3a7ee3e4	0.00097232894
101	0xba6481ec	-0.00087168696
102	0xbae988f2	-0.0017817302
103	0xba00dd55	-0.00049157935
104	0xb9fe96f3	-0.0004855912
105	0x39fafc49	0.00047871683
106	0x3a83cfea	0.001005647
107	0x39ea292e	0.0004466264
108	0x3b3e303b	0.0029020447
109	0x3a86b966	0.0010278642
110	0x3b3cab59	0.0028788655
111	0xb9a8eb2a	-0.00032218668
112	0xba3fdb8a	-0.00073187856
113	0xba74682e	-0.00093233853
114	0xb9b01489	-0.00033584636
115	0x3acc1199	0.0015569209
116	0x39e6214a	0.0004389382
117	0x3b1ece10	0.002423171
118	0xb9639d10	-0.00021706917
119	0x3a187b4a	0.00058167113
120	0x39ff3a45	0.00048680804
121	0xba303c50	-0.00067228545
122	0xb9833876	-0.00025028334
123	0x3a2a6218	0.00064996025
124	0xb883204c	-6.2525825e-05
125	0xb6ae0f60	-5.187394e-06
126	0xba4a9464	-0.00077278004
127	0xb9483ae4	-0.00019095425
128	0xb97e6b2d	-0.00024263254
129	0x39dff0fb	0.0004271342
130	0x3a289dc1	0.00064321986
131	0x39390b22	0.00017647122
132	0x3a6ed192	0.0009110208
133	0xb9c39bce	-0.00037309382
134	0xb9e42a5a	-0.00043519103
135	0x3ac1b84a	0.0014779654
136	0xb926ab50	-0.00015894813
137	0xb989f671	-0.0002631429
138	0x3abde69a	0.001448828
139	0xba60b77d	-0.0008572264
140	0x3a7b076e	0.0009575997
141	0x3ad80326	0.001648043
142	0xba534033	-0.00080585777
143	0x39869afe	0.0002567395
144	0x3b090d0b	0.0020912315
145	0x3ad89eea	0.0016526852
146	0x39a8616f	0.0003211605
147	0x3ac40ce1	0.0014957451
148	0x39678684	0.00022079988
149	0x3b5fbeba	0.0034140781
150	0x3a25c0da	0.00063229876
151	0x3aa9e511	0.0012961944
152	0x3b01e906	0.001982273
153	0xb9f68c20	-0.00047025178
154	0x3a90b5db	0.0011040525
155	0xba021334	-0.0004961968
156	0xbb252948	-0.0025201607
157	0xbac1159f	-0.0014731175
158	0xb9f10890	-0.00045973482
159	0xbb678cbb	-0.0035331685
160	0xbb8f910f	-0.004381306
161	0xbb043553	-0.0020173385
162	0xbac866c8	-0.001528942
163	0x3adb640e	0.0016738193
164	0xb987e420	-0.00025919173
165	0xb9b13f56	-0.0003380726
166	0x3a069dce	0.0005135209
167	0xbb04ab04	-0.0020243535
168	0x3a759fcd	0.00093698205
169	0xbb07430f	-0.0020639335
170	0xbb426dcd	-0.0029667497
171	0x3a406a84	0.0007340091
172	0x39464fd0	0.00018912484
173	0x3a2394da	0.0006240137
174	0x3a643696	0.00087056437
175	0x3905076a	0.0001268663
176	0xbae21d6e	-0.0017251202
177	0x3a2b0f3b	0.0006525402
178	0xb85235b0	-5.0117902e-05
179	0xb9334baa	-0.00017098957
180	0xba5b8b3e	-0.0008374936
181	0x39e31d60	0.000433187
182	0xba6ec28c	-0.0009107969
183	0x3aa69175	0.0012708144
184	0x3a77513a	0.0009434406
185	0xba8e4fff	-0.0010857581
186	0x383eaa80	4.545832e-05
187	0x383d3f3a	4.5119996e-05
188	0xbae0d9cc	-0.0017154752
189	0x3ac4748b	0.0014988346
190	0xb99e5d60	-0.00030205678
191	0xb9c92480	-0.00038364902
192	0xba6b3042	-0.00089717295
193	0xbac40a5c	-0.0014956701
194	0x3a22aa7a	0.00062052126
195	0xbaf6e3fd	-0.0018836256
196	0xbad20da4	-0.0016025794
197	0xbae3fed2	-0.0017394668
198	0x3a583b71	0.00082486036
199	0x382108cc	3.8393584e-05
200	0xbb12db9a	-0.0022408725
201	0x3af5f68b	0.0018765492
202	0x3bc80948	0.006104622
203	0x3b310bf8	0.002701519
204	0x3ab129cd	0.0013516486
205	0x3b4ed8fe	0.0031562443
206	0x3a630f56	0.0008661648
207	0x39fed4a8	0.00048605097
208	0x3a936977	0.0011246641
209	0xbb3701ee	-0.0027924734
210	0xbb1a9adf	-0.0023590846
211	0x386fbbf0	5.715707e-05
212	0x39bf1d7b	0.00036452324
213	0x3bb83bb2	0.0056223506
214	0x3b014424	0.0019724453
215	0x3969b9b4	0.00022289791
216	0x3b3cfe35	0.0028838043
217	0xbac8a288	-0.0015307227
218	0x3b027fd2	0.0019912613
219	0xbadf557a	-0.0017039024
220	0x3ab913f9	0.0014120332
221	0x3b033182	0.0020018523
222	0x3a0f44d5	0.0005465274
223	0x3a03b914	0.0005024832
224	0xb81b7dc0	-3.7071994e-05
225	0x3a60a172	0.0008568979
226	0xba156f7b	-0.0005700511
227	0xb9e0c2d0	-0.00042869756
228	0x3ac5158e	0.0015036331
229	0xb9b3eb06	-0.00034316647
230	0x3ac46de2	0.0014986361
231	0x3a8752c8	0.0010324353
232	0xb9fc6916	-0.0004814348
233	0x3b78bc32	0.003795397
234	0x3947d8d0	0.00019058888
235	0x39ad9f88	0.0003311599
236	0xba67c0d0	-0.0008840682
237	0xba452305	-0.0007520172
238	0x37de59a0	2.6506197e-05
239	0x3b6876b8	0.0035471153
240	0x3ac50714	0.0015032017
241	0xbafc9d61	-0.0019272977
242	0xbaeb46a1	-0.0017950126
243	0x3ba80af1	0.0051282574
244	0x3a7438d2	0.0009316328
245	0x3aae530a	0.0013299894
246	0xbac8f931	-0.0015333054
247	0x3a236498	0.0006232946
248	0x3b243ce4	0.0025060708
249	0x39d30028	0.00040245173
250	0x3ab72420	0.0013972558
251	0x392fc226	0.00016761626
252	0xba69876c	-0.0008908424
253	0x3a93fe8c	0.0011291071
254	0xbaa9e5d0	-0.0012962166
255	0x39fa2794	0.00047713204

exp_avg_sq f4 [10, 50]
0	0x391ee501	0.00015153365
1	0x37838f9d	1.5683292e-05
2	0x385d06f2	5.2696974e-05
3	0x39bcb5e2	0.00035993668
4	0x37cda8c4	2.4516492e-05
5	0x38599203	5.1872816e-05
6	0x3943953e	0.00018652246
7	0x36172129	2.2520055e-06
8	0x383b2abd	4.4624077e-05
9	0x39207468	0.00015302154
10	0x38cfb898	9.9049124e-05
11	0x38d3a2c0	0.000100915786
12	0x3848eec6	4.790609e-05
13	0x392d1348	0.00016505748
14	0x374abbee	1.2083894e-05
15	0x377c5839	1.5040911e-05
16	0x373c28d4	1.1215179e-05
17	0x38629ca6	5.402849e-05
18	0x37370e6b	1.0911007e-05
19	0x3819bda3	3.6654656e-05
20	0x3941d070	0.00018483563
21	0x38a11ba3	7.682226e-05
22	0x38fc6dda	0.00012036758
23	0x37b46cdf	2.150837e-05
24	0x388703fb	6.438043e-05
25	0x3889ddbb	6.5739696e-05
26	0x38159125	3.5659545e-05
27	0x389d45a7	7.499317e-05
28	0x375354b2	1.25963e-05
29	0x381c457a	3.7258003e-05
30	0x394c3200	0.00019473583
31	0x37b45cfc	2.1500971e-05
32	0x36de7827	6.630103e-06
33	0x38d354e6	0.000100770776
34	0x37b1eb22	2.1209536e-05
35	0x39b22f68	0.00033986126
36	0x395295e9	0.00020083007
37	0x36083115	2.0294149e-06
38	0x3728f945	1.0071618e-05
39	0x39be0088	0.0003624002
40	0x3720cebf	9.58488e-06
41	0x39027080	0.00012439676
42	0x385d5c41	5.2776424e-05
43	0x3a17b884	0.0005787688
44	0x3909c5f3	0.0001313908
45	0x39146960	0.00014153635
46	0x3799ac43	1.8319237e-05
47	0x386cbc42	5.6442113e-05
48	0x383199c7	4.2343305e-05
49	0x36d0a2da	6.2178415e-06
50	0x381adf67	3.692452e-05
51	0x375e0326	1.3232964e-05
52	0x388810cd	6.488115e-05
53	0x38bc1674	8.968721e-05
54	0x39196e63	0.0001463234
55	0x38b75d81	8.7435365e-05
56	0x3940c7e8	0.00018385018
57	0x377a1add	1.4907416e-05
58	0x38d470d5	0.00010129964
59	0x37b36e29	2.138976e-05
60	0x3a0d3434	0.0005386502
61	0x38cf7a18	9.893271e-05
62	0x38ec60b3	0.000112713686
63	0x38637006	5.4225347e-05
64	0x37c30b82	2.325117e-05
65	0x39401385	0.00018317818
66	0x39426d3b	0.00018541973
67	0x39ae4140	0.0003323648
68	0x382ec29d	4.166608e-05
69	0x392f4588	0.00016715203
70	0x3995e3e0	0.00028589275
71	0x3757f5a1	1.2872189e-05
72	0x38869d4a	6.418915e-05
73	0x393b5841	0.00017866587
74	0x38bd0514	9.013168e-05
75	0x373c55eb	1.1225678e-05
76	0x37509777	1.2433032e-05
77	0x37be11c3	2.2658036e-05
78	0x38ac9165	8.228681e-05
79	0x37969cce	1.7954411e-05
80	0x3839d945	4.4309785e-05
81	0x38914b2a	6.928139e-05
82	0x388af2b9	6.6255634e-05
83	0x37b12b08	2.1120082e-05
84	0x3685918a	3.980652e-06
85	0x38833da1	6.258046e-05
86	0x3923edd0	0.00015633483
87	0x368c8ad6	4.1884878e-06
88	0x37d2b082	2.5116144e-05
89	0x37c66b6b	2.365346e-05
90	0x38a93d7a	8.069999e-05
91	0x38dbf288	0.00010487909
92	0x37a87f48	2.008643e-05
93	0x39dde75a	0.00042324775
94	0x38c23865	9.261145e-05
95	0x39ab95fb	0.00032727406
96	0x38122e02	3.485196e-05
97	0x388cf072	6.720507e-05
98	0x38fcbcce	0.00012051464
99	0x39a90548	0.00032238127
100	0x38dbb654	0.00010476695
101	0x380936a9	3.271425e-05
102	0x3906fb82	0.0001287293
103	0x39ea1bc4	0.00044652645
104	0x3996fe0a	0.00028799503
105	0x38c167e0	9.2223054e-05
106	0x39bd84d4	0.00036147854
107	0x37949a1c	1.7714738e-05
108	0x399cb3a7	0.0002988849
109	0x39213546	0.00015374002
110	0x3921337f	0.0001537334
111	0x3918fc73	0.00014589894
112	0x38cacd7b	9.670384e-05
113	0x393a61fe	0.00017774847
114	0x375edf0c	1.3284163e-05
115	0x385e9fb4	5.307766e-05
116	0x392340f8	0.00015569094
117	0x3981e8f7	0.0002477837
118	0x388e9552	6.798901e-05
119	0x3949bea4	0.00019239873
120	0x39a9cb6a	0.00032385747
121	0x3893a08f	7.0394126e-05
122	0x398eaf2b	0.0002721486
123	0x38e13a4d	0.000107396954
124	0x38bccc6c	9.002615e-05
125	0x3824e25c	3.931146e-05
126	0x38b8d34a	8.8131594e-05
127	0x395174ec	0.0001997535
128	0x38a8a251	8.041098e-05
129	0x3888d138	6.5239554e-05
130	0x397ee35a	0.00024308023
131	0x39279bb7	0.0001598437
132	0x38c1b9b3	9.237546e-05
133	0x393ab562	0.00017805913
134	0x37d1f660	2.5029469e-05
135	0x3995c4b5	0.00028566053
136	0x39dd1589	0.0004216845
137	0x36ecc362	7.0560936e-06
138	0x38fdbade	0.00012098787
139	0x398c8bc3	0.0002680701
140	0x38cdf3bb	9.82056e-05
141	0x3944e263	0.00018776352
142	0x3913f3a5	0.00014109777
143	0x3a81ef90	0.0009913314
144	0x39b0f0e0	0.00033748802
145	0x39d02cd2	0.00039706245
146	0x388b0817	6.629543e-05
147	0x38b8160b	8.7779095e-05
148	0x3911532e	0.00013859264
149	0x38adce32	8.28769e-05
150	0x39107e4f	0.00013779964
151	0x38ae53d0	8.312578e-05
152	0x39e48ec8	0.0004359393
153	0x3a31b70d	0.0006779291
154	0x39cd669a	0.0003917709
155	0x395a65f6	0.00020828084
156	0x39ebcbe0	0.00044974592
157	0x392e7e4b	0.00016640981
158	0x3994e4c2	0.00028399198
159	0x391c4cdc	0.00014905952
160	0x39a1ac74	0.000308368
161	0x3996739d	0.00028696368
162	0x389a53e2	7.3589166e-05
163	0x396f58e6	0.00022825933
164	0x390d3881	0.00013467857
165	0x38813e1f	6.16277e-05
166	0x3937e737	0.00017538374
167	0x39b8bbd3	0.00035235155
168	0x3891fce0	6.9612404e-05
169	0x3981723d	0.00024689912
170	0x3a16ab6a	0.00057475886
171	0x387c5fde	6.0170765e-05
172	0x399a2aaa	0.00029404956
173	0x399435c0	0.00028268807
174	0x38ac9c24	8.2306826e-05
175	0x381ab98c	3.6889265e-05
176	0x383536ec	4.3204913e-05
177	0x391e5e67	0.00015103222
178	0x39956ef6	0.00028502167
179	0x388fdb11	6.859576e-05
180	0x396436a3	0.00021764128
181	0x3905a747	0.00012746184
182	0x38d03645	9.9283214e-05
183	0x39947b8d	0.00028320812
184	0x37db247f	2.612383e-05
185	0x39d89bed	0.00041314904
186	0x3a6d2365	0.0009046107
187	0x389301f9	7.009874e-05
188	0x3905286f	0.00012698931
189	0x3a0753ce	0.0005162329
190	0x39d9b4a8	0.00041524065
191	0x38e49ea4	0.00010901436
192	0x3818519c	3.631563e-05
193	0x3aab693a	0.0013077625
194	0x39909e19	0.00027583612
195	0x3a226c8e	0.00061959855
196	0x388028fc	6.1111496e-05
197	0x39101375	0.00013740158
198	0x39d65b3c	0.00040885236
199	0x38a55b58	7.884827e-05
200	0x39294da5	0.00016146021
201	0x3938dd11	0.00017629961
202	0x39651192	0.00021845687
203	0x39d06b8f	0.0003975299
204	0x37defab1	2.65812e-05
205	0x391ff9d6	0.00015256493
206	0x38bf5151	9.122736e-05
207	0x390cea9b	0.00013438838
208	0x37789894	1.4817477e-05
209	0x38bc650c	8.98336e-05
210	0x398b774c	0.0002660103
211	0x381162c6	3.4662684e-05
212	0x37db72b4	2.6160247e-05
213	0x39ac3dd1	0.00032852453
214	0x390059b1	0.00012240444
215	0x392e5353	0.00016624974
216	0x38e22324	0.00010783065
217	0x39594b7c	0.00020722853
218	0x390f0d68	0.00013642537
219	0x38c67242	9.462658e-05
220	0x390cced6	0.00013428493
221	0x38553cf9	5.0839943e-05
222	0x38e465c4	0.000108908425
223	0x3927357b	0.00015946284
224	0x39ae4a34	0.00033243152
225	0x3805d66b	3.1909363e-05
226	0x38d5dbe1	0.00010197587
227	0x3967e5bb	0.00022115458
228	0x380606f1	3.1954554e-05
229	0x370b8303	8.315549e-06
230	0x390d6e44	0.00013487885
231	0x37b2811f	2.127938e-05
232	0x36d61184	6.379736e-06
233	0x38103e90	3.439054e-05
234	0x38b47521	8.604886e-05
235	0x39c308aa	0.00037199754
236	0x3798ce0d	1.8215762e-05
237	0x37ad86e9	2.068603e-05
238	0x36f2cae6	7.2357825e-06
239	0x3990aaae	0.00027592987
240	0x37c740be	2.3752797e-05
241	0x395ad5cf	0.0002086975
242	0x398c1ff1	0.0002672668
243	0x39d210b5	0.0004006677
244	0x38f6f73a	0.000117762436
245	0x39d9cbed	0.00041541402
246	0x38bf0b0b	9.1096466e-05
247	0x38f31b75	0.00011592257
248	0x39daf000	0.00041759014
249	0x39490a83	0.0001917277
250	0x38e69210	0.00010994461
251	0x38d78d04	0.00010278265
252	0x39815537	0.00024668287
253	0x3a1d9836	0.0006011756
254	0x39353fee	0.00017285321
255	0x38f5ba00	0.000117171556

exp_avg f4 [10]
0	0xbad706cf	-0.0016405227
1	0xbaaa47c9	-0.0012991364
2	0x3811f834	3.480185e-05
3	0x398a6b72	0.00026401464
4	0x3a4e55a5	0.00078710384
5	0xb948b13c	-0.00019139511
6	0x3ab161cc	0.0013533174
7	0xb9e32fb2	-0.0004333235
8	0x3b3693fb	0.00278592
9	0xbad9affc	-0.0016608234

exp_avg_sq f4 [10]
0	0x371b728e	9.265392e-06
1	0x37713e50	1.4379228e-05
2	0x37a1744e	1.9246854e-05
3	0x37e91987	2.7787652e-05
4	0x37afa9b6	2.0940653e-05
5	0x37b2f0e7	2.1331432e-05
6	0x372d1eca	1.0318772e-05
7	0x37a10083	1.9192934e-05
8	0x380b9a36	3.3283803e-05
9	0x38079f63	3.233495e-05
