swastik_web/Learning&Experiments/PytorchTutorials/pytorch lightning/dashboard/mnist_clsfy/version_0.1/checkpoints/epoch=0-step=375-v1.ckpt (torch, 484079 bytes, 12 tensors)

fc1.weight f4 [50, 784]
0	0xb98c3000	-0.00026738644
1	0x3c9cf2b6	0.019158702
2	0xbcf0ccac	-0.02939447
3	0xbcd75093	-0.026283538
4	0xbc615ece	-0.013755513
5	0x3c1ce910	0.009577051
6	0xba397f40	-0.00070761517
7	0x3ce7fa12	0.028317485
8	0xbb4fb630	-0.0031694286
9	0x3c1ad610	0.009450451
10	0xbc30d67c	-0.010793325
11	0xbbe609a4	-0.007020192
12	0xbd751ea8	-0.05984369
13	0xbd4a50e4	-0.04939355
14	0xbc71359c	-0.014722254
15	0x3aad6800	0.0013229847
16	0x3c6753dc	0.014119115
17	0x3caf8cae	0.021429386
18	0xbcc658a0	-0.024212182
19	0xbc7eced8	-0.015552245
20	0x3c5488b0	0.012972042
21	0x3cf2f2a2	0.029656712
22	0xbbf0d854	-0.007350007
23	0x3cdaef46	0.026725423
24	0xbbbca170	-0.0057565495
25	0x3b77aa60	0.003779076
26	0x3d04754f	0.032338437
27	0xbd07b476	-0.033131085
28	0xbcb82f50	-0.022483498
29	0xbc14234a	-0.009041617
30	0xbc6416b2	-0.013921427
31	0x3cfcc82e	0.030857172
32	0xbd4350a8	-0.04768434
33	0xbd427504	-0.047474876
34	0xbd8a8d29	-0.067652054
35	0xbda77847	-0.08177238
36	0xbde5eead	-0.112271644
37	0xbdc87ab2	-0.09789027
38	0xbdb9beda	-0.09069605
39	0xbe05d6c5	-0.1307021
40	0xbdf4563d	-0.11930511
41	0xbe025bef	-0.12730382
42	0xbd51b091	-0.051193777
43	0xbdc7bdd7	-0.09753006
44	0xbd8344a1	-0.06409574
45	0xbdd56ef8	-0.10421556
46	0xbdb836b9	-0.089948125
47	0xbdc28a35	-0.09499017
48	0xbdda7ead	-0.10668693
49	0xbd2f520e	-0.042802863
50	0xbbeb6b18	-0.0071843974
51	0x3c6595dc	0.01401278
52	0x3c683b98	0.0141743645
53	0x3b9e18e8	0.0048247464
54	0x3cc42a48	0.023945943
55	0xbcac444a	-0.021028657
56	0x3bda1368	0.0066551454
57	0xbce2d50e	-0.027689483
58	0xbccac6f8	-0.024753079
59	0xbd3900b8	-0.0451667
60	0xbc828198	-0.015930936
61	0xbd083f7a	-0.03326366
62	0xbdec0282	-0.11523916
63	0xbdbf593b	-0.09343191
64	0xbe023364	-0.12714916
65	0xbe136c13	-0.14396696
66	0xbe298440	-0.16554356
67	0xbe4df430	-0.20112681
68	0xbe3f23ed	-0.18666048
69	0xbe111d2a	-0.14171281
70	0xbe3e872b	-0.1860625
71	0xbe2293b2	-0.15876654
72	0xbdc0107d	-0.09378145
73	0xbd98891d	-0.07448027
74	0xbd8361ff	-0.06415176
75	0xbdb38bbc	-0.087668866
76	0xbdde2f3e	-0.108488545
77	0xbe0f38b8	-0.1398648
78	0xbd9b7ee7	-0.07592564
79	0xbe03872b	-0.12844531
80	0xbde61720	-0.112348795
81	0xbce214f3	-0.02759788
82	0x3cde75a6	0.027155709
83	0xbd11ec92	-0.035626
84	0x3bdb0b78	0.006684717
85	0xbbc52578	-0.0060164295
86	0x3b6fab90	0.0036570765
87	0xbda520a2	-0.08062865
88	0xbd78b689	-0.060720954
89	0xbd77bb3b	-0.06048129
90	0xbd59daf5	-0.05318733
91	0xbd7443ef	-0.0596351
92	0xbd952fbd	-0.07284496
93	0xbdb569f3	-0.08858099
94	0xbe2d18b1	-0.1690395
95	0xbe21bc95	-0.15794595
96	0xbe172ceb	-0.14763229
97	0xbe40d7fc	-0.18832392
98	0xbe51c23d	-0.20484252
99	0xbe2dc583	-0.16969876
100	0xbdaacd81	-0.08339978
101	0xbdb18955	-0.08668772
102	0xbe1b615b	-0.15173857
103	0xbe119c99	-0.14219894
104	0xbe1db58c	-0.15401286
105	0xbdd7476e	-0.10511671
106	0xbdf1fb5e	-0.118155226
107	0xbe10e4bc	-0.14149755
108	0xbe050746	-0.12991056
109	0xbd3e4d87	-0.046460655
110	0xbcb37cb9	-0.021910058
111	0x3cad9af8	0.021192059
112	0xbcb20a8a	-0.021733541
113	0x3ccb94c2	0.024851207
114	0x3c94a5ca	0.01814546
115	0xbd3c4119	-0.04596052
116	0xbc645327	-0.013935841
117	0x3b123dbe	0.0022314633
118	0xbbafd705	-0.0053662085
119	0xbce9bdfa	-0.02853297
120	0xbd3ae16e	-0.045625143
121	0xbd80057f	-0.06251048
122	0xbde40340	-0.111334324
123	0xbd896457	-0.067085914
124	0xbe0897e8	-0.13339198
125	0xbdf51250	-0.119663835
126	0xbe066981	-0.13126184
127	0xbe213c93	-0.15745763
128	0xbe187480	-0.14888191
129	0xbe0d06fc	-0.13772196
130	0xbdd10461	-0.10205913
131	0xbd833383	-0.064063095
132	0xbd890ceb	-0.06691917
133	0xbd8ece76	-0.06972973
134	0xbcb28bd0	-0.021795183
135	0xbcf513f4	-0.029916741
136	0xbd081867	-0.033226397
137	0xbd587db1	-0.052854244
138	0xbd136438	-0.035984248
139	0xbb1226ab	-0.002230088
140	0x3d0a918f	0.03383022
141	0x3cb9cc9a	0.02268057
142	0xbcaecb2b	-0.021337112
143	0xbb7a20ee	-0.00381666
144	0xbc24cbb4	-0.010058332
145	0x3cf32be2	0.02968401
146	0x3d2f6b89	0.042827163
147	0x39866f62	0.00025641458
148	0xbc43b6e6	-0.011945462
149	0xbd08e7a3	-0.03342403
150	0xbd86079f	-0.06544422
151	0xbd4f3bfe	-0.050594322
152	0xbd42bbee	-0.047542505
153	0xbbb4a610	-0.0055129603
154	0x39532caa	0.00020139167
155	0xbd8634e0	-0.06553054
156	0xbccfc1d3	-0.025360977
157	0xbdabf938	-0.08397144
158	0xbd7c9fff	-0.06167602
159	0xbd94bf74	-0.07263079
160	0xbd9aaab5	-0.07552091
161	0xbd99491c	-0.07484648
162	0xbda38594	-0.079844624
163	0xbd76cdf4	-0.060255006
164	0xbd929246	-0.07156806
165	0xbdd6523e	-0.10464905
166	0xbddc439a	-0.107550815
167	0xbcf91de1	-0.030409755
168	0xbd03aa6b	-0.032144945
169	0xbc99a2e0	-0.018754423
170	0x3d88b674	0.06675425
171	0x3d148769	0.03626195
172	0x3da7b181	0.08188153
173	0x3d918edd	0.07107327
174	0xbc111606	-0.008855348
175	0x3cf3912d	0.029732311
176	0x3b12bf17	0.002239173
177	0xbc7e2516	-0.015511772
178	0x3c7d2f93	0.015453237
179	0xbd624266	-0.055239104
180	0xbc91d24f	-0.017800478
181	0xbc079e36	-0.0082774665
182	0x3d1bc5fb	0.038030606
183	0x3cd3eb42	0.025869016
184	0x3d2f401f	0.04278576
185	0x3d1166bf	0.035498377
186	0x3b84526a	0.004038145
187	0xbc9029e3	-0.017598098
188	0xbd831bea	-0.064018086
189	0xbc0e9d1d	-0.008704451
190	0x3b742f29	0.0037259555
191	0xbcc5e6f6	-0.024157982
192	0xbe0c6d38	-0.13713539
193	0xbddeef85	-0.108855285
194	0xbdb27f40	-0.08715677
195	0xbd9be773	-0.07612505
196	0xbcc383d7	-0.023866577
197	0xbb216cfc	-0.002463161
198	0x3d7e0459	0.062015865
199	0x3db25707	0.087080054
200	0x3d1f0ab6	0.038828574
201	0x3d10504f	0.03523284
202	0xbc58c645	-0.013230865
203	0xbd4d578d	-0.050132323
204	0xbd471e1f	-0.04861271
205	0x3cb0d40f	0.021585492
206	0xbc858708	-0.01629974
207	0x3d0c0fec	0.03419487
208	0x3cdef5a6	0.027216744
209	0x3d58f88a	0.0529714
210	0x3d391ef8	0.04519555
211	0x3d4716e2	0.048605807
212	0x3d939330	0.07205808
213	0x3d829d47	0.063776545
214	0x3d419bd5	0.047267754
215	0x3cbb4acf	0.02286282
216	0xbcb78886	-0.022403967
217	0xbc7ebbc3	-0.015547696
218	0x3d0d955f	0.03456628
219	0xbda3912a	-0.07986672
220	0xbdc75f16	-0.09734933
221	0xbd3d30e4	-0.046189204
222	0xbcd6524d	-0.026162291
223	0xbd798b8b	-0.060924094
224	0xbcf840ed	-0.030304397
225	0x3cf5181d	0.029918725
226	0x3cee1a7f	0.029065369
227	0x3c12440d	0.008927357
228	0xbbf43835	-0.0074529895
229	0xbca526a3	-0.020160025
230	0xbc005b6b	-0.007834296
231	0x3c45a1d1	0.012062506
232	0xbbba7c1b	-0.005691064
233	0x3d0707f7	0.03296658
234	0x3d1989c3	0.037484895
235	0x3bea0156	0.0071412725
236	0x3d4733b3	0.04863329
237	0x3cf6d32d	0.030129993
238	0x3d070b72	0.0329699
239	0x3d62fc31	0.05541629
240	0x3d6c5e0c	0.057706878
241	0x3da4388c	0.08018598
242	0x3d353932	0.044244
243	0x3d32d483	0.0436597
244	0x3d35e908	0.04441169
245	0xbc4d9aaa	-0.012549082
246	0x3cc4a853	0.024006044
247	0xbd85984f	-0.06523191
248	0xbdae0797	-0.084975414
249	0xbdcd9f94	-0.10040203
250	0xbdc1c6ae	-0.09461723
251	0xbd0b0542	-0.03394056
252	0x3d87d5c8	0.066325724
253	0x3cc096f2	0.023509476
254	0xbb35f8f2	-0.0027766791
255	0xbae3f2ea	-0.001739112

fc1.bias f4 [50]
0	0x3d80d24a	0.062901095
1	0x3df150ec	0.11783013
2	0xbd836fd3	-0.06417813
3	0x3decdd3a	0.11565633
4	0x3cbdc6bf	0.023166059
5	0x3dac75ab	0.08420881
6	0x3dd56b2c	0.10420832
7	0x3dbac88c	0.091202825
8	0x3dd3a736	0.10334627
9	0x3d714757	0.058905926
10	0xbc89746a	-0.016779143
11	0x3d92adfa	0.0716209
12	0x3d1c8a4a	0.03821782
13	0x3c5ef482	0.0136081
14	0xbd84be13	-0.06481566
15	0x3d3c58ca	0.045983113
16	0xbe45e146	-0.19324216
17	0x3c170fc1	0.009220065
18	0x3e0b57f6	0.13607773
19	0x3d53aea7	0.051680233
20	0x3d82defc	0.06390187
21	0xbdcaef7d	-0.0990896
22	0xbcbe659e	-0.023241814
23	0x3c086539	0.008324915
24	0x3d55540e	0.052082114
25	0x3da4eb8c	0.080527395
26	0x3dd15da4	0.10222939
27	0x3e44499e	0.19168708
28	0x3db834d1	0.08994449
29	0xbd9b3a95	-0.07579533
30	0xbdc2f5fc	-0.09519574
31	0x3d8602fd	0.06543539
32	0x3e3036a5	0.17208345
33	0x3e172d1d	0.14763303
34	0xbb513099	-0.0031919836
35	0x3e04f58c	0.12984294
36	0x3d5c6a83	0.053812515
37	0x3db2c9ee	0.08729921
38	0xbd085a75	-0.03328939
39	0x3e033558	0.12813318
40	0x3d30dd25	0.04317965
41	0x3de22058	0.11041325
42	0x3da3230c	0.07965669
43	0x3c591219	0.013248944
44	0xbce40974	-0.027836539
45	0x3d15f022	0.03660596
46	0xbc821b78	-0.015882239
47	0xbd0f0476	-0.034916364
48	0x3dd03f5c	0.10168335
49	0xbcb457ad	-0.022014463

fc2.weight f4 [10, 50]
0	0xbd1475ef	-0.036245283
1	0xbeb0c692	-0.34526497
2	0xbc82cbcf	-0.015966324
3	0xbbbdf3fa	-0.0057969065
4	0xbca2469c	-0.01980906
5	0xbe9a7896	-0.30170125
6	0x3e5b40a6	0.2141138
7	0xbe6b4bdf	-0.22978161
8	0x3e06b8bd	0.1315641
9	0x3e406a03	0.1879044
10	0xbd859648	-0.065228045
11	0xbda555c4	-0.08072999
12	0xbe07fda9	-0.13280357
13	0xbd8678e3	-0.06566026
14	0x3e8f9f91	0.28051427
15	0xbda9002b	-0.08251985
16	0x3e1c3b8c	0.1525709
17	0x3d3e8de7	0.046522047
18	0x3e2c016e	0.1679742
19	0x3db87c5a	0.09008093
20	0xbe3d0cd6	-0.18461928
21	0x3e5dc78e	0.21658155
22	0xbdc450b5	-0.09585706
23	0xbe872bdc	-0.2640065
24	0xbe05b4d6	-0.13057265
25	0xbdf24a71	-0.11830605
26	0x3db63c9b	0.08898278
27	0x3e744047	0.23852645
28	0xbe8cbdd4	-0.27488577
29	0xbe89f9e3	-0.2694846
30	0xbd8e8b8f	-0.069602124
31	0x3e5a266a	0.21303716
32	0xbcc5e9d7	-0.024159355
33	0xbd15919d	-0.03651582
34	0x3b1e4eb3	0.0024155795
35	0xbe5195ae	-0.20467255
36	0x3e0919e0	0.13388777
37	0xbe74fcdb	-0.23924582
38	0x3e0f3891	0.13986422
39	0x3e4861dc	0.1956858
40	0x3e48e23a	0.19617549
41	0xbe09adf8	-0.1344527
42	0xbe400a23	-0.18753867
43	0x3e435f38	0.19079292
44	0x3e520c30	0.20512462
45	0xbe578f66	-0.21050796
46	0x3d619e60	0.05508268
47	0xbe2545b4	-0.16139871
48	0x3d455dac	0.048185036
49	0xbe184dc3	-0.14873414
50	0xbe9c73f3	-0.30557212
51	0x3e0e0616	0.13869509
52	0xbe19c580	-0.15016747
53	0x3d895739	0.067060895
54	0xbe99104c	-0.29895246
55	0x3e5a5a71	0.21323563
56	0xbe9aff9c	-0.3027314
57	0x3e631e9a	0.22179642
58	0x3e4e861b	0.20168345
59	0xbe114397	-0.1418594
60	0x3e145235	0.14484484
61	0xbe4174cf	-0.18892215
62	0xbd414c44	-0.047191873
63	0x3e4448ed	0.19168444
64	0xbe1783ac	-0.14796323
65	0x3e2778ac	0.16354626
66	0xbe510723	-0.20412879
67	0x3daf6082	0.08563329
68	0x3db21c1a	0.08696766
69	0x3e567d8e	0.20946333
70	0x3e3b9ed3	0.18322305
71	0xbda57ece	-0.08080827
72	0x3d8d01dd	0.06885121
73	0x3b81c774	0.0039605442
74	0x3e42dae2	0.1902881
75	0xbe7af308	-0.24506772
76	0xbe3299ff	-0.17441557
77	0x3e339f97	0.17541347
78	0xbe9f8108	-0.3115313
79	0x3ca27707	0.019832147
80	0xbe8a9bc6	-0.2707197
81	0xbe421cc8	-0.18956292
82	0x3e4ca6fb	0.19985573
83	0xbe6a0719	-0.2285427
84	0xbe1c780d	-0.1528017
85	0xbe9ba517	-0.3039939
86	0xbe815d48	-0.2526648
87	0xbc7c2d7e	-0.015391706
88	0xbd97b3cc	-0.074073404
89	0x3e2fa54f	0.17152904
90	0xbeb38a73	-0.35066566
91	0x3e578737	0.21047674
92	0x3e550358	0.20802057
93	0xbe2819c4	-0.16416079
94	0xbeaaef61	-0.33385757
95	0x3c6725ca	0.014108131
96	0x3e5cb480	0.2155323
97	0xbe73faaf	-0.23826097
98	0xbe50d7fb	-0.2039489
99	0xbe80a37f	-0.25124738
100	0x3d5c04d0	0.053715527
101	0xbe2660ee	-0.16247913
102	0xbe8007f3	-0.25006065
103	0xbdec0593	-0.11524501
104	0xbca16feb	-0.019706687
105	0xbdc03430	-0.09384954
106	0xbd052481	-0.032505516
107	0x3c914ce6	0.017736863
108	0xbed1cf1d	-0.40978327
109	0xbd262ad5	-0.04056819
110	0x3d43e031	0.047821227
111	0x3e4344d2	0.19069222
112	0xbe90975f	-0.28240487
113	0x3e3edb54	0.18638355
114	0xbdbec0e7	-0.09314137
115	0xbe38cb9d	-0.18046422
116	0x3e1621c2	0.14661315
117	0xbe680f73	-0.22662143
118	0xbe6c42fb	-0.23072426
119	0x3e891f90	0.26781893
120	0xbed0d8c4	-0.4079038
121	0x3e8db2e3	0.27675542
122	0xbdcbb757	-0.09947079
123	0xbd57b5fb	-0.052663784
124	0x3da05756	0.07829158
125	0xbe70d38b	-0.23518197
126	0x3e66fea6	0.22558078
127	0x3e893e3d	0.26805297
128	0xbe171982	-0.14755824
129	0x3e12b5ed	0.14327212
130	0x3e0fb990	0.1403563
131	0xbe4a048e	-0.197283
132	0x3e0125f2	0.12612131
133	0x3e3ac6ff	0.18239973
134	0x3d9a2b99	0.07527847
135	0xbdd384b9	-0.10328049
136	0xbd1a84b4	-0.03772421
137	0xbdf63e29	-0.12023575
138	0xbe8346ea	-0.2564004
139	0xbe5235ae	-0.2052829
140	0x3c9b54ab	0.018961271
141	0xbd894087	-0.06701761
142	0x3e724290	0.23658204
143	0xbe31db68	-0.17368853
144	0xbe0838ac	-0.13302869
145	0x3e271d00	0.16319656
146	0xbd281edf	-0.041045066
147	0x3e7adc7e	0.24498174
148	0xbdb4a23c	-0.08820006
149	0x3e2bd821	0.16781665
150	0xbe495c1d	-0.19664045
151	0x3e75d59f	0.24007271
152	0x3da4a249	0.08038766
153	0xbea18374	-0.31545603
154	0xbe0ab91e	-0.13547179
155	0xbdccff1f	-0.10009598
156	0x3dc8f2bb	0.09811922
157	0x3da07918	0.07835597
158	0xbd9107da	-0.07081576
159	0xbd9a5073	-0.07534876
160	0x3d1c1a40	0.03811097
161	0x3e8c3282	0.27382284
162	0xbea7a93e	-0.3274631
163	0xbd2f8aa1	-0.042856816
164	0xbe2717d3	-0.16317682
165	0x3e130af6	0.1435965
166	0x3e18dcd9	0.14927997
167	0x3dd09a81	0.10185719
168	0xbe769ac3	-0.24082474
169	0xbd6f7fb5	-0.0584714
170	0xbe89cbfb	-0.26913437
171	0xbe2cdb28	-0.16880476
172	0x3d68fff4	0.05688472
173	0xbac28578	-0.0014840802
174	0x3e6f74b5	0.23384364
175	0x3e0f93bb	0.14021198
176	0xbe5a4195	-0.2131408
177	0xbd3ac789	-0.045600448
178	0xbddb9ea7	-0.1072362
179	0xbc56ecf2	-0.013118016
180	0x3e19dbd9	0.15025271
181	0x3e2a6f7b	0.16644089
182	0x3dd50a79	0.10402388
183	0xbe31ab33	-0.17350464
184	0x3e65b66b	0.22432868
185	0xbe30a609	-0.17250837
186	0x3e7c0891	0.24612643
187	0xbe9ea33f	-0.30983922
188	0xbe5405cc	-0.20705336
189	0xbdbb4ce8	-0.09145528
190	0xbd6791fc	-0.056535706
191	0x3e311061	0.17291404
192	0x3d9d78fd	0.07689092
193	0x3dd338c5	0.10313562
194	0xbe3e8534	-0.186055
195	0x3e3af686	0.18258104
196	0xbd6e6059	-0.058197353
197	0xbdf5d33c	-0.120031804
198	0x3c19d024	0.0093880035
199	0xbe422bf4	-0.1896208
200	0x3df423cb	0.119208895
201	0x3da57682	0.08079244
202	0x3d3dc26c	0.046327993
203	0x3df99f60	0.121886015
204	0x3dc3eef0	0.09567058
205	0x3e69a6cd	0.22817536
206	0x3d5d6dc7	0.05405977
207	0xbd396cf9	-0.04526994
208	0xbe676a16	-0.22599062
209	0x3e81d302	0.253563
210	0x3db1a4b8	0.08673996
211	0xbb8992d4	-0.0041984115
212	0x3e954d4e	0.2916054
213	0xbc2f9637	-0.010716966
214	0xbeb95a80	-0.3620186
215	0xbe978d18	-0.29599833
216	0xbdb61135	-0.08890001
217	0x3e1cabb6	0.15299878
218	0x3ddbe3fa	0.107368425
219	0xbe6163f9	-0.22010793
220	0xbd8d309a	-0.06894036
221	0xbe84ec88	-0.2596171
222	0x3c0ab1c0	0.00846523
223	0x3d7808fa	0.060555436
224	0xbe9620f2	-0.2932201
225	0x3da28b72	0.07936753
226	0x3e1a9c77	0.15098749
227	0xbe99c6fb	-0.30034623
228	0x3e8457aa	0.25848132
229	0xbe5dcf94	-0.21661216
230	0x3e4a7311	0.19770457
231	0xbeac8a78	-0.33699393
232	0x3e99b300	0.3001938
233	0xbe976c08	-0.2957461
234	0xbe900289	-0.28126934
235	0x3c5b4d07	0.013385064
236	0xbe48384d	-0.19552727
237	0x3e9a2903	0.30109414
238	0xbdc23491	-0.094826825
239	0xbecde2be	-0.40212053
240	0x3df7ee1d	0.121059634
241	0x3e3d3b2b	0.18479602
242	0xbe866e0c	-0.26255834
243	0xbe965ce6	-0.2936775
244	0xbafa6bb9	-0.001910559
245	0xbcf385aa	-0.029726822
246	0xbe723d2d	-0.23656149
247	0xbe233bfd	-0.15940852
248	0xbc872d44	-0.016501077
249	0xbe33c4ca	-0.17555538
250	0xbe58752f	-0.21138452
251	0x3e239bda	0.15977421
252	0x3d72090b	0.059090655
253	0x3de773a3	0.11301353
254	0xbe58b893	-0.2116416
255	0xbe40cb30	-0.1882751

fc2.bias f4 [10]
0	0xbdd353cc	-0.10318717
1	0x3dc10a1a	0.09425755
2	0x3e0d153c	0.13777632
3	0x3d208cca	0.039196767
4	0x3d88c849	0.06678826
5	0x3e282bab	0.16422908
6	0x3d095871	0.03353161
7	0xbc1e74c1	-0.009671391
8	0xbde8bd70	-0.11364257
9	0x3d73d1e4	0.05952634

exp_avg f4 [50, 784]
0	0x00000000	0.0
1	0x00000000	0.0
2	0x00000000	0.0
3	0x00000000	0.0
4	0x00000000	0.0
5	0x00000000	0.0
6	0x00000000	0.0
7	0x00000000	0.0
8	0x00000000	0.0
9	0x00000000	0.0
10	0x00000000	0.0
11	0x00000000	0.0
12	0x289eb8ee	1.7621724e-14
13	0x292dc616	3.858553e-14
14	0x00000000	0.0
15	0x00000000	0.0
16	0x00000000	0.0
17	0x00000000	0.0
18	0x00000000	0.0
19	0x00000000	0.0
20	0x00000000	0.0
21	0x00000000	0.0
22	0x00000000	0.0
23	0x00000000	0.0
24	0x00000000	0.0
25	0x00000000	0.0
26	0x00000000	0.0
27	0x00000000	0.0
28	0x00000000	0.0
29	0x00000000	0.0
30	0x00000000	0.0
31	0x00000000	0.0
32	0x3105bd5e	1.946169e-09
33	0x31c46e66	5.7169016e-09
34	0x2b30d6b8	6.2825743e-13
35	0x33799f10	5.8119497e-08
36	0x34a5dca3	3.089418e-07
37	0x3454c8c9	1.9817084e-07
38	0x35286c8f	6.274285e-07
39	0x3661df37	3.365754e-06
40	0x3676f046	3.6796714e-06
41	0x352305e3	6.07308e-07
42	0x3695c7eb	4.4638196e-06
43	0x34b60201	3.39016e-07
44	0xb704a469	-7.906093e-06
45	0xb6b4e4c4	-5.39105e-06
46	0x348fac6c	2.676128e-07
47	0x350cf563	5.251115e-07
48	0x35086f20	5.0825656e-07
49	0x3416da7b	1.4049321e-07
50	0x3398aaf7	7.10915e-08
51	0x20d8e10c	3.6740747e-19
52	0x00000000	0.0
53	0x00000000	0.0
54	0x00000000	0.0
55	0x00000000	0.0
56	0x00000000	0.0
57	0x00000000	0.0
58	0x00000000	0.0
59	0x2c8d8392	4.0220683e-12
60	0x3112bb27	2.135218e-09
61	0x31a1ea07	4.7123225e-09
62	0x32944c85	1.7264265e-08
63	0x3411b392	1.3569505e-07
64	0x34b4a2d0	3.3646074e-07
65	0x33618752	5.2509968e-08
66	0x36ea0481	6.9742678e-06
67	0x3790a03a	1.7240749e-05
68	0x38465a1a	4.7290792e-05
69	0x38580466	5.150251e-05
70	0x383090f9	4.2096686e-05
71	0x3733f5a8	1.0726428e-05
72	0xb739c102	-1.1071797e-05
73	0xb895d6fa	-7.144916e-05
74	0xb8875d85	-6.454721e-05
75	0x35b0065c	1.3114873e-06
76	0x3701f1a5	7.745261e-06
77	0x3615bce3	2.2312677e-06
78	0x34ee7bb9	4.4420975e-07
79	0x34b2c44e	3.3297914e-07
80	0x34476022	1.8568292e-07
81	0x2ba387d6	1.1619549e-12
82	0x00000000	0.0
83	0x00000000	0.0
84	0x00000000	0.0
85	0x00000000	0.0
86	0x00000000	0.0
87	0x2e08a269	3.106707e-11
88	0x302923a7	6.1532507e-10
89	0xb32f7fc2	-4.0861558e-08
90	0xb13db1a3	-2.7604095e-09
91	0xb70d8eda	-8.437515e-06
92	0xb6015075	-1.926933e-06
93	0xb7ffe3c9	-3.050444e-05
94	0xb8e2a54c	-0.00010807309
95	0xb851bf4c	-5.0007642e-05
96	0xb5a20254	-1.2070618e-06
97	0x3898baca	7.282717e-05
98	0x3891efc4	6.9587986e-05
99	0x377b589c	1.4981397e-05
100	0xb8204b84	-3.8217302e-05
101	0xb7c73e86	-2.3751763e-05
102	0xb8314610	-4.226534e-05
103	0xb877fdf3	-5.9125898e-05
104	0xb8d22243	-0.00010019962
105	0xb88a64d5	-6.599134e-05
106	0xb6ae230e	-5.189685e-06
107	0x36150f33	2.2211577e-06
108	0xb64467c5	-2.9266678e-06
109	0x2b9ee95b	1.1291344e-12
110	0x1da51815	4.3700037e-21
111	0x00000000	0.0
112	0x00000000	0.0
113	0x283768a2	1.0181229e-14
114	0x18286d05	2.1768532e-24
115	0xaff1a5ad	-4.3955364e-10
116	0x378669fd	1.60234e-05
117	0x362dc258	2.5892132e-06
118	0xb7ca1038	-2.4087829e-05
119	0xb86b46a1	-5.6094144e-05
120	0x388d99b3	6.752033e-05
121	0x36c5a758	5.890539e-06
122	0xb91617c0	-0.00014313962
123	0xb963a5b9	-0.00021710143
124	0x37ea476f	2.7928238e-05
125	0x3956d68e	0.00020488558
126	0x391cc8d6	0.00014952137
127	0xb8ee2333	-0.00011355281
128	0xb89780a3	-7.2242015e-05
129	0xb8ada65b	-8.280269e-05
130	0xb93e7ab3	-0.00018165521
131	0xb981c6d2	-0.0002475293
132	0xb959a0da	-0.00020754655
133	0xb8f06be3	-0.00011464187
134	0xb8024a4e	-3.1063617e-05
135	0xb83bdabc	-4.4787987e-05
136	0xb89e942b	-7.5616255e-05
137	0xb7a81ca4	-2.0040497e-05
138	0x357bf415	9.385997e-07
139	0x1cfbac0c	1.665426e-21
140	0x00000000	0.0
141	0x00000000	0.0
142	0xb353798e	-4.923782e-08
143	0xb4ba44d7	-3.4695287e-07
144	0x388ce899	6.719045e-05
145	0x37aef026	2.0854244e-05
146	0xb795157f	-1.7772194e-05
147	0x381c5a2a	3.727727e-05
148	0x3851c577	5.0013386e-05
149	0xb94b679c	-0.00019398186
150	0xb92e5f21	-0.00016629371
151	0xb9743d4b	-0.00023292487
152	0xb7fbd3bc	-3.0020128e-05
153	0x38e883bc	0.000110871595
154	0x39b479d5	0.00034423047
155	0x39d7480c	0.00041061675
156	0x3994f702	0.00028412795
157	0x38993be4	7.306764e-05
158	0xb948172f	-0.00019082123
159	0xb99012ac	-0.00027479732
160	0xb98c60b1	-0.00026774922
161	0xb91c7b0b	-0.00014923156
162	0xb8ebd41e	-0.00011245183
163	0xb8b5f6ba	-8.676709e-05
164	0xb8907af7	-6.889359e-05
165	0xb6a14162	-4.8057855e-06
166	0x3475bd3d	2.2886248e-07
167	0xa8accb84	-1.9184097e-14
168	0x00000000	0.0
169	0x1e6b442b	1.2454893e-20
170	0x38639782	5.426212e-05
171	0x388735ba	6.447309e-05
172	0x38e17381	0.0001075035
173	0x38100318	3.4335157e-05
174	0x39186228	0.00014532416
175	0x39a5076a	0.00031476776
176	0x399fbd36	0.00030467816
177	0x38f580a8	0.000117064745
178	0x38864392	6.402204e-05
179	0x388da424	6.7539775e-05
180	0x399b301e	0.00029599754
181	0x39a8069d	0.00032048384
182	0x39ed8ae2	0.00045307638
183	0x3a2fb806	0.0006703142
184	0x39fd7bdc	0.00048348203
185	0x38d65fc8	0.00010222156
186	0xb9260db1	-0.00015836094
187	0xb932288b	-0.00016990506
188	0xb812cf5c	-3.500223e-05
189	0xb80cd5e4	-3.3577802e-05
190	0xb8624db6	-5.3954973e-05
191	0xb81cd5d3	-3.7392438e-05
192	0xb72e2068	-1.0378753e-05
193	0x374aaed8	1.2080847e-05
194	0x373d835d	1.1295863e-05
195	0xb45fd54a	-2.0846088e-07
196	0x9eb6306b	-1.9290025e-20
197	0xb07762d0	-8.99985e-10
198	0x37f35229	2.9006116e-05
199	0x37e02667	2.6720763e-05
200	0x39246b2d	0.00015680185
201	0x39625615	0.00021585108
202	0x39cdeca0	0.00039276946
203	0x39df96c0	0.00042646192
204	0x396a0ead	0.00022321446
205	0x39be640b	0.00036314162
206	0x39c851d1	0.0003820793
207	0x39f3db40	0.00046511926
208	0x39a8b9c2	0.00032181857
209	0x395b3884	0.00020906521
210	0x39b4f534	0.00034514966
211	0x39eb853a	0.00044921954
212	0x3a03b83d	0.0005024707
213	0xb730e930	-1.0544711e-05
214	0xb94a893e	-0.00019315348
215	0xb90b8373	-0.00013305042
216	0xb94a9101	-0.0001931824
217	0xb92ece37	-0.00016670754
218	0xb9087766	-0.0001301445
219	0xb6ed65a8	-7.0749848e-06
220	0x3796dd66	1.798449e-05
221	0x383de1a2	4.527125e-05
222	0x38108322	3.4454402e-05
223	0xb3841d46	-6.152054e-08
224	0x9fb918ad	-7.839137e-20
225	0x351b022c	5.774516e-07
226	0xb6aa7a80	-5.0806557e-06
227	0xb70316c4	-7.813509e-06
228	0x38c69630	9.46935e-05
229	0x397d8ef3	0.00024181213
230	0x39e4f16b	0.0004366742
231	0x39f0c350	0.00045921886
232	0x39a6e752	0.00031834334
233	0x39d4e2b1	0.0004060469
234	0x39fe1d31	0.00048468405
235	0x39a4e2c0	0.0003144946
236	0x39050c19	0.00012688375
237	0x3905f64f	0.00012775626
238	0x376bbff8	1.4051788e-05
239	0xb88e5f35	-6.788821e-05
240	0x399134ee	0.0002769599
241	0xb87ae154	-5.9814498e-05
242	0xb924a7f3	-0.00015702825
243	0xb89a0366	-7.343925e-05
244	0xb93668bc	-0.00017395889
245	0xb8c93c6a	-9.59568e-05
246	0x37358028	1.0818279e-05
247	0xb80237cc	-3.104638e-05
248	0xb7ae333c	-2.0766274e-05
249	0xb872c0da	-5.7876903e-05
250	0xb6819b0c	-3.8625494e-06
251	0x3251498b	1.2182123e-08
252	0xb36017ef	-5.217583e-08
253	0xb2ef726c	-2.7875295e-08
254	0xb70dddc2	-8.455887e-06
255	0x35c4d028	1.4663719e-06

exp_avg_sq f4 [50, 784]
0	0x00000000	0.0
1	0x00000000	0.0
2	0x00000000	0.0
3	0x00000000	0.0
4	0x00000000	0.0
5	0x00000000	0.0
6	0x00000000	0.0
7	0x00000000	0.0
8	0x00000000	0.0
9	0x00000000	0.0
10	0x00000000	0.0
11	0x00000000	0.0
12	0x2c911227	4.123163e-12
13	0x2dade38b	1.9768872e-11
14	0x00000000	0.0
15	0x00000000	0.0
16	0x00000000	0.0
17	0x00000000	0.0
18	0x00000000	0.0
19	0x00000000	0.0
20	0x00000000	0.0
21	0x00000000	0.0
22	0x00000000	0.0
23	0x00000000	0.0
24	0x00000000	0.0
25	0x00000000	0.0
26	0x00000000	0.0
27	0x00000000	0.0
28	0x00000000	0.0
29	0x00000000	0.0
30	0x00000000	0.0
31	0x00000000	0.0
32	0x24fb6637	1.0902706e-16
33	0x293066b7	3.916894e-14
34	0x2f22f9e6	1.4822596e-10
35	0x2feaf0e1	4.2735507e-10
36	0x2fc18c32	3.520611e-10
37	0x2ea2eda4	7.4091205e-11
38	0x302eda98	6.361147e-10
39	0x3035b962	6.611086e-10
40	0x30a6448e	1.2097574e-09
41	0x2fc81e1d	3.6401185e-10
42	0x3109327e	1.9964825e-09
43	0x307a01d3	9.095206e-10
44	0x30cf5ca5	1.5087563e-09
45	0x2faa1d68	3.0943714e-10
46	0x2d3b8890	1.0660042e-11
47	0x2cfefe7e	7.2473685e-12
48	0x2f381397	1.6741662e-10
49	0x2ff6ec82	4.4915188e-10
50	0x30326db4	6.491192e-10
51	0x2c97bacc	4.3124167e-12
52	0x00000000	0.0
53	0x00000000	0.0
54	0x00000000	0.0
55	0x00000000	0.0
56	0x00000000	0.0
57	0x00000000	0.0
58	0x00000000	0.0
59	0x2c18cff8	2.1715945e-12
60	0x2c846320	3.7626707e-12
61	0x2b2cc979	6.1386275e-13
62	0x2f0e3b1c	1.2935825e-10
63	0x30801138	9.31812e-10
64	0x30493533	7.3198975e-10
65	0x307395bf	8.8615687e-10
66	0x31e8bd7b	6.77363e-09
67	0x321ee35a	9.248504e-09
68	0x32275ed0	9.742237e-09
69	0x324f4e01	1.2066722e-08
70	0x3259450d	1.2646763e-08
71	0x326cbc55	1.377983e-08
72	0x3266582b	1.3407809e-08
73	0x32299e6f	9.873118e-09
74	0x31f902be	7.2471655e-09
75	0x3173e9db	3.5494085e-09
76	0x31706abd	3.498527e-09
77	0x3121fe38	2.357309e-09
78	0x311bf721	2.2695945e-09
79	0x3017ec8f	5.526965e-10
80	0x2dff49ca	2.9022913e-11
81	0x297ccf09	5.6134815e-14
82	0x00000000	0.0
83	0x00000000	0.0
84	0x00000000	0.0
85	0x00000000	0.0
86	0x00000000	0.0
87	0x2e09710b	3.1250596e-11
88	0x2d5a9942	1.2425895e-11
89	0x2e03408a	2.9843274e-11
90	0x2f782d06	2.2571464e-10
91	0x3100205a	1.8644841e-09
92	0x324905c0	1.1701047e-08
93	0x3298a375	1.776946e-08
94	0x32e2f522	2.6421336e-08
95	0x332e1cf0	4.053885e-08
96	0x336f4da0	5.5717123e-08
97	0x33b623d0	8.48155e-08
98	0x33ca3fda	9.4179725e-08
99	0x33f3ca61	1.1352382e-07
100	0x33c7a0f4	9.295937e-08
101	0x338fa46f	6.688867e-08
102	0x335fd3e9	5.2113965e-08
103	0x334226bf	4.5204384e-08
104	0x33012d38	3.007628e-08
105	0x329a5efd	1.7971155e-08
106	0x31c3ccf8	5.698549e-09
107	0x311fd06d	2.3256022e-09
108	0x30246a9f	5.981437e-10
109	0x2e1e174e	3.594574e-11
110	0x2c19138b	2.1753456e-12
111	0x00000000	0.0
112	0x00000000	0.0
113	0x23bcf458	2.0486484e-17
114	0x25343a2d	1.5632222e-16
115	0x2d9431de	1.6847797e-11
116	0x2fbee48b	3.4723188e-10
117	0x312622d9	2.4175988e-09
118	0x31c8eb50	5.847518e-09
119	0x32cdd3e8	2.3961505e-08
120	0x3337630a	4.2698083e-08
121	0x339b9102	7.244127e-08
122	0x33d5452d	9.9311684e-08
123	0x341be1e2	1.4517676e-07
124	0x34562f3a	1.9947484e-07
125	0x349ceb41	2.9228434e-07
126	0x34d6e528	4.002734e-07
127	0x34c98695	3.753709e-07
128	0x34a501bf	3.0734915e-07
129	0x3483e2a9	2.4565568e-07
130	0x3440ba4d	1.7949169e-07
131	0x3411fe8f	1.3596785e-07
132	0x33d1140a	9.735966e-08
133	0x337620f8	5.7306323e-08
134	0x33212ee9	3.7528398e-08
135	0x32adcce5	2.0233026e-08
136	0x323150cb	1.0321126e-08
137	0x319cd5ef	4.564519e-09
138	0x2fd0cf35	3.798221e-10
139	0x2d1f4d7a	9.055307e-12
140	0x00000000	0.0
141	0x00000000	0.0
142	0x2bdbad91	1.560906e-12
143	0x2ed6ae74	9.7625824e-11
144	0x31843e5d	3.8487955e-09
145	0x3255eaba	1.2451602e-08
146	0x330595a7	3.1102584e-08
147	0x339f38af	7.414325e-08
148	0x34007e40	1.1966858e-07
149	0x34381f64	1.7147755e-07
150	0x3486c86f	2.510528e-07
151	0x34d09b3a	3.885596e-07
152	0x3516a572	5.612011e-07
153	0x354d95f5	7.658667e-07
154	0x35750bea	9.128695e-07
155	0x3573dfc7	9.0850193e-07
156	0x35541ba7	7.9016394e-07
157	0x352f6b11	6.534838e-07
158	0x350736d7	5.037122e-07
159	0x34c66d64	3.6959966e-07
160	0x3481680c	2.4103826e-07
161	0x340995e2	1.2813646e-07
162	0x33adfa1d	8.1014356e-08
163	0x333c2dec	4.3813927e-08
164	0x32a33c32	1.9003071e-08
165	0x3163fd99	3.3177001e-09
166	0x2f83015a	2.3829722e-10
167	0x2b38358f	6.544426e-13
168	0x00000000	0.0
169	0x1e0abb18	7.344349e-21
170	0x3020725f	5.837019e-10
171	0x314d4283	2.9869234e-09
172	0x328b08b2	1.6185684e-08
173	0x3347300c	4.6376996e-08
174	0x33effe52	1.11755654e-07
175	0x3438362b	1.7156042e-07
176	0x34909706	2.6931974e-07
177	0x34dd3a88	4.1207045e-07
178	0x3523566a	6.084798e-07
179	0x3572d3da	9.046031e-07
180	0x35a46348	1.2247847e-06
181	0x35ba1e59	1.3866912e-06
182	0x35ceba06	1.5402336e-06
183	0x35d8024b	1.6093921e-06
184	0x35c8327e	1.4915856e-06
185	0x35a14a5d	1.2017077e-06
186	0x357ea8e8	9.4868165e-07
187	0x35564fc6	7.98373e-07
188	0x351f23a2	5.928397e-07
189	0x34b1cd1b	3.3118053e-07
190	0x3445cc8a	1.8421466e-07
191	0x33bca928	8.7852015e-08
192	0x33009b2c	2.994345e-08
193	0x3227cbdb	9.767031e-09
194	0x3165651d	3.3381362e-09
195	0x2c471f65	2.8297028e-12
196	0x2275ff54	3.3338861e-18
197	0x2cc6cfcf	5.65057e-12
198	0x30628927	8.2413226e-10
199	0x31f49863	7.118659e-09
200	0x32ef6bee	2.7872343e-08
201	0x33ab8675	7.9872656e-08
202	0x34520c7b	1.9562314e-07
203	0x349c4ea1	2.9114474e-07
204	0x34d493c2	3.9595585e-07
205	0x3529bd09	6.323249e-07
206	0x3583dbcc	9.82423e-07
207	0x35b8c77b	1.3767125e-06
208	0x35d49a8c	1.584021e-06
209	0x35f37ca2	1.8141184e-06
210	0x35f642d9	1.8347883e-06
211	0x3603901c	1.9604404e-06
212	0x3600f3a2	1.92153e-06
213	0x35dcba66	1.6445526e-06
214	0x35b11473	1.3193479e-06
215	0x35970cb7	1.1254077e-06
216	0x3564791f	8.5112873e-07
217	0x350e0929	5.291245e-07
218	0x34a449c9	3.0601066e-07
219	0x3417fdf3	1.4155357e-07
220	0x3369d48f	5.444286e-08
221	0x32cc90fd	2.3814659e-08
222	0x320380af	7.654463e-09
223	0x2c90a32d	4.1108423e-12
224	0x247de945	5.5058217e-17
225	0x2d85f22f	1.52279e-11
226	0x310a911c	2.0164128e-09
227	0x32253923	9.617255e-09
228	0x3320bd2c	3.7424954e-08
229	0x33e35f5d	1.0587858e-07
230	0x34706ee5	2.2392085e-07
231	0x34bacdf4	3.479505e-07
232	0x35175360	5.637321e-07
233	0x35561b27	7.9760724e-07
234	0x359bf6ed	1.1620265e-06
235	0x35c825aa	1.4912123e-06
236	0x35ddcfc4	1.6526251e-06
237	0x35d8919c	1.6135632e-06
238	0x35e626b6	1.7147602e-06
239	0x35efe77b	1.7874257e-06
240	0x35f2584b	1.8056102e-06
241	0x35e36f8c	1.6945282e-06
242	0x35d1379d	1.5587899e-06
243	0x35a818ad	1.2524157e-06
244	0x3584f570	9.906198e-07
245	0x352fa4b1	6.543224e-07
246	0x34db45cd	4.0842716e-07
247	0x3463bd2c	2.1209843e-07
248	0x33ae4604	8.115242e-08
249	0x3310f65c	3.3751675e-08
250	0x31c507ae	5.7343277e-09
251	0x2e861c34	6.0986244e-11
252	0x28112a94	8.05835e-15
253	0x2c98577e	4.3298134e-12
254	0x30da52cf	1.5885123e-09
255	0x31fd2685	7.3676483e-09

exp_avg f4 [50]
0	0x38cc41c0	9.739725e-05
1	0x3a72311a	0.0009238884
2	0xba1009e8	-0.000549464
3	0x39fb3d87	0.00047920292
4	0x3ab2e09e	0.0013647263
5	0x373e4340	1.134054e-05
6	0x3a85491c	0.0010168883
7	0x39c54535	0.0003762633
8	0xbaa91e78	-0.0012902757
9	0x3a4b3bfe	0.0007752775
10	0x3aac8e13	0.00131649
11	0x3ac5c219	0.0015087753
12	0x392f769c	0.00016733486
13	0xba9de6f6	-0.0012046981
14	0xbaa04ec2	-0.0012230503
15	0xba5b0ae0	-0.00083558075
16	0x3a9fea67	0.0012200595
17	0xba203e4a	-0.00061127974
18	0xbaee4bb9	-0.0018180526
19	0x393f21d2	0.00018227778
20	0xba814c89	-0.0009864728
21	0xbaabf03c	-0.001311786
22	0x00000000	0.0
23	0xba15898e	-0.0005704396
24	0xb8960b48	-7.154659e-05
25	0x39855bec	0.00025436224
26	0xba3b0d59	-0.0007135473
27	0xba8ce6ce	-0.0010749938
28	0xb8049d89	-3.161797e-05
29	0xb9c26312	-0.00037076377
30	0x3a11e2a2	0.0005565082
31	0xb912a92c	-0.00013986666
32	0x3a08d9bc	0.0005220433
33	0xbb14c4b8	-0.0022700261
34	0xba60e6da	-0.00085793214
35	0x374e18e8	1.2284356e-05
36	0x39ad66ee	0.0003307382
37	0xb8a45178	-7.835304e-05
38	0xba5e823c	-0.00084880344
39	0xbac50308	-0.0015030811
40	0x393fc629	0.00018289
41	0x3ad484f6	0.0016213942
42	0xba2f4cdd	-0.0006687174
43	0xb8e3fd38	-0.00010871369
44	0xba0872a2	-0.000520507
45	0xba3d11fe	-0.0007212459
46	0xba783e72	-0.00094697543
47	0xba0d5d15	-0.00053925934
48	0x3a2322e0	0.00062231533
49	0xbaa62ad7	-0.0012677562

exp_avg_sq f4 [50]
0	0x368b0fc4	4.144358e-06
1	0x3747167d	1.186656e-05
2	0x346343fb	2.1165754e-07
3	0x373909f6	1.10291785e-05
4	0x36c4a542	5.8604937e-06
5	0x36dfc608	6.6689718e-06
6	0x36b33c06	5.3416034e-06
7	0x36d26248	6.269929e-06
8	0x36c7eed4	5.9584654e-06
9	0x36bf10dd	5.6942067e-06
10	0x3717ce5f	9.048351e-06
11	0x374b833e	1.21303e-05
12	0x377ee7d9	1.5193561e-05
13	0x36ce85bc	6.154847e-06
14	0x37401adc	1.14503455e-05
15	0x36d90c10	6.468508e-06
16	0x371c054e	9.29956e-06
17	0x36c25324	5.7913294e-06
18	0x36f6f2fc	7.3596584e-06
19	0x370ad171	8.274205e-06
20	0x370f39ed	8.536951e-06
21	0x37698eea	1.3921157e-05
22	0x00000000	0.0
23	0x36e8f670	6.942828e-06
24	0x36e6386a	6.8611016e-06
25	0x3706ae0b	8.027545e-06
26	0x36dba623	6.5460495e-06
27	0x3723f8f3	9.77352e-06
28	0x36d30c55	6.2897257e-06
29	0x37121056	8.706082e-06
30	0x3713b428	8.803829e-06
31	0x37130bd0	8.764633e-06
32	0x3786924d	1.6042171e-05
33	0x36f3c8ce	7.265341e-06
34	0x37074d6d	8.064654e-06
35	0x36b7a698	5.473219e-06
36	0x372096eb	9.5718815e-06
37	0x37184c04	9.077605e-06
38	0x371b4d5f	9.256734e-06
39	0x36ef4be5	7.1315903e-06
40	0x36910bfe	4.322733e-06
41	0x377a3adc	1.49148655e-05
42	0x3707bc17	8.09042e-06
43	0x370c3e7b	8.359198e-06
44	0x37495795	1.2000925e-05
45	0x36a130dd	4.8038623e-06
46	0x371d88ce	9.389782e-06
47	0x36ebebc7	7.030994e-06
48	0x371543d2	8.896883e-06
49	0x375a258e	1.3002556e-05

exp_avg f4 [10, 50]
0	0x3ad247e0	0.0016043149
1	0x3a757181	0.00093629217
2	0x388897e7	6.5132794e-05
3	0x3937a9ea	0.00017515538
4	0x3ae42212	0.0017405173
5	0x3b1c08fb	0.0023809064
6	0xba972af0	-0.0011533182
7	0x3940a3f3	0.00018371623
8	0x3a8f5231	0.0010934529
9	0x3a1de2f8	0.00060228957
10	0x3abe9fd2	0.001454348
11	0x3a5caf28	0.00084184343
12	0x3ab7d93d	0.0014026534
13	0x3ad2f9fa	0.0016096227
14	0xbad81c02	-0.0016487839
15	0xb9cb61ba	-0.0003879199
16	0xb9ac30a6	-0.00032842642
17	0x3a770bee	0.000942408
18	0xbad7ce62	-0.0016464705
19	0x3b16f3d7	0.0023033523
20	0x3ab97cd0	0.0014151577
21	0xba04d668	-0.00050673494
22	0x00000000	0.0
23	0x3a859729	0.0010192144
24	0x39ea1e9e	0.0004465477
25	0xba24cda2	-0.0006286745
26	0x3a55ba56	0.00081530714
27	0xba54721c	-0.0008104162
28	0x3a9b32d2	0.0011840707
29	0x3b10f7f0	0.0022120439
30	0xb90fcecc	-0.0001371458
31	0xbb004288	-0.0019570906
32	0xba0f21e0	-0.0005460065
33	0xba00d4de	-0.0004914532
34	0xbad791de	-0.001644667
35	0x3af979c8	0.0019033486
36	0xbab22386	-0.0013590909
37	0x3a9ed888	0.0012118975
38	0xba0dcd74	-0.0005409338
39	0xba959474	-0.001141204
40	0xbb007d38	-0.0019605886
41	0x3a0453a9	0.0005047867
42	0x3b425445	0.002965228
43	0xbb176644	-0.0023101727
44	0xb9d97389	-0.00041475546
45	0x3a370a4e	0.00069824315
46	0xb91f679c	-0.00015202019
47	0x3aba084d	0.0014193148
48	0x39d0e7ac	0.0003984546
49	0x3a396ad6	0.000707311
50	0xb99b74ec	-0.00029651017
51	0xbb4c82c2	-0.0031205867
52	0x39c9b849	0.0003847501
53	0x3a21108b	0.00061441277
54	0x39be099b	0.0003624678
55	0x3a010510	0.0004921714
56	0x3a092ecc	0.00052331085
57	0x39f4ffb8	0.00046729832
58	0x3aee8a4a	0.0018199172
59	0x3a07e0f9	0.0005183365
60	0x3970ccc0	0.00022964459
61	0xba0ee68a	-0.0005451223
62	0xb97cbaab	-0.00024102132
63	0xbb01b57d	-0.0019792013
64	0xba0a6105	-0.0005278739
65	0xba30ba84	-0.000674166
66	0xba2a673f	-0.000650037
67	0x3a20d894	0.0006135788
68	0xbb428d3e	-0.0029686238
69	0xb9672420	-0.00022043334
70	0x3b3a675a	0.002844295
71	0xbab8ab84	-0.0014089202
72	0x00000000	0.0
73	0xbad2e915	-0.0016091192
74	0xba9be190	-0.0011892784
75	0xba0425f2	-0.00050410547
76	0xbab03d32	-0.0013445972
77	0xbb37d0ea	-0.0028048106
78	0xba537e70	-0.0008067852
79	0xbade8a92	-0.0016978553
80	0xba4e77c0	-0.00078761205
81	0xbb0438ba	-0.0020175413
82	0x39ab2cec	0.0003264913
83	0xba5b176b	-0.00083576766
84	0xbb04d60f	-0.002026919
85	0x39b6fe1e	0.00034903077
86	0xba288ada	-0.0006429382
87	0xba9fa784	-0.0012180661
88	0xb9903794	-0.0002750723
89	0x3a7db368	0.00096779177
90	0xba3311ae	-0.00068309426
91	0x3a2f7cdc	0.0006694326
92	0xba547e4c	-0.0008105978
93	0xba0e8ebe	-0.00054381404
94	0xb9c1334a	-0.00036850042
95	0xbaabf29d	-0.0013118569
96	0xb9907814	-0.00027555285
97	0xba5afb68	-0.00083535025
98	0x3a03cca2	0.0005027746
99	0xbabd1fd4	-0.0014429041
100	0xbbbb2cd5	-0.0057121315
101	0x3aa599d3	0.0012634344
102	0x38ed8da5	0.00011327424
103	0xbaaea600	-0.0013324618
104	0xbb826d73	-0.0039803325
105	0xba93ddb2	-0.001128128
106	0xbb6bc4bb	-0.0035975415
107	0xbb4d5b27	-0.0031334849
108	0x3b066337	0.0020505914
109	0xbb17a1ed	-0.0023137287
110	0xbbb667b4	-0.0055665616
111	0xbb90aed8	-0.0044153742
112	0x3ac4e4e4	0.0015021828
113	0xbaadc4f3	-0.0013257548
114	0xbac838e9	-0.001527575
115	0x39c0eae0	0.0003679609
116	0xbbf0419e	-0.007332041
117	0x3b1c26a9	0.0023826754
118	0x3b7d87e0	0.0038685724
119	0xbbfb013a	-0.0076600583
120	0x3b595d06	0.0033167019
121	0xbbd21c70	-0.0064120814
122	0x00000000	0.0
123	0x3a948dd6	0.0011333774
124	0xbb2ac678	-0.0026058238
125	0x3b0f8499	0.0021899103
126	0xbbc1d166	-0.005914855
127	0xbb23b5fa	-0.0024980293
128	0x3b178c46	0.002312438
129	0xbb24986e	-0.002511527
130	0xbb9acf6c	-0.0047244336
131	0x3b04da64	0.0020271773
132	0xbbcb93a6	-0.0062126694
133	0xbbf16485	-0.007366719
134	0xba1d5688	-0.0006001969
135	0xba2188cd	-0.00061620475
136	0xbb27aaf8	-0.0025584083
137	0x3a81779b	0.0009877564
138	0x3aa4991d	0.0012557838
139	0x3a26e7d8	0.0006366945
140	0xbb913086	-0.0044308333
141	0xbb8dd6d7	-0.0043285894
142	0xbbc225d0	-0.0059249178
143	0xba61cdf1	-0.00086137565
144	0xb9d1d41e	-0.00040021626
145	0xbb4d0171	-0.0031281377
146	0xbb778920	-0.0037770942
147	0xbb4d1b9e	-0.0031296979
148	0xbb240e90	-0.0025033094
149	0xb9c5665c	-0.00037651032
150	0x3a894402	0.0010472538
151	0x3b8ff958	0.0043937378
152	0x39a0f8e6	0.00030703022
153	0x3b37130a	0.0027934932
154	0x3bcc5789	0.006236021
155	0x3c045b68	0.008078434
156	0x3be870bb	0.0070935166
157	0x3b689838	0.003549112
158	0x3b6de3cd	0.003629911
159	0x3be90918	0.0071116798
160	0x3c348889	0.011018881
161	0x3b7cf770	0.0038599633
162	0x3b7c72ef	0.0038520654
163	0x3c82c773	0.015964245
164	0x3ab3bfaf	0.0013713742
165	0x3bfc3142	0.0076963017
166	0x3c3fd76c	0.011709075
167	0x3ad952d6	0.0016580473
168	0x3b4687b7	0.0030293295
169	0x3c356366	0.011071062
170	0x3c0de333	0.008660126
171	0x3c029b8d	0.0079716565
172	0x00000000	0.0
173	0x3c3e94c8	0.011632152
174	0x3c49cfa2	0.01231757
175	0x3b60055c	0.0034182882
176	0x3c043bc0	0.008070886
177	0x3bbce5f4	0.0057647172
178	0xbab15d78	-0.0013531884
179	0x3c66543c	0.014058169
180	0x3bf679d7	0.0075218487
181	0x3b32027b	0.0027162123
182	0x3b69d6f0	0.0035681091
183	0x3b3a2dea	0.0028408715
184	0x3b8bfae4	0.004271852
185	0xb9d362b0	-0.00040318584
186	0xb833c420	-4.285958e-05
187	0x3a808f8e	0.0009808408
188	0x3b790a68	0.0038000587
189	0x3aba56a8	0.0014216499
190	0x3bab307b	0.005224285
191	0x3b90f0eb	0.004423251
192	0x3c18a5a0	0.009316832
193	0x3b7c446e	0.0038492936
194	0x3bbafda7	0.0057065072
195	0x3bea4eaf	0.007150493
196	0x3b9c61f0	0.0047724172
197	0x3b0aa7a0	0.0021157041
198	0x3b3431e4	0.0027495557
199	0x3ba35ad0	0.004985191
200	0x3bd8d310	0.0066169575
201	0x399b3a17	0.00029607184
202	0x39a077fe	0.0003060698
203	0x3b8a219c	0.0042154323
204	0x3be954f4	0.007120723
205	0x3c097888	0.008390553
206	0x3ba97cf7	0.0051723677
207	0x3b2b3205	0.0026122343
208	0x3b820b55	0.003968636
209	0x3b7e7b38	0.0038830768
210	0x3baee9f4	0.005337948
211	0x3b7d19f7	0.0038620213
212	0x3b965765	0.004588055
213	0x3b8e3fe2	0.0043411115
214	0x3b96f0ca	0.004606341
215	0x3c03c9d2	0.008043723
216	0x3b9af92c	0.0047294106
217	0x3b8297ca	0.00398538
218	0x3b2c09de	0.0026250998
219	0x3ab22786	0.0013592101
220	0x3b985bee	0.0046496307
221	0x3b95db58	0.004573267
222	0x00000000	0.0
223	0x3ba403d0	0.0050053373
224	0x3a2ffcd7	0.0006713396
225	0x3c427b6f	0.011870249
226	0xbadcc62e	-0.001684373
227	0x3a8f1531	0.001091635
228	0x3ba29870	0.0049620196
229	0x3bac5f0e	0.005260355
230	0x3bc00d79	0.005860981
231	0x3b9179ba	0.0044395598
232	0xbac9dc17	-0.0015400675
233	0x3b8beb9d	0.0042700307
234	0x3b0576d4	0.0020365017
235	0x3c1ff2b6	0.009762457
236	0x3ab0ff63	0.0013503846
237	0x3b5f8867	0.0034108402
238	0x3b0f569d	0.0021871694
239	0x3b535660	0.0032247528
240	0x3beb0982	0.0071727643
241	0x3ba41e1a	0.005008471
242	0x3a4a0e83	0.0007707851
243	0x3c0e222d	0.00867514
244	0x3bf5b0a7	0.0074978652
245	0x3c0dea51	0.008661822
246	0x3b5ccc00	0.003369093
247	0x3b15051d	0.0022738643
248	0x3bbb34ce	0.005713082
249	0x3b950dc5	0.0045487606
250	0xb9aa74c0	-0.00032511912
251	0xbbfb7f9a	-0.0076751234
252	0x38dbfd82	0.00010489953
253	0xbacc2a51	-0.0015576576
254	0xbbb80cbf	-0.005616754
255	0xbbf85efe	-0.0075796833

exp_avg_sq f4 [10, 50]
0	0x38d7590b	0.000102685844
1	0x37b0ac66	2.1061114e-05
2	0x33ddddf6	1.0331489e-07
3	0x380ddeb8	3.3824443e-05
4	0x39163990	0.00014326558
5	0x3885661d	6.360954e-05
6	0x399b4a23	0.0002961914
7	0x37032aed	7.818203e-06
8	0x37a901ce	2.014721e-05
9	0x393e9284	0.00018174393
10	0x39112001	0.000138402
11	0x382d20fd	4.1277137e-05
12	0x383e072b	4.5306206e-05
13	0x3976c385	0.00023533225
14	0x38cd1798	9.7795564e-05
15	0x38de2c6b	0.000105940584
16	0x3997274f	0.00028830252
17	0x383115ca	4.222038e-05
18	0x38f4a266	0.00011665076
19	0x38c22a81	9.258558e-05
20	0x37a289fa	1.9376155e-05
21	0x393d1afb	0.00018034496
22	0x00000000	0.0
23	0x38e13e60	0.00010740454
24	0x38b00c8b	8.39467e-05
25	0x3922306c	0.00015467562
26	0x390dda9f	0.0001352825
27	0x39031854	0.00012502196
28	0x37290a22	1.0075544e-05
29	0x39130906	0.00014022374
30	0x3940e527	0.00018395913
31	0x3915ea25	0.00014296973
32	0x37faf981	2.9918507e-05
33	0x380cc243	3.355952e-05
34	0x389e9e84	7.563553e-05
35	0x37df7cc3	2.6641768e-05
36	0x3875a103	5.8562506e-05
37	0x372b5828	1.021292e-05
38	0x38b6df00	8.719973e-05
39	0x387f76ac	6.090726e-05
40	0x3a02871f	0.0004979241
41	0x38007f9d	3.0636427e-05
42	0x37b11d04	2.1113556e-05
43	0x3966aee0	0.00021999655
44	0x397e482c	0.00024250214
45	0x38bf385b	9.118087e-05
46	0x387f2c59	6.083804e-05
47	0x3793d7aa	1.7624192e-05
48	0x3884de2b	6.3356325e-05
49	0x384acee3	4.835323e-05
50	0x36ec77d8	7.0472997e-06
51	0x3859a401	5.1889572e-05
52	0x345966d7	2.0247113e-07
53	0x3854f722	5.07749e-05
54	0x37c49527	2.3434475e-05
55	0x392411a3	0.00015646829
56	0x37f8eb99	2.9673613e-05
57	0x3920d24b	0.0001533713
58	0x38747660	5.828438e-05
59	0x38057e76	3.1827447e-05
60	0x39384364	0.00017572712
61	0x37dcae73	2.6307278e-05
62	0x37f8d2be	2.9662038e-05
63	0x398ee0f1	0.00027251945
64	0x374cd5b4	1.2209104e-05
65	0x392d5aa7	0.00016532336
66	0x3883e30f	6.28886e-05
67	0x386cf5b3	5.649561e-05
68	0x3727729d	9.980661e-06
69	0x3929989e	0.0001617395
70	0x3925b43e	0.00015802772
71	0x385429ff	5.058385e-05
72	0x00000000	0.0
73	0x3929e138	0.00016200996
74	0x398232fd	0.00024833521
75	0x38bf5a6d	9.124433e-05
76	0x378a526e	1.6489266e-05
77	0x389ae701	7.38632e-05
78	0x36f60bd7	7.3327496e-06
79	0x39657d97	0.00021885928
80	0x38b4515d	8.598224e-05
81	0x37a97edb	2.0205442e-05
82	0x37f81b78	2.9576695e-05
83	0x37c35494	2.3285196e-05
84	0x3840f33f	4.6002908e-05
85	0x37638922	1.3562183e-05
86	0x373f6097	1.1406976e-05
87	0x376c8c33	1.4099339e-05
88	0x375bee7d	1.3108945e-05
89	0x37c8f96d	2.3958006e-05
90	0x384a53a5	4.8238453e-05
91	0x38c23202	9.2599556e-05
92	0x3908a6fc	0.00013032177
93	0x384b745d	4.8507343e-05
94	0x37f3aa3d	2.904713e-05
95	0x39563431	0.00020428073
96	0x38d963bc	0.00010365943
97	0x3765cf97	1.3697797e-05
98	0x3705cfae	7.975772e-06
99	0x380bfb5f	3.337429e-05
100	0x392c5579	0.0001643504
101	0x38cd9faf	9.804905e-05
102	0x333e513a	4.4311697e-08
103	0x3863a759	5.4276872e-05
104	0x3962d9ab	0.00021634127
105	0x396aaf04	0.00022381177
106	0x39bdc1dd	0.0003619333
107	0x3942887a	0.00018552123
108	0x37e0ffd3	2.6822008e-05
109	0x3981ec26	0.00024780742
110	0x39e36e1b	0.0004337885
111	0x3966d5fa	0.00022014222
112	0x38ae0a94	8.298937e-05
113	0x3a330259	0.0006828658
114	0x389c01f8	7.4390264e-05
115	0x399d3d7a	0.00029991177
116	0x3a21fc96	0.0006179301
117	0x388d2b20	6.7314366e-05
118	0x387fbc5a	6.0972154e-05
119	0x39d678da	0.00040907302
120	0x38285e6d	4.0142262e-05
121	0x39c93a1a	0.00038380997
122	0x00000000	0.0
123	0x39b0bf19	0.00033711715
124	0x3a100fcc	0.0005495518
125	0x39a3f94d	0.00031275526
126	0x398d5548	0.00026957155
127	0x399402ee	0.00028230943
128	0x380f1266	3.411099e-05
129	0x3a16578d	0.0005735092
130	0x3a130589	0.000560843
131	0x39057921	0.00012728992
132	0x38ee02ed	0.00011349269
133	0x388e11cd	6.774403e-05
134	0x39807e85	0.00024508327
135	0x38510b8a	4.984023e-05
136	0x38c4b7b2	9.380224e-05
137	0x3810b394	3.449952e-05
138	0x38536b85	5.0406456e-05
139	0x37edb7c4	2.8338174e-05
140	0x3a18d733	0.0005830407
141	0x393b8921	0.00017884794
142	0x39953d97	0.00028465383
143	0x3982c123	0.0002493943
144	0x395b7206	0.00020927945
145	0x3a19e8ac	0.00058711576
146	0x39445909	0.00018725185
147	0x3901a58a	0.00012364067
148	0x388ef602	6.81691e-05
149	0x39371596	0.00017460281
150	0x38ec3e09	0.00011264912
151	0x3933fecd	0.00017165691
152	0x3428c07d	1.5716246e-07
153	0x38425e51	4.6341043e-05
154	0x390b6a22	0.0001329561
155	0x3979fec7	0.00023841402
156	0x39fb2049	0.00047898505
157	0x399ebce6	0.0003027685
158	0x388b3d36	6.639438e-05
159	0x394a257f	0.0001927819
160	0x39b5101c	0.00034535013
161	0x3998e88d	0.00029164963
162	0x3887077f	6.438698e-05
163	0x3a1a1855	0.00058782595
164	0x38e3b6d5	0.000108582586
165	0x3a35a2c3	0.00069288554
166	0x3a1c554a	0.0005963637
167	0x3994c783	0.00028377408
168	0x38daaa1c	0.000104267354
169	0x398754ee	0.00025812484
170	0x38bc1d69	8.970017e-05
171	0x3991e002	0.00027823454
172	0x00000000	0.0
173	0x39f6a494	0.00047043397
174	0x3a3f8999	0.00073065754
175	0x3a7b4c58	0.0009586266
176	0x38a7ed6a	8.007402e-05
177	0x3980644e	0.00024488795
178	0x38912eed	6.9228794e-05
179	0x3a0b24da	0.00053079205
180	0x3a686772	0.0008865512
181	0x39b7188e	0.00034922775
182	0x38876057	6.455246e-05
183	0x3793bedc	1.7612641e-05
184	0x3a223bc7	0.0006188717
185	0x38bdfe73	9.059617e-05
186	0x39892f72	0.00026166026
187	0x37cc50c4	2.4356304e-05
188	0x3869fa5e	5.57847e-05
189	0x38542256	5.0576717e-05
190	0x3a428430	0.000742021
191	0x398b5786	0.00026577356
192	0x39643452	0.00021763265
193	0x3a0f9b6f	0.00054781785
194	0x39a32a02	0.0003112108
195	0x3a8f907d	0.0010953095
196	0x39543160	0.00020236289
197	0x389624ed	7.159435e-05
198	0x38760303	5.8653775e-05
199	0x392c429b	0.0001642801
200	0x39c93cdf	0.0003838306
201	0x38512fd0	4.9874012e-05
202	0x34bbb5d5	3.4963765e-07
203	0x38cabddb	9.667474e-05
204	0x39c5ba67	0.0003771365
205	0x3a0424f0	0.00050409045
206	0x39779571	0.00023611427
207	0x38caeccc	9.6762175e-05
208	0x37ee7146	2.8424558e-05
209	0x399f7adc	0.0003041838
210	0x39a10548	0.00030712248
211	0x38f73847	0.0001178836
212	0x398e9b51	0.0002720007
213	0x39ab5aea	0.00032683398
214	0x37cf3922	2.4702927e-05
215	0x3907e46e	0.000129597
216	0x39855e00	0.00025437772
217	0x39198449	0.00014640497
218	0x38f84822	0.00011838997
219	0x38178630	3.6126177e-05
220	0x39150ae5	0.00014213806
221	0x38b7ccfb	8.7643006e-05
222	0x00000000	0.0
223	0x3994c5bd	0.00028376086
224	0x3844cb23	4.6919227e-05
225	0x3a00806f	0.00049019506
226	0x392ef3b4	0.0001668472
227	0x37cd3400	2.4462119e-05
228	0x391b980d	0.00014838595
229	0x398bd53e	0.00026671024
230	0x39c04ee6	0.00036679878
231	0x380632d0	3.1995412e-05
232	0x38a50e31	7.8704565e-05
233	0x388c54a0	6.691483e-05
234	0x37835875	1.5657608e-05
235	0x3984a01f	0.00025296301
236	0x37205c9d	9.558306e-06
237	0x391d06eb	0.00014975264
238	0x385e4e6e	5.3001968e-05
239	0x3785e2ac	1.5960388e-05
240	0x39da5e56	0.00041650486
241	0x398165e3	0.0002468071
242	0x37805068	1.5296231e-05
243	0x38dab123	0.00010428044
244	0x396a48ea	0.00022343142
245	0x39750f73	0.00023370776
246	0x3808f9da	3.265762e-05
247	0x382159b7	3.8468945e-05
248	0x392aeddd	0.00016301074
249	0x3897877b	7.225476e-05
250	0x38b24e12	8.502243e-05
251	0x391d25f9	0.00014986833
252	0x34ee78ea	4.441893e-07
253	0x389ce988	7.482158e-05
254	0x38d2befa	0.000100491525
255	0x393d0bac	0.00018028793

exp_avg f4 [10]
0	0x3a1fe88c	0.0006100021
1	0xbabfedaa	-0.0014642973
2	0xbad904d2	-0.0016557223
3	0x3b50e9fb	0.0031877744
4	0x3b0cdc7a	0.002149372
5	0xbb6d6760	-0.0036224946
6	0x3ab9a56e	0.0014163682
7	0x3a825ff6	0.0009946811
8	0xba4623b8	-0.0007558423
9	0xba616a32	-0.0008598893

exp_avg_sq f4 [10]
0	0x37819da6	1.545141e-05
1	0x379b1e96	1.8491683e-05
2	0x3827db88	4.0020357e-05
3	0x3862bd38	5.4058823e-05
4	0x38146953	3.538404e-05
5	0x38293449	4.0341434e-05
6	0x37b078d6	2.1037104e-05
7	0x380f9533	3.423281e-05
8	0x386ffe0b	5.7218636e-05
9	0x384d719a	4.898161e-05
