swastik_web/Learning&Experiments/PytorchTutorials/pytorch lightning/dashboard/mnist_clsfy/version_0.1/checkpoints/epoch=0-step=375.ckpt (torch, 484079 bytes, 12 tensors)

fc1.weight f4 [50, 784]
00000000: 0030 8cb9 b6f2 9c3c accc f0bc 9350 d7bc
00000010: ce5e 61bc 10e9 1c3c 407f 39ba 12fa e73c
00000020: 30b6 4fbb 10d6 1a3c 7cd6 30bc a409 e6bb
00000030: d054 3ebd 9678 13bd 9c35 71bc 0068 ad3a
00000040: dc53 673c ae8c af3c a058 c6bc d8ce 7ebc
00000050: b088 543c a2f2 f23c 54d8 f0bb 46ef da3c
00000060: 70a1 bcbb 60aa 773b 4f75 043d 76b4 07bd
00000070: 502f b8bc 4a23 14bc b216 64bc 2ec8 fc3c
00000080: a0f0 16bd cc6c febc fe81 58bd b1fc 80bd
00000090: 0a2f 6cbd e2b5 b7bc ae7a 2cbd 7b08 61bd
000000a0: 315c 91bd d833 a2bd 69a7 38bd a136 b1bd
000000b0: 2c73 69bd 8b09 88bd 562a e7bc 1913 cebc
000000c0: efe3 7abd 81a1 dfbc bdf5 2a3b 362f c03c
000000d0: 983b 683c e818 9e3b 482a c43c 4a44 acbc
000000e0: 6813 da3b 0ed5 e2bc f8c6 cabc c793 f0bc
000000f0: 62d7 663b 83e4 d5bb b877 a1bd e8ae 89bd
00000100: d598 90bd 12d8 b8bd 5fad c6bd c894 d3bd
00000110: 2176 ccbd 71d3 a2bd d34f 0ebe 52ac f1bd
00000120: 6ebe 96bd 42a8 60bd d30e 53bd c984 8bbd
00000130: 53c1 aabd 277e e4bd f626 52bd 051e a6bd
00000140: 0157 9cbd 9680 a63b a675 de3c 92ec 11bd
00000150: 780b db3b 7825 c5bb 90ab 6f3b 50cd 0bbd
00000160: caab f0bc 9ec6 4abd 849a d6bc 17f7 0ebd
00000170: 0055 22bd 0d4a 84bd 6475 07be fa19 fabd
00000180: c1ae d3bd 44b7 06be 9024 20be 1443 00be
00000190: 77ae 45bd 9fc0 84bd 0dbd 01be 6e17 f0bd
000001a0: a82d 0fbe 69f3 aebd 562b b9bd 2729 b4bd
000001b0: 1cf1 a7bd 5d80 1ebd 3ca2 6fbc f89a ad3c
000001c0: 8a0a b2bc 3bbc 043d 9ab2 8c3c beac 27bd
000001d0: 97f3 d7bc 7c15 8abc 6330 84bc 281d eabc
000001e0: 4785 17bd daa7 61bd 9a5a b0bd 6b79 40bd
000001f0: b47d dbbd 04ba c9bd 2a41 b8bd d4b9 cabd
00000200: 8d0d b2bd 227a c5bd 7539 9cbd 00e7 4abd
00000210: 5238 88bd fec4 5cbd 985b 45bc 602e e6bc
00000220: 9fe1 99bc 5504 d5bc 4c9d a0bc f761 833b
00000230: 8f91 0a3d 9acc b93c e454 9639 a522 51bc
00000240: 6c52 28bd b8a1 cdbb 031e d83c 05bb 10bc
00000250: c4fb b6bc 3d75 32bd 2bb4 89bd 11a7 82bd
00000260: 63fb 5abd 255c 60bc 18bc d8bb 1914 88bd
00000270: dba6 9bbc 2139 9abd 5fef 71bd 67b6 85bd
00000280: 6b71 76bd a7d5 5bbd c48a 88bd 3052 45bd
00000290: 5dc6 2fbd f4ba 60bd fb2e 94bd 58f0 72bc
000002a0: 6baa 03bd ca35 97bc 0558 263d 245a 33bb
000002b0: 5ff1 163d dbfb 083d 4f6c fabc c4c3 363c
000002c0: 1312 55bc 6e1a e2bc 9121 1f3c 8039 58bd
000002d0: 5bd2 73bc 393e 9dbb 54a2 1b3d c962 dd3c
000002e0: eed4 2c3d fbb6 0b3d fbd8 b4ba db50 87bc
000002f0: 6677 7cbd d8e4 3cbc 0934 003b 95c4 3cbc
00000300: 8cf0 c2bd cd10 9ebd a2a4 acbd 8b9b 59bd
00000310: f352 e5bc 112a d4bb 8876 363b e6d4 d83c
00000320: 76a7 c03b cc38 e33c 027e aabc 600e 2cbd
00000330: 1d4c 23bd c086 c63c b2c3 0dbc 3127 2e3d
00000340: 278e 253d 9d6b 4b3d 8285 463d 202d 633d
00000350: 79cf a83d 647f 8b3d 2607 513d 8c3c e23c
00000360: 7fb2 c4bc d9f3 b8bc 05ba 893c 4095 abbd
00000370: 9f57 c4bd 0186 3dbd 5c43 18bd e41f e5bc
00000380: f756 1cbd b079 d63b dcd9 103b 49be 36bc
00000390: 132c 96bc 7c8c a3bb 22f6 c43a 70e6 9c3c
000003a0: e220 eb3b 1e56 563d 7a9e 623d f14d 9b3c
000003b0: 0a04 8a3d d96c 153d 6ac5 1d3d 12ba 843d
000003c0: 0395 913d 3da4 bd3d 9a87 433d 3659 363d
000003d0: 93b4 3a3d 3560 9abc 606d 4a3c 5045 acbd
000003e0: 12f8 cdbd 11da d4bd 9e63 babd ef02 c1bc
000003f0: 5191 163d 5b34 093b 50cc 31bc 778d 21bc
-0.00026738644 0.019158702 -0.02939447 -0.026283538 -0.013755513 0.009577051 -0.00070761517 0.028317485
-0.0031694286 0.009450451 -0.010793325 -0.007020192 -0.046467602 -0.03600367 -0.014722254 0.0013229847
0.014119115 0.021429386 -0.024212182 -0.015552245 0.012972042 0.029656712 -0.007350007 0.026725423
-0.0057565495 0.003779076 0.032338437 -0.033131085 -0.022483498 -0.009041617 -0.013921427 0.030857172
-0.03685057 -0.031057738 -0.052858345 -0.06298197 -0.057662047 -0.022425596 -0.042109184 -0.05493973
-0.07097662 -0.07920045 -0.04508153 -0.08652998 -0.056994602 -0.06642445 -0.02821843 -0.02515559
-0.06125253 -0.02729869 0.0026086413 0.023460012 0.0141743645 0.0048247464 0.023945943 -0.021028657
0.0066551454 -0.027689483 -0.024753079 -0.02936734 0.0035223593 -0.006527485 -0.07884163 -0.06722814
-0.070604004 -0.09025587 -0.09701037 -0.10331112 -0.09983469 -0.079504855 -0.13897638 -0.118004456
-0.0736054 -0.054847963 -0.05152781 -0.06812436 -0.08337655 -0.11156874 -0.051306687 -0.081111945
-0.07633782 0.0050812466 0.027155709 -0.035626 0.006684717 -0.0060164295 0.0036570765 -0.034131348
-0.02937879 -0.049505822 -0.026196726 -0.034903612 -0.039631844 -0.064594366 -0.13228375 -0.12211986
-0.10336066 -0.13155848 -0.15638947 -0.12525588 -0.048262086 -0.06482052 -0.12669773 -0.11723219
-0.1398226 -0.085425206 -0.09041469 -0.08796912 -0.08200285 -0.038696636 -0.014626082 0.021192059
-0.021733541 0.032406073 0.017175008 -0.040936224 -0.02636127 -0.016855948 -0.016136354 -0.028578356
-0.036992338 -0.055091716 -0.08611031 -0.046990793 -0.10717335 -0.09849933 -0.08996804 -0.09898725
-0.08693991 -0.096424356 -0.076281466 -0.049536705 -0.06651367 -0.053898804 -0.012045763 -0.028098285
-0.018784342 -0.026003042 -0.019606255 0.004009481 0.03383022 0.02268057 0.00028673478 -0.012764608
-0.04109423 -0.006275382 0.026381498 -0.008833651 -0.022336848 -0.04356884 -0.067238174 -0.06379522
-0.053462397 -0.013693844 -0.0066142194 -0.06644458 -0.019000461 -0.07530428 -0.059066173 -0.06528931
-0.060166758 -0.05367055 -0.066670924 -0.048174083 -0.042913783 -0.054865792 -0.07235523 -0.01482781
-0.032144945 -0.018458266 0.040611286 -0.002736696 0.036851283 0.033443313 -0.030569224 0.011155073
-0.0130047975 -0.027600493 0.009712593 -0.05278921 -0.014881696 -0.0047986773 0.037996605 0.027024643
0.042195253 0.03411005 -0.0013797575 -0.016518047 -0.061637305 -0.01152917 0.0019562265 -0.011521478
-0.09518537 -0.07718048 -0.08429839 -0.053126853 -0.027993655 -0.0064747413 0.0027841646 0.026468705
0.005879338 0.027737044 -0.020812038 -0.042005897 -0.03986751 0.024234176 -0.008652614 0.042517845
0.04041877 0.049663175 0.048467167 0.055462956 0.08242697 0.06811407 0.051032208 0.027616762
-0.024010895 -0.022577213 0.016812334 -0.083780766 -0.09587025 -0.046270374 -0.037173614 -0.027969308
-0.038168874 0.006545268 0.002210251 -0.011153766 -0.018331563 -0.0049911123 0.0015026967 0.01915285
0.007175551 0.05232822 0.055326916 0.018958064 0.06739052 0.03648076 0.038518347 0.064808026
0.071085 0.092598416 0.04773674 0.044518672 0.045582365 -0.018844703 0.012355179 -0.08411658
-0.10057081 -0.10393155 -0.09101032 -0.02356097 0.03675968 0.0020935747 -0.010851935 -0.009860388

fc1.bias f4 [50]
00000000: be8f 183d 578c b93d ba55 47bd 4c7d ab3d
00000010: 535d 0e3d ccba b73d 1da9 a33d 1447 9a3d
00000020: f2f0 b43d 61dd 923d 49e1 143c 4019 853d
00000030: 5941 3f3d f6a1 113d 45e3 2fbd 39a9 883d
00000040: fe95 06be ef88 e93c 26a3 b43d 6850 5c3d
00000050: 0ac1 683d 9d6d 6bbd 9e65 bebc 88c5 cb3c
00000060: 189d 803d 2370 8d3d 17b0 953d 6e98 223e
00000070: 991e 683d 2209 0cbd 802d 85bd ee76 613d
00000080: 7e4b 083e 7321 b53d 4655 6e3b 0144 ab3d
00000090: 3671 023d 3a74 993d 8438 58bc eb2f a83d
000000a0: ee17 3e3d 9ef9 c33d ef29 873d a08a d23c
000000b0: d2f9 6bbc d042 5d3d 1ed5 0d3c 22b6 d9bc
000000c0: 7367 923d cbf1 55bc
0.03724646 0.09059971 -0.04866574 0.08373508 0.03475697 0.089711756 0.0799124 0.07533088
0.08835019 0.07171131 0.009086915 0.06498957 0.04669318 0.03555485 -0.04294135 0.06672902
-0.13143155 0.028507678 0.088201806 0.05378762 0.05682472 -0.057477582 -0.023241814 0.024874464
0.06279963 0.06906154 0.07308977 0.1587846 0.056669805 -0.034188397 -0.06502819 0.05504506
0.13310048 0.088442706 0.0036366745 0.0836258 0.031846248 0.074928716 -0.013197068 0.082122646
0.04640954 0.09569095 0.06599795 0.025700867 -0.0144028235 0.054018795 0.008656768 -0.026576106
0.071486376 -0.013058136

fc2.weight f4 [10, 50]
00000000: 8f6c 23bd 3c65 81be e268 113b 991d b6ba
00000010: c4bb f9bc d3e8 85be 8c52 483e 51b4 72be
00000020: 951e ee3d 3dd8 2f3e 3e1e 8abd cc34 afbd
00000030: d5a8 dcbd 7a2c 61bd 9bf3 7b3e 1f8f 71bd
00000040: af15 073e d312 613d 6917 1e3e 4c89 b43d
00000050: 9182 53be 8c6e 3f3e b550 c4bd c7e2 65be
00000060: 41f3 dcbd c9ef d2bd 87d0 8d3d eb3e 603e
00000070: e755 3bbe ae1f 7abe 2bd6 9cbd 99c7 503e
00000080: d87a 3abd 0df3 30bd e151 4a3b 5675 2dbe
00000090: c5bc e83d 888f 2fbe 7604 073e ec4c 343e
000000a0: 6864 313e f1a0 13be 040c febd 425f 343e
000000b0: b4d8 443e 7e09 35be c17b 4e3d d843 16be
000000c0: a0fd f73c 4427 0cbe afd6 81be 6e0c c53d
000000d0: 4d41 f1bd cdb7 9e3d ec96 7bbe 7a81 4c3e
000000e0: 4d68 80be 832f 5f3e 16e2 483e 2350 ecbd
000000f0: 253f 173e 8a9b 1ebe e980 60bd 68b8 3b3e
00000100: 9ce6 cfbd e7a4 2b3e 9e1e 2dbe 1802 b53d
00000110: a95c f0bc ade2 533e 8e83 243e de4a 7ebd
00000120: dd01 8d3d 41e7 3ebb c036 413e 3df0 59be
00000130: 957a 1abe 9303 303e 5569 86be 6171 7a3c
00000140: c50f 73be 847e 3bbe 9d25 1b3e 51a9 4bbe
00000150: eef4 09be e78c 74be 22d0 65be 416d 14bd
00000160: 73bf 5fbd 0c2a 313e e2df 95be 0d1c 5a3e
00000170: 0a2e 503e 7fff f8bd 0a81 94be b7c9 d13c
00000180: facd 583e e1f2 55be c7fe 36be 091b 6cbe
00000190: 640e 183d 20c2 2bbe e4da 07be 20ce fbbd
000001a0: 259b 33bc ff7f 96bd aa78 26bd 53ec 173c
000001b0: eab9 83be ace4 41bd 2a76 543d 98a3 453e
000001c0: 3fa1 87be c81e 3b3e 6a3d 00be 8530 2fbe
000001d0: d5c9 0e3e c13d 42be e803 3cbe e662 803e
000001e0: 403a 92be 6a13 873e 57b7 cbbd bdeb 3cbd
000001f0: 7127 873d 59c1 58be 8e1e 4c3e 8a7a 783e
00000200: 8e8f 10be a3d0 123e 1a47 103e fbd5 52be
00000210: b098 003e 690f 003e 44e6 1d3d e979 c9bd
00000220: ee81 a9bd ba30 efbd 6ba5 76be 49f5 37be
00000230: cef8 443c e312 46bd e121 5d3e 6667 2cbe
00000240: 08af 0fbe 23b0 2a3e ee9c 63bd a87c 743e
00000250: 26b4 c4bd ac02 283e b232 31be a6fa 5b3e
00000260: f721 ec3d ba79 77be d8cd 06be afad d1bd
00000270: 98ce c13d 758e 843d ad38 67bd 508b 83bd
00000280: 6d54 db3c 023a 823e 8926 96be 47c2 42bd
00000290: 1059 1bbe 3a42 023e e271 0d3e 0c4e c53d
000002a0: 1ffc 44be 64a9 71bd 4c17 50be 5fba 22be
000002b0: f4ff 683d 1f97 10bc 1198 623e 3863 033e
000002c0: 7ca3 3cbe 1bb1 e2bc 38a3 e6bd 5cc1 e8bc
000002d0: b71a 123e 20f0 253e e930 b83d f8e9 38be
000002e0: 4f03 603e 9499 39be 14b8 6d3e 0344 87be
000002f0: 3d68 48be e380 c2bd 0436 3fbd 7381 233e
00000300: 16be 933d 92b6 be3d 551a 34be 4db6 2d3e
00000310: e68e 52bd a5b6 06be ffd7 30bc d194 3abe
00000320: d6a3 e23d ca7b 9a3d 681a fa3c d632 dd3d
00000330: 5127 be3d 2dcb 5f3e f287 743d c179 87bd
00000340: 7e8c 50be fc29 773e 6b3f a43d b1c8 bf3b
00000350: 0156 8d3e 87f8 c1bb 7a34 9abe 420d 90be
00000360: 4d5f a3bd cd4e 083e bdc6 e53d 3411 4cbe
00000370: 8464 efbd ec17 6abe c0b1 0a3c 0cf1 5f3d
00000380: d431 88be a7d3 923d 3e80 103e 7206 82be
00000390: a4d5 6e3e 1b12 55be f43f 3d3e aa37 8abe
000003a0: 1b06 883e d347 74be ccdc 35be 7a0e 653b
000003b0: 00ae 01be c7c0 8a3e 0f6e a8bd b851 9ebe
000003c0: c0db f13d 0a35 303e 48d1 44be 1066 87be
000003d0: a4de f03b 0947 e7bc a9d2 59be b01a e0bd
000003e0: ea1d 3abc dba0 0bbe 3b19 4dbe e5d6 0c3e
000003f0: 43c2 733d 02db b33d baac 3dbe 6109 2dbe
-0.03989845 -0.25272548 0.002218776 -0.0013894319 -0.030485041 -0.26154193 0.19562739 -0.23701598
0.11626927 0.17172332 -0.067440495 -0.08554992 -0.1077439 -0.054974057 0.24604647 -0.05897438
0.13191865 0.054949593 0.15438618 0.0881525 -0.20655276 0.18694514 -0.09585706 -0.2244979
-0.107885845 -0.10299642 0.06924539 0.21899001 -0.18294488 -0.24426147 -0.07658037 0.2038864
-0.04552731 -0.04320054 0.0030871558 -0.16939291 0.1136413 -0.17144597 0.13185295 0.17607468
0.17323458 -0.14416863 -0.124046355 0.17614463 0.1922329 -0.17679402 0.05041099 -0.14674318
0.030272305 -0.13686854 -0.25359103 0.096215114 -0.11780033 0.07749901 -0.24569291 0.19971266
-0.25079575 0.21795468 0.19617495 -0.11538722 0.14770181 -0.15489021 -0.05481044 0.18332064
-0.10151407 0.16762124 -0.16906211 0.0883829 -0.029341059 0.20691939 0.16065809 -0.062083118
0.06885121 -0.0029129537 0.18868542 -0.2128305 -0.15085824 0.17188863 -0.26252237 0.015285821
-0.23736484 -0.1830998 0.15151067 -0.19888808 -0.1347234 -0.23881875 -0.22442678 -0.036237005
-0.05462594 0.17301196 -0.29272372 0.21299763 0.20330063 -0.12158107 -0.290047 0.02560888
0.21172324 -0.20893432 -0.17870627 -0.23057188 0.0371231 -0.16773272 -0.13267094 -0.122951746
-0.010962282 -0.07348632 -0.040642418 0.009272653 -0.2572778 -0.04733722 0.051870503 0.19300687
-0.26490209 0.18273461 -0.12523428 -0.17108352 0.1394418 -0.1896887 -0.18360865 0.25075454
-0.28560066 0.26382 -0.09947079 -0.046123255 0.0659932 -0.21167506 0.1993353 0.24265495
-0.14117262 0.14337401 0.14089623 -0.2058944 0.12558246 0.12505879 0.038549677 -0.09837706
-0.08276735 -0.11679216 -0.2408654 -0.17964663 0.01202221 -0.048357856 0.21594955 -0.16836318
-0.14031613 0.16668753 -0.05556958 0.23875678 -0.09604673 0.16407269 -0.17304495 0.21482334
0.11529916 -0.24167529 -0.1316446 -0.10238206 0.09463233 0.06472484 -0.056450535 -0.06423056
0.026773656 0.2543488 -0.29326275 -0.04754856 -0.15170693 0.12720576 0.13812974 0.09634027
-0.19236802 -0.058999434 -0.20321387 -0.15891407 0.05688472 -0.008825093 0.22128321 0.12830818
-0.1842174 -0.027672341 -0.112616 -0.028412513 0.14268003 0.16204882 0.08993704 -0.18058002
0.21876262 -0.18124992 0.23214751 -0.26419076 -0.19571014 -0.094972394 -0.046682373 0.1596735
0.072139904 0.09312166 -0.1758817 0.16964073 -0.05140581 -0.13155611 -0.010793685 -0.18220831
0.110664055 0.07543142 0.03053017 0.10800712 0.09284843 0.21854849 0.05969996 -0.066150196
-0.20366094 0.2413711 0.080199085 0.0058527817 0.27604678 -0.0059195193 -0.3011816 -0.28135115
-0.079771616 0.1331131 0.11219547 -0.19928437 -0.11689094 -0.22860688 0.00846523 0.05467324
-0.26600516 0.07169276 0.1411142 -0.25395542 0.23323685 -0.20807688 0.18481427 -0.26995593
0.26567158 -0.23855524 -0.17760009 0.0034951256 -0.12664032 0.27100202 -0.08224117 -0.3092172
0.11809492 0.17207733 -0.1922046 -0.26445055 0.0073507596 -0.028232114 -0.21271767 -0.1094259
-0.011359671 -0.1363558 -0.20029156 0.13753851 0.059511434 0.08782007 -0.18522921 -0.16898109

fc2.bias f4 [10]
00000000: 23cc afbd 1e97 9c3d 0a76 0a3e dad0 3f3d
00000010: 61fa 583d de70 ef3d 2d7c 253d a149 2cbd
00000020: d17f 86bd c63e 933d
-0.08583858 0.07646011 0.13521591 0.046830036 0.052973155 0.116914496 0.040401626 -0.042062405
-0.06567348 0.071897075

exp_avg f4 [50, 784]
00000000: 0000 0000 0000 0000 0000 0000 0000 0000
00000010: 0000 0000 0000 0000 0000 0000 0000 0000
00000020: 0000 0000 0000 0000 0000 0000 0000 0000
00000030: 450f 3c27 98e4 cd27 0000 0000 0000 0000
00000040: 0000 0000 0000 0000 0000 0000 0000 0000
00000050: 0000 0000 0000 0000 0000 0000 0000 0000
00000060: 0000 0000 0000 0000 0000 0000 0000 0000
00000070: 0000 0000 0000 0000 0000 0000 0000 0000
00000080: d2fc d632 a9e1 9d33 c6ea 862b 8f9c 412c
00000090: 5d19 1536 3b89 7637 403c 4e36 6250 3b36
000000a0: 8cd2 2437 5f7c 4737 9c97 d537 185d 1038
000000b0: ce20 c936 5d31 7c35 04e3 1935 63fb a830
000000c0: 7c74 a231 efa0 8931 de2c e230 f2f4 6b25
000000d0: 0000 0000 0000 0000 0000 0000 0000 0000
000000e0: 0000 0000 0000 0000 0000 0000 2203 9e22
000000f0: 315e 8632 3a1d 3c33 f22f a3b4 4038 38b3
00000100: a2a4 c736 53ee a137 975b ba36 8f76 cfb7
00000110: 1b1c 35b8 a5de f6b6 80a0 ee37 8cf6 71b7
00000120: 6645 a6b7 6dc4 3737 4d35 be37 0d8c b937
00000130: be07 2537 07f3 6d36 dd31 2237 3e00 c437
00000140: 45ab 6437 facd 6431 0000 0000 0000 0000
00000150: 0000 0000 0000 0000 1d88 80a3 34d5 5d34
00000160: 06d0 3434 39d9 a731 c7b8 72b4 a0c4 d634
00000170: 0ce1 b534 5b22 56b7 7b07 86b8 a3dc a9b8
00000180: 74b8 0c37 248d 1439 48e0 8339 54d6 5d39
00000190: a5e1 fa38 59fc a438 17e8 fa38 8466 f538
000001a0: 5c4b e837 d4d1 9b37 ff2b e637 4513 e737
000001b0: 93ae 8e37 bb28 8a31 0000 0000 0000 0000
000001c0: 0000 0000 0000 0000 af46 8f31 e7b7 4eb5
000001d0: 22f1 24b6 1077 85b6 d8f7 8034 6cc3 4037
000001e0: 1fcb dab7 f20b bcb8 101b 35b6 40be 88b6
000001f0: fa26 2239 ad68 af39 409e eb39 23c7 d039
00000200: 51b8 c939 5998 bc39 79af c539 d9a0 e638
00000210: 9cae 25b7 572e 89b8 366e c337 5074 b835
00000220: 17ef ce36 6e7a 1ab5 64b7 2333 ab00 8e23
00000230: 0000 0000 0000 0000 8af7 2b36 b2e4 dc36
00000240: cf6b 7bb6 d65e a8b7 0563 0537 42d6 4d37
00000250: 7c47 8bb8 20b4 95b8 a85a b1b5 d910 d2b8
00000260: 009e 0eb5 6b4f f8b8 7e13 b6b9 c24d 9eb9
00000270: dc46 ce38 31b4 8039 320c 9137 4812 87b9
00000280: 2f7a 90b8 08a4 d437 b8c5 aeb7 fd90 c6b7
00000290: 0046 b037 4407 4536 ba9e 0235 3352 8b29
000002a0: 0000 0000 d459 bf33 4d71 a4b6 e1b4 9bb7
000002b0: a529 8db7 6880 5fb8 b39d a8b8 d343 f8b8
000002c0: 0ae4 e7b8 88c7 a4b6 00fc 35b6 d023 73b7
000002d0: 9030 fab7 2c39 53b9 b6a1 59b9 9f95 5bb9
000002e0: 4092 ff37 d4b4 7239 5c3a 3c39 a4c0 9a38
000002f0: 7dfd 8c39 5bd4 da39 2d49 4039 f0de d735
00000300: 77ac 4c38 1c41 0137 92ec 86b7 420a 3f35
00000310: 5fc3 6c1c 6563 1fb6 799e 79b7 d199 42b8
00000320: 12bc 0db8 d7e1 96b8 74cf 94b8 c6eb f3b8
00000330: f535 2c39 bace bc38 278b 5239 bdc8 8939
00000340: f8b1 1838 e4a7 76b9 0032 4b38 ddc7 a339
00000350: 04d7 003a 9ef2 2b39 f4bc a639 5085 a138
00000360: 3c43 3839 9096 6039 50cc f8b7 b8e6 c4b8
00000370: 1633 9eb8 b999 84b6 e2a9 adb7 34f8 b835
00000380: 8e8a 701d fc80 5fb6 bfdc 1eb6 e4e4 ddb7
00000390: 0bbb 8ab8 7802 cdb8 c220 2fb9 cc70 8138
000003a0: 7fa2 a039 d839 bc38 0667 0139 9098 d138
000003b0: b0ad cab7 78aa 7038 a023 5bb7 dc60 4939
000003c0: 5740 fc39 7a8e 7e39 d6c7 8a39 7001 1db8
000003d0: 3cfb 30b9 704c fe37 10ff e637 4889 fab8
000003e0: 60df 7f35 22dc 0138 a52e 4837 574a 4a35
000003f0: 7681 4f9e 7ba6 f7b3 6f2e f5b5 e6d9 17b7
0.0 0.0 0.0 0.0 0.0 0.0 0.0 0.0
0.0 0.0 0.0 0.0 2.6098519e-15 5.714677e-15 0.0 0.0
0.0 0.0 0.0 0.0 0.0 0.0 0.0 0.0
0.0 0.0 0.0 0.0 0.0 0.0 0.0 0.0
2.5027848e-08 7.3519296e-08 9.586435e-13 2.7513857e-12 2.2217494e-06 1.4694694e-05 3.0731462e-06 2.791196e-06
9.8241835e-06 1.1890282e-05 2.5462177e-05 3.4418976e-05 5.9940858e-06 9.394915e-07 5.732729e-07 1.2295057e-09
4.7280633e-09 4.005521e-09 1.6456416e-09 2.0465992e-16 0.0 0.0 0.0 0.0
0.0 0.0 0.0 4.2829303e-18 1.5642486e-08 4.3798742e-08 -3.0396e-07 -4.2891998e-08
5.949828e-06 1.9303674e-05 5.5538944e-06 -2.4731531e-05 -4.3179938e-05 -7.3572905e-06 2.844655e-05 -1.4422123e-05
-1.9821058e-05 1.0953384e-05 2.2674585e-05 2.2118935e-05 9.836569e-06 3.5457213e-06 9.667562e-06 2.3365134e-05
1.3629736e-05 3.329545e-09 0.0 0.0 0.0 0.0 -1.3935434e-17 2.0659792e-07
1.6839485e-07 4.885035e-09 -2.2605228e-07 4.000367e-07 3.387762e-07 -1.2763393e-05 -6.391011e-05 -8.099645e-05
8.387597e-06 0.00014166959 0.0002515337 0.00021156046 0.000119629585 7.867133e-05 0.00011964159 0.000117016054
2.7691647e-05 1.8575149e-05 2.7438624e-05 2.7546319e-05 1.7009012e-05 4.020959e-09 0.0 0.0
0.0 0.0 4.1698835e-09 -7.7008593e-07 -2.4578262e-06 -3.9775696e-06 2.4022188e-07 1.1489592e-05
-2.608221e-05 -8.9667636e-05 -2.6986854e-06 -4.075264e-06 0.00015464044 0.0003345659 0.00044940598 0.0003982122
0.00038475034 0.00035971662 0.00037705505 0.00010997215 -9.875421e-06 -6.5413005e-05 2.3297132e-05 1.374292e-06
6.167112e-06 -5.754763e-07 3.8118188e-08 1.5395954e-17 0.0 0.0 2.5625072e-06 6.5831346e-06
-3.7464667e-06 -2.0071322e-05 7.9504725e-06 1.2268838e-05 -6.6413515e-05 -7.1384246e-05 -1.3213912e-06 -0.000100167184
-5.312904e-07 -0.00011840354 -0.00034728268 -0.00030194042 9.836044e-05 0.00024548316 1.7291026e-05 -0.00025762827
-6.8892135e-05 2.5348752e-05 -2.0834486e-05 -2.3670955e-05 2.1013431e-05 2.9359517e-06 4.865975e-07 6.187099e-14
0.0 8.91047e-08 -4.900771e-06 -1.8561668e-05 -1.6827902e-05 -5.328693e-05 -8.040238e-05 -0.00011838195
-0.00011057414 -4.9108094e-06 -2.7117785e-06 -1.4492267e-05 -2.9824936e-05 -0.00020143826 -0.00020754975 -0.00020941206
3.0466472e-05 0.00023146282 0.00017950818 7.379174e-05 0.00026891744 0.00041738417 0.00018337807 1.6083632e-06
4.879801e-05 7.704159e-06 -1.6084206e-05 7.116797e-07 7.833836e-22 -2.3750702e-06 -1.4878454e-05 -4.6396457e-05
-3.3792174e-05 -7.194623e-05 -7.095831e-05 -0.00011631059 0.00016423299 9.0030444e-05 0.00020078999 0.00026280238
3.640537e-05 -0.00023522932 4.8445538e-05 0.00031238692 0.00049148523 0.00016398213 0.00031802768 7.7019096e-05
0.00017572654 0.00021418394 -2.9659044e-05 -9.388983e-05 -7.5435426e-05 -3.9518022e-06 -2.0702315e-05 1.3781305e-06
3.1835367e-21 -3.3304668e-06 -2.3672326e-06 -2.6451838e-05 -6.615192e-05 -9.7756216e-05 -0.00016701504 6.1722094e-05
0.00030638647 8.975313e-05 0.00012340778 9.9943136e-05 -2.4161156e-05 5.737922e-05 -1.3061712e-05 0.00019204937
0.00048113122 0.00024276404 0.000264703 -3.7433056e-05 -0.0001687826 3.0314754e-05 2.753691e-05 -0.000119464996
9.5319956e-07 3.096101e-05 1.1931789e-05 7.535904e-07 -1.0985261e-20 -1.15321164e-07 -1.8267436e-06 -9.051035e-06

exp_avg_sq f4 [50, 784]
00000000: 0000 0000 0000 0000 0000 0000 0000 0000
00000010: 0000 0000 0000 0000 0000 0000 0000 0000
00000020: 0000 0000 0000 0000 0000 0000 0000 0000
00000030: 975e a32e 87d2 c32f 0000 0000 0000 0000
00000040: 0000 0000 0000 0000 0000 0000 0000 0000
00000050: 0000 0000 0000 0000 0000 0000 0000 0000
00000060: 0000 0000 0000 0000 0000 0000 0000 0000
00000070: 0000 0000 0000 0000 0000 0000 0000 0000
00000080: 0fc7 4427 393f d428 bc59 982f 2d28 9830
00000090: b35f 8b30 2128 a730 6c90 c830 8aa2 bf30
000000a0: a078 d030 dd31 9830 b9bf 1d31 7996 5e30
000000b0: 620f fa30 f4a2 1830 191d 942f 0d0e 5b2f
000000c0: 38b1 362f e894 d22f 2cdb ca2f 751b 2c2c
000000d0: 0000 0000 0000 0000 0000 0000 0000 0000
000000e0: 0000 0000 0000 0000 0000 0000 c802 042b
000000f0: 44b9 1a2e 3cc3 9f2c 149a a02f 9064 3931
00000100: 56d7 5031 a96d fb31 5d8e 5632 062b 8132
00000110: 7d81 a632 3ec3 e732 7cf7 da32 f128 b732
00000120: 699d a432 c666 7a32 398a 2332 661c 9231
00000130: d961 4931 1647 3231 25bf 0931 3159 d22f
00000140: cc51 f92e 514a 6b2d 0000 0000 0000 0000
00000150: 0000 0000 0000 0000 049b 0125 d9a8 ec2c
00000160: 369e 5f2f 3b8f ac30 e54f 1e31 6d6b 3e32
00000170: 84ea b832 1183 0b33 c465 3533 72df 5d33
00000180: 7457 9533 5c5e cb33 63e5 e433 a0f5 0534
00000190: 309e e433 7db1 9c33 6abb 7833 ba86 2033
000001a0: 32ab e232 4f89 9032 76c0 cc31 7273 3831
000001b0: 5f6f 9130 f584 a72d 0000 0000 0000 0000
000001c0: 0000 0000 0000 0000 96d5 332b a655 732d
000001d0: 296b 5930 cecc aa31 4395 2432 d5d3 1933
000001e0: 0343 8833 0093 d833 d5a6 1634 93c0 4234
000001f0: 6d35 7e34 d335 a934 75ea c534 68ac cf34
00000200: cc11 a734 2e84 8334 50e5 4234 bd9f 1434
00000210: 66b8 d933 3680 b033 eb47 4d33 4d39 be32
00000220: 3210 4a32 906c 8131 5cd1 bd2f 6704 482d
00000230: 0000 0000 0000 0000 a550 a72c 32fa 1e30
00000240: e864 b131 7abd 8932 405c 2333 ffd9 c533
00000250: 6da0 3a34 bb2d 8f34 4256 d834 47a3 0b35
00000260: 6e03 3935 c82d 7835 2671 9e35 7dc5 a635
00000270: ad90 7c35 2b04 3e35 5a53 0a35 1f2e c334
00000280: 63ad 8034 4145 3234 48d4 f933 373f 8b33
00000290: 065a e032 fd31 d331 c513 0930 0f78 4b2c
000002a0: 0000 0000 892a 292a 17b4 8a2e 0b27 6931
000002b0: 481b 6932 32e1 3133 7911 dd33 1778 6b34
000002c0: 3e4b b734 8043 1335 c5be 5635 fcae 8b35
000002d0: 239b af35 8c23 e035 5d99 0336 b0a6 ff35
000002e0: 71fb e335 ab2c c235 b610 9b35 22fb 5835
000002f0: 4433 1735 2f0a be34 6a13 8034 d2c7 0934
00000300: a892 5c33 caea 9132 c6d8 3831 8dcb 242f
00000310: ca24 c229 73f1 4b2f f0c0 d52f 68b6 b031
00000320: 6498 f332 26f4 a533 5c63 2d34 01cf b034
00000330: 86cc 1835 e089 7d35 2d7f 9e35 115e be35
00000340: 7821 dc35 f710 0436 4a81 1736 3701 1b36
00000350: e930 1636 0d30 0a36 2402 ed35 a814 b335
00000360: c1bf 6835 86f7 1035 cdaa af34 0f14 5a34
00000370: 4392 cb33 d364 3c33 c065 e031 d8a4 142f
00000380: 9a63 c82b 8227 732e 1bd4 2430 0d2a 1a32
00000390: d7be 3933 3571 e833 b0e8 7a34 b762 0635
000003a0: 939d 6435 1119 9935 dbf2 bd35 3e1f dd35
000003b0: ab66 fb35 a07d 0a36 2433 0b36 cc2c 0d36
000003c0: 2d2d 1a36 bd1c 1e36 93b9 1136 aac3 dc35
000003d0: 7331 9835 3ff4 4835 c34e eb34 75bd 8534
000003e0: 6071 1234 b8d4 6033 c4e6 ca31 4244 d62f
000003f0: 6020 952d cc73 a02e b4d2 dc30 b0d9 6932
0.0 0.0 0.0 0.0 0.0 0.0 0.0 0.0
0.0 0.0 0.0 0.0 7.4291844e-11 3.5619882e-10 0.0 0.0
0.0 0.0 0.0 0.0 0.0 0.0 0.0 0.0
0.0 0.0 0.0 0.0 0.0 0.0 0.0 0.0
2.7308374e-15 2.3564147e-14 2.77124e-10 1.1070874e-09 1.014078e-09 1.2162255e-09 1.4592962e-09 1.3943275e-09
1.5168276e-09 1.1073628e-09 2.2955489e-09 8.0976964e-10 1.8194266e-09 5.552885e-10 2.6941718e-10 1.9922926e-10
1.6615764e-10 3.8304582e-10 3.6899317e-10 2.4457912e-12 0.0 0.0 0.0 0.0
0.0 0.0 0.0 4.689968e-13 3.5180095e-11 4.540727e-12 2.921331e-10 2.6978206e-09
3.0390388e-09 7.3175284e-09 1.2488809e-08 1.5037141e-08 1.9383828e-08 2.6980725e-08 2.5491083e-08 2.1322622e-08
1.9163695e-08 1.4575283e-08 9.519277e-09 4.2523878e-09 2.930497e-09 2.5942817e-09 2.0044777e-09 3.8262152e-10
1.1337739e-10 1.3374705e-11 0.0 0.0 0.0 0.0 1.1241488e-16 6.7262693e-12
2.033794e-10 1.2555356e-09 2.303744e-09 1.1083881e-08 2.1527065e-08 3.2482664e-08 4.2234902e-08 5.1658795e-08
6.954261e-08 9.470088e-08 1.06588026e-07 1.2475948e-07 1.06458515e-07 7.296601e-08 5.791245e-08 3.7375436e-08
2.6387713e-08 1.6826247e-08 5.9590617e-09 2.6841147e-09 1.0581792e-09 1.9044747e-11 0.0 0.0
0.0 0.0 6.3889985e-13 1.38319686e-11 7.9096424e-10 4.9709348e-09 9.579995e-09 3.581575e-08
6.345183e-08 1.0085023e-07 1.4030532e-07 1.8137716e-07 2.367503e-07 3.1517865e-07 3.68647e-07 3.8682197e-07
3.1119123e-07 2.4496825e-07 1.8151081e-07 1.3841687e-07 1.0138392e-07 8.21896e-08 4.779569e-08 2.2144969e-08
1.176163e-08 3.7667363e-09 3.4527659e-10 1.1369661e-11 0.0 0.0 4.755379e-12 5.7835614e-10
5.1628497e-09 1.6035063e-08 3.8035296e-08 9.2131806e-08 1.7380962e-07 2.66691e-07 4.0295896e-07 5.2019135e-07
6.892286e-07 9.245382e-07 1.1804848e-06 1.242544e-06 9.4087846e-07 7.078658e-07 5.15303e-07 3.6355138e-07
2.3968013e-07 1.6602736e-07 1.163358e-07 6.4841906e-08 2.611797e-08 6.1465912e-09 4.9868404e-10 2.891468e-12
0.0 1.5024973e-13 6.307504e-11 3.3928156e-09 1.3568588e-08 4.1415838e-08 1.0294293e-07 2.1929769e-07
3.4141152e-07 5.485999e-07 7.999882e-07 1.0407234e-06 1.3083667e-06 1.6699646e-06 1.960979e-06 1.9047493e-06
1.6985997e-06 1.4467126e-06 1.1553263e-06 8.0831717e-07 5.6326485e-07 3.5397667e-07 2.3855983e-07 1.2831813e-07
5.1356125e-08 1.6986991e-08 2.6898745e-09 1.4988029e-10 8.6217126e-14 1.8548522e-10 3.8881565e-10 5.1430114e-09
2.8358222e-08 7.7278216e-08 1.6148027e-07 3.293317e-07 5.6922033e-07 9.445048e-07 1.180893e-06 1.418348e-06
1.6401018e-06 1.9679408e-06 2.257601e-06 2.3097507e-06 2.2380211e-06 2.0591572e-06 1.7658499e-06 1.3342551e-06
8.6705774e-07 5.4004374e-07 3.2720564e-07 2.031013e-07 9.479529e-08 4.386386e-08 6.5308257e-09 1.3519086e-10
1.42385e-12 5.5286893e-11 5.996427e-10 8.973541e-09 4.3247237e-08 1.0823934e-07 2.3367716e-07 5.006254e-07
8.516592e-07 1.1406684e-06 1.4152278e-06 1.6474876e-06 1.8730838e-06 2.0636726e-06 2.0742382e-06 2.1036712e-06
2.2974084e-06 2.3560563e-06 2.1714702e-06 1.6448223e-06 1.1339274e-06 7.486123e-07 4.3829468e-07 2.491103e-07
1.3638555e-07 5.234753e-08 5.9052088e-09 3.8974873e-10 1.6953716e-11 7.296527e-11 1.6066992e-09 1.3611881e-08

exp_avg f4 [50]
00000000: 5449 5839 1e1a 23bb 6df7 a7ae 384f df3a
00000010: cabd b93a fd6d 31ba bde9 6fba 81bf 15ba
00000020: 01df 27b9 675c 9839 fd02 e73a b7d4 d1ba
00000030: ee52 663a a4c6 a1ba 2e21 573b a6ad 36b9
00000040: 1c6d 883a 2edc b5b9 78b6 b3b9 74bb 90b9
00000050: 4c2b a9ba 8ba5 ae3a f0ed 131f f5ac d6b9
00000060: 18fa 7dba 57d3 2e3a 1591 92b9 a5e6 f7ba
00000070: a92a 9439 5763 61ba 6d21 713a 840b d7b9
00000080: 50ca 2a3a 357b fdba 2398 8bba 546c a0ba
00000090: 375e c6ba c037 4136 7c3e ee3a 06b2 9fb9
000000a0: 7151 973a 1cde 2bb9 d87d 30ba 7fc1 d63a
000000b0: 80f1 e1b7 acb8 bdb9 3299 2f3b 83f5 49ba
000000c0: 802a 34b9 23e5 1aba
0.00020626682 -0.0024887393 -7.6382324e-11 0.0017037159 0.0014170941 -0.00067684037 -0.0009151956 -0.0005712435
-0.00016009437 0.00029060544 0.0017624792 -0.0016008829 0.0008786161 -0.0012342525 0.0032826173 -0.00017421562
0.0010408494 -0.00034687057 -0.0003427749 -0.00027605484 -0.001290658 0.0013324482 3.1325278e-20 -0.00040946124
-0.0009688451 0.00066690653 -0.00027955385 -0.0018913342 0.00028260544 -0.00085978716 0.0009198401 -0.00041016575
0.0006515132 -0.0019339087 -0.0010650199 -0.0012239316 -0.0015134279 2.8791692e-06 0.0018176581 -0.0003045948
0.0011544657 -0.00016390573 -0.00067326194 0.0016384571 -2.6934547e-05 -0.0003618648 0.0026794192 -0.00077041256
-0.0001718197 -0.0005908778

exp_avg_sq f4 [50]
00000000: c7b4 ab36 0ff9 7b37 d33c 4635 1ebf 3037
00000010: 0951 1037 9436 2e37 30ca ca36 411b 2a37
00000020: f275 3437 86fa e836 866b 2737 c16c 7f37
00000030: aa6b 7837 4d69 1237 c283 5437 6c78 2237
00000040: c270 4d37 7c7a 1237 5956 1c37 d4c1 2837
00000050: 0bf3 2537 046c 7637 1dc0 8934 84e4 e536
00000060: 71ce 2a37 a49b 1637 5406 0337 b4ce 6037
00000070: 9521 3437 8745 4737 289e 2337 312e 4737
00000080: 0ded 6f37 6545 5b36 f4f7 2037 d6bb e336
00000090: 5cd3 2837 a7ec 3237 02cb 2637 d0a3 2c37
000000a0: 37b1 b636 2fb4 9d37 8207 b136 d8a3 0337
000000b0: 9c6e 4c37 f688 f336 7bd8 3237 3eff 2f37
000000c0: f45d 5a37 5856 6737
5.1172424e-06 1.5018754e-05 7.384926e-07 1.0534915e-05 8.601936e-06 1.0383916e-05 6.043607e-06 1.0139135e-05
1.0756297e-05 6.9433036e-06 9.97901e-06 1.5224506e-05 1.4807019e-05 8.726795e-06 1.2666862e-05 9.68399e-06
1.2245206e-05 8.730796e-06 9.318429e-06 1.0058709e-05 9.891354e-06 1.4687892e-05 2.565802e-07 6.8513345e-06
1.01808555e-05 8.976935e-06 7.809682e-06 1.3399567e-05 1.0736655e-05 1.1877512e-05 9.752381e-06 1.1872079e-05
1.4300703e-05 3.2673936e-06 9.594474e-06 6.786994e-06 1.0062791e-05 1.0664727e-05 9.9416375e-06 1.02901395e-05
5.444653e-06 1.8799763e-05 5.275885e-06 7.846356e-06 1.2185101e-05 7.2579087e-06 1.066003e-05 1.0490241e-05
1.3015688e-05 1.3788776e-05

exp_avg f4 [10, 50]
00000000: 3539 4b3c 60e5 8f3b 761c e02a 6864 9d3b
00000010: 82d6 583c c9dd 5b3c c0ce 613c 7676 463b
00000020: ba2a b83b 2c8a 373c aace 433c cef1 d73b
00000030: ea95 fd3b ae14 6f3c 04ac f33b 9f48 1f3c
00000040: 9a36 573c 3a9e bf3b 3c89 1a3c 5217 1c3c
00000050: 92ee 663b 18ff 103c 85ec 669d df29 ed3b
00000060: 0d30 da3b 562a 373c f42f 0e3c b6a6 263c
00000070: 3cdc 893b 804b 553c 8431 c63b 044d 1e3c
00000080: b4b1 f03a 1876 0a3a 60c5 1a38 0681 ee3b
00000090: 385e 823a a117 5b3b 62fa 003c 1c69 0a3c
000000a0: 937f 603c 0c5f bb3b 4980 ab3b 82eb 383c
000000b0: 3217 4a3c 9ca5 d73b ded8 e33b fba9 d53b
000000c0: 9a07 273c 0c95 f43b aca7 8b3a 168b 54bb
000000d0: 9d18 b72a 5116 33bb aaab 163a 6c9b f2bb
000000e0: 7ce2 5d3b 7274 a6bb e0f9 22bb 9c73 8c39
000000f0: c799 55bb 5ba3 bf3a 56ab 66bb 1340 94bb
00000100: 6fb1 0d3b 68f5 1dbb 8201 4f3b 0544 20bb
00000110: cf57 5bba 38a7 c7ba c040 11bc 4684 e13a
00000120: eb0d 3d1e 3d33 85bb 346e 47bb a078 d739
00000130: 5c0b 903a 026a 633a 5ebc 12ba 49c5 6ebb
00000140: 07f5 f33a f65d 273b 588d 07bb 905c 9539
00000150: ff25 1e3b c558 363a 5cca 083b 986b 6abb
00000160: fb0d 3cba ec53 75ba 149a 9a3b 04b7 6ebb
00000170: 4c32 07bb 28cf 503b 3ef7 f33a 2066 edba
00000180: 21f2 0dbb 7cad 983a 9a2a 803a d557 733a
00000190: 02e9 a4bb 0497 3cb9 d734 e62a 3f3a d9bb
000001a0: 2439 88bb c00a 6eb8 ac49 f3bb 1484 e2bb
000001b0: 3c8a 93b8 6025 bfbb 0436 d9bb d21e bbbb
000001c0: 6693 cbba 1c04 3dbc 5506 08bc 1842 05bc
000001d0: 79d7 32bc a2a0 2dbb 34d5 8039 9a64 3fbc
000001e0: 96b6 273b 5404 46bc f4f7 e09e a0ac c6bb
000001f0: 80d0 63bc 2ac7 d2bb 6d2d cebb 8fca 59bc
00000200: 4266 36bb 3785 19bc fd30 34bc 9452 e5bb
00000210: de6d 80bb 376e 92bb 7b64 33bc e7b3 4abb
00000220: 3c81 eebb 961d 04bb 0809 beba 9d06 54bb
00000230: de82 3ebc 32f5 ffba 0d8e 39bc b8df 10bc
00000240: b54d c4bb efd3 6fbc affb 1dbc b008 0ebc
00000250: 1309 e0ba 4d00 0fbc 2a64 803a 62c7 0cbc
00000260: bcc5 3dad 5d1b 7f3b 78ad 45bb 1a1a 8cbb
00000270: b4d4 d7bb c253 b8ba c7d2 2bbb ec61 97bb
00000280: e411 bcbb 389a 64bb 28e6 963a c662 21bc
00000290: 1ec7 053b 3435 3ebb 6ba2 c6bb 8a47 36bb
000002a0: 179f 9e39 435a c6bb 9a5f 5a3a 7e0c 503a
000002b0: 659f 4b9c d488 99bb 503e e9bb 2ed1 933a
000002c0: 1296 9cbb 152c 69bb 3631 7b3b 5e92 28bc
000002d0: 506b 7bba e727 14bb e47c 67bb 01d6 f038
000002e0: fae2 c6ba 3601 cc3a f9fc 95bb 2246 143b
000002f0: 07b9 8fba dae5 39bb 3886 beb9 e9c2 42bb
00000300: fe3f 87bb 380e 8e39 a401 a1ba ec8f 8f3a
00000310: 68e5 043a 24e2 4aba c737 4cbb 0e28 9b3a
00000320: 8fbf 2f3b 88aa 153a 5e7b ad2a cc61 78b9
00000330: f28c 3a3b 5496 953b 70f1 d2b9 0aac 643b
00000340: f114 c23a b4b5 9dba 9a3c b53a 9a9c 2b3b
00000350: 9b58 fd3a 6a2c c43a 0890 07ba a8a5 d43a
00000360: 84c2 a63a 96ca 783a 3ecf b6ba 5042 bb39
00000370: 8fe7 823a 80a4 1338 7fae 259b f744 1a3b
00000380: c0ac ba3a cb8d 103b 8ac3 4bbb 68be 67ba
00000390: 19fb 27ba 0f08 a53b 84eb d339 6861 91b9
000003a0: a0cc fcb9 7297 083b e5e4 043b a397 433b
000003b0: efc3 21ba 034f a73a b452 8dba 49bb d3ba
000003c0: b75b 4fbb 84fe 673b a783 3c3b 98da d839
000003d0: 00b2 56b9 ff1e 6e3b a0fe c73a 4ab2 823b
000003e0: 5fe9 403b 1840 3e3b 0d5c c8bb 401a f6b9
000003f0: 2d52 de2c badb 34bb c9ea e8ba 3e38 eebb
0.012403776 0.0043913573 3.9810142e-13 0.004803229 0.013234736 0.013419577 0.013782203 0.003028301
0.005620328 0.011202376 0.011951128 0.0065901047 0.0077388184 0.014592333 0.0074362773 0.009721904
0.013135577 0.0058477195 0.009432133 0.009527044 0.0035237414 0.008849882 -3.0562524e-21 0.0072376574
0.00665856 0.011179527 0.008678425 0.010171583 0.004207162 0.013018489 0.006048383 0.009661917
0.0018363507 0.00052818796 3.690028e-05 0.0072785644 0.0009946292 0.0033430832 0.007872196 0.008447912
0.013702291 0.0057181176 0.0052337986 0.011286618 0.012334632 0.0065810215 0.006953343 0.0065205074
0.010194683 0.007464057 0.0010654829 -0.0032431534 3.252441e-13 -0.0027326534 0.0005747626 -0.0074037816
0.003385692 -0.0050797993 -0.0024868175 0.00026789017 -0.003259288 0.0014620827 -0.003519734 -0.00452424
0.0021620651 -0.0024102572 0.0031586592 -0.0024454605 -0.00083672715 -0.001523233 -0.008865535 0.0017205558
1.0008455e-20 -0.004064946 -0.0030430676 0.00041097868 0.0010989713 0.0008675159 -0.0005597527 -0.003643351
0.0018612453 0.0025538183 -0.0020683613 0.0002848846 0.0024131534 0.0006955977 0.0020872569 -0.0035769697
-0.0007173714 -0.00093585136 0.0047180746 -0.0036425004 -0.0020629345 0.0031861756 0.0018613113 -0.0018112101
-0.0021659213 0.0011648382 0.0009778321 0.00092828023 -0.0050326595 -0.00017985335 4.0892872e-13 -0.006629258
-0.0041572023 -5.6753634e-05 -0.007424554 -0.0069127176 -7.0352544e-05 -0.005833313 -0.0066287536 -0.005710461
-0.0015531599 -0.011536624 -0.008302291 -0.008133434 -0.0109156305 -0.002649345 0.0002457291 -0.0116817
0.0025591007 -0.012085993 -2.3819474e-20 -0.006063059 -0.013904691 -0.0064324336 -0.0062920363 -0.013292923
-0.0027831946 -0.00937014 -0.010998008 -0.0069983695 -0.003919347 -0.004468705 -0.010949249 -0.0030929984
-0.0072785895 -0.0020159236 -0.0014498541 -0.0032352575 -0.011627881 -0.001952803 -0.011325371 -0.008842401
-0.0059907087 -0.014637931 -0.009642526 -0.008669063 -0.0017092548 -0.008728099 0.0009795476 -0.008592458
-1.0787312e-11 0.0038926222 -0.003016321 -0.0042755725 -0.0065866355 -0.0014063048 -0.0026218162 -0.0046198275
-0.0057394374 -0.003488196 0.0011512684 -0.00985021 0.0020412873 -0.002902341 -0.006061842 -0.0027813637
0.0003025464 -0.0060532405 0.0008330286 0.0007936432 -6.737308e-22 -0.0046855006 -0.007118024 0.001127755
-0.004778632 -0.0035579253 0.0038328893 -0.010288803 -0.0009590881 -0.0022606791 -0.0035322243 0.00011483953
-0.0015173845 0.0015564326 -0.004577276 0.002262481 -0.0010965177 -0.0028365762 -0.00036339625 -0.0029718226
-0.0041275015 0.00027094944 -0.0012283814 0.0010952926 0.00050695846 -0.0007739386 -0.0031161176 0.0011837499
0.0026817059 0.000570931 3.0816577e-13 -0.00023687555 0.0028465358 0.0045650396 -0.00040234206 0.0034892582
0.0014807266 -0.0012032301 0.0013827265 0.002618587 0.0019328775 0.001496685 -0.00051713036 0.0016223686
0.0012722765 0.0009490637 -0.0013947261 0.00035716826 0.0009987223 3.5200734e-05 -1.3704863e-22 0.0023539641
0.0014242157 0.0022057171 -0.0031091892 -0.00088403234 -0.0006407961 0.005036361 0.0004042053 -0.00027729128
-0.00048217643 0.0020842222 0.0020278033 0.0029845021 -0.0006170859 0.0012764636 -0.0010782094 -0.0016153838
-0.003164036 0.0035399506 0.0028764994 0.00041361596 -0.0002047494 0.0036334393 0.0015258379 0.003988539
0.0029435975 0.0029029902 -0.006114489 -0.00046940334 6.318743e-12 -0.0027596788 -0.0017770167 -0.007269888

exp_avg_sq f4 [10, 50]
00000000: 53b4 f138 f2ec 8e38 8099 4333 0955 6538
00000010: e20a 1939 bc68 f838 08bd c339 1760 6638
00000020: f8df 8238 405c 6939 914e fb38 5157 9a38
00000030: b9d2 9238 f310 8339 c13d 1439 42a1 e638
00000040: c325 a439 fff2 0439 348b 1a39 2d99 0639
00000050: 0752 7038 bba5 1b39 b9a7 ac32 0622 0139
00000060: 1b9e 2c39 acc9 1b39 5282 3839 5c75 8939
00000070: 27f4 8e38 e3c1 2039 adea 6539 a619 8639
00000080: 456c 3f38 b067 4b37 8f88 2a39 e8c7 3638
00000090: 7505 1139 02d5 5138 293e e438 8026 d738
000000a0: d2fd 193a c7c7 7738 90c0 c937 335e 7239
000000b0: 6696 9b39 b12b 7839 e2e6 8f38 3bb7 8638
000000c0: b807 be38 a3c5 c938 aace d237 2624 8138
000000d0: 6ef3 0835 ddc1 3338 e298 2238 3fda 4439
000000e0: b556 8b38 0fc7 7439 c8fb 9b38 d9b1 2f38
000000f0: 2941 1e39 c053 2238 4a74 fc37 1e5b 7439
00000100: c23c c937 fcf2 3239 8945 b538 04ad 8738
00000110: 4b78 b537 08c7 2c39 0ff9 8c39 dbb9 4138
00000120: 2997 4033 c60d e038 9bfb 8d39 4416 ab38
00000130: 6141 2138 f5f1 ac38 d14e 1e38 07ac 2639
00000140: 0ac4 0239 84e3 4f38 42dc ff37 cdbd 8336
00000150: a7e1 9538 c86e b937 1795 0b38 816b ea37
00000160: 135c a537 a030 a538 fcdb 1739 72f7 b838
00000170: fb73 8b38 0e29 5c38 d911 8138 b81f 8039
00000180: 8d0b 2e39 e3d7 0c38 4dbb aa37 4860 5d38
00000190: 2a35 3939 0d83 e138 c002 2c33 7b58 8f38
000001a0: 9888 5f39 31a7 5839 8570 a439 3c8d 6f39
000001b0: 3c27 3338 0da1 8839 59d0 ca39 6203 7b39
000001c0: a071 d438 4da7 2c3a 2477 c638 7e2d 8039
000001d0: 1f00 2d3a fced de38 abcb b338 fa95 0b3a
000001e0: b660 9438 b89e dd39 f127 1a34 035d 6d39
000001f0: fc71 123a dafd 5e39 8e2e ba39 7d00 ca39
00000200: a903 ba38 5ff3 083a ad74 123a 4caa 0c39
00000210: 04af 1139 f243 8c37 f847 8f39 e2c5 7c38
00000220: 950e f238 ff7a 9538 5c1e 8a38 5b27 6738
00000230: 3085 083a e956 2339 7537 3e39 d744 3d39
00000240: 296a 3d39 807e 2e3a e317 5139 8518 9039
00000250: f39f c538 f7bf 5c39 a77d cc38 28ff 9a39
00000260: 3939 9032 0924 7338 249e f538 002f 2639
00000270: 754d e339 aaa3 9539 b542 b138 b487 6239
00000280: e034 7c39 44b1 9739 a016 b238 607c 053a
00000290: 7e0a e438 3c44 053a 4108 123a 06c8 b639
000002a0: 6e9e b338 04a0 8639 0360 ac38 4ac9 4139
000002b0: 09f9 0831 2201 ac39 633d 603a c290 0d3a
000002c0: c59a 0039 1821 9639 4ee0 0239 9844 c639
000002d0: c3ea 543a dddb c139 3a7e d338 99cd b436
000002e0: a463 503a e59f 9a38 8692 cd39 0fdb 8638
000002f0: 178a a238 ce7a c138 8a0e 213a 7461 4039
00000300: a5ea 0839 a44b be39 8d7d 7939 292a 873a
00000310: 5ed9 3939 bca9 f038 f768 a238 d639 2239
00000320: 95f1 be39 6684 aa38 e909 8832 504c b138
00000330: 7d8d a539 2095 de39 0425 7739 ed26 0139
00000340: f289 3838 4370 af39 ccec 3239 cfdc 1639
00000350: c5b1 a439 6ee2 8739 9945 3f38 2ae3 0139
00000360: 2390 5939 7a05 3c39 957a 4239 b9c5 8e38
00000370: 58c2 0b39 66e8 9438 32cd 1131 2817 3c39
00000380: c77d ee38 90eb c439 1b8e 5739 befb 9b38
00000390: 134b a939 7815 3b39 bde2 af39 b325 a138
000003a0: 033d bc38 2511 6137 bb13 8f38 b9f4 8139
000003b0: c657 0c38 0f12 a039 2944 6a38 1953 1638
000003c0: c36f c639 d562 5339 019f 7937 6004 f638
000003d0: 625e 6339 92ed 9239 5f99 3c38 013a e538
000003e0: 0bce 3539 a7d7 0c39 2404 0939 fba5 9039
000003f0: 0426 aa32 2e58 0039 edc3 1539 a2c6 3e39
0.000115253635 6.815222e-05 4.5541583e-08 5.467705e-05 0.00014595271 0.0001184507 0.00037334138 5.4925764e-05
6.2406005e-05 0.00022254977 0.00011983247 7.359556e-05 7.001073e-05 0.00024998895 0.00014137385 0.00010997291
0.00031308652 0.00012679024 0.00014738442 0.00012836298 5.7296853e-05 0.00014843691 2.0099707e-08 0.00012315073
0.00016462097 0.0001485708 0.00017596156 0.00026218116 6.8165646e-05 0.00015331017 0.00021926565 0.0002557758
4.5638782e-05 1.21238845e-05 0.00016263335 4.357836e-05 0.0001383031 5.0027862e-05 0.000108834654 0.0001025917
0.0005874309 5.9075446e-05 2.4050736e-05 0.0002311401 0.0002967596 0.000236674 6.861777e-05 6.423747e-05
9.061344e-05 9.6212396e-05 2.5130186e-05 6.1579325e-05 5.1018185e-07 4.2857475e-05 3.8766193e-05 0.0001877332
6.644187e-05 0.00023343808 7.437874e-05 4.1888885e-05 0.00015092328 3.8701808e-05 3.0094892e-05 0.00023303597
2.398936e-05 0.00017065922 8.6437045e-05 6.469528e-05 2.1632897e-05 0.00016477343 0.00026888444 4.6187877e-05
4.4840963e-08 0.00010683718 0.00027081076 8.158063e-05 3.844628e-05 8.246667e-05 3.774354e-05 0.00015895079
0.00012470796 4.9564536e-05 3.0500934e-05 3.9262e-06 7.146905e-05 2.2105305e-05 3.3279033e-05 2.7945034e-05
1.9712408e-05 7.87687e-05 0.00014482433 8.819894e-05 6.6496395e-05 5.2490323e-05 6.154524e-05 0.00024437695
0.00016598236 3.357966e-05 2.0352798e-05 5.2780175e-05 0.0001766278 0.00010753246 4.0049372e-08 6.835252e-05
0.00021317822 0.00020661649 0.0003136435 0.0002284543 4.2713466e-05 0.00026059934 0.00038683673 0.00023938486
0.00010130112 0.0006586209 9.4635674e-05 0.00024447957 0.00065994443 0.00010630113 8.573321e-05 0.00053247774
7.075204e-05 0.0004227066 1.4356898e-07 0.00022636731 0.0005586443 0.00021266137 0.0003551137 0.00038528806
8.869853e-05 0.00052242534 0.0005586844 0.00013414881 0.00013893476 1.672094e-05 0.00027328706 6.0265775e-05
0.00011542175 7.1277835e-05 6.586008e-05 5.5111344e-05 0.0005207835 0.00015577268 0.00018140471 0.0001805009
0.00018063992 0.0006656423 0.00019940692 0.0002748409 9.423485e-05 0.00021052347 9.7508826e-05 0.00029563275
1.6789828e-08 5.7969275e-05 0.00011711966 0.00015848503 0.00043354524 0.00028541434 8.452443e-05 0.00021603593
0.0002405229 0.00028933038 8.491916e-05 0.00050920807 0.000108738415 0.0005083715 0.0005570688 0.00034862774
8.564895e-05 0.00025677693 8.219483e-05 0.000184809 1.9932165e-09 0.0003280724 0.0008554069 0.0005400294
0.00012264687 0.00028634886 0.00012481326 0.0003781661 0.00081221404 0.0003697564 0.000100847756 5.3883527e-06
0.0007949418 7.373075e-05 0.00039209815 6.430421e-05 7.750483e-05 9.225831e-05 0.0006143829 0.00018346851
0.00013057383 0.0003629598 0.00023793262 0.0010312247 0.0001772395 0.00011475707 7.744313e-05 0.0001547107
0.00036419617 8.130893e-05 1.583699e-08 8.454232e-05 0.0003157667 0.00042454246 0.00023569545 0.000123169
4.399749e-05 0.00033462243 0.00017063617 0.00014387372 0.00031412966 0.0002591791 4.5602766e-05 0.00012387024
0.00020748428 0.00017931117 0.00018546947 6.807916e-05 0.00013328472 7.1004775e-05 2.1216917e-09 0.00017937704
0.00011372152 0.0003755954 0.00020556936 7.4378666e-05 0.00032290127 0.00017841707 0.00033547534 7.6841e-05
8.975903e-05 1.3415037e-05 6.8224464e-05 0.0002478713 3.3460346e-05 0.00030531033 5.5853427e-05 3.5840178e-05
0.00037848772 0.00020159346 1.48785775e-05 0.00011731009 0.00021683567 0.00028024294 4.496553e-05 0.00010930375
0.00017338262 0.00013431777 0.0001306688 0.00027589485 1.9807892e-08 0.00012239881 0.00014282735 0.00018193809

exp_avg f4 [10]
00000000: 74cd 5d3b 0843 f5ba c08e 3ebb c898 65ba
00000010: 3fc3 833a 31fb abbb 6933 01ba d50d 1c3b
00000020: ece6 de3b dfb1 0ebb
0.0033844383 -0.0018711993 -0.0029076785 -0.0008758423 0.0010052695 -0.00524845 -0.000492862 0.0023811955
0.0068024304 -0.00217735

exp_avg_sq f4 [10]
00000000: 372c 4538 fa25 8838 a373 9538 5d10 a038
00000010: 5833 8538 8ce8 d138 a002 2838 a388 7938
00000020: ae91 dd38 f81a a338
4.700964e-05 6.492059e-05 7.126413e-05 7.6324424e-05 6.351498e-05 0.00010009212 4.0056766e-05 5.949348e-05
0.00010565236 7.777469e-05
